Pruned Models/EXTD/L1/EXTD30_L1.pth (torch, 721183 bytes, 134 tensors)

base.0.0.weight f4 [64, 3, 3, 3]
000000 00 00 00 00 00 00 00 00 00 00 00 00 00 00 00 00
       0.0 0.0 0.0 0.0
000010 00 00 00 00 00 00 00 00 00 00 00 80 00 00 00 00
       0.0 0.0 -0.0 0.0
000020 00 00 00 80 00 00 00 00 00 00 00 00 00 00 00 00
       -0.0 0.0 0.0 0.0
000030 00 00 00 00 00 00 00 00 00 00 00 00 00 00 00 00
       0.0 0.0 0.0 0.0
000040 00 00 00 00 00 00 00 00 00 00 00 00 00 00 00 00
       0.0 0.0 0.0 0.0
000050 00 00 00 00 00 00 00 00 00 00 00 00 00 00 00 00
       0.0 0.0 0.0 0.0
000060 00 00 00 00 00 00 00 00 00 00 00 00 59 fe 99 42
       0.0 0.0 0.0 76.99677
000070 68 1a 62 42 7b 83 35 42 79 55 aa 42 5e ed 72 42
       56.525787 45.3784 85.16694 60.731804
000080 8a e0 4d 42 57 6b a3 42 79 d6 66 42 50 74 49 42
       51.469276 81.70965 57.709446 50.363586
000090 52 4b 08 42 ee 51 64 41 a6 3d 1a 3d f4 e4 21 42
       34.073555 14.270002 0.03765645 40.473587
0000a0 68 a1 75 41 bc 09 de 3e bc 59 12 42 f6 28 20 41
       15.351906 0.43366802 36.58763 10.01
0000b0 40 1d 85 c0 fc 98 40 42 2a 8b d9 41 e2 db a0 41
       -4.1598206 48.1494 27.192951 20.107365
0000c0 9a 64 57 42 a3 0a d0 41 57 0b 92 41 43 f8 36 42
       53.848244 26.005194 18.255537 45.742443
0000d0 fc ad 96 41 27 91 4c 41 00 00 00 80 00 00 00 80
       18.834953 12.785438 -0.0 -0.0
0000e0 00 00 00 80 00 00 00 80 00 00 00 00 00 00 00 80
       -0.0 -0.0 0.0 -0.0
0000f0 00 00 00 80 00 00 00 00 00 00 00 00 00 00 00 80
       -0.0 0.0 0.0 -0.0
000100 00 00 00 00 00 00 00 80 00 00 00 80 00 00 00 00
       0.0 -0.0 -0.0 0.0
000110 00 00 00 00 00 00 00 80 00 00 00 00 00 00 00 00
       0.0 -0.0 0.0 0.0
000120 00 00 00 80 00 00 00 80 00 00 00 80 00 00 00 80
       -0.0 -0.0 -0.0 -0.0
000130 00 00 00 80 00 00 00 80 00 00 00 80 00 00 00 80
       -0.0 -0.0 -0.0 -0.0
000140 00 00 00 80 85 8d 08 41 15 09 40 41 b4 57 82 41
       -0.0 8.534551 12.002217 16.292824
000150 88 41 a8 41 ae 3e d5 41 19 20 00 42 64 8f ee 41
       21.031998 26.655605 32.031345 29.820015
000160 87 02 10 42 02 ea 1a 42 b4 3d 35 41 e2 e6 78 41
       36.00247 38.728523 11.327564 15.556368
000170 95 0f 99 41 af 3e b6 41 d7 79 e7 41 38 3b 09 42
       19.132608 22.780607 28.934492 34.30783
000180 27 d7 00 42 4c 3c 17 42 df e0 24 42 95 a3 25 41
       32.21011 37.808884 41.2196 10.352437
000190 00 7b 61 41 8e 81 92 41 7a 26 b5 41 83 28 e6 41
       14.092529 18.31326 22.643787 28.769781
0001a0 f5 21 06 42 71 1e fa 41 d2 f2 15 42 a8 e5 20 42
       33.53316 31.264864 37.48713 40.224274
0001b0 ce e0 bf 40 f4 aa bd 40 8c 47 c0 40 d9 11 ae 40
       5.996192 5.9271183 6.0087337 5.4396787
0001c0 74 9e ac 40 bc 32 b2 40 2c 3c 90 40 b0 24 83 40
       5.3943424 5.568693 4.507345 4.0982285
0001d0 3b ca 88 40 cc 1a 8f 40 32 24 8f 40 62 fb 93 40
       4.2746863 4.472021 4.4731684 4.6244364
0001e0 44 26 8b 40 a7 79 8c 40 1b f6 91 40 56 d7 75 40
       4.348421 4.38985 4.561292 3.841268
0001f0 54 69 65 40 3e d4 6e 40 5f fe 98 40 b9 cf 9b 40
       3.5845537 3.7317042 4.781051 4.869107
000200 53 32 a0 40 d2 6b 91 40 bb 3a 95 40 04 5a 9a 40
       5.006143 4.5444117 4.6634192 4.823488
000210 80 51 75 40 a4 de 69 40 64 60 7b 40 49 7e 1f c2
       3.8330994 3.654214 3.9277582 -39.873325
000220 02 48 34 c2 10 f8 50 c2 97 60 07 c2 9a 7a 28 c2
       -45.07032 -52.24225 -33.844326 -42.119728
000230 77 6a 62 c2 e7 47 45 c1 a8 f8 cf c1 39 a7 11 c2
       -56.60397 -12.330054 -25.996414 -36.413303
000240 11 7f 44 c2 93 85 57 c2 ea 40 6e c2 7b c5 19 c2
       -49.12409 -53.880444 -59.563393 -38.442852
000250 86 59 50 c2 42 1d 81 c2 3f a5 c1 c1 9a 76 18 c2
       -52.087425 -64.557144 -24.205687 -38.11582
000260 a5 4d 45 c2 28 c6 20 c2 ec 01 2e c2 d3 ec 46 c2
       -49.325825 -40.193512 -43.501877 -49.731274
000270 db e5 f6 c1 d5 ab 25 c2 76 1b 58 c2 6d 71 8a c1
       -30.862234 -41.417805 -54.026817 -17.305384
000280 b4 63 f4 c1 d6 0d 2a c2 00 00 00 80 00 00 00 00
       -30.548683 -42.51351 -0.0 0.0
000290 00 00 00 80 00 00 00 80 00 00 00 00 00 00 00 80
       -0.0 -0.0 0.0 -0.0
0002a0 00 00 00 80 00 00 00 80 00 00 00 80 00 00 00 80
       -0.0 -0.0 -0.0 -0.0
0002b0 00 00 00 00 00 00 00 00 00 00 00 80 00 00 00 00
       0.0 0.0 -0.0 0.0
0002c0 00 00 00 00 00 00 00 00 00 00 00 00 00 00 00 00
       0.0 0.0 0.0 0.0
0002d0 00 00 00 80 00 00 00 80 00 00 00 80 00 00 00 80
       -0.0 -0.0 -0.0 -0.0
0002e0 00 00 00 80 00 00 00 80 00 00 00 80 00 00 00 80
       -0.0 -0.0 -0.0 -0.0
0002f0 00 00 00 80 7d 94 98 42 4b d6 99 42 93 4b 90 42
       -0.0 76.290016 76.91854 72.147606
000300 ce 05 f0 42 15 0a d0 42 32 3a a1 42 c9 ed c7 42
       120.01134 104.01969 80.61366 99.964424
000310 eb 95 9c 42 bc bf 6a 42 28 0b f7 41 85 55 e8 41
       78.29281 58.68724 30.880447 29.041758
000320 21 d2 d0 41 92 bc 9f 42 d5 78 73 42 a7 3a 1e 42
       26.102602 79.8683 60.868 39.557278
000330 43 94 65 42 52 22 16 42 7e 6c 72 41 ba c5 24 42
       57.394787 37.533516 15.151487 41.193092
000340 5e 7d 30 42 c7 0a 14 42 1a f3 a6 42 7f bf 8f 42
       44.12243 37.010525 83.47481 71.874016
000350 ec de 3a 42 e9 21 82 42 df c9 3b 42 49 ab b3 41
       46.717697 65.06623 46.94714 22.458635
000360 00 00 00 80 00 00 00 00 00 00 00 00 00 00 00 80
       -0.0 0.0 0.0 -0.0
000370 00 00 00 00 00 00 00 00 00 00 00 80 00 00 00 00
       0.0 0.0 -0.0 0.0
000380 00 00 00 00 00 00 00 80 00 00 00 80 00 00 00 80
       0.0 -0.0 -0.0 -0.0
000390 00 00 00 80 00 00 00 80 00 00 00 80 00 00 00 80
       -0.0 -0.0 -0.0 -0.0
0003a0 00 00 00 80 00 00 00 80 00 00 00 80 00 00 00 80
       -0.0 -0.0 -0.0 -0.0
0003b0 00 00 00 80 00 00 00 80 00 00 00 80 00 00 00 80
       -0.0 -0.0 -0.0 -0.0
0003c0 00 00 00 80 00 00 00 80 00 00 00 80 96 ab 8d 41
       -0.0 -0.0 -0.0 17.708782
0003d0 58 30 c0 41 ae 43 ce 41 a9 62 78 41 d0 5d b1 41
       24.023605 25.783047 15.524087 22.170807
0003e0 af 9a bf 41 66 4d 39 41 e7 3e 93 41 18 f7 a4 41
       23.95053 11.581396 18.405714 20.620651
0003f0 2c 1b 1b 41 fc 07 82 41 fd 5f 9a 41 4d 35 01 41
       9.694134 16.253899 19.29687 8.075513

base.0.1.weight f4 [64]
000000 bd 26 60 bb ed 4a 3f 3c 4b d4 86 3b f8 a9 5c 3e
       -0.0034202777 0.011675579 0.0041146628 0.21549213
000010 2e a5 56 be 91 32 95 3e 8a 6f 14 bc 80 f0 06 3e
       -0.20961449 0.29140142 -0.009059796 0.13177681
000020 c2 dd a5 ba 6d 61 41 be 7f 63 d8 bd 3d 01 65 3f
       -0.001265459 -0.18884821 -0.105658524 0.89455014
000030 0a 25 ae 3c 1c 14 7e 3c 5a 49 50 3f 30 bb 94 3d
       0.021257896 0.015507724 0.81361926 0.07262266
000040 e5 99 80 3f 6b 55 f6 ba 1f 66 80 3d 8e be 52 be
       1.0046965 -0.0018793767 0.06269478 -0.20580503
000050 b4 56 5b 3b 28 f3 13 3e fc fc a5 bd 23 78 a4 3a
       0.0033468427 0.14448225 -0.081048936 0.001254801
000060 c9 b5 55 3e 15 01 f3 3d 0b 60 11 b9 09 0e e7 3e
       0.20870127 0.11865441 -0.00013864056 0.45127895
000070 d2 1b 55 3d 84 be 82 3e 24 e0 a5 bb e0 67 96 3e
       0.052028485 0.25535977 -0.00506212 0.29376125
000080 e3 96 7d 3d b1 9d d2 3b 4e 73 fa bc 28 b3 6f bc
       0.061911475 0.0064274897 -0.03057256 -0.0146301165
000090 ba aa 20 be a3 d1 83 bb 31 41 2a 3f f7 ad 24 3d
       -0.15690127 -0.0040227934 0.66505724 0.04020497
0000a0 7a 6d 3f 3f da 6e 84 3d 8c 06 6c 3f 4b 5b 55 3e
       0.7477642 0.06466456 0.9219749 0.20835607
0000b0 c9 08 96 be 55 39 5a 3e 94 9d 53 3e 8a 6f 32 3b
       -0.29303578 0.21310933 0.2066558 0.0027227127
0000c0 97 5b c6 3e a8 3d 12 3e 5b 33 8e 3a d9 a0 fd be
       0.38741753 0.14281332 0.0010849045 -0.4953678
0000d0 3f 09 c4 3d 63 b6 5f 3e ed 67 da 3e 39 61 a4 3b
       0.09572076 0.21846919 0.42657414 0.0050164727
0000e0 8c f1 33 3f bd 7c 12 3b 95 54 83 3e 40 f7 9b 3c
       0.70290446 0.0022352182 0.25650468 0.019038796
0000f0 36 28 2f 3c 14 57 8f 3e af 1a 8d 3d 8f 4f b9 3e
       0.010690739 0.27996123 0.06889855 0.3619351

base.0.1.bias f4 [64]
000000 64 06 33 bd ef 20 dc bd 97 be 3f bd 18 c0 55 3f
       -0.043707266 -0.10748469 -0.04681262 0.83496237
000010 46 54 82 bd 76 d9 2a be 60 84 b1 bc fb ce de bd
       -0.0636373 -0.16684517 -0.021669567 -0.10879322
000020 d6 f3 4a bd e6 3b cc bd 87 3c ef bd e4 1c 46 be
       -0.049548946 -0.09972362 -0.116814665 -0.19346958
000030 5c 98 1a bd 23 a5 a9 bd 29 0b cf 3e 24 d1 74 bd
       -0.037742957 -0.082834505 0.40438202 -0.059769765
000040 7f 89 b8 3d 29 78 95 bd cb 54 5a 3b cc 53 82 bd
       0.090106 -0.07298309 0.00333147 -0.06363639
000050 42 f7 82 bd d8 d4 3e be 66 d7 98 3d ca 13 0c bc
       -0.06394817 -0.18635881 0.07462959 -0.00854964
000060 b8 0e 14 bd 5a 69 1f be c9 41 58 bd e2 e6 4b be
       -0.03614685 -0.15567532 -0.052797113 -0.19912294
000070 ac a9 5d bd 34 51 e8 3c 29 d8 10 bd d1 5f 9c bd
       -0.05411689 0.028359033 -0.035362396 -0.07635463
000080 b3 61 a9 bd 72 c0 27 be cc f2 75 bd 0f c2 48 bd
       -0.08270588 -0.16382006 -0.060046002 -0.049013194
000090 6b 0d e8 bd cb 4e e8 bc e0 7e 0d 3d b0 d5 a3 bd
       -0.11330684 -0.028357884 0.034544826 -0.07999742
0000a0 29 84 7b be 89 6e 8c bd f4 56 9b 3e db 70 21 be
       -0.24562134 -0.068570204 0.30339777 -0.15765707
0000b0 c3 54 e5 be a0 f1 5a be a3 f3 a7 bd 4d 09 0d bd
       -0.4479123 -0.21381235 -0.08200767 -0.034432698
0000c0 37 3b f5 bd b3 39 28 be 02 31 e0 bb 0c 00 6c 3d
       -0.11974185 -0.1642826 -0.0068417797 0.057617232
0000d0 35 34 eb bd bd b1 2e bf 8d ef 98 bd 5d 17 6b bd
       -0.11484567 -0.6823996 -0.07467566 -0.057395328
0000e0 0c e7 3a 3b 54 e8 50 bd a3 48 ce bd 90 7b 6d bd
       0.0028519062 -0.051002815 -0.10072448 -0.057979167
0000f0 17 9e 3e bd 8b 00 90 3d 94 c1 21 be 73 a8 81 be
       -0.046537485 0.070313536 -0.157965 -0.2532383

base.0.1.running_mean f4 [64]
000000 04 00 00 80 16 c6 39 c6 04 00 00 00 2b fc de c5
       -6e-45 -11889.521 6e-45 -7135.521
000010 26 d6 a6 c4 8a 84 36 46 04 00 00 00 74 e9 8f c6
       -1334.6921 11681.135 6e-45 -18420.727
000020 04 00 00 00 ec 3e 90 c5 5e cc da 44 11 64 43 47
       6e-45 -4615.865 1750.3865 50020.066
000030 04 00 00 80 48 a6 a1 c6 85 7a f7 c4 95 a3 59 45
       -6e-45 -20691.14 -1979.8287 3482.2239
000040 d0 fa 44 46 04 00 00 80 24 a5 03 47 6b 6f 4b c5
       12606.703 -6e-45 33701.14 -3254.9636
000050 04 00 00 00 86 72 6c c5 de ae 91 c4 04 00 00 80
       6e-45 -3783.1577 -1165.4646 -6e-45
000060 9f 2d f2 44 0e 93 37 c7 04 00 00 00 f4 63 10 45
       1937.4257 -46995.055 6e-45 2310.247
000070 7a fe 23 45 cb fa 18 43 04 00 00 80 55 5c 3a c7
       2623.9048 152.97966 -6e-45 -47708.332
000080 df 0d c2 c6 04 00 00 00 f7 58 1c 45 04 00 00 00
       -24838.936 6e-45 2501.5603 6e-45
000090 a3 37 27 46 04 00 00 00 27 83 80 c6 1d 30 45 c6
       10701.909 6e-45 -16449.576 -12620.028
0000a0 41 80 1b 47 49 de 07 c5 05 c8 36 44 39 83 22 45
       39808.254 -2173.8928 731.1253 2600.2014
0000b0 e8 b7 a4 44 04 fd 9d c7 7c 76 81 c5 04 00 00 80
       1317.7471 -80890.03 -4142.8105 -6e-45
0000c0 6e 00 99 45 60 37 0e 47 04 00 00 00 a8 99 e9 45
       4896.0537 36407.375 6e-45 7475.207
0000d0 21 3e 24 c6 09 cb 43 46 f7 9f 87 44 04 00 00 00
       -10511.532 12530.759 1084.9989 6e-45
0000e0 74 c2 3c 45 04 00 00 00 8f d8 76 45 04 00 00 00
       3020.1533 6e-45 3949.535 6e-45
0000f0 04 00 00 80 7a c7 9e 46 16 bf 04 c6 05 17 ee c5
       -6e-45 20323.738 -8495.771 -7618.8774

base.0.1.running_var f4 [64]
000000 04 00 00 00 cd e9 51 4f 04 00 00 00 b9 09 d3 4e
       6e-45 3.5217605e+09 6e-45 1.7703149e+09
000010 ad 4d 57 4c 92 94 87 4f 04 00 00 00 0a 43 0a 50
       5.64405e+07 4.5493217e+09 6e-45 9.278597e+09
000020 04 00 00 00 2f c6 e8 4d 03 96 8b 4c f8 54 df 51
       6e-45 4.8816278e+08 7.3183256e+07 1.19900406e+11
000030 04 00 00 00 eb a1 10 50 49 0b 81 4c fb c8 e6 4d
       6e-45 9.706122e+09 6.7656264e+07 4.839914e+08
000040 a4 b2 d3 4f 04 00 00 00 9d 72 10 51 63 b5 f0 4d
       7.1034e+09 6e-45 3.8774886e+10 5.048024e+08
000050 04 00 00 00 0d 91 c5 4d 76 e8 51 4c 04 00 00 00
       6e-45 4.143272e+08 5.5026136e+07 6e-45
000060 ae 59 c0 4c 21 26 42 51 04 00 00 00 c0 34 21 4d
       1.0084696e+08 5.211646e+10 6e-45 1.690368e+08
000070 7e 35 50 4d fa 0f 27 4b 04 00 00 00 5b ab 77 51
       2.1832291e+08 1.0948602e+07 6e-45 6.6483237e+10
000080 8f 2f 8c 50 04 00 00 00 5f ec 31 4d 04 00 00 00
       1.8815416e+10 6e-45 1.8656613e+08 6e-45
000090 71 e5 7a 4f 04 00 00 00 68 3f 61 4f 43 ca a6 4f
       4.2093407e+09 6e-45 3.779029e+09 5.5965466e+09
0000a0 60 27 ad 50 43 7a 2e 4d 10 08 a1 4b 73 80 6e 4d
       2.324031e+10 1.8295301e+08 2.110672e+07 2.5008722e+08
0000b0 93 15 2d 4d 1b 9e 59 52 6d 54 a9 4d 04 00 00 00
       1.8149202e+08 2.3366512e+11 3.551103e+08 6e-45
0000c0 7e 8a 46 4e fd 33 05 51 04 00 00 00 8a fe e4 4e
       8.3274125e+08 3.575643e+10 6e-45 1.9209434e+09
0000d0 e7 5d 53 4f a1 b2 aa 4f ac f2 4b 4b 04 00 00 00
       3.5461466e+09 5.7276667e+09 1.3365932e+07 6e-45
0000e0 8f 86 3b 4d 04 00 00 00 a5 90 c7 4d 04 00 00 00
       1.9663486e+08 6e-45 4.1851818e+08 6e-45
0000f0 04 00 00 00 40 b6 db 4f 94 4c 1a 4f f8 bf ea 4e
       6e-45 7.3723085e+09 2.58871e+09 1.9692247e+09

base.1.conv.0.weight f4 [64, 1, 3, 3]
000000 00 00 00 80 00 00 00 80 00 00 00 80 00 00 00 80
       -0.0 -0.0 -0.0 -0.0
000010 00 00 00 80 00 00 00 80 00 00 00 80 00 00 00 80
       -0.0 -0.0 -0.0 -0.0
000020 00 00 00 00 3d 94 a4 3d ae 31 c7 3c 42 d0 7c 3c
       0.0 0.08036087 0.024315681 0.015430512
000030 c7 16 3b 3d ac ca 00 bd ec e3 d4 3c d2 72 db 3c
       0.04567602 -0.031443283 0.025987588 0.026788149
000040 9c f3 99 bb 2e 9f f8 3c 00 00 00 80 00 00 00 00
       -0.00469823 0.03034934 -0.0 0.0
000050 00 00 00 00 00 00 00 80 00 00 00 80 00 00 00 80
       0.0 -0.0 -0.0 -0.0
000060 00 00 00 80 00 00 00 80 00 00 00 80 7e f8 31 be
       -0.0 -0.0 -0.0 -0.17379948
000070 29 f1 19 3f 3c 0d 84 bd 20 4b 7b 3e 75 ef f1 3e
       0.60133606 -0.06447837 0.24540377 0.47253004
000080 fb 3b a6 3e ba c8 bc bc de bb 97 bf de 8c 62 be
       0.32467636 -0.023044933 -1.1854208 -0.22124049
000090 30 24 08 3d b6 7a 60 3d 51 a7 8f 3d e7 4c 81 3c
       0.033237636 0.054804526 0.07014335 0.01578374
0000a0 bb ca 7c bc c6 07 23 bd ff 7f 7c 3d 93 2c ac 3c
       -0.015429194 -0.039802335 0.061645504 0.021017348
0000b0 94 d2 46 3d fe c7 4c 3e be f5 3e 3f 7b 0e a9 3e
       0.048540667 0.19998166 0.7459372 0.3301886
0000c0 78 10 51 bd c4 03 d6 bd 70 bc 8f 3d 4e ae 22 be
       -0.051041096 -0.10449937 0.070183635 -0.15886804
0000d0 c1 03 4e bf 8b 72 5c be 00 00 00 00 00 00 00 00
       -0.8047448 -0.2152807 0.0 0.0
0000e0 00 00 00 00 00 00 00 00 00 00 00 00 00 00 00 00
       0.0 0.0 0.0 0.0
0000f0 00 00 00 00 00 00 00 00 00 00 00 00 f4 ae 62 bd
       0.0 0.0 0.0 -0.05534263
000100 4b 6e 63 bd b6 4c 29 bd ba 69 93 bb bf 91 97 38
       -0.055525105 -0.041332923 -0.0044986876 7.2273884e-05
000110 c7 94 9a 3c 35 43 0d 3d 5a f3 7a 3d a8 aa 05 3d
       0.01886977 0.03448792 0.061267234 0.032633454
000120 00 00 00 80 00 00 00 80 00 00 00 80 00 00 00 00
       -0.0 -0.0 -0.0 0.0
000130 00 00 00 00 00 00 00 00 00 00 00 00 00 00 00 00
       0.0 0.0 0.0 0.0
000140 00 00 00 00 5e ee 24 3d 66 8b 85 bd cd ac 28 bd
       0.0 0.040266387 -0.06520729 -0.04118042
000150 9f b1 ca bd f1 e6 16 be 0b 09 f0 bd de 91 fd 3d
       -0.0989716 -0.14736535 -0.11720475 0.123813376
000160 b8 de e3 bc 64 c9 48 3d 7e 41 5c 3d 94 04 c4 3a
       -0.027816162 0.049020186 0.053773396 0.0014954978
000170 4e f5 a3 3b 2a 3f 92 bc 62 98 a7 bc 3f 31 44 3c
       0.005003608 -0.017852385 -0.020458404 0.011974632
000180 0c 62 01 bd ef 26 67 3c 86 36 ac 3d f9 98 16 3e
       -0.031587645 0.014108404 0.08408837 0.14706792
000190 d1 bf e2 3d 89 d2 51 3d 07 d6 96 3e 77 a4 03 bf
       0.11071742 0.051226173 0.29460165 -0.5142283
0001a0 cb b2 2a 3e 1f 32 f3 3d f1 aa 10 bf d5 47 78 3d
       0.16669767 0.11874794 -0.56510836 0.06061538
0001b0 00 00 00 00 00 00 00 00 00 00 00 00 00 00 00 00
       0.0 0.0 0.0 0.0
0001c0 00 00 00 00 00 00 00 00 00 00 00 00 00 00 00 00
       0.0 0.0 0.0 0.0
0001d0 00 00 00 80 79 e4 3d bc 0f a4 ac bb b1 0a 95 bc
       -0.0 -0.011590117 -0.0052685807 -0.018193575
0001e0 df fa 96 3b b1 f2 e0 3c 21 84 18 3b 90 8f 93 bb
       0.004607543 0.027459474 0.0023272114 -0.004503198
0001f0 ab aa 97 bb 53 b8 d3 bc 81 fe 8a 3d b1 0e db 3d
       -0.0046284995 -0.025844729 0.06786824 0.106961615
000200 45 c3 b0 bc 69 b6 32 3d 4f 24 0c bf 01 43 17 3e
       -0.021577487 0.04363099 -0.547429 0.14771654
000210 69 b2 9a 3d 63 26 fb 3d a2 de 12 3e 7a f2 11 3d
       0.0755356 0.12263181 0.1434274 0.035631634
000220 aa 48 87 3c 27 36 66 bc cd 68 12 bc 1b e8 b2 bc
       0.016514141 -0.014050997 -0.008936119 -0.021839192
000230 4f 8d 55 bd 50 29 06 bd 7c 01 1a bd 80 fb 61 bd
       -0.052136716 -0.032754242 -0.03759907 -0.05517149
000240 99 e6 20 3d 65 be d0 3c 02 a4 2d bd 0b e7 18 3d
       0.039282415 0.025481412 -0.04239274 0.037329715
000250 d8 dc 5f bf 87 55 ac 3d d1 22 66 be f6 60 fd 3e
       -0.87446356 0.084147505 -0.22474219 0.49488038
000260 42 8e 0f bc 00 00 00 80 00 00 00 80 00 00 00 80
       -0.008761944 -0.0 -0.0 -0.0
000270 00 00 00 80 00 00 00 80 00 00 00 80 00 00 00 80
       -0.0 -0.0 -0.0 -0.0
000280 00 00 00 80 00 00 00 80 b8 75 1f bd e5 e9 5c bd
       -0.0 -0.0 -0.038930625 -0.053933997
000290 23 1c c8 bb ca 33 81 bd 0c de 7d 3e 56 8c 41 bd
       -0.00610687 -0.06308706 0.24791735 -0.047252975
0002a0 21 8b ba bd c9 74 c7 3d f3 69 00 bd ce 3e 2c bb
       -0.09108568 0.09739072 -0.03135104 -0.0026282552
0002b0 62 15 d1 bc f5 f6 88 3b 76 64 00 bd eb bd 7e bc
       -0.025522891 0.00417983 -0.031345807 -0.01554821
0002c0 81 27 83 bb 92 d3 23 bd ab ce ce bc 1c f5 07 bd
       -0.004002512 -0.03999669 -0.025245031 -0.03319274
0002d0 00 00 00 00 00 00 00 80 00 00 00 80 00 00 00 00
       0.0 -0.0 -0.0 0.0
0002e0 00 00 00 00 00 00 00 00 00 00 00 00 00 00 00 00
       0.0 0.0 0.0 0.0
0002f0 00 00 00 00 6e 2a 76 3d 23 f5 0c 3d a0 03 dc 3b
       0.0 0.060099058 0.034413468 0.0067142993
000300 51 e2 9b 3b 9c 01 00 be 02 c5 3e bd 95 ab 83 3d
       0.0047572036 -0.12500614 -0.0465746 0.06429211
000310 78 fd 92 be e4 1f a9 3b d0 a1 46 bd 36 f4 78 3b
       -0.28709006 0.0051612724 -0.04849416 0.0037987358
000320 59 ce 00 3e 53 7c 57 be 0e 73 37 be 36 3f 8d 3e
       0.12578715 -0.2104352 -0.17914984 0.2758729
000330 73 a4 77 be d4 a6 c5 bd 4b 22 af 3e 00 00 00 80
       -0.24183826 -0.096509606 0.3420585 -0.0
000340 00 00 00 00 00 00 00 00 00 00 00 80 00 00 00 80
       0.0 0.0 -0.0 -0.0
000350 00 00 00 80 00 00 00 00 00 00 00 80 00 00 00 80
       -0.0 0.0 -0.0 -0.0
000360 00 00 00 00 00 00 00 00 00 00 00 00 00 00 00 80
       0.0 0.0 0.0 -0.0
000370 00 00 00 00 00 00 00 00 00 00 00 80 00 00 00 00
       0.0 0.0 -0.0 0.0
000380 00 00 00 00 f2 d2 b6 3c 93 bc 0b 3e 7c 02 d5 bc
       0.0 0.022317383 0.13646154 -0.026002161
000390 64 1c 14 3e 0d bb 1c bd e6 41 17 3e b1 33 d5 bd
       0.14463955 -0.038264323 0.14771232 -0.1041025
0003a0 d3 1f e9 3d f5 24 a4 bd 00 00 00 00 00 00 00 80
       0.11383023 -0.080148615 0.0 -0.0
0003b0 00 00 00 80 00 00 00 00 00 00 00 00 00 00 00 00
       -0.0 0.0 0.0 0.0
0003c0 00 00 00 00 00 00 00 80 00 00 00 00 2a f8 92 3e
       0.0 -0.0 0.0 0.2870496
0003d0 ed d2 7b be 45 36 7b 3c fc f8 10 be f2 7b 32 3f
       -0.2459218 0.015332763 -0.1415748 0.69720376
0003e0 29 93 f6 bd e4 b0 ff bc cb 2c af bd 86 44 84 be
       -0.12039787 -0.031212278 -0.085534655 -0.2583353
0003f0 00 00 00 80 00 00 00 80 00 00 00 80 00 00 00 80
       -0.0 -0.0 -0.0 -0.0

base.1.conv.0.bias f4 [64]
000000 00 00 00 80 eb 26 27 b5 00 00 00 80 49 48 49 3b
       -0.0 -6.226898e-07 -0.0 0.0030713251
000010 ef 3b 4a bb 95 e4 46 3c 00 00 00 80 76 ac 15 3c
       -0.0030858477 0.012139459 -0.0 0.009135356
000020 00 00 00 00 df 13 1c b5 6a 52 e7 ba 9a 52 5c 3c
       0.0 -5.8143445e-07 -0.0017648463 0.013447428
000030 00 00 00 00 7a eb db 3a 2a a4 b8 b3 9b d7 a2 34
       0.0 0.0016778552 -8.598029e-08 3.0331725e-07
000040 4d 5d e7 3c 00 00 00 00 77 67 6c bb 48 cc d8 bb
       0.028242731 0.0 -0.0036072412 -0.006616149
000050 00 00 00 00 b9 6f d9 ba 87 2f 18 b5 00 00 00 80
       0.0 -0.0016589082 -5.6693574e-07 -0.0
000060 00 00 00 80 4f 52 eb 3b 00 00 00 80 52 ee 69 3c
       -0.0 0.007181443 -0.0 0.014278011
000070 00 00 00 00 2a 6c 2a b8 00 00 00 00 3b 81 bf 39
       0.0 -4.0631894e-05 0.0 0.00036526643
000080 23 db 60 3a 3c 8e d4 b5 76 10 31 ba 00 00 00 00
       0.0008577576 -1.5836627e-06 -0.0006754467 0.0
000090 95 70 4d ba 00 00 00 00 73 f5 92 3b 8c a3 2b bc
       -0.00078369054 0.0 0.0044848262 -0.010476004
0000a0 be b1 86 3a 00 00 00 80 c4 e4 0e 3c 78 14 89 3b
       0.001027636 -0.0 0.008721534 0.0041833483
0000b0 92 2d 11 3b 41 b4 d5 b9 7f d5 1b b4 00 00 00 00
       0.0022152406 -0.00040760826 -1.451317e-07 0.0
0000c0 12 d2 97 3c 01 6c ac 3c c8 d7 c9 b4 e2 53 99 b3
       0.018532787 0.021047594 -3.759617e-07 -7.139876e-08
0000d0 2b f0 d7 3b 46 cc 29 3c 7a e7 5b bc 00 00 00 80
       0.0065899095 0.010363644 -0.0134218875 -0.0
0000e0 b6 3e c1 bc 00 00 00 80 a4 93 b1 bb 3a d7 4c b8
       -0.023589473 -0.0 -0.0054192115 -4.8837835e-05
0000f0 00 00 00 00 f6 37 9d 38 63 e6 35 bb dd 68 01 3c
       0.0 7.496767e-05 -0.002775573 0.0078985365

base.1.conv.1.weight f4 [64]
000000 7b df 59 3c 28 59 a5 3d e8 15 24 3c 9f 32 f2 3e
       0.013297911 0.08073646 0.0100149885 0.47304246
000010 56 33 0a 3e 03 71 b1 3e 56 05 f1 3a cf 48 54 3e
       0.13496146 0.34656534 0.0018388431 0.207309
000020 44 c3 20 3c 6b 43 d7 3e 53 4b d2 3d 05 96 71 3e
       0.00981218 0.42043623 0.10268273 0.23592384
000030 fa 00 2c 3c e5 c7 e4 39 d3 44 85 3e fd b5 0c 3e
       0.01049828 0.00043636482 0.2602907 0.13741298
000040 fa 1e bf 3e c1 97 96 3c 5d d0 27 3e c5 00 87 3d
       0.3732832 0.018382909 0.16388078 0.06591944
000050 54 01 30 3c 89 75 dc 3e 0a c0 81 3e 81 54 19 3c
       0.010742504 0.43058422 0.25341827 0.009358526
000060 0a b1 17 3c 11 ed 6f 3e 32 5a 23 3c 7e 09 79 3e
       0.009258518 0.23430277 0.009970235 0.24320027
000070 08 32 de 3b 88 de ba 3e b2 ef f1 3b 85 61 bf 3d
       0.0067808665 0.36497903 0.0073833102 0.09344772
000080 4c 58 92 3c 84 31 16 3e 51 11 96 3b 4a 04 99 3c
       0.017864369 0.14667326 0.004579701 0.018678803
000090 29 ab 87 3e ae b3 4d 3c 0d 08 fe 3e 2c a4 94 3c
       0.26497772 0.012555046 0.49615517 0.01814469
0000a0 c1 92 83 3e 00 0b 0d 3c 1a 6b 8a 3e 88 f9 d0 3e
       0.25697902 0.00860858 0.27034837 0.40815377
0000b0 c1 01 f1 3e c0 91 8c 3e 7f e7 ac 3d 3b b4 69 3c
       0.4707165 0.27454948 0.08442592 0.014264162
0000c0 7c 6e 0f 3e 2f 44 5a 3e 88 f2 c8 3d 43 12 da 3d
       0.1400699 0.21315072 0.09811884 0.106480144
0000d0 d7 40 70 3e 45 45 d9 3e 2f 3e ae 3e 58 85 fd 3b
       0.23462234 0.4243566 0.34031817 0.007736843
0000e0 90 f0 bd 3e 89 da da 3b c6 1b ac 3e a1 c9 0b 3e
       0.37097597 0.0066788835 0.3361494 0.13651134
0000f0 05 54 37 3c a4 4d 50 3e 4f 75 91 3e bc 8b de 3e
       0.011189465 0.20342118 0.28409812 0.43465984

base.1.conv.1.bias f4 [64]
000000 b2 4b c2 bb 1a d2 90 bd 55 30 17 bb 18 e0 3b 3e
       -0.0059294337 -0.07071324 -0.002306958 0.18347204
000010 3c da 9f bd e4 86 48 3e a5 41 e6 3b 20 b6 60 bd
       -0.07805297 0.19582707 0.0070268684 -0.054861188
000020 cd f1 74 bc d7 66 95 3e f3 a6 b4 bd f0 62 c7 3e
       -0.014950228 0.29180023 -0.088209055 0.3894267
000030 a6 d8 f5 bb 98 57 d3 bb 99 4d 44 3e 9b 37 16 be
       -0.007502633 -0.006449651 0.19170226 -0.1466965
000040 68 ca 27 3f c7 b8 39 bc 66 20 15 3e 4a e7 12 be
       0.6554322 -0.011335558 0.1456314 -0.14346042
000050 a8 53 5d bc 53 c3 96 be ba 62 40 bd c2 df 00 bc
       -0.013508715 -0.29445896 -0.046969153 -0.007865848
000060 b8 f8 8b bb 9c ab 7a 3e bb 25 09 bd 46 f9 87 3e
       -0.004271593 0.24479526 -0.03348325 0.26557368
000070 0a 66 63 bb 49 2b 10 3f 4e 9f 83 bb 73 97 8c bd
       -0.0034698271 0.5631605 -0.0040167933 -0.06864824
000080 3b c9 f2 3c 47 3a 51 bd 6f f4 89 bc 70 1b c7 bb
       0.02963697 -0.05108097 -0.016840188 -0.006076269
000090 71 f9 70 bd 2e 17 1a bc 70 11 01 bf d9 6b 3b bd
       -0.058831636 -0.0094049405 -0.5041723 -0.04575715
0000a0 e3 1c 0b 3f 02 39 b5 bc ee b9 8f 3d cd 08 95 be
       0.5434095 -0.02212191 0.07017885 -0.29108277
0000b0 29 e6 64 3f fb ec 96 3e 73 25 96 bd c4 3b ab bb
       0.89413697 0.29477677 -0.073313616 -0.0052256305
0000c0 6a a2 07 3d 69 5b 42 3e 0d 84 50 bd 74 66 5d be
       0.033113874 0.18980183 -0.050907183 -0.21621114
0000d0 8c 90 25 bc 95 19 88 3e a3 44 28 3f e3 50 32 bc
       -0.010105263 0.26582018 0.6572973 -0.010883543
0000e0 5b c3 56 be 41 34 b4 bb ff e1 d3 bd 31 3a 22 be
       -0.2097296 -0.005499393 -0.1034584 -0.15842511
0000f0 bf 97 8f bc c0 54 89 3e 86 a9 2f 3e fd eb 5d 3f
       -0.017528413 0.26822472 0.17154512 0.86688215

base.1.conv.1.running_mean f4 [64]
000000 04 00 00 00 91 f2 95 bc 04 00 00 00 a4 d3 66 bc
       6e-45 -0.018304141 6e-45 -0.014088545
000010 f5 0a 57 bc 8a 34 28 3c 04 00 00 80 1c 04 22 3c
       -0.013125171 0.010266433 -6e-45 0.009888675
000020 04 00 00 00 37 22 a9 3c 74 1f 34 bc 8b f8 d8 3c
       6e-45 0.020646198 -0.010993827 0.026485702
000030 04 00 00 80 b1 0f 84 3b d1 40 70 3d 15 e6 00 3c
       -6e-45 0.004030191 0.058655564 0.007867356
000040 4a 1a 3c bd 04 00 00 00 c5 cb 65 bb d4 6f de 39
       -0.04592351 6e-45 -0.0035064083 0.00042426458
000050 04 00 00 80 5f 79 25 3d d7 5d 14 bb 04 00 00 00
       -6e-45 0.04039895 -0.002263894 6e-45
000060 04 00 00 80 e3 d7 02 bd 04 00 00 80 66 81 35 bb
       -6e-45 -0.031944167 -6e-45 -0.0027695536
000070 04 00 00 80 b5 96 fd 3c 04 00 00 00 63 14 fd 3b
       -6e-45 0.030955652 6e-45 0.0077233776
000080 4c dc 0f 3c 3e da 6d 39 b0 b4 20 bb 04 00 00 00
       0.00878055 0.00022683383 -0.002452176 6e-45
000090 bd 43 f0 3c 04 00 00 00 da 00 e3 bc 90 d2 60 bc
       0.029329175 6e-45 -0.027710367 -0.013722077
0000a0 52 c3 57 bc 04 00 00 00 2f e3 79 3d 3d cf 9d 3b
       -0.013169127 6e-45 0.061007675 0.0048159645
0000b0 a1 bb 64 3e bc e4 3f 3d 89 13 20 bc 04 00 00 00
       0.223372 0.046848997 -0.009770283 6e-45
0000c0 e9 51 8f 3c fd 18 b2 3c 85 bc da b9 32 6a 2a bd
       0.017495112 0.021740431 -0.00041720658 -0.041605182
0000d0 f1 30 e1 bb af a9 0d 3c 16 f8 a8 3b 04 00 00 00
       -0.0068722893 0.008646413 0.0051565273 6e-45
0000e0 8a da 1c bd 04 00 00 80 33 a5 94 3c 40 f3 69 3c
       -0.038294353 -6e-45 0.01814518 0.014279187
0000f0 04 00 00 00 16 d0 bd bc 08 b7 bf bc 8f df 0d 3e
       6e-45 -0.023170512 -0.023402706 0.13854812

base.1.conv.1.running_var f4 [64]
000000 04 00 00 00 77 d1 bf 36 04 00 00 00 67 bd 1c 3c
       6e-45 5.7166285e-06 6e-45 0.009566641
000010 60 ec fe 3a 94 b7 2c 3c 04 00 00 00 ed 4d ff 37
       0.0019449107 0.010541815 6e-45 3.0434656e-05
000020 04 00 00 00 80 e1 11 3b f6 ee a1 38 89 17 f1 3c
       6e-45 0.0022259653 7.721588e-05 0.029430168
000030 04 00 00 00 02 95 82 34 9e 97 9a 3c d4 fb e6 38
       6e-45 2.4322804e-07 0.018871125 0.00011014161
000040 b2 07 81 3e 04 00 00 00 e3 54 ec 36 84 f4 70 3a
       0.25201184 6e-45 7.04323e-06 0.0009191709
000050 04 00 00 00 32 97 9f 3a 06 42 ab 39 04 00 00 00
       6e-45 0.0012175797 0.00032664853 6e-45
000060 04 00 00 00 4b a4 7d 3a 04 00 00 00 c9 b4 20 3c
       6e-45 0.00096756656 6e-45 0.009808728
000070 04 00 00 00 ad 01 c2 3c 04 00 00 00 7e 81 e5 3a
       6e-45 0.02368244 6e-45 0.0017509905
000080 83 b6 13 38 ec 76 f9 36 8e 76 5c 35 04 00 00 00
       3.521751e-05 7.4346226e-06 8.2128906e-07 6e-45
000090 cf c1 0d 3b 04 00 00 00 f7 81 6f 3d bd 57 2f 36
       0.0021630412 6e-45 0.058473554 2.6128102e-06
0000a0 d8 9b 89 3c 04 00 00 00 d0 4b 9e 3d 0d 8c 45 3b
       0.016797945 6e-45 0.07729304 0.0030143291
0000b0 d0 63 b6 3c 78 a3 2f 3b 96 c8 81 3a 04 00 00 00
       0.022264391 0.0026800316 0.0009901698 6e-45
0000c0 04 d8 0f 3a d9 d1 3d 39 21 53 ae 2f 0d ee 2d 3d
       0.0005487206 0.00018102619 3.1709482e-10 0.04246335
0000d0 00 a8 1a 39 1b 99 af 3b 4d 8b 35 3d 04 00 00 00
       0.0001474917 0.0053588278 0.0443223 6e-45
0000e0 39 72 d3 3c 04 00 00 00 b5 88 b4 3b b4 b1 23 35
       0.025811302 6e-45 0.005509461 6.0980824e-07
0000f0 04 00 00 00 80 88 a0 3b 06 3f c1 38 5c 2e 35 3d
       6e-45 0.0048990846 9.214696e-05 0.044233665

base.1.conv.3.weight f4 [64, 64, 1, 1]
000000 00 00 00 00 00 00 00 00 00 00 00 00 00 00 00 80
       0.0 0.0 0.0 -0.0
000010 00 00 00 00 00 00 00 00 00 00 00 00 00 00 00 00
       0.0 0.0 0.0 0.0
000020 00 00 00 80 00 00 00 00 00 00 00 00 00 00 00 00
       -0.0 0.0 0.0 0.0
000030 00 00 00 80 00 00 00 80 00 00 00 80 00 00 00 00
       -0.0 -0.0 -0.0 0.0
000040 00 00 00 80 00 00 00 00 00 00 00 00 00 00 00 00
       -0.0 0.0 0.0 0.0
000050 00 00 00 00 00 00 00 00 00 00 00 80 00 00 00 80
       0.0 0.0 -0.0 -0.0
000060 00 00 00 80 00 00 00 00 00 00 00 80 00 00 00 00
       -0.0 0.0 -0.0 0.0
000070 00 00 00 00 00 00 00 80 00 00 00 00 00 00 00 00
       0.0 -0.0 0.0 0.0
000080 00 00 00 00 00 00 00 80 00 00 00 80 00 00 00 00
       0.0 -0.0 -0.0 0.0
000090 00 00 00 00 00 00 00 00 00 00 00 00 00 00 00 00
       0.0 0.0 0.0 0.0
0000a0 00 00 00 80 00 00 00 00 00 00 00 00 00 00 00 80
       -0.0 0.0 0.0 -0.0
0000b0 00 00 00 80 00 00 00 80 00 00 00 00 00 00 00 00
       -0.0 -0.0 0.0 0.0
0000c0 00 00 00 80 00 00 00 00 00 00 00 00 00 00 00 00
       -0.0 0.0 0.0 0.0
0000d0 00 00 00 00 00 00 00 80 00 00 00 00 00 00 00 00
       0.0 -0.0 0.0 0.0
0000e0 00 00 00 00 00 00 00 00 00 00 00 00 00 00 00 00
       0.0 0.0 0.0 0.0
0000f0 00 00 00 00 00 00 00 00 00 00 00 00 00 00 00 80
       0.0 0.0 0.0 -0.0
000100 00 00 00 00 00 00 00 80 00 00 00 00 00 00 00 00
       0.0 -0.0 0.0 0.0
000110 00 00 00 00 00 00 00 80 00 00 00 00 00 00 00 80
       0.0 -0.0 0.0 -0.0
000120 00 00 00 00 00 00 00 00 00 00 00 80 00 00 00 00
       0.0 0.0 -0.0 0.0
000130 00 00 00 00 00 00 00 80 00 00 00 80 00 00 00 00
       0.0 -0.0 -0.0 0.0
000140 00 00 00 00 00 00 00 00 00 00 00 00 00 00 00 00
       0.0 0.0 0.0 0.0
000150 00 00 00 00 00 00 00 00 00 00 00 80 00 00 00 00
       0.0 0.0 -0.0 0.0
000160 00 00 00 80 00 00 00 00 00 00 00 00 00 00 00 80
       -0.0 0.0 0.0 -0.0
000170 00 00 00 00 00 00 00 00 00 00 00 00 00 00 00 00
       0.0 0.0 0.0 0.0
000180 00 00 00 80 00 00 00 00 00 00 00 80 00 00 00 00
       -0.0 0.0 -0.0 0.0
000190 00 00 00 00 00 00 00 00 00 00 00 00 00 00 00 00
       0.0 0.0 0.0 0.0
0001a0 00 00 00 00 00 00 00 00 00 00 00 00 00 00 00 00
       0.0 0.0 0.0 0.0
0001b0 00 00 00 80 00 00 00 80 00 00 00 00 00 00 00 00
       -0.0 -0.0 0.0 0.0
0001c0 00 00 00 00 00 00 00 80 00 00 00 80 00 00 00 80
       0.0 -0.0 -0.0 -0.0
0001d0 00 00 00 00 00 00 00 00 00 00 00 80 00 00 00 00
       0.0 0.0 -0.0 0.0
0001e0 00 00 00 00 00 00 00 00 00 00 00 00 00 00 00 00
       0.0 0.0 0.0 0.0
0001f0 00 00 00 00 00 00 00 00 00 00 00 00 00 00 00 00
       0.0 0.0 0.0 0.0
000200 8f ed 19 bb 72 5d ba bc 76 e9 83 3b a9 bd 4e bd
       -0.0023487543 -0.022749636 0.0040256334 -0.050473843
000210 bf f6 03 bd 6f 25 20 bd 33 12 64 bb 43 2e 80 bc
       -0.032217737 -0.0390982 -0.0034800887 -0.01564706
000220 e2 3d cf bb 41 98 2f bc 7b c0 39 bd b5 84 bc 3c
       -0.0063245157 -0.0107174525 -0.04534958 0.023012498
000230 1d 8c 13 39 07 c2 18 3c 49 d0 d1 bd 72 d5 6c bb
       0.00014071209 0.0093236035 -0.10244805 -0.0036137966
000240 bf 7f b2 3c d6 d2 d0 bb 3c ab 8d 3c a4 d7 ca bc
       0.02178943 -0.00637279 0.017293565 -0.024761029
000250 71 59 62 ba 67 57 7e bd f4 47 0d bd 1f bb 3b 3b
       -0.00086345436 -0.062095072 -0.034492448 0.0028645468
000260 4e 9f e6 ba c2 25 11 bd de ed dc bb 81 d1 86 bd
       -0.0017595084 -0.0354364 -0.006742223 -0.065829284
000270 4a b0 3a 3a c3 10 3c be 47 96 18 bb a1 b3 d7 3b
       0.0007121606 -0.18365769 -0.0023282932 0.0065826927
000280 2e d7 c2 bc 73 27 2e bd b4 99 82 bb f8 dc d0 bb
       -0.023784246 -0.04251809 -0.003985608 -0.006373998
000290 30 84 67 bd ab 95 98 ba b2 6e c3 bc a2 9d 2c ba
       -0.05652255 -0.0011641284 -0.023856495 -0.00065847684
0002a0 82 bd 11 bc f8 4a 0e bc 01 9d 59 bd 13 30 fe ba
       -0.00889528 -0.008684866 -0.053128246 -0.0019392989
0002b0 f1 a8 53 3c 7f bb 64 bb 4b 03 f8 bb d6 91 96 bb
       0.012918697 -0.0034901795 -0.007568752 -0.0045950217
0002c0 45 cb b6 bc 2e 2d 50 bd 70 67 03 bc 65 2b 58 bd
       -0.022313723 -0.050824337 -0.008020267 -0.05277576
0002d0 a5 e3 4e bc 33 e3 89 bd 74 90 75 3c 22 3c f4 b9
       -0.012627517 -0.06732788 0.014988054 -0.0004658411
0002e0 b8 ce 2d bd 70 8a f2 ba 2c 40 d6 bc 52 c4 09 bd
       -0.04243347 -0.0018504392 -0.026153646 -0.03363449
0002f0 16 7c 00 3b 9f 78 bb bc a1 57 4f bd 6a 7b fc bd
       0.001960521 -0.022884665 -0.05062068 -0.12328227
000300 fc 88 5a bc cf bb 7e bd 9e 4d a9 3a 44 bd 05 3d
       -0.013338324 -0.062190827 0.0012916808 0.0326512
000310 53 13 69 bd e8 74 ca bd 77 92 17 bc c3 c4 0d 3c
       -0.056903195 -0.09885579 -0.0092512285 0.008652869
000320 5d 5d c5 3a 17 19 14 be b7 15 09 bd 2d 3a 8a 3d
       0.0015057732 -0.14462696 -0.033467975 0.067493774
000330 80 41 d9 bb 6b b9 0f bc 03 2c e7 bd 4c e8 99 bd
       -0.0066301227 -0.008772234 -0.112876914 -0.0751501
000340 db 6a a8 3c 8e 43 39 bc c0 8d ba 3c e1 0d 86 bd
       0.020558765 -0.01130761 0.02277267 -0.06545616
000350 4f c9 3b bb 51 1f 98 be f9 1b 5d 3b c1 ce f1 ba
       -0.0028653925 -0.29711393 0.0033738597 -0.0018448458
000360 a0 98 91 ba 1e 1d 17 be 67 1f 6f bc c4 46 34 bd
       -0.0011108108 -0.14757201 -0.014594889 -0.0440128
000370 7e 4d af bb 9c 50 8d be 61 f9 75 bb ea f2 e5 bc
       -0.005349814 -0.27600563 -0.0037532675 -0.028069932
000380 55 08 e3 bc 85 9d 89 bd 67 c4 e3 bb 6f 81 42 bc
       -0.027713934 -0.067194976 -0.006950903 -0.01187168
000390 2f 78 92 bd 35 35 7a bb 79 1a 99 be 7f f8 1e bd
       -0.071518295 -0.0038178687 -0.2990301 -0.038811203
0003a0 ca ff 02 3d 02 8b d1 bb 8b e0 06 be cc bb 95 bd
       0.03198222 -0.006394745 -0.13171594 -0.0731121
0003b0 4b 0c d5 3c 55 12 54 bb 80 4a cc bb 14 5d 41 bc
       0.026006838 -0.003235956 -0.006234467 -0.011801977
0003c0 6e c7 67 bd 01 34 30 3b 70 a9 68 bd 0d 73 90 be
       -0.056586675 0.0026886465 -0.056802213 -0.28212777
0003d0 15 2f 6f bd 5b 43 98 3b 8e e9 5c 3d 29 9e 26 3b
       -0.05839451 0.0046467013 0.053933673 0.002542386
0003e0 86 af 03 be f2 fa 1b bb 8b f0 dd bd 98 ee f6 bd
       -0.12859926 -0.0023800698 -0.108368956 -0.12057227
0003f0 39 32 80 bb 03 8a be bd 53 c9 e4 bd 93 68 50 be
       -0.003912237 -0.093036674 -0.11171212 -0.20352392

base.1.conv.4.weight f4 [64]
000000 55 b0 b7 39 4d f2 07 3a da 7b 32 3e 56 50 87 3e
       0.00035035858 0.0005185947 0.17430058 0.2642848
000010 ca 02 6f 3e 44 e9 97 3e 91 e2 c3 3a f7 0b 83 3e
       0.23340908 0.29670155 0.0014944841 0.25595066
000020 f2 15 73 3e 0f 3b 45 38 77 df b7 3e 95 45 e5 3e
       0.2373884 4.7023463e-05 0.35912678 0.4477965
000030 bc 5b a3 3e 7e 94 3f 3e 71 7e b5 3e 45 a3 46 3e
       0.31905925 0.18708989 0.3544803 0.1939822
000040 27 ed f7 3e a0 bf b1 3c 67 31 90 37 a8 ed 4d bd
       0.4842312 0.02169782 1.7189142e-05 -0.050275475
000050 6c cb 73 3a 8c a5 56 3e 6d ce 3d 3e f7 3d 9f 3e
       0.00093000266 0.20961589 0.18535776 0.31101963
000060 e6 d3 87 3e f0 fd 83 3e 3d 18 ae 3e fa 47 81 2f
       0.26528853 0.25779676 0.34002867 2.3516106e-10
000070 f6 4a 53 3e af b9 4d 3e 8a 8e f1 3d ed 06 3d 3e
       0.20634064 0.20090364 0.11794765 0.18459673
000080 0e 85 ed ba 04 af 1a 3e 37 31 c7 3e aa 97 76 2d
       -0.0018121318 0.15105826 0.38904735 1.4017157e-11
000090 7a 96 10 bb 5a 71 45 33 70 3d 30 3f 0e a7 75 3e
       -0.0022062347 4.597073e-08 0.68843746 0.23989508
0000a0 be 4b d2 3e ad 5b e4 3d 06 c1 0d 3f 3c a0 4a 3e
       0.41073412 0.11150298 0.55372655 0.19787687
0000b0 37 01 21 38 d9 80 65 3e be df 8f 3e 15 74 bb b9
       3.8386523e-05 0.22412433 0.2810039 -0.00035753907
0000c0 95 5b c8 3e ea f8 32 3e 88 99 aa 3e 65 58 69 3e
       0.39132372 0.17477766 0.3332026 0.22787626
0000d0 59 1a f2 30 d4 0a 0d ba d7 21 9d 3e d1 37 82 3e
       1.7615306e-09 -0.00053803367 0.3068988 0.2543321
0000e0 ca ab d1 3e 61 0d 3e 3e ed 8d 18 a9 c1 55 10 b8
       0.40951377 0.18559791 -3.387388e-14 -3.441214e-05
0000f0 14 1a 06 36 69 e5 ad 2a 29 10 f0 3d cd 62 d4 3e
       1.9982735e-06 3.0890159e-13 0.11721832 0.4148163

base.1.conv.4.bias f4 [64]
000000 f9 2a 98 3b b1 d0 8b 3b cd 20 d5 bb 22 34 c0 3c
       0.0046437946 0.0042668213 -0.0065041543 0.023462359
000010 7f 9e 16 bc 64 f7 e9 3a 6e a0 9b bb 09 2f dc bb
       -0.009193062 0.0017850217 -0.0047493493 -0.006719474
000020 f3 a4 14 bc eb 62 0e bc d8 55 52 38 c1 ed d5 bb
       -0.00907253 -0.008690576 5.014785e-05 -0.0065285866
000030 1f b7 b6 3a 11 6e 34 3b 92 be a1 3b fc 6f 81 bb
       0.0013940072 0.0027531425 0.004936048 -0.003950117
000040 19 01 07 3c 53 4a 7b bb ac 3f 08 3b a6 b9 18 3b
       0.008240008 -0.0038343861 0.0020789905 0.0023304014
000050 d3 14 c7 3b 64 f9 cd 3b ff b6 85 3b 9a 9a 59 3c
       0.0060754805 0.006285833 0.0040806527 0.013281489
000060 bf f7 82 bb 1d a2 2e 3b e8 4f 08 3a 6c 7d 9d 3b
       -0.003996819 0.002664692 0.0005199895 0.004806211
000070 c4 11 1a 3c 42 4a 01 3c 58 df e9 39 9a b5 ff 3b
       0.00940365 0.00789124 0.00044607627 0.007803631
000080 81 bb c9 3a 53 32 7f bb 48 4e d5 3b d5 48 fd 3b
       0.0015390964 -0.0038939908 0.006509576 0.0077296295
000090 f2 42 aa 3a ee f9 1f bb bf a5 29 b8 8f 17 32 bb
       0.0012989922 -0.0024410444 -4.0447103e-05 -0.0027174687
0000a0 5e 2d 16 3c 6c 89 0c bc b0 64 39 3b 07 0f 10 bb
       0.00916609 -0.008577686 0.0028288774 -0.0021981613
0000b0 5a 0c ba 3b 97 13 3e bb cc 1f c7 3b 7d f7 09 3b
       0.005677742 -0.0029003376 0.0060767885 0.0021052056
0000c0 55 53 46 ba b6 31 ac 3b f8 c3 0d bb 3e a5 05 bc
       -0.0007565518 0.0052549494 -0.00216317 -0.008157073
0000d0 0e 9b 60 bb 98 06 88 ba 17 bb 86 b9 43 ee ef 39
       -0.0034272107 -0.0010377942 -0.00025697864 0.0004576315
0000e0 70 ab 1b bb fa 3c 16 3b 62 c5 60 bb 98 9b 10 bb
       -0.0023753308 0.0022924528 -0.0034297337 -0.0022065397
0000f0 87 12 b6 3a f2 24 fa b9 fb d7 03 bb f1 82 bf bb
       0.001389102 -0.00047711242 -0.0020117748 -0.005844467

base.1.conv.4.running_mean f4 [64]
000000 04 00 00 00 04 00 00 00 60 a5 a2 be 3f fa f2 be
       6e-45 6e-45 -0.31766796 -0.47456548
000010 c1 ac 64 3e 77 0a 1f be 04 00 00 80 6d 05 d5 be
       0.22331525 -0.15531336 -6e-45 -0.41605702
000020 65 b1 bc 3d 04 00 00 00 c7 0b 20 3f 58 9f fd bd
       0.09213523 6e-45 0.6251797 -0.12383908
000030 33 32 92 3e 18 0b 72 be c6 12 2f bf 8e 3d 25 3e
       0.28553924 -0.23637044 -0.6838802 0.16136762
000040 55 7f c5 3d 9f 4e 6f bd 04 00 00 00 86 9c 46 3e
       0.09643427 -0.05842459 6e-45 0.19395646
000050 04 00 00 00 4e 1c bf bd a4 cb b0 3e 2f 7f 59 be
       6e-45 -0.093315706 0.34530365 -0.21239923
000060 18 ec da 3d d7 d2 0c 3e 9f 21 c2 3e 04 00 00 80
       0.106895626 0.13752304 0.37916276 -6e-45
000070 cd 29 c8 3e 31 86 87 3b 75 fe 30 3e 11 55 d4 3e
       0.3909439 0.00413587 0.17284568 0.4147115
000080 04 00 00 80 e9 1c 4b bc 93 a4 75 3e 04 00 00 00
       -6e-45 -0.012397029 0.23988561 6e-45
000090 04 00 00 00 04 00 00 00 df 4a 1c 3d be 0d db bd
       6e-45 6e-45 0.03815734 -0.106959805
0000a0 cf d0 2d be 6c c5 d1 be a2 ad 69 3d b3 cb 57 3d
       -0.16974185 -0.40970933 0.057050355 0.052684497
0000b0 04 00 00 80 53 38 86 3d 13 ec 76 3e 04 00 00 00
       -6e-45 0.06553712 0.24113493 6e-45
0000c0 78 d2 19 3e 7c ba a6 bd 20 66 be 3e 61 57 2b 3f
       0.15021694 -0.08141038 0.3718729 0.66930205
0000d0 04 00 00 00 04 00 00 80 6b 11 e0 be 23 bc f8 be
       6e-45 -6e-45 -0.4376329 -0.48581037
0000e0 fb 61 ab be d9 0b 11 3e 04 00 00 00 04 00 00 00
       -0.3347319 0.14164676 6e-45 6e-45
0000f0 04 00 00 80 04 00 00 80 5d b8 97 3e 1b df 57 3d
       -6e-45 -6e-45 0.29632846 0.052703004

base.1.conv.4.running_var f4 [64]
000000 04 00 00 00 04 00 00 00 82 26 82 3c 50 48 d0 3c
       6e-45 6e-45 0.015887503 0.025425106
000010 63 82 dd 3c 66 d7 62 3c 04 00 00 00 62 1c 0d 3d
       0.027039712 0.0138453 6e-45 0.034450896
000020 51 46 c8 3c 04 00 00 00 17 52 4b 3d 2e df 9a 3d
       0.024447592 6e-45 0.049638834 0.075620994
000030 45 c9 e3 3c 44 6c 9f 3c d7 0f 06 3d ea b0 c9 3c
       0.027805934 0.019460805 0.03272995 0.024620492
000040 07 bc c2 3d e5 2c 60 3c 04 00 00 00 86 ce bf 3b
       0.095085196 0.013682579 6e-45 0.005853477
000050 04 00 00 00 29 a8 be 3c 95 9b ae 3c c8 b9 7a 3c
       6e-45 0.023273544 0.021314422 0.015303083
000060 b5 47 38 3d 67 fc 38 3d 90 28 6c 3d 04 00 00 00
       0.04499026 0.045162585 0.05765587 6e-45
000070 18 6f a5 3c 57 fe 96 3c 43 30 b8 3b ca ad 61 3c
       0.020194575 0.018431826 0.0056209876 0.013774345
000080 04 00 00 00 ee 69 f7 3b 17 c5 a9 3c 04 00 00 00
       6e-45 0.0075504696 0.020723863 6e-45
000090 04 00 00 00 04 00 00 00 5a b0 d2 3d 41 ca 99 3c
       6e-45 6e-45 0.10287543 0.0187732
0000a0 77 b7 30 3e 1c c3 8c 3c 6b a6 c0 3d 90 e7 4a 3c
       0.17257486 0.01718288 0.09406742 0.01238431
0000b0 04 00 00 00 f7 d4 84 3d b6 00 42 3d 04 00 00 00
       6e-45 0.06485932 0.04736396 6e-45
0000c0 69 76 35 3d 10 2b 19 3c 84 b0 19 3d cb 68 8a 3e
       0.044302378 0.009348646 0.037521854 0.27033076
0000d0 04 00 00 00 04 00 00 00 c8 8e d0 3c 84 cf 28 3d
       6e-45 6e-45 0.025458708 0.041213527
0000e0 f7 02 86 3d a0 b8 ce 3c 04 00 00 00 04 00 00 00
       0.06543534 0.02523452 6e-45 6e-45
0000f0 04 00 00 00 04 00 00 00 58 c2 47 3c 13 49 4d 3d
       6e-45 6e-45 0.012192331 0.050118517

base.2.conv.0.weight f4 [128, 64, 1, 1]
000000 26 87 2c bd fb ef 40 be 7d 81 96 3b e4 a6 3c 3d
       -0.042121075 -0.18841545 0.004593073 0.046057597
000010 ea 3d 3f bc 5f 03 a2 3c 1a 23 0c bd 95 8d 31 3e
       -0.011672476 0.019776998 -0.034213163 0.17339166
000020 ab 51 eb bd b8 37 15 bd 87 06 0e bc 48 72 90 bd
       -0.11490186 -0.03643009 -0.008668548 -0.070530474
000030 41 c0 eb bd 33 e5 cf 3d f2 c3 3b 3b 1c 3b ba 3d
       -0.11511279 0.10151138 0.0028650728 0.090933055
000040 66 19 46 3e d0 aa 20 be 97 11 fa 3d 6a 2b 6a bd
       0.19345626 -0.1569016 0.12210386 -0.05717031
000050 04 85 12 be bf 70 6b 3d a7 bf 2f bd 31 a3 a6 3d
       -0.14308554 0.05748057 -0.042907383 0.08136595
000060 51 8e 9d 3d f2 5c 6b bd b9 df 42 3d 7d 17 0d bd
       0.0769316 -0.057461686 0.04757664 -0.03444623
000070 ea 95 de bd 3b 20 c6 3d 2b b7 b9 3b 0c 87 15 3d
       -0.108684376 0.09674116 0.0056675873 0.036505744
000080 d7 ce 64 3d 7f df 0e be 30 80 88 bc 93 77 c3 b8
       0.05586132 -0.13952444 -0.016662687 -9.320597e-05
000090 47 2f dd 3d 0a 51 6c bb 3a 94 1d 3d 9e 0c f1 3b
       0.10800033 -0.0036059045 0.038471438 0.0073562404
0000a0 04 28 7b be ee 0b 48 be b7 80 58 bd ff 4b 41 3e
       -0.24526983 -0.19535801 -0.052857127 0.18876646
0000b0 5d a7 b8 3c 8a bb 2a 3d c1 1a 09 bd 90 10 5e 3d
       0.022540743 0.041682757 -0.03347278 0.054215014
0000c0 9f 3c a1 bd b8 72 b5 ba 6c 36 8b bd 71 75 92 bc
       -0.07872891 -0.0013843393 -0.067974895 -0.017878266
0000d0 42 33 92 3c de d9 8c bd 2f 07 9c 3d d2 7d 24 3e
       0.017846707 -0.06877492 0.07618558 0.16063622
0000e0 bd 5c c1 bd f0 34 1d bd e3 64 6c bc 66 b2 1d bb
       -0.094415165 -0.038380563 -0.01442835 -0.0024062633
0000f0 f8 4a d6 bd de 6f 90 bb de d3 89 bc 30 2e de 3d
       -0.10463518 -0.004407867 -0.016824659 0.10848653
000100 00 00 00 80 00 00 00 00 00 00 00 00 00 00 00 00
       -0.0 0.0 0.0 0.0
000110 00 00 00 00 00 00 00 80 00 00 00 80 00 00 00 00
       0.0 -0.0 -0.0 0.0
000120 00 00 00 80 00 00 00 80 00 00 00 80 00 00 00 80
       -0.0 -0.0 -0.0 -0.0
000130 00 00 00 80 00 00 00 00 00 00 00 80 00 00 00 00
       -0.0 0.0 -0.0 0.0
000140 00 00 00 00 00 00 00 00 00 00 00 80 00 00 00 00
       0.0 0.0 -0.0 0.0
000150 00 00 00 80 00 00 00 00 00 00 00 00 00 00 00 80
       -0.0 0.0 0.0 -0.0
000160 00 00 00 80 00 00 00 00 00 00 00 80 00 00 00 80
       -0.0 0.0 -0.0 -0.0
000170 00 00 00 80 00 00 00 80 00 00 00 80 00 00 00 00
       -0.0 -0.0 -0.0 0.0
000180 00 00 00 00 00 00 00 80 00 00 00 80 00 00 00 00
       0.0 -0.0 -0.0 0.0
000190 00 00 00 00 00 00 00 00 00 00 00 80 00 00 00 80
       0.0 0.0 -0.0 -0.0
0001a0 00 00 00 00 00 00 00 00 00 00 00 00 00 00 00 80
       0.0 0.0 0.0 -0.0
0001b0 00 00 00 00 00 00 00 00 00 00 00 80 00 00 00 00
       0.0 0.0 -0.0 0.0
0001c0 00 00 00 00 00 00 00 00 00 00 00 80 00 00 00 80
       0.0 0.0 -0.0 -0.0
0001d0 00 00 00 00 00 00 00 80 00 00 00 00 00 00 00 80
       0.0 -0.0 0.0 -0.0
0001e0 00 00 00 00 00 00 00 00 00 00 00 80 00 00 00 80
       0.0 0.0 -0.0 -0.0
0001f0 00 00 00 00 00 00 00 80 00 00 00 80 00 00 00 00
       0.0 -0.0 -0.0 0.0
000200 38 3f ad 3d 46 c5 62 be 86 de 38 bd 6a 67 16 3d
       0.08459324 -0.22145566 -0.04513409 0.036719717
000210 9c 22 20 3e 73 54 49 3c 45 4c 29 3b 37 4c 88 bd
       0.15638202 0.012288201 0.0025832814 -0.06655162
000220 be 83 2e 3d eb ba 54 3d c1 40 1e 3e 10 db a5 ba
       0.042606108 0.05193607 0.15454389 -0.0012653787
000230 18 ef 99 bd f8 4a 29 bc 35 03 d9 3c e8 17 44 bb
       -0.07516307 -0.010332815 0.026490787 -0.0029921476
000240 b2 ae 53 be 07 25 bb 3d 62 b7 19 3c bc 58 18 bd
       -0.2067211 0.09137922 0.009382101 -0.037194
000250 68 e9 b9 be bb d2 da bd 72 5b 04 bc 9e 2d c8 bd
       -0.36310887 -0.10684725 -0.008078443 -0.09774326
000260 36 fa 27 3c e9 dd 22 3d 60 82 2c bc ae 39 82 3c
       0.010252526 0.03976241 -0.010529131 0.015896644
000270 68 36 a6 3c 6c e2 c5 bd c7 0e c3 3c 62 50 91 bc
       0.020289615 -0.09662327 0.023810757 -0.017738525
000280 b2 d3 db bc 6d 85 4b bd 59 94 0a 3d 39 0f 25 bc
       -0.026834343 -0.04968779 0.03383288 -0.01007443
000290 87 e8 25 be fb 74 a2 ba f4 86 0e be dd dd dc bc
       -0.16201983 -0.0012394482 -0.13918668 -0.026961261
0002a0 e8 45 ea bd 73 8c 2e 3d 1f 87 5d 3d 3f 5c 81 3d
       -0.11439115 0.04261441 0.05408394 0.06316423
0002b0 60 43 af bc 8f 84 d8 3b c7 63 83 3d 3d 75 81 bd
       -0.021394432 0.006607599 0.064155154 -0.063211896
0002c0 b5 35 97 3b 1c 22 dc 3b 56 55 1a 3d 6d cc 97 3b
       0.0046145567 0.0067179333 0.03767904 0.0046325237
0002d0 1b c3 f1 bc 3c 25 1b 3e 75 93 31 bd fa f4 bf 3d
       -0.029511979 0.15150923 -0.043353517 0.093728974
0002e0 24 51 08 bd af 04 aa b9 5e 6c 02 bc f0 db a2 bd
       -0.033280507 -0.00032428416 -0.007960407 -0.07952106
0002f0 c4 e6 88 3d 0a 88 14 bb 17 04 d7 3c f9 4f 8a bc
       0.0668464 -0.0022664093 0.026247067 -0.016883837
000300 00 00 00 80 00 00 00 00 00 00 00 00 00 00 00 80
       -0.0 0.0 0.0 -0.0
000310 00 00 00 00 00 00 00 00 00 00 00 00 00 00 00 80
       0.0 0.0 0.0 -0.0
000320 00 00 00 80 00 00 00 00 00 00 00 80 00 00 00 00
       -0.0 0.0 -0.0 0.0
000330 00 00 00 80 00 00 00 00 00 00 00 00 00 00 00 00
       -0.0 0.0 0.0 0.0
000340 00 00 00 00 00 00 00 80 00 00 00 80 00 00 00 80
       0.0 -0.0 -0.0 -0.0
000350 00 00 00 80 00 00 00 00 00 00 00 00 00 00 00 00
       -0.0 0.0 0.0 0.0
000360 00 00 00 00 00 00 00 80 00 00 00 00 00 00 00 00
       0.0 -0.0 0.0 0.0
000370 00 00 00 80 00 00 00 80 00 00 00 00 00 00 00 00
       -0.0 -0.0 0.0 0.0
000380 00 00 00 80 00 00 00 80 00 00 00 80 00 00 00 80
       -0.0 -0.0 -0.0 -0.0
000390 00 00 00 80 00 00 00 80 00 00 00 00 00 00 00 80
       -0.0 -0.0 0.0 -0.0
0003a0 00 00 00 00 00 00 00 00 00 00 00 00 00 00 00 80
       0.0 0.0 0.0 -0.0
0003b0 00 00 00 00 00 00 00 80 00 00 00 80 00 00 00 00
       0.0 -0.0 -0.0 0.0
0003c0 00 00 00 80 00 00 00 80 00 00 00 00 00 00 00 00
       -0.0 -0.0 0.0 0.0
0003d0 00 00 00 80 00 00 00 80 00 00 00 80 00 00 00 80
       -0.0 -0.0 -0.0 -0.0
0003e0 00 00 00 00 00 00 00 00 00 00 00 00 00 00 00 80
       0.0 0.0 0.0 -0.0
0003f0 00 00 00 00 00 00 00 00 00 00 00 80 00 00 00 00
       0.0 0.0 -0.0 0.0
