Pruned Models/EXTD/L1/EXTD40_L1.pth (torch, 721183 bytes, 134 tensors)

base.0.0.weight f4 [64, 3, 3, 3]
00000000: 0000 0000 0000 0000 0000 0000 0000 0000
00000010: 0000 0000 0000 0000 0000 0000 0000 0000
00000020: 0000 0000 0000 0000 0000 0000 0000 0000
00000030: 0000 0000 0000 0000 0000 0000 0000 0000
00000040: 0000 0000 0000 0000 0000 0000 0000 0000
00000050: 0000 0000 0000 0000 0000 0000 0000 0000
00000060: 0000 0000 0000 0000 0000 0000 0000 0080
00000070: 0000 0080 0000 0080 0000 0080 0000 0080
00000080: 0000 0080 0000 0080 0000 0080 0000 0080
00000090: 0000 0080 0000 0000 0000 0000 0000 0080
000000a0: 0000 0080 0000 0080 0000 0080 0000 0080
000000b0: 0000 0080 0000 0080 0000 0000 0000 0000
000000c0: 0000 0080 0000 0080 0000 0080 0000 0080
000000d0: 0000 0080 0000 0000 0000 0080 0000 0080
000000e0: 0000 0080 0000 0080 0000 0080 0000 0080
000000f0: 0000 0080 0000 0080 0000 0080 0000 0080
00000100: 0000 0080 0000 0080 0000 0000 0000 0080
00000110: 0000 0080 0000 0080 0000 0080 0000 0080
00000120: 0000 0080 0000 0080 0000 0080 0000 0000
00000130: 0000 0000 0000 0000 0000 0000 0000 0000
00000140: 0000 0000 a989 a5c1 3591 b7c1 53ba cac1
00000150: 8bcb 20c2 ed56 1bc2 92c9 1fc2 bc38 3ec2
00000160: 547f 32c2 47d9 36c2 9070 7fc1 d515 90c1
00000170: 6c95 bdc1 13a3 09c2 7546 04c2 22a8 1bc2
00000180: c0fa 2ec2 d496 24c2 bad0 31c2 255b 95c1
00000190: 87d3 a7c1 fa77 c8c1 0373 0ec2 2f09 08c2
000001a0: 196b 15c2 d95d 26c2 4775 19c2 028b 1fc2
000001b0: 0000 0080 0000 0080 0000 0080 0000 0080
000001c0: 0000 0080 0000 0080 0000 0080 0000 0080
000001d0: 0000 0080 0000 0080 0000 0080 0000 0080
000001e0: 0000 0000 0000 0080 0000 0080 0000 0080
000001f0: 0000 0080 0000 0080 0000 0000 0000 0000
00000200: 0000 0000 0000 0000 0000 0000 0000 0000
00000210: 0000 0000 0000 0080 0000 0080 1af6 5542
00000220: a187 1543 7ef2 4243 bda9 0cc3 64dc 32c2
00000230: 8624 b442 589b 5bc3 7029 ebc2 230c 8c42
00000240: da29 20c3 2b56 3dc2 cc70 0d42 b24b a5c3
00000250: 480a 44c3 60a1 66c2 408f d3c3 42fa 99c3
00000260: afa3 c2c2 7e52 1ac3 391c 89c2 7329 9d40
00000270: a91c 99c3 3c7b 59c3 696a acc2 7803 bbc3
00000280: ba05 8dc3 77d7 9fc2 0000 0080 0000 0080
00000290: 0000 0080 0000 0080 0000 0080 0000 0080
000002a0: 0000 0080 0000 0080 0000 0080 0000 0080
000002b0: 0000 0080 0000 0080 0000 0080 0000 0080
000002c0: 0000 0080 0000 0080 0000 0080 0000 0080
000002d0: 0000 0000 0000 0000 0000 0000 0000 0000
000002e0: 0000 0000 0000 0000 0000 0000 0000 0000
000002f0: 0000 0000 d9ab c444 7b8f 0d45 3b76 2445
00000300: 7df0 6c44 e8f1 fc44 ebcc 3245 a894 2cc4
00000310: 854c a943 fa82 b444 a38c 9844 3ac8 dc44
00000320: 1b3c 0045 b1f2 0144 eb7a ab44 8b32 0445
00000330: 85a0 98c4 d4f7 69c3 fd0a 1a44 c71a a644
00000340: 8db6 e344 fc9e f844 f44a 1844 ffa2 bc44
00000350: 819e 0545 8135 83c4 9798 28c3 dc0b 2944
00000360: 0000 0080 0000 0080 0000 0000 0000 0080
00000370: 0000 0080 0000 0000 0000 0080 0000 0080
00000380: 0000 0000 0000 0080 0000 0000 0000 0000
00000390: 0000 0080 0000 0080 0000 0000 0000 0080
000003a0: 0000 0080 0000 0000 0000 0080 0000 0080
000003b0: 0000 0080 0000 0080 0000 0080 0000 0080
000003c0: 0000 0080 0000 0080 0000 0080 0000 0000
000003d0: 0000 0000 0000 0000 0000 0000 0000 0000
000003e0: 0000 0000 0000 0000 0000 0000 0000 0000
000003f0: 0000 0000 0000 0000 0000 0000 0000 0000
0.0 0.0 0.0 0.0 0.0 0.0 0.0 0.0
0.0 0.0 0.0 0.0 0.0 0.0 0.0 0.0
0.0 0.0 0.0 0.0 0.0 0.0 0.0 0.0
0.0 0.0 0.0 -0.0 -0.0 -0.0 -0.0 -0.0
-0.0 -0.0 -0.0 -0.0 -0.0 0.0 0.0 -0.0
-0.0 -0.0 -0.0 -0.0 -0.0 -0.0 0.0 0.0
-0.0 -0.0 -0.0 -0.0 -0.0 0.0 -0.0 -0.0
-0.0 -0.0 -0.0 -0.0 -0.0 -0.0 -0.0 -0.0
-0.0 -0.0 0.0 -0.0 -0.0 -0.0 -0.0 -0.0
-0.0 -0.0 -0.0 0.0 0.0 0.0 0.0 0.0
0.0 -20.692217 -22.945902 -25.340979 -40.198772 -38.83489 -39.946846 -47.555405
-44.624344 -45.712185 -15.964981 -18.01066 -23.69796 -34.409252 -33.068806 -38.914192
-43.744873 -41.147293 -44.453835 -18.669504 -20.978285 -25.058582 -35.612316 -34.00897
-37.354588 -41.59165 -38.36453 -39.88575 -0.0 -0.0 -0.0 -0.0
-0.0 -0.0 -0.0 -0.0 -0.0 -0.0 -0.0 -0.0
0.0 -0.0 -0.0 -0.0 -0.0 -0.0 0.0 0.0
0.0 0.0 0.0 0.0 0.0 -0.0 -0.0 53.490334
149.5298 194.94724 -140.66304 -44.715225 90.071335 -219.60681 -117.58093 70.023705
-160.16348 -47.33415 35.360153 -330.59137 -196.04016 -57.657593 -423.11914 -307.95514
-97.319695 -154.32224 -68.55512 4.9113097 -306.2239 -217.48138 -86.20783 -374.0271
-282.04474 -79.92083 -0.0 -0.0 -0.0 -0.0 -0.0 -0.0
-0.0 -0.0 -0.0 -0.0 -0.0 -0.0 -0.0 -0.0
-0.0 -0.0 -0.0 -0.0 0.0 0.0 0.0 0.0
0.0 0.0 0.0 0.0 0.0 1573.3702 2264.9675 2631.3894
947.7576 2023.5596 2860.8074 -690.32275 338.5978 1444.093 1220.3949 1766.2571
2051.7566 519.79205 1371.8412 2115.159 -1221.0162 -233.96808 616.1717 1328.8368
1821.7047 1988.9683 609.17114 1509.0936 2137.9065 -1049.672 -168.59605 676.1853
-0.0 -0.0 0.0 -0.0 -0.0 0.0 -0.0 -0.0
0.0 -0.0 0.0 0.0 -0.0 -0.0 0.0 -0.0
-0.0 0.0 -0.0 -0.0 -0.0 -0.0 -0.0 -0.0
-0.0 -0.0 -0.0 0.0 0.0 0.0 0.0 0.0
0.0 0.0 0.0 0.0 0.0 0.0 0.0 0.0

base.0.1.weight f4 [64]
00000000: 39d2 5a3c 2284 613b b187 433b e714 67be
00000010: f043 2f3d 6b66 403e dd56 2abc 9b20 833e
00000020: 59eb 2e3d 6fa0 77bc 5021 92bd df21 9a3e
00000030: 9d88 66bc 85fa 9a3d 6215 e0bb add3 6b3d
00000040: 8fa3 453f 147b 1c3f 7399 a63e 6946 223d
00000050: 1e88 0c3d 5153 8fbd c303 d33c c5dc 263e
00000060: b4ca 873a add6 ad3e 2ef9 b93e 4c26 0c3e
00000070: 4fd4 ad3c afcb cf3e d302 c93b 1aa8 b73e
00000080: 95ac 543e e531 093d 7cbd d73e f0af ccbd
00000090: 2231 6ebd dc10 863d a469 fd3e 5075 7f3f
000000a0: 9f22 8b3e a417 76bc b2dc b03e 2046 8cbd
000000b0: 7006 f0ba 32ae 773e 5278 5d3d 8dea 0bbd
000000c0: 912e 883e 61da 82bd ff94 733e 4622 b8bc
000000d0: cec9 af3d 5b7e 4b3e 6f71 b13f 072f 70bd
000000e0: 2dce cd3d 21f6 71bc c0de 453f 0091 383e
000000f0: e060 15be dfde 423e f58f 483e d328 1b3e
0.013355785 0.0034411033 0.0029835517 -0.22566567 0.0427894 0.1878907 -0.010396686 0.25610813
0.042704914 -0.015113934 -0.0713526 0.30103967 -0.014070657 0.07567314 -0.0068384865 0.057574917
0.77202696 0.611253 0.32538947 0.03961793 0.0343095 -0.06998313 0.02575863 0.16295154
0.0010360093 0.33952847 0.36322922 0.13686484 0.0212194 0.40585086 0.00613437 0.3587044
0.2076896 0.03349485 0.42136753 -0.09994495 -0.058152325 0.065461844 0.4949466 0.9978838
0.2717485 -0.015020285 0.34543377 -0.06849313 -0.0018312465 0.24187544 0.054069825 -0.034159232
0.26598027 -0.06389309 0.23787306 -0.02247728 0.08583413 0.1987242 1.3862742 -0.0586386
0.100490905 -0.014768154 0.77293015 0.18024063 -0.14587736 0.19030331 0.19586165 0.15152292

base.0.1.bias f4 [64]
00000000: 0aec 31bd c763 393d 4ea5 bdbd 0575 263f
00000010: 382b 43bc 20ce 2abf 5800 1ebd 1d5d 87be
00000020: 03c1 2abd e2ed a7bd c9cf 8cbd fb9a 05bf
00000030: baab e23c 69c5 a9bd 9e67 38be df3f 89bd
00000040: adc4 fdbd e899 f3bd 1efd 6d3e 1212 43be
00000050: 54e2 b1bd c9d6 a6bd 9ffc ccbd 960d 80bc
00000060: f7d3 4fbd c36d 58be 2d68 48be c649 183f
00000070: fa31 ac3c 47fa 19bd 8d91 54bd d313 253a
00000080: d768 21be 2287 acbd d860 1dbd 1578 c1bd
00000090: 4962 36bd 0de0 b23b 8328 35bd 723f cdbd
000000a0: afef 85bd 3656 b1bd 031c ef3c 66f2 a6be
000000b0: a9a4 e2bb 4cdb ee3d 307d 4a3e 6c8e 5bbc
000000c0: 37e8 a03d df52 94bd bc2a b4bd 4bb2 1dbe
000000d0: 63f2 5fbe 962b 00bf b37b 833f cea3 0fbd
000000e0: 976f 073e 8e5d 74bd 29b4 bd3e 8ffa 04bd
000000f0: 28e4 d8bd 1b1e 63be 513f bbbd 8901 8a3f
-0.043437995 0.04526117 -0.09260045 0.6502231 -0.01191216 -0.6672077 -0.038574547 -0.26438227
-0.041687977 -0.081996694 -0.068755694 -0.52189606 0.027669776 -0.08289606 -0.18008277 -0.067016356
-0.123910286 -0.1189459 0.23241088 -0.19049862 -0.08685747 -0.08146436 -0.10009121 -0.015631478
-0.050739255 -0.21135621 -0.1957099 0.5948757 0.021019924 -0.0375922 -0.05189662 0.00062972045
-0.1576265 -0.08424212 -0.038422436 -0.09446732 -0.044527326 0.005458838 -0.044228088 -0.10021867
-0.06539857 -0.086590216 0.029188162 -0.3260681 -0.0069166017 0.11662921 0.19774318 -0.013400655
0.078567915 -0.07242369 -0.087972134 -0.15400045 -0.21869807 -0.50066507 1.0272125 -0.035068326
0.13226162 -0.059659533 0.37051514 -0.032465514 -0.10590392 -0.22179453 -0.09142936 1.0781718

base.0.1.running_mean f4 [64]
00000000: 0400 0080 0400 0000 0400 0000 8c96 0a46
00000010: 0400 0000 43f9 e146 0400 0000 d8fd 90c8
00000020: 0400 0000 0400 0080 24f6 1546 baa3 1d48
00000030: 0400 0000 5ff7 ecc8 0400 0080 0400 0080
00000040: 8771 7c48 9818 0146 9734 4845 5076 06c6
00000050: 0400 0080 4946 82c6 0400 0000 9102 b1c6
00000060: 0400 0000 1658 f7c7 c331 ae45 eedb 13c7
00000070: 0400 0080 1fea 3047 0400 0000 2c3c 1848
00000080: 189e 6948 0400 0000 a4e8 13c6 0400 0000
00000090: 0400 0080 0400 0000 2cb7 7649 1abe ca45
000000a0: f0e4 dbc9 0400 0080 37c3 9146 5977 95c6
000000b0: 0400 0080 7d91 b848 d856 8647 0400 0000
000000c0: e12c bac7 eebb 0849 34a5 1d47 92ed 63c7
000000d0: c299 1747 a5f5 06c8 cca3 ce44 0400 0080
000000e0: 2a87 0cc7 0400 0000 e8f7 3145 5091 ec45
000000f0: 0400 0080 be89 2047 3716 a6c7 18eb 0ec7
-6e-45 6e-45 6e-45 8869.637 6e-45 28924.63 6e-45 -296942.75
6e-45 -6e-45 9597.535 161422.9 6e-45 -485306.97 -6e-45 -6e-45
258502.11 8262.148 3203.2869 -8605.578 -6e-45 -16675.143 6e-45 -22657.283
6e-45 -126640.17 5574.22 -37851.93 -6e-45 45290.12 6e-45 155888.69
239224.38 6e-45 -9466.16 6e-45 -6e-45 6e-45 1.01054675e+06 6487.7627
-1.801374e+06 -6e-45 18657.607 -19131.674 -6e-45 377995.9 68781.69 6e-45
-95321.76 560062.9 40357.203 -58349.57 38809.758 -138198.58 1653.1187 -6e-45
-35975.164 6e-45 2847.4941 7570.164 -6e-45 41097.742 -85036.43 -36587.094

base.0.1.running_var f4 [64]
00000000: 0400 0000 0400 0000 0400 0000 597f 304f
00000010: 0400 0000 adb6 0951 0400 0000 89ce 4354
00000020: 0400 0000 0400 0000 369b 5b4f a31d 7953
00000030: 0400 0000 03a9 0155 0400 0000 0400 0000
00000040: 7d8f 7354 fc50 154f c932 1f4f ecaa 8a4f
00000050: 0400 0000 d8ad 1c50 0400 0000 1695 8d50
00000060: 0400 0000 743e fa52 3a8e bb4e c8c4 4e51
00000070: 0400 0000 ffa2 9051 0400 0000 ec78 6153
00000080: cc90 e453 0400 0000 952f 474f 0400 0000
00000090: 0400 0000 0400 0000 fd9c 0b56 fba5 0c4f
000000a0: 8b7e df56 0400 0000 5f27 5250 d40a 6850
000000b0: 0400 0000 46a4 9c54 f30b 1b52 0400 0000
000000c0: d2d6 ad52 bb3c 2a55 d6b5 5351 2f86 dd51
000000d0: e594 3551 d132 2753 d234 114e 0400 0000
000000e0: ae04 3151 0400 0000 eecd 294e 92ee ec4e
000000f0: 0400 0000 55f9 6951 4915 7052 8c05 2e51
6e-45 6e-45 6e-45 2.9611359e+09 6e-45 3.6967207e+10 6e-45 3.3639348e+12
6e-45 6e-45 3.6843822e+09 1.0699441e+12 6e-45 8.910181e+12 6e-45 6e-45
4.1843375e+12 2.5051126e+09 2.6709056e+09 4.6529147e+09 6e-45 1.0514555e+10 6e-45 1.9002864e+10
6e-45 5.373948e+11 1.5733302e+09 5.5504044e+10 6e-45 7.765124e+10 6e-45 9.683964e+11
1.9633637e+12 6e-45 3.3417843e+09 6e-45 6e-45 6e-45 3.8376594e+13 2.359688e+09
1.22867295e+14 6e-45 1.4103182e+10 1.5572095e+10 6e-45 5.3821676e+12 1.664801e+11 6e-45
3.733167e+11 1.1698613e+13 5.683055e+10 1.18929875e+11 4.8742945e+10 7.181121e+11 6.090395e+08 6e-45
4.7517983e+10 6e-45 7.122113e+08 1.987529e+09 6e-45 6.2806905e+10 2.5778731e+11 4.6713586e+10

base.1.conv.0.weight f4 [64, 1, 3, 3]
00000000: 0000 0080 0000 0000 0000 0080 0000 0080
00000010: 0000 0080 0000 0080 0000 0000 0000 0000
00000020: 0000 0080 0000 0000 0000 0000 0000 0000
00000030: 0000 0000 0000 0000 0000 0080 0000 0080
00000040: 0000 0080 0000 0000 0000 0080 0000 0000
00000050: 0000 0000 0000 0080 0000 0000 0000 0000
00000060: 0000 0080 0000 0080 0000 0000 434a 8bbd
00000070: b501 3b3f a9e0 a2bd aed0 b03e 094e e33e
00000080: 7829 983e 0f79 09be cb22 b2bf 2df6 42be
00000090: fbb7 943c 45de 6fbc 5f1c 3a3b dbba dfbd
000000a0: 2f0e edbd 1682 8ebc 9c48 0c3d ca25 293d
000000b0: 5436 f33d c21d 573e 497d 713f dee2 e33e
000000c0: a493 15bd e200 24bf 1dda 843d c2d5 f73d
000000d0: 3a94 56bf 7c5a 69be 0000 0000 0000 0000
000000e0: 0000 0000 0000 0000 0000 0000 0000 0000
000000f0: 0000 0000 0000 0000 0000 0000 a867 eabd
00000100: 9e7e d1be 71ea 41be a5a5 ea3c 65a6 a1be
00000110: 8a76 ca3b 9356 fc3e d487 763e 79f1 213e
00000120: 0000 0000 0000 0000 0000 0000 0000 0000
00000130: 0000 0000 0000 0000 0000 0000 0000 0000
00000140: 0000 0000 0000 0080 0000 0080 0000 0080
00000150: 0000 0080 0000 0080 0000 0000 0000 0080
00000160: 0000 0080 0000 0080 0000 0080 0000 0080
00000170: 0000 0080 0000 0080 0000 0080 0000 0080
00000180: 0000 0080 0000 0080 0000 0080 aa22 833e
00000190: 75b9 39be 91b0 2a3d 7250 283f 0f4e 4fbf
000001a0: a590 a23d 3813 703e 109e c3be 8de0 f33d
000001b0: 0000 0000 0000 0000 0000 0000 0000 0000
000001c0: 0000 0000 0000 0000 0000 0000 0000 0000
000001d0: 0000 0000 8204 67bd b337 dc3c 9eaf e33b
000001e0: f2b1 ecbc b228 b73d 652b 273c 16bb 5fbd
000001f0: dedf 1abd 363a 87bd fbd8 91bd 9149 ba3d
00000200: ae3c 8d3e 4e58 1abe 7840 e5bd d5ed 863e
00000210: aaac bd3c 161d 2bbe 7636 373e 0000 0000
00000220: 0000 0000 0000 0000 0000 0000 0000 0000
00000230: 0000 0000 0000 0000 0000 0000 0000 0000
00000240: 2212 c93c efc3 873e 6d00 66bd f58a 383e
00000250: 3f61 7ebf d9b8 033f ce99 cf3d 1703 893e
00000260: a43d bcbd 0000 0080 0000 0080 0000 0000
00000270: 0000 0000 0000 0000 0000 0000 0000 0000
00000280: 0000 0000 0000 0000 75c3 123e 5e3e 0d3f
00000290: d20a d13b 6ab2 b33d 9a47 023f d1b3 cc3d
000002a0: c519 1abd 6b72 073e eaaf 3bbd 0834 a4bd
000002b0: c261 54bd a32d 82bd d631 d5bd e492 153d
000002c0: 6e75 c33c 6261 a9bd f2cc 16bd b176 87bd
000002d0: 0000 0000 0000 0000 0000 0000 0000 0000
000002e0: 0000 0000 0000 0000 0000 0080 0000 0080
000002f0: 0000 0080 0000 0000 0000 0000 0000 0000
00000300: 0000 0000 0000 0000 0000 0000 0000 0000
00000310: 0000 0000 0000 0000 0000 0080 0000 0080
00000320: 0000 0000 0000 0080 0000 0080 0000 0000
00000330: 0000 0080 0000 0080 0000 0000 fa9c 203b
00000340: 9355 083d 2060 82bd 4495 b83c e088 563d
00000350: 37f9 3ebc 5bcc 6abd 1e0c 62bd 9bf0 66bd
00000360: 0000 0000 0000 0000 0000 0080 0000 0000
00000370: 0000 0080 0000 0080 0000 0000 0000 0080
00000380: 0000 0080 4f7e 0b3e db01 723d 79c4 26bd
00000390: c0d3 a33b 3c46 9dbe 7f95 153e 6678 c63d
000003a0: 1b3c 1a3e 645a 88bd 0231 17bd 1545 833d
000003b0: 4133 a1bd 713f bbbc 5fb7 4c3d 7541 cdbd
000003c0: bf5d 06be d3af b9bd 6655 08be c836 a03e
000003d0: 09ee b9bf 04d9 a33e f426 663e d1a0 023f
000003e0: 0461 d33e 0278 febd 9f62 debc ad95 8fbd
000003f0: 0000 0000 0000 0000 0000 0000 0000 0000
-0.0 0.0 -0.0 -0.0 -0.0 -0.0 0.0 0.0
-0.0 0.0 0.0 0.0 0.0 0.0 -0.0 -0.0
-0.0 0.0 -0.0 0.0 0.0 -0.0 0.0 0.0
-0.0 -0.0 0.0 -0.06801274 0.7304948 -0.07953007 0.3453421 0.44395474
0.29719138 -0.13425086 -1.3916868 -0.19039221 0.018154135 -0.0146403955 0.0028398258 -0.10924312
-0.11574971 -0.017396014 0.034248933 0.041295804 0.11875597 0.21007445 0.94331795 0.44509023
-0.036517754 -0.6406385 0.06486914 0.12101318 -0.83819926 -0.22788423 0.0 0.0
0.0 0.0 0.0 0.0 0.0 0.0 0.0 -0.11445552
-0.40916914 -0.18937089 0.028643439 -0.3157226 0.0061786817 0.492848 0.24075252 0.15814771
0.0 0.0 0.0 0.0 0.0 0.0 0.0 0.0
0.0 -0.0 -0.0 -0.0 -0.0 -0.0 0.0 -0.0
-0.0 -0.0 -0.0 -0.0 -0.0 -0.0 -0.0 -0.0
-0.0 -0.0 -0.0 0.25612384 -0.18137152 0.041672293 0.6574775 -0.8097848
0.07937745 0.23444831 -0.3820653 0.11908064 0.0 0.0 0.0 0.0
0.0 0.0 0.0 0.0 0.0 -0.056400783 0.026882028 0.0069484254
-0.028893445 0.08943309 0.010203217 -0.05462178 -0.037811153 -0.066029 -0.07121464 0.09096063
0.27585357 -0.15072748 -0.11193937 0.26353326 0.023153622 -0.16710314 0.17891869 0.0
0.0 0.0 0.0 0.0 0.0 0.0 0.0 0.0
0.02454478 0.26516673 -0.05615275 0.18021758 -0.99367136 0.5145393 0.10136758 0.2676017
-0.091914445 -0.0 -0.0 0.0 0.0 0.0 0.0 0.0
0.0 0.0 0.14332373 0.5517329 0.0063794637 0.08774264 0.50890505 0.09995235
-0.037622232 0.1322724 -0.04582206 -0.08017737 -0.05185104 -0.06356361 -0.10409896 0.03651704
0.023859706 -0.082705274 -0.036816545 -0.066144355 0.0 0.0 0.0 0.0
0.0 0.0 -0.0 -0.0 -0.0 0.0 0.0 0.0
0.0 0.0 0.0 0.0 0.0 0.0 -0.0 -0.0
0.0 -0.0 -0.0 0.0 -0.0 -0.0 0.0 0.0024507628
0.033284735 -0.06365991 0.022532113 0.052376628 -0.011656097 -0.057323795 -0.055187337 -0.056381803
0.0 0.0 -0.0 0.0 -0.0 -0.0 0.0 -0.0
-0.0 0.13622402 0.0590838 -0.040714715 0.004999608 -0.30717647 0.1460781 0.09690933
0.15061991 -0.06657866 -0.036911972 0.06409661 -0.07871104 -0.0228574 0.049979564 -0.100222506
-0.13121699 -0.09066739 -0.13313827 0.31291795 -1.4525768 0.32001507 0.22475797 0.51026636
0.41284955 -0.124252334 -0.027146636 -0.0701097 0.0 0.0 0.0 0.0

base.1.conv.0.bias f4 [64]
00000000: 0000 0080 0000 0080 0000 0080 5509 fe3b
00000010: b304 ea34 89de fb3c 0000 0000 3131 bb3c
00000020: 0000 0080 0000 0080 0000 0080 0bc1 093d
00000030: 0000 0000 ed95 893b d879 8635 0000 0000
00000040: a39e 903d 0000 0080 d298 14bc 4cc4 87bc
00000050: 0000 0000 0000 0080 0000 0000 bbf7 88b6
00000060: 0000 0080 801d 943c 481d 17b5 0a79 123d
00000070: 0000 0080 2051 e0b8 0000 0000 9b1d 713a
00000080: ea33 0d3b 0000 0000 0e03 dfba 0000 0000
00000090: 0000 0080 7d6d ad36 5893 373c 9a08 d9bc
000000a0: a889 283b 0000 0080 a6fe b13c 2c00 2b3c
000000b0: 0000 0080 c4dd 85ba ae75 3836 0000 0000
000000c0: 3a6a 3e3d 65da 593d 90aa e033 e6fd 5ab6
000000d0: 4489 873c 918f d63c c369 09bd 0000 0080
000000e0: 0000 0000 0000 0000 65e2 5fbc c351 01b9
000000f0: 63f3 b334 8157 4739 5760 9db4 d497 a13c
-0.0 -0.0 -0.0 0.0077525773 4.3589316e-07 0.030745761 0.0 0.022850605
-0.0 -0.0 -0.0 0.033631366 0.0 0.0041987807 1.0019239e-06 0.0
0.070615076 -0.0 -0.009069638 -0.016573094 0.0 -0.0 0.0 -4.0819555e-06
-0.0 0.018080473 -5.6294493e-07 0.035759963 -0.0 -0.00010696263 0.0 0.0009197832
0.0021545836 0.0 -0.001701446 0.0 -0.0 5.168548e-06 0.011204563 -0.02649336
0.0025716815 -0.0 0.021727871 0.010437053 -0.0 -0.0010213186 2.7486635e-06 0.0
0.046488024 0.053186793 1.0461838e-07 -3.263232e-06 0.016544946 0.026191505 -0.033548128 -0.0
0.0 0.0 -0.0136648165 -0.00012332857 3.3518435e-07 0.00019010717 -2.9313625e-07 0.019725718

base.1.conv.1.weight f4 [64]
00000000: 2be6 5e3c ba06 bd3c 82cf 113d 6e33 c53e
00000010: 6de3 183e c75c ca3e 18f7 743c e15f 8bbe
00000020: 6d07 053d e64e 3c3c 372f 633c e4f1 b03e
00000030: 40cc dc3c ff4f ab3d 94a6 533d 7775 20b5
00000040: 7cd5 8b3e 00cc 733d 98be 1d3f 3fc9 913e
00000050: cede 063d 32a9 c73d f602 963c 2284 fa3c
00000060: d4ad 483c eda7 653e b136 ed3d f2dd b23e
00000070: ae78 683c a894 7c3e 062f de3c 82e9 1f3d
00000080: ae1f 973e 02e2 e23c de5b 893e ba19 1e3e
00000090: 9b29 843c 1e58 183e 30b8 1f3e a117 aa3e
000000a0: f36a 4f3e 7644 613c d3a1 2f3e 3c7d 653e
000000b0: 808a a83c c022 a83e b910 393e 73a3 a73d
000000c0: c288 853d e2ff f43d b7be 533e 35db 543e
000000d0: be7c 493e b511 a23e 2537 383f 2055 8838
000000e0: c778 a03d 9820 c83c 8529 d13e 306d 6f3e
000000f0: 38fb db3d 5e94 903e 1064 4e3e 7cc9 a13e
0.013604681 0.023074497 0.035598285 0.385158 0.14930506 0.39523908 0.01495149 -0.27221587
0.032477785 0.01149342 0.013866237 0.34559548 0.026952863 0.083648674 0.051672533 -5.977558e-07
0.27311313 0.05952072 0.6161895 0.2847385 0.032927327 0.09749068 0.018311959 0.030580584
0.012248475 0.2242734 0.11582697 0.34934956 0.0141889285 0.24666083 0.027122032 0.03904105
0.29516357 0.02769566 0.26827902 0.15439501 0.01613312 0.14877364 0.15597606 0.33221152
0.20255642 0.0137492325 0.17151575 0.22411054 0.020573854 0.32839012 0.18072785 0.08185472
0.06520225 0.11962868 0.2067822 0.20786746 0.19676492 0.31654134 0.71959144 6.500841e-05
0.078355365 0.024429604 0.4085199 0.23381495 0.107412755 0.28238195 0.20155358 0.31599033

base.1.conv.1.bias f4 [64]
00000000: 84aa 383d 5021 8ebc e187 ecbc 4787 813e
00000010: 12e8 4dbd 37bb 853e 132f cdbb 2000 423e
00000020: ea2b fcbc 0332 d6bc c977 24bd 9f2c 953e
00000030: 4a08 a5bc f752 cbbb 8508 a7be 24c6 e03c
00000040: 4e61 013f 5946 29bd d677 943f ffc4 9e3d
00000050: dc5b 1ebd 0051 83bd efaf 2dbd 3cbf 98bd
00000060: 4f45 d93c 0faa f93e b5d5 a5be e23d 383f
00000070: 1d86 94bd 5d0c a43e cc81 a2bc e4d3 043e
00000080: abbc 8d3e e7ca 74bc 85b4 80be 26d5 afbd
00000090: 93d9 5abd 58c9 e5bd e183 9dbe bfb2 723e
000000a0: 84d3 2f3e 0586 fe3c 41cf 2c3d a4fc 503d
000000b0: 889e 10bd 40d6 b5be dc50 49be 42c9 eebb
000000c0: 83ed 893e be46 03bd db7b 0ebd d210 c0be
000000d0: 4bd4 d03e 947d 503e 5e24 90bf dffb 7d3c
000000e0: 2892 21be c4a7 b5bc d851 62be 6d16 093b
000000f0: 2d97 55be b098 06bf 8f9b 343e c8f8 173f
0.04508449 -0.017349869 -0.028873386 0.2529852 -0.050270148 0.26119396 -0.006261715 0.1894536
-0.030782659 -0.026146894 -0.0401533 0.29135606 -0.020145554 -0.0062049585 -0.32623687 0.02743823
0.505391 -0.041326854 1.1599071 0.07752418 -0.038661823 -0.06411934 -0.04240411 -0.0745835
0.026522307 0.48762557 -0.32389608 0.71969426 -0.072521426 0.32040682 -0.019837283 0.12971455
0.27683005 -0.014940954 -0.25137725 -0.08585577 -0.05343015 -0.11220044 -0.30764678 0.23700999
0.1717053 0.031069765 0.04218984 0.051022187 -0.035307437 -0.35515022 -0.19659752 -0.0072871754
0.2693902 -0.032049887 -0.034786087 -0.37512833 0.40786967 0.20360404 -1.1261098 0.015501945
-0.1577841 -0.022174723 -0.22101533 0.0020917908 -0.2085845 -0.5257673 0.17637466 0.59363985

base.1.conv.1.running_mean f4 [64]
00000000: 0400 0000 0400 0080 0400 0080 ab75 a8bc
00000010: a80e b439 41eb 663c 0400 0080 9d8a 243d
00000020: 0400 0080 0400 0000 0400 0000 15bf f53c
00000030: 0400 0000 49cb 233c 0506 21bd 0400 0080
00000040: 5abf 913d 0400 0080 0c66 b23e b0f2 163d
00000050: 0400 0080 0400 0080 0400 0000 f807 a7ba
00000060: 0400 0000 869c 56bb 9c8c 533d 8ff2 ca3d
00000070: 0400 0000 c793 33bb 0400 0080 7c4b 6abb
00000080: b5d3 543d 0400 0080 9572 153b 0400 0000
00000090: 0400 0000 b949 8bba 1f06 be3c 345b 8abd
000000a0: 39d0 a0ba 0400 0080 9d08 203d f96f ca3c
000000b0: 0400 0000 7503 cb3b 2946 25bd 0400 0000
000000c0: 0102 a63c 7858 193d a0b9 783c 242f df3c
000000d0: 74cf 903d 1c71 ec3c 0091 64bf 0400 0000
000000e0: 0400 0000 0400 0000 dcc5 08be e1d7 9535
000000f0: 4e97 c13c 10a4 6f3d 6d45 cbbb 924d 71bc
6e-45 -6e-45 -6e-45 -0.020563921 0.00034343195 0.014094175 -6e-45 0.040171254
-6e-45 6e-45 6e-45 0.029998342 6e-45 0.009997197 -0.03931238 -6e-45
0.071165755 -6e-45 0.3484348 0.03685254 -6e-45 -6e-45 6e-45 -0.0012743464
6e-45 -0.0032747104 0.051647767 0.09909546 6e-45 -0.0027401315 -6e-45 -0.0035750559
0.051959712 -6e-45 0.0022803892 6e-45 6e-45 -0.001062683 0.023196278 -0.06755677
-0.0012269086 -6e-45 0.039070714 0.024711596 6e-45 0.0061954805 -0.040350113 6e-45
0.020264627 0.037437886 0.015180975 0.027244158 0.070708185 0.028862529 -0.8928375 6e-45
6e-45 6e-45 -0.13356727 1.1164194e-06 0.023631718 0.05850607 -0.0062033446 -0.014727967

base.1.conv.1.running_var f4 [64]
00000000: 0400 0000 0400 0000 0400 0000 9eba 8d3c
00000010: bd43 3432 146f ea3b 0400 0000 d59f 9e3b
00000020: 0400 0000 0400 0000 0400 0000 46aa 653b
00000030: 0400 0000 679b 1338 0327 f037 0400 0000
00000040: c717 ed3c 0400 0000 bc4a 353e 16d4 2539
00000050: 0400 0000 0400 0000 0400 0000 9df2 aa39
00000060: 0400 0000 0cdd 083b ffaf 813c 5e70 5d3b
00000070: 0400 0000 5a85 ef3a 0400 0000 6fba 613a
00000080: 68b5 ba3b 0400 0000 ff0c 513b 0400 0000
00000090: 0400 0000 1a85 6532 07f7 c13c a60c 033f
000000a0: 8423 273b 0400 0000 3a7c a63b b9dd 5f38
000000b0: 0400 0000 d8ec c23a 105d 0139 0400 0000
000000c0: 71ea 7c3b 72b7 6139 2fe6 a93b b9ae 9e37
000000d0: 900f f139 2b22 863b 82c3 823f 0400 0000
000000e0: 0400 0000 0400 0000 6678 263d b567 983a
000000f0: 2e00 1a37 0bb0 363b f439 053a 6866 d03b
6e-45 6e-45 6e-45 0.0173009 1.0492781e-08 0.007154355 6e-45 0.004840831
6e-45 6e-45 6e-45 0.0035044118 6e-45 3.519226e-05 2.8628396e-05 6e-45
0.028942002 6e-45 0.1770429 0.00015814634 6e-45 6e-45 6e-45 0.00032605688
6e-45 0.0020883707 0.015830992 0.00337889 6e-45 0.0018273995 6e-45 0.00086108496
0.005697895 6e-45 0.0031898615 6e-45 6e-45 1.3359818e-08 0.023677362 0.51191175
0.0025503347 6e-45 0.005080727 5.337384e-05 6e-45 0.001487161 0.00012337067 6e-45
0.0038591886 0.00021526011 0.0051849107 1.891643e-05 0.00045978697 0.0040934286 1.0215914 6e-45
6e-45 6e-45 0.040642165 0.0011627587 9.179157e-06 0.0027875926 0.0005082183 0.006359864

base.1.conv.3.weight f4 [64, 64, 1, 1]
00000000: 6708 0b3c 9ad2 cf39 b3fd 3abb 3c3a bf3d
00000010: 0c84 82bc 0d24 dfbd a6b8 c3ba c048 233d
00000020: c523 0c3b 14ce ccba b891 663b 3d2d 31be
00000030: 5763 0cb8 6891 cb3c b423 02bd 6ee5 6f3c
00000040: 16a6 8cbd abd1 393c ee17 313e 27e8 b4bb
00000050: a999 f3ba 0697 6a3b b52b 9cb9 fb0d 043b
00000060: dd81 fc3a 9e22 99bc 5588 9bbb 8e4c a43d
00000070: be79 103c 9284 0f3d 8220 c7ba 07e7 3bbd
00000080: 0298 f6bc 215b 76ba 637a 303d d7b5 c23c
00000090: 80ea 63bc 0b3f 223d 5f14 f53c 13d4 483e
000000a0: ed7e b1bc bd13 583a b7ba 883c 0cb2 d8b8
000000b0: d158 1c39 151f 32bd 291d 6b3d 8cca d73b
000000c0: d6d7 9fbc aa56 053d d1ad 8f3c 0137 ad3c
000000d0: 85b4 9fbc 9ca2 033e 9e43 8e3c 6dc1 5cbb
000000e0: 2c1a b53b 2f32 a73b c84b 96bb c95a 8ebc
000000f0: b7cb 37bd 9659 2f3d 536b 8abb f13b 24bd
00000100: e742 f6ba 5d31 c63b 3c78 71bb 77ea ad3c
00000110: f334 a93d 7cbc 493e b141 963b d5d3 e83b
00000120: f249 2d3c 8528 47b9 d292 75bb 07a2 2d3d
00000130: b7d1 4f3c 5cca 823c 7339 813d 740a 243c
00000140: f8c3 543d 6973 043c fbbd 5b3c 0cf6 2c3d
00000150: 8c54 a63b 418b 293d 6a1e 69bb f866 073d
00000160: ad7c 4ebc f8b0 66bd be63 3b3d 09dc a73e
00000170: 610c 403c 67aa 4f3d efe2 0abb ee21 1cbd
00000180: 4274 e1bc dc4c 84ba cccc d93c 4bdd 3f3c
00000190: b722 073d dc46 5f3d a12d 9e3d 1703 47bc
000001a0: f12b 313d 7e53 5abc 5dfe 283c af37 623d
000001b0: c468 a7ba ecfc e33d 29f3 bb3c febc 813d
000001c0: 33c4 ddbc da69 633d 75b7 a03c bd26 b43d
000001d0: 2553 c8bd 2ab2 a53d bcd0 53bd 420d 3eba
000001e0: b987 943c c70b ad3a c61c 2cbd b6fa f53c
000001f0: cc46 a93d 3f77 c13b cb00 083e 2b22 d5bd
00000200: 0000 0080 0000 0000 0000 0080 0000 0000
00000210: 0000 0080 0000 0080 0000 0080 0000 0000
00000220: 0000 0000 0000 0080 0000 0000 0000 0000
00000230: 0000 0080 0000 0080 0000 0000 0000 0080
00000240: 0000 0080 0000 0000 0000 0080 0000 0000
00000250: 0000 0080 0000 0000 0000 0080 0000 0000
00000260: 0000 0080 0000 0000 0000 0080 0000 0000
00000270: 0000 0080 0000 0080 0000 0080 0000 0000
00000280: 0000 0080 0000 0080 0000 0000 0000 0000
00000290: 0000 0080 0000 0080 0000 0000 0000 0080
000002a0: 0000 0000 0000 0080 0000 0080 0000 0000
000002b0: 0000 0080 0000 0080 0000 0000 0000 0080
000002c0: 0000 0080 0000 0000 0000 0080 0000 0080
000002d0: 0000 0000 0000 0080 0000 0080 0000 0080
000002e0: 0000 0080 0000 0080 0000 0080 0000 0080
000002f0: 0000 0080 0000 0080 0000 0000 0000 0080
00000300: 16a8 ebbc 516c 9bbb bc14 1aba 8cda 75be
00000310: 15ca 19bd 29e4 b53b a6b7 fcbb fd55 dabb
00000320: 3cf0 5a3a bd2d 3fbc 7436 87bc 48ec 283e
00000330: 19e1 8c3b ddaf 1dbd 69de ee3c 4a78 a33c
00000340: 08df 293c f842 9ab8 7f0a a6bd 23d1 86bd
00000350: e632 8d3c 5ea3 cabd 5e00 f1ba dc32 a5bc
00000360: 6ea5 40bb f217 7fbe 9247 3cbd 00be 62be
00000370: 2226 e9bc 6c35 b13c a470 833b 62ca 56bc
00000380: 5824 84be 6d3a 8abb 6e89 40be ab1a 9abd
00000390: f5f1 b5bc ac31 9cbd b317 94bd 253f 2dbe
000003a0: fa94 12be 4a21 3cbd dc4a 6dbd 4930 b0bc
000003b0: c3da 11bc ccdc 18bd 6da6 78bc 934d 5fbb
000003c0: 1c50 d63d 8bbc 18bd 011a 2fbd 4da0 d1bd
000003d0: bcf6 61be d9f6 b23c 4db7 c9bd 9819 59bc
000003e0: 7c90 a1bd 6374 a6bb f810 3c3d 007e c4b9
000003f0: 9a5b 403d fe29 16be 9a14 49bd 59d5 90bc
0.00848589 0.00039639027 -0.0028532564 0.09337279 -0.015932105 -0.10895548 -0.0014932349 0.0398643
0.0021383625 -0.0015625381 0.003518207 -0.17302413 -3.347112e-05 0.024849609 -0.03177233 0.014642103
-0.06867616 0.011341493 0.17294285 -0.005520839 -0.0018585223 0.0035795583 -0.00029787203 0.0020149935
0.0019264776 -0.018693265 -0.0047464767 0.08022414 0.008818088 0.03503854 -0.0015192183 -0.04587462
-0.03010178 -0.00093977345 0.043085467 0.023768349 -0.01391089 0.039610904 0.02991694 0.1961215
-0.021666968 0.00082426873 0.016690595 -0.000103328464 0.00014910406 -0.043486673 0.057400856 0.0065854248
-0.019512098 0.032553352 0.017538937 0.021144392 -0.019495258 0.12855 0.017366227 -0.0033684627
0.0055268016 0.005102418 -0.0045866705 -0.017377274 -0.044872012 0.042810045 -0.00422422 -0.040096227
-0.0018788249 0.006048365 -0.0036845347 0.021229966 0.082620524 0.19700807 0.0045854677 0.0071053305
0.010576712 -0.00018993214 -0.0037471545 0.04239085 0.012684277 0.015965633 0.06309786 0.010012258
0.051944703 0.008084157 0.013411994 0.042226836 0.0050759967 0.04139257 -0.0035571107 0.033057183
-0.012602967 -0.056321114 0.04574942 0.3278506 0.011721701 0.050699618 -0.0021192392 -0.038118295
-0.027521256 -0.0010093707 0.026586913 0.011710475 0.03299209 0.054510936 0.07723547 -0.012146733
0.043254796 -0.01332557 0.010314551 0.055228885 -0.0012772311 0.111322254 0.022943096 0.063348755
-0.027071094 0.05552087 0.01961873 0.08796451 -0.097814836 0.08090623 -0.051712736 -0.00072499004
0.018131124 0.0013202362 -0.042019628 0.030026775 0.082654566 0.005904108 0.13281552 -0.10406908
-0.0 0.0 -0.0 0.0 -0.0 -0.0 -0.0 0.0
0.0 -0.0 0.0 0.0 -0.0 -0.0 0.0 -0.0
-0.0 0.0 -0.0 0.0 -0.0 0.0 -0.0 0.0
-0.0 0.0 -0.0 0.0 -0.0 -0.0 -0.0 0.0
-0.0 -0.0 0.0 0.0 -0.0 -0.0 0.0 -0.0
0.0 -0.0 -0.0 0.0 -0.0 -0.0 0.0 -0.0
-0.0 0.0 -0.0 -0.0 0.0 -0.0 -0.0 -0.0
-0.0 -0.0 -0.0 -0.0 -0.0 -0.0 0.0 -0.0
-0.028766673 -0.004743137 -0.00058777235 -0.2400915 -0.037546236 0.0055508805 -0.0077123223 -0.0066630826
0.0008351838 -0.01166862 -0.016505457 0.16496384 0.0042992947 -0.038497794 0.029158788 0.01995482
0.010368116 -7.355766e-05 -0.08107471 -0.065828584 0.017236184 -0.09894441 -0.001838695 -0.020165853
-0.0029395479 -0.24911478 -0.045966692 -0.22142792 -0.028460566 0.021631919 0.0040112305 -0.013109775
-0.25808978 -0.0042183907 -0.18802425 -0.07524618 -0.0222101 -0.07626662 -0.07231083 -0.16918619
-0.14314643 -0.045930184 -0.05793272 -0.0215074 -0.0089022545 -0.037319943 -0.015176398 -0.0034073337
0.104644984 -0.037289184 -0.04274941 -0.10235653 -0.22066778 0.021846222 -0.09849415 -0.013250731
-0.07888886 -0.0050797923 0.04591462 -0.0003747791 0.046962358 -0.14664456 -0.049091913 -0.017679857

base.1.conv.4.weight f4 [64]
00000000: 219e 3dbd 9235 44be 2ce9 a6ba c32a d03e
00000010: 9095 9b3e b389 5d3b 488e c63c 5cf5 643e
00000020: 9c4c b83e 0d93 543c ca35 f43c 1bd8 d83e
00000030: 3275 e13e 3fe9 e03d 3298 6d3b dc21 7c3e
00000040: 131d 0c3f f678 253e 5b97 013d 0f82 4fbb
00000050: a08b 3d3d faf1 b3bd b152 b539 7344 c53e
00000060: c306 093e aaed 3d3e 0da2 833e 5378 63bd
00000070: ce66 9a3e 15d7 d6bc 462b 60bb 9790 7a3e
00000080: c7c4 013e 0be1 cdba 0783 f83e 4941 b5be
00000090: a21c 493c e5a7 15bc 38c8 9f3e 9375 023e
000000a0: 1d72 2a3e 0ec7 633c 9d1a 2a3e 5b43 743e
000000b0: e7ea 3b36 7963 d43e a8c6 d3bc aac6 213b
000000c0: c172 163b 0d06 993e ec41 973e 40a8 173e
000000d0: 6609 ad3b 32e2 60bd abe7 4bbf acf3 c13e
000000e0: b0b3 4939 46ad 353e 0d90 87bb cf55 47bc
000000f0: 35e2 0d3c a7e1 6439 e3eb c83e 58ea 0c3f
-0.04629338 -0.1916106 -0.0012734286 0.40657625 0.30387545 0.0033804 0.024237767 0.22359222
0.35995948 0.012974513 0.029810805 0.42352375 0.44034725 0.10981988 0.0036254046 0.24622291
0.54731864 0.16159424 0.031638484 -0.0031663214 0.046275735 -0.08786388 0.0003458462 0.38528785
0.13381486 0.18547693 0.25709572 -0.055534672 0.3015656 -0.026225606 -0.003420548 0.24469219
0.12672721 -0.0015707327 0.48537466 -0.3540137 0.012274893 -0.009134267 0.31207442 0.12740164
0.16645093 0.013902439 0.16611715 0.23853819 2.8001903e-06 0.41482142 -0.025851563 0.0024685063
0.0022956582 0.2988743 0.29542482 0.14810276 0.0052806614 -0.054903217 -0.7965037 0.3788122
0.00019235793 0.1774188 -0.0041370452 -0.012166454 0.008659889 0.00021827836 0.39242467 0.5504508

base.1.conv.4.bias f4 [64]
00000000: a975 473c 062d 383c 56e4 8fbc ee63 803d
00000010: 7ca5 c6bc 4c20 983b b86b 51bc 0454 93bc
00000020: 7ee0 c6bc 435b bebc fbea b639 7afb 8ebc
00000030: 0627 7a3b 8ed8 e73b 1b60 573c ecca 27bc
00000040: 2ab4 b33c defa 29bc 86c2 b63b c8c3 d23b
00000050: 0806 883c 6ea3 893c db1a 343c b79a 103d
00000060: 1636 29bc 5d12 e43b e52e 9e3a 20ac 543c
00000070: 5ed2 cf3c c5ef ab3c ef93 973a e32c ac3c
00000080: f623 923b 4e35 2dbc 57d3 8f3c 6e8d a83c
00000090: c3de 703b 642e d6bb aed5 1eb9 32ba f5bb
000000a0: 14bc c63c ee4e bebc 9ab2 f63b 5393 b9bb
000000b0: de2a 773c 961a 07bc 4454 853c f091 c73b
000000c0: 7071 04bb 8416 643c b353 b2bb 8c6a b2bc
000000d0: 7943 16bc 1ad9 47bb e148 67ba b36b a33a
000000e0: 2a55 d7bb 6b6f b83b 3d48 17bc 20c5 bebb
000000f0: 7d81 733b 9a47 b5ba 35cf b2bb 6f93 80bc
0.012174048 0.011241203 -0.017564934 0.0626906 -0.024248831 0.004642522 -0.01278203 -0.017984398
-0.024276968 -0.023236876 0.0003488882 -0.017453898 0.0038170232 0.007075376 0.013145472 -0.010241251
0.021936495 -0.010374753 0.005577388 0.0064320303 0.016604438 0.016801562 0.010992731 0.035303798
-0.0103278365 0.006960197 0.0012068419 0.012980491 0.025368866 0.020988354 0.0011564473 0.021017497
0.0044598533 -0.010571791 0.01755683 0.020575251 0.003675387 -0.006536292 -0.00015147656 -0.007499003
0.024259605 -0.023230996 0.007528615 -0.0056633144 0.015085904 -0.008246085 0.016275533 0.006090395
-0.0020209216 0.013921384 -0.0054421066 -0.021779321 -0.00917136 -0.0030494393 -0.00088228105 0.001246801
-0.0065714316 0.0056285164 -0.009233532 -0.005821839 0.0037156038 -0.0013830543 -0.00545683 -0.015695302

base.1.conv.4.running_mean f4 [64]
00000000: bb94 673e eb11 ad3e 0400 0080 9b15 41bf
00000010: 494d e8be 0400 0000 0400 0080 66ec 3b3d
00000020: d3e6 cf3e 0400 0080 0400 0080 cf3d ddbe
00000030: 44ba 29bd 58f2 213d 9538 8c3d d56d 083f
00000040: 0ba7 debe 074c c23d 0400 0000 0400 0080
00000050: 0400 0080 0400 0080 0400 0080 b571 44bc
00000060: 653a eb3e a792 8a3e 5508 313f 0400 0000
00000070: f333 b6bd f95c fabc 0400 0000 31fd 793e
00000080: 2456 0c3b 0400 0080 431e 063e f383 c13e
00000090: 0400 0080 0400 0000 dabd 803e aa5f 873e
000000a0: 225e ba3e 20bf 5b3e fbc3 6e3e b07b 04bf
000000b0: 0400 0080 eb10 1dbe 0400 0000 0400 0080
000000c0: 0400 0000 942d 60bd 3c19 733e e0b5 0e3e
000000d0: 0400 0000 9c48 e1be 0f83 8c3f 9ca6 34be
000000e0: 0400 0000 5354 b63d 0400 0000 0400 0000
000000f0: 0400 0000 0400 0080 b45b 093f ef1f a13e
0.2261533 0.33802733 -6e-45 -0.7542359 -0.45371464 6e-45 -6e-45 0.045879744
0.40605792 -6e-45 -6e-45 -0.4321122 -0.041437402 0.039537758 0.0684673 0.5329259
-0.4348682 0.09487157 6e-45 -6e-45 -6e-45 -6e-45 -6e-45 -0.0119900005
0.4594299 0.27065012 0.6915334 6e-45 -0.08896627 -0.030561911 6e-45 0.24412991
0.0021413649 -6e-45 0.13097481 0.37795982 -6e-45 6e-45 0.25144845 0.26440173
0.36399943 0.21459627 0.23316948 -0.5175123 -6e-45 -0.15338485 6e-45 -6e-45
6e-45 -0.054730967 0.23740095 0.13936567 6e-45 -0.4400071 1.0977496 -0.17641681
6e-45 0.08902802 6e-45 6e-45 6e-45 -6e-45 0.5365555 0.31469676

base.1.conv.4.running_var f4 [64]
00000000: f31e a03c 7456 c53c 0400 0000 539b 583d
00000010: b987 4a3d 0400 0000 0400 0000 717e 643c
00000020: 5f29 953c 0400 0000 0400 0000 3dbf 303d
00000030: d84c 033d 4bb6 d93b 54d9 5a3c ea3d e63c
00000040: 5b52 a43d 7ace f33c 0400 0000 0400 0000
00000050: 0400 0000 0400 0000 0400 0000 310b 913c
00000060: 2eed 4c3c ff43 023d af31 073d 0400 0000
00000070: 6493 9c3c dad0 c83c 0400 0000 656c af3c
00000080: 387e 293d 0400 0000 cf68 873d 4b92 673d
00000090: 0400 0000 0400 0000 173c 6d3d 4a43 893c
000000a0: 614c 023c b19a b63b 0aa7 863c 6182 913c
000000b0: 0400 0000 66f5 a63d 0400 0000 0400 0000
000000c0: 0400 0000 d846 9d3c c1ac 083d 44a3 153c
000000d0: 0400 0000 f7c5 623c c85e 753e dcb7 7e3d
000000e0: 0400 0000 37c5 ae3c 0400 0000 0400 0000
000000f0: 0400 0000 0400 0000 31bb 873d cd63 a33d
0.019546008 0.024089076 6e-45 0.052882504 0.04944584 6e-45 6e-45 0.013946162
0.018208204 6e-45 6e-45 0.04315113 0.032055706 0.0066440455 0.013357479 0.028105695
0.080235206 0.029761542 6e-45 6e-45 6e-45 6e-45 6e-45 0.017705532
0.01250772 0.031803127 0.033006366 6e-45 0.01911325 0.02451365 6e-45 0.021413991
0.041380137 6e-45 0.066117875 0.056536 6e-45 6e-45 0.057918634 0.016755719
0.00795278 0.00557264 0.016437072 0.017762365 6e-45 0.08152275 6e-45 6e-45
6e-45 0.01919882 0.033367876 0.009133164 6e-45 0.013841144 0.23961937 0.06218706
6e-45 0.021334274 6e-45 6e-45 6e-45 6e-45 0.06627501 0.0797802

base.2.conv.0.weight f4 [128, 64, 1, 1]
00000000: 10c6 bf3c cb34 17bf c2a3 d3bf 5889 13bf
00000010: a195 693b 3db7 033e ef4d cf3b 6a97 05be
00000020: 2ee5 033e 78b4 22bf f266 913d c15c 21bf
00000030: a426 893d 8b21 cfbc 2aeb dd3e bb47 c5be
00000040: 7d15 403e 5f0f 14be dc1d ea3e 3924 d03e
00000050: 91ec f6be d66e bebd da5e 22be f545 7b3d
00000060: 583e 933e 89cf 10bf 696e f33e d66e eebd
00000070: 01da 693e 5d72 043e 71f3 12bc 2e0c d03e
00000080: 6af1 3a3f a1dc 1bbd d121 c03e a94c 15bf
00000090: d639 ecbe 037b 233e a5c8 ae3d 874c 083e
000000a0: fb21 1dbf 6d64 1c3f 570a 653e 2fe4 7bbe
000000b0: 89f3 1ebd 2c0d 283f ce3b b3bd d434 25be
000000c0: 4db4 81be 383e 3cbd e622 553e 7c0e 053e
000000d0: 63ea 2d3d 7399 4dbe 90fc 2f3e c1df 853e
000000e0: 8401 cfbd ba0c 8b3e f170 c33d 1fa0 37be
000000f0: 0599 f53d c12f 0e3e e568 df3d f859 cf3e
00000100: 0000 0080 0000 0080 0000 0000 0000 0080
00000110: 0000 0000 0000 0080 0000 0000 0000 0080
00000120: 0000 0000 0000 0000 0000 0080 0000 0000
00000130: 0000 0080 0000 0000 0000 0000 0000 0000
00000140: 0000 0080 0000 0080 0000 0000 0000 0000
00000150: 0000 0080 0000 0000 0000 0080 0000 0080
00000160: 0000 0080 0000 0000 0000 0080 0000 0000
00000170: 0000 0080 0000 0080 0000 0000 0000 0080
00000180: 0000 0000 0000 0000 0000 0000 0000 0000
00000190: 0000 0080 0000 0080 0000 0000 0000 0080
000001a0: 0000 0000 0000 0000 0000 0080 0000 0000
000001b0: 0000 0000 0000 0000 0000 0080 0000 0000
000001c0: 0000 0080 0000 0080 0000 0080 0000 0080
000001d0: 0000 0080 0000 0000 0000 0000 0000 0000
000001e0: 0000 0000 0000 0080 0000 0080 0000 0080
000001f0: 0000 0000 0000 0080 0000 0080 0000 0080
00000200: 4282 87bd 8fab 98bc e3c7 15be a2c8 29bd
00000210: bd7c ed3d 6afa 44bd d7e3 5dbd 30ab 043d
00000220: b9c4 463d ad18 b03e 191a 263d 4d62 d23c
00000230: c0be 223c 3f40 253c a6e4 66be 2f45 003e
00000240: c42c 9cbe ac71 bf3d de72 413d 480d a13d
00000250: 30a6 82be 4d3b 08bd 9e50 30be b35e 833d
00000260: f012 06be 5759 28bd bdff e4bd b4db 5dbd
00000270: 2f34 0b3d af3a d13c 95c5 0cbd 9aa0 ae3e
00000280: e21e bb3d d343 48bc 0509 12be d1e9 b3bd
00000290: 8a26 92bc 5e62 7d3e 8179 17bd 6625 003d
000002a0: 5cf0 8e3c d3d1 0f3e 8452 123c 0e39 b4bd
000002b0: e589 96bd 6551 c43d a6c1 88bd 609a 09be
000002c0: 2ef8 bb3c 3886 e33d a124 e33c f4d0 2c3c
000002d0: dc9c 343e 4be4 963e 8267 a8bd a5a2 c53d
000002e0: 3450 91bd 75b2 aebd 9b63 1bbe ddc3 ddbb
000002f0: f04d a63e bf92 23bd 224b 7c3e 7dd9 2bbd
00000300: 0000 0080 0000 0000 0000 0000 0000 0080
00000310: 0000 0080 0000 0000 0000 0080 0000 0080
00000320: 0000 0000 0000 0080 0000 0000 0000 0080
00000330: 0000 0080 0000 0000 0000 0000 0000 0000
00000340: 0000 0080 0000 0080 0000 0000 0000 0080
00000350: 0000 0000 0000 0080 0000 0000 0000 0000
00000360: 0000 0000 0000 0080 0000 0000 0000 0000
00000370: 0000 0000 0000 0080 0000 0080 0000 0080
00000380: 0000 0000 0000 0000 0000 0080 0000 0000
00000390: 0000 0000 0000 0080 0000 0000 0000 0000
000003a0: 0000 0080 0000 0000 0000 0000 0000 0000
000003b0: 0000 0000 0000 0000 0000 0000 0000 0080
000003c0: 0000 0000 0000 0000 0000 0000 0000 0000
000003d0: 0000 0080 0000 0000 0000 0000 0000 0080
000003e0: 0000 0080 0000 0000 0000 0000 0000 0080
000003f0: 0000 0080 0000 0000 0000 0000 0000 0000
0.023409873 -0.5906493 -1.653435 -0.57631445 0.0035642164 0.12862869 0.006326429 -0.13046041
0.12880394 -0.63556623 0.070997134 -0.63032156 0.06696823 -0.02528455 0.43343478 -0.38531289
0.18758197 -0.14458989 0.45725906 0.40652636 -0.4822736 -0.09298484 -0.15856495 0.061346013
0.28758502 -0.56566674 0.47545174 -0.11642234 0.22837068 0.12934251 -0.008969174 0.40634292
0.7302462 -0.038052205 0.375258 -0.583201 -0.46137875 0.15964894 0.08534364 0.13310443
-0.61379975 0.6109074 0.22367226 -0.24598764 -0.038806472 0.656451 -0.08751641 -0.16133434
-0.2533287 -0.045957774 0.20814094 0.12993807 0.042459857 -0.20078067 0.17186189 0.26147273
-0.10107711 0.27158147 0.09543026 -0.17932175 0.11992077 0.13885404 0.10908679 0.40498328
-0.0 -0.0 0.0 -0.0 0.0 -0.0 0.0 -0.0
0.0 0.0 -0.0 0.0 -0.0 0.0 0.0 0.0
-0.0 -0.0 0.0 0.0 -0.0 0.0 -0.0 -0.0
-0.0 0.0 -0.0 0.0 -0.0 -0.0 0.0 -0.0
0.0 0.0 0.0 0.0 -0.0 -0.0 0.0 -0.0
0.0 0.0 -0.0 0.0 0.0 0.0 -0.0 0.0
-0.0 -0.0 -0.0 -0.0 -0.0 0.0 0.0 0.0
0.0 -0.0 -0.0 -0.0 0.0 -0.0 -0.0 -0.0
-0.066166416 -0.018636493 -0.14627032 -0.041451104 0.115960576 -0.048090376 -0.054172363 0.03238982
0.048527453 0.34393826 0.040552232 0.02568164 0.009933174 0.010086118 -0.2254816 0.12526391
-0.30502903 0.09347853 0.047228687 0.07863861 -0.25517416 -0.03325968 -0.17218253 0.06414547
-0.13093162 -0.041100826 -0.11181591 -0.054164603 0.033985313 0.025540678 -0.034368116 0.34106904
0.0913675 -0.012223202 -0.14261253 -0.08784831 -0.017840642 0.24744555 -0.03698111 0.031285666
0.017448597 0.14044885 0.008930806 -0.08799945 -0.0735052 0.09585837 -0.066775605 -0.13437796
0.02294549 0.111095846 0.027727427 0.010547865 0.17637962 0.2947105 -0.082228675 0.096501626
-0.07095376 -0.08530132 -0.15174715 -0.0067677335 0.32481337 -0.03993487 0.24638036 -0.04195546
-0.0 0.0 0.0 -0.0 -0.0 0.0 -0.0 -0.0
0.0 -0.0 0.0 -0.0 -0.0 0.0 0.0 0.0
-0.0 -0.0 0.0 -0.0 0.0 -0.0 0.0 0.0
0.0 -0.0 0.0 0.0 0.0 -0.0 -0.0 -0.0
0.0 0.0 -0.0 0.0 0.0 -0.0 0.0 0.0
-0.0 0.0 0.0 0.0 0.0 0.0 0.0 -0.0
0.0 0.0 0.0 0.0 -0.0 0.0 0.0 -0.0
-0.0 0.0 0.0 -0.0 -0.0 0.0 0.0 0.0

base.2.conv.1.weight f4 [128]
00000000: 258d 4e3e 1799 47ba 59ec 553e c42b 5c3d
00000010: 36af 023e ac26 363d ce4e 0a3e 6630 023d
00000020: 1a23 103e a5f6 573d 44ad 253d 1655 113e
00000030: 87e8 203e d6c2 903e 55cd 4f3d 42cf 633d
00000040: d2a7 213e 4f57 263e eb2c ab3d 4147 fa3c
00000050: bb48 243e 10a7 533d 34cb 933d 117e 3c3d
00000060: f147 473e ad4b 2f3d 2fa7 183e 375c f13d
00000070: 4864 ee3d 78d4 8a3d bdb1 4e3e fe7f ec3d
00000080: 9caa a83d 0be8 e23d 3fcf 343e 4607 073e
00000090: c080 343e 9bce 5a3d 3be3 2b3d 51ee dc3d
000000a0: 021a 343e 406e 453e 2180 5e3e b0d6 3d3e
000000b0: 33d3 3b3e d8e5 383e ce62 673e 9ded ca3d
000000c0: 0603 683d 439b 5d3d 062c 273d e19f 353d
000000d0: 83c6 963d 3970 3d3e 297f 4f3e cd6f 073e
000000e0: 7b5e fa3d 0aed c13d 3e6b 133e 9286 173e
000000f0: 47cd 853e 25cf 333e 6851 f73d d005 ab3d
00000100: 4eae 203e 194c 213d 6381 083e c807 633d
00000110: 527c 183e 1f3d 533e 59d8 683d 07b1 f23d
00000120: 027b 383e 2d1d 523e f396 083d 044a 003e
00000130: b52a c13d f7bc 033d 5458 893d 5413 483e
00000140: e400 1a3e bc97 343d e0cb 9b3d 9a39 4b3e
00000150: 57d2 5f3d 0cbc 4c3e 6d79 1c3e 35a1 cd3d
00000160: 8c53 bd3d 66a1 be3c 9aef 103e 0853 b63d
00000170: f829 643e 006c 4c3d 6018 983d 8f45 a13d
00000180: 1b3e 813e 335b 4d3e a519 af3d 06b2 f33d
00000190: e090 1f3e fc11 1c3e 7195 653d b014 703e
000001a0: 4dd2 043d 85ff 1a3e 443b 483e ce61 383e
000001b0: 0e13 d73d 39c7 603e d9f2 b83d 8a87 453d
000001c0: 7abd 2b3e 952c 353e bf2c d83d f7dc a73d
000001d0: b617 523d ee74 3c3e 2b81 4f3e ee12 103e
000001e0: 269a b73d 7639 8f3d 8bd4 1e3e 522b 6b3e
000001f0: d0b1 b83b 702a 563e 670c 493d 8320 7e3d
0.2017103 -0.000761406 0.2089094 0.053752676 0.1276215 0.044470474 0.13506624 0.031784438
0.1407589 0.052725453 0.040448442 0.14192614 0.15713702 0.28273648 0.05073293 0.05561758
0.15786675 0.16244243 0.08358177 0.030551555 0.1604337 0.051672995 0.07216492 0.046018664
0.19461037 0.04279678 0.14907525 0.11785167 0.11640221 0.067788064 0.2018499 0.1154785
0.08235666 0.11079415 0.17657183 0.13186368 0.17627239 0.05341969 0.04196475 0.10787643
0.17588046 0.19280338 0.21728565 0.18538928 0.18342285 0.18056428 0.22596285 0.099086024
0.05664351 0.054103147 0.04081347 0.044341926 0.07362082 0.18499841 0.20263352 0.13226242
0.12225052 0.0946904 0.14396378 0.14797428 0.26133177 0.17559488 0.12076074 0.08350718
0.15691492 0.039379213 0.13330607 0.055427343 0.14891174 0.20628785 0.05684695 0.118501715
0.18015674 0.20518942 0.03334708 0.12528235 0.09431974 0.032162633 0.067063004 0.19538623
0.15039402 0.044090018 0.076072454 0.19846192 0.054643955 0.19993609 0.15280695 0.100405134
0.09244451 0.02327032 0.141539 0.08902556 0.22281635 0.049907684 0.07426524 0.078745954
0.25242695 0.20054321 0.08549813 0.1189919 0.15582609 0.15241235 0.05605072 0.23445392
0.03242712 0.15136535 0.19553858 0.1800606 0.10501681 0.21950997 0.090306945 0.048224963
0.16771498 0.17692788 0.1055541 0.081964426 0.051292144 0.1840398 0.20264117 0.14069721
0.08964948 0.06993382 0.15510766 0.22965744 0.0056364313 0.20914626 0.049084093 0.062042724

base.2.conv.1.bias f4 [128]
00000000: d222 6fbe 9282 fc3b 522d b6bd bb08 0b3c
00000010: e638 b4bd 8b58 dcbb e80e 2bbd 9121 ab3b
00000020: 569c 0dbe 9f1d 3d3b a6b0 0c3c 1e32 d73d
00000030: 0eb8 dbbd 1be9 b7be 44dc 083c ad46 84bc
00000040: 00d2 c6bc 674f 8d3e f736 2dbc 54bd ed3b
00000050: d2f4 d23d 2b7f ca3c 4c8e 16be 17e2 453c
00000060: 4d08 893e b400 67ba 8fbf 243d 3bb6 a9bd
00000070: d0c1 3cbd b5a5 8ebb f41c bc3d 7d55 e6bc
00000080: 5b6c 843d d907 cc3d 798f 613d 346e 1bbe
00000090: d4d2 6cbe a08a 18bc a3e2 c63b 16f5 6e3c
000000a0: 8c0d 1f3e 2e09 9dbd 43f7 e63c 4bbd ca3c
000000b0: f4d5 bebe fadc c83d 8ed7 2abe 85e4 873b
000000c0: 736a 123c 1d98 c63b 1609 3abb 3a3d 48bc
000000d0: b99a 95bb cdfa febb 9261 b0be 8eca 8e3c
000000e0: f9f0 5c3d f669 feba 8df8 c1bc 8cee cfbc
000000f0: 3db1 06bd caaa 17bd afea 343d 92f9 0f3d
00000100: 8725 c93b 1d60 c83b a382 0b3d a860 db3b
00000110: 1c2b 4bbd 5d4e 083e c3d9 ddbd 0b21 d33d
00000120: ba31 953d 1e1b 74be 6501 453d 6951 2bbd
00000130: 4564 23be 52d4 d93b ecb6 ecba 6cab f33d
00000140: 5ca3 513e 63ed 1b3d 2ca2 9a3c 031d 9cbd
00000150: 2075 1c3c fd1e 87be 5417 023e ca78 433c
00000160: 871f 94bb fa5b 18bc ebdd bb3d 4f99 d63d
00000170: 449d af3e fda6 763c a4c5 04bc 85a9 9f3c
00000180: 8631 5bbe fab0 723d 6bc8 b13c 8b62 4abe
00000190: ca15 adbe 5808 c8bd 89d3 133b 0a71 be3e
000001a0: acdd 9d3d 1910 6fbd 0259 753d 7bdc 163e
000001b0: 0875 a03d e35d 89bb 1f9d aabb 2117 e23b
000001c0: b05f 453e d99d b83d 2011 ec3c 4073 6bbc
000001d0: 1caf 5bba 1191 a03d 5397 b3bd e300 283e
000001e0: 3f1f f2b9 5607 5f3c d33e 80bd 90c0 523d
000001f0: 9dcf 9b3c 80ec 53be ec65 b63b 80b0 ff3c
-0.23353127 0.007705995 -0.08895363 0.008485968 -0.08799915 -0.0067244223 -0.041762263 0.0052225073
-0.13829169 0.0028856767 0.008587038 0.10507606 -0.10728465 -0.35920033 0.008353297 -0.016146982
-0.024270058 0.27599642 -0.010572187 0.0072552357 0.10300602 0.024718842 -0.1470272 0.01207783
0.26764145 -0.00088120555 0.040221747 -0.08286711 -0.04608327 -0.00435325 0.0918521 -0.028116936
0.0646598 0.09962434 0.055068467 -0.15178758 -0.231273 -0.0093103945 0.0060694977 0.0145848
0.15532511 -0.076677665 0.028194075 0.024748465 -0.37272608 0.09807773 -0.1668379 0.0041471147
0.008936512 0.006060614 -0.0028386763 -0.012221629 -0.0045655635 -0.0077813626 -0.3444944 0.01743057
0.053940747 -0.0019410241 -0.023678089 -0.025382303 -0.03288387 -0.03702811 0.044169124 0.03515012
0.006138507 0.006114973 0.03406013 0.006694872 -0.04960166 0.13311143 -0.108325504 0.10309037
0.07284875 -0.2383847 0.048097033 -0.041825686 -0.15956219 0.006647625 -0.0018059886 0.118979305
0.20472473 0.038068186 0.018876158 -0.07622721 0.009549409 -0.2639083 0.12704211 0.011930654
-0.00452036 -0.009299273 0.09173187 0.1047846 0.34299672 0.015054462 -0.008103762 0.019490013
-0.2140561 0.05925081 0.021702012 -0.19764154 -0.33805686 -0.097672164 0.0022556505 0.37195617
0.07708296 -0.05836496 0.059899338 0.14732544 0.07834822 -0.0041921004 -0.0052067186 0.00689973
0.19274783 0.09014482 0.02881676 -0.014370739 -0.00083802803 0.07840169 -0.08769097 0.16406588
-0.00046181117 0.013612589 -0.06261983 0.051453173 0.019019896 -0.20695686 0.0055663493 0.031212091

base.2.conv.1.running_mean f4 [128]
00000000: cece 32bf 0400 0080 4029 b2bd 0400 0080
00000010: 9784 643e 0400 0000 14dc 23be 0400 0000
00000020: 908c 323e 0400 0080 0400 0000 9167 a2bd
00000030: c69b 583e 9feb 8d3e 0400 0080 0400 0000
00000040: 2867 343e 4227 743d 8ff1 d73f 0400 0080
00000050: 0400 0000 0400 0080 0400 0080 0400 0000
00000060: f648 a5bc 0400 0080 3ce6 6440 c348 a43e
00000070: 3549 ddbe 0400 0080 9ca1 6abd d79c a33e
00000080: 728a a03f 0400 0000 3075 953e 3030 783f
00000090: 7c7d 5bbe 0400 0000 0400 0080 362e 41be
000000a0: 560f 1d3e 7dea 52be 3a24 1fbe be63 083e
000000b0: a432 36be 66f3 5d3d 6d2d f13d 34cb f3c0
000000c0: 0400 0080 0400 0080 0400 0080 0400 0080
000000d0: 0400 0080 93cf 393e 96d9 08bd c278 1f3f
000000e0: 1a8e 1a40 0400 0080 125c e7c0 04de 933e
000000f0: c4aa ba3e 8cff 543e cbbe 96be 0400 0000
00000100: 8c29 88be 0400 0000 7617 e63a 0400 0000
00000110: f7e5 853f 82d9 163d 0896 adbf cfc2 433e
00000120: 228f 213d f8c0 19be 0400 0000 e69a 99c0
00000130: 48e0 ddbe 0400 0080 0400 0080 7ef3 97bd
00000140: 0647 82be 0400 0080 0400 0000 d4cb aabd
00000150: 0400 0000 06f0 d6be 203f 743e 03ce acbd
00000160: 0400 0080 0400 0080 7eb6 6dbd f6e4 0cbf
00000170: 5dd7 ba3e 0400 0080 0400 0000 0400 0080
00000180: bd05 cdbe 13bf f6be 0400 0000 310c fa3d
00000190: f0af e0be c28c d4bb 0400 0080 b583 403e
000001a0: 0400 0080 c336 9abd f45a 4a3f dbc8 0f3d
000001b0: 0400 0080 a48c 1d3e 0400 0000 0400 0000
000001c0: 3256 c33d a83a 923c b406 4241 0400 0080
000001d0: 0400 0000 c767 f3be d074 993e c619 1ebe
000001e0: 0400 0080 0400 0080 74be 003e 0cd8 023d
000001f0: 0400 0080 3828 36be 0400 0000 0400 0000
-0.6984681 -6e-45 -0.08699274 -6e-45 0.22316204 6e-45 -0.16001922 6e-45
0.17436433 -6e-45 6e-45 -0.0792991 0.21153173 0.27718827 -6e-45 6e-45
0.17617476 0.05960775 1.6870593 -6e-45 6e-45 -6e-45 -6e-45 6e-45
-0.020176392 -6e-45 3.5765524 0.32086763 -0.43219915 -6e-45 -0.05728303 0.31955597
1.254225 6e-45 0.2919097 0.9694853 -0.21434587 6e-45 -6e-45 -0.18865284
0.15337881 -0.20597263 -0.15541163 0.13319299 -0.17792755 0.0541872 0.117762424 -7.618555
-6e-45 -6e-45 -6e-45 -6e-45 -6e-45 0.1814559 -0.03341063 0.62293637
2.4149232 -6e-45 -7.229989 0.28880322 0.3645841 0.20800608 -0.29442438 6e-45
-0.26594198 6e-45 0.0017554599 6e-45 1.0460805 0.036828525 -1.3561411 0.19117282
0.039443143 -0.15015018 6e-45 -4.8001585 -0.43335176 -6e-45 -6e-45 -0.07419489
-0.25444812 -6e-45 6e-45 -0.083396584 6e-45 -0.41979998 0.23852205 -0.08437731
-6e-45 -6e-45 -0.058035366 -0.55036867 0.36492434 -6e-45 6e-45 -6e-45
-0.4004344 -0.48192653 6e-45 0.122093566 -0.4388423 -0.006486506 -6e-45 0.18800242
-6e-45 -0.07529976 0.79045033 0.03510366 -6e-45 0.15385681 6e-45 6e-45
0.09537925 0.017850235 12.1266365 -6e-45 6e-45 -0.47540113 0.29971933 -0.1543952
-6e-45 -6e-45 0.12572652 0.03194432 -6e-45 -0.1778878 6e-45 6e-45
