Pruned_Models/EXTD/L1/EXTD40_L1.pth (torch, 720569 bytes, 134 tensors)

base.0.0.weight f4 [64, 3, 3, 3]
0	0xbd683c0f	-0.0566979
1	0xbd889b3d	-0.06670234
2	0xbdbaa8e9	-0.09114248
3	0xbdce641b	-0.10077687
4	0xbcabddd3	-0.020979797
5	0xbc915d75	-0.01774476
6	0xbd955b69	-0.07292826
7	0xbd7214d9	-0.059101913
8	0xbd2280e9	-0.03967372
9	0xbd41acbe	-0.04728388
10	0xbc5becbb	-0.01342314
11	0xbd9e5e40	-0.077328205
12	0xbd39bb87	-0.045344856
13	0x3d724398	0.059146494
14	0xbb65c09e	-0.0035057436
15	0xbc6e7df7	-0.0145564
16	0x3ca14c8f	0.019689826
17	0xbcee9790	-0.029125005
18	0xbd94122f	-0.07230031
19	0xbcd49847	-0.025951518
20	0xbd8f6bea	-0.07003005
21	0xbd1ed599	-0.03877792
22	0x3d6fcef5	0.05854698
23	0x3bd47450	0.006483592
24	0xbae26745	-0.0017273208
25	0x3d1cdb05	0.03829481
26	0x3ba836fb	0.0051335073
27	0x3becd0a1	0.007227019
28	0x3bb8d248	0.005640302
29	0xb90d85eb	-0.00013496696
30	0xbacef8d5	-0.001579071
31	0xbb75f3b7	-0.0037529299
32	0xbc13a824	-0.009012256
33	0xba1ab7da	-0.000590203
34	0xbc3115ba	-0.010808403
35	0xbc6a7a31	-0.014311359
36	0x3c887fb6	0.01666246
37	0x3c797f87	0.015228159
38	0x3badde12	0.005306014
39	0x3bc8673a	0.006115821
40	0x3b4d1844	0.003129498
41	0xbbd55ec3	-0.0065115406
42	0x3bcfc292	0.0063403333
43	0xbc026b90	-0.007960215
44	0xbc9c553c	-0.019083612
45	0x3bb3337a	0.005468783
46	0x3b97de0f	0.0046346257
47	0xbb68208d	-0.0035419792
48	0xbbd8d229	-0.00661685
49	0xbbdc305c	-0.006719632
50	0xbc88737c	-0.01665663
51	0xbc0956f0	-0.008382544
52	0xbca97b0c	-0.020688556
53	0xbd10605e	-0.035248153
54	0x80000000	-0.0
55	0x80000000	-0.0
56	0x80000000	-0.0
57	0x80000000	-0.0
58	0x80000000	-0.0
59	0x80000000	-0.0
60	0x80000000	-0.0
61	0x80000000	-0.0
62	0x80000000	-0.0
63	0x80000000	-0.0
64	0x80000000	-0.0
65	0x80000000	-0.0
66	0x80000000	-0.0
67	0x80000000	-0.0
68	0x80000000	-0.0
69	0x80000000	-0.0
70	0x80000000	-0.0
71	0x80000000	-0.0
72	0x80000000	-0.0
73	0x80000000	-0.0
74	0x80000000	-0.0
75	0x80000000	-0.0
76	0x80000000	-0.0
77	0x80000000	-0.0
78	0x80000000	-0.0
79	0x80000000	-0.0
80	0x80000000	-0.0
81	0x3d2316cf	0.039816674
82	0x3e10a853	0.1412671
83	0x3e062c6f	0.13102888
84	0xbc2a3a4a	-0.010389874
85	0x3e569d1c	0.2095837
86	0x3de76c0a	0.11299904
87	0xbe0cd055	-0.13751347
88	0xbcf0c1e9	-0.029389339
89	0xbe0dad65	-0.13835676
90	0x3d7a2269	0.061067972
91	0x3e1422e7	0.14466439
92	0x3dffcac2	0.12489845
93	0x3ce5d453	0.028055346
94	0x3e6e87ce	0.23293993
95	0x3e1b8bb9	0.15190019
96	0xbc86dadb	-0.01646178
97	0x3deba4db	0.11506053
98	0xbb8feb34	-0.004392052
99	0x3e0e2574	0.13881475
100	0x3e089053	0.13336305
101	0x3e180531	0.1484573
102	0xbd0904cf	-0.03345185
103	0x3da1cbcf	0.079002015
104	0x3d919a23	0.07109477
105	0x3c27769e	0.010221152
106	0x3d85a23c	0.065250844
107	0x3ceadf85	0.028671036
108	0xbdfce34e	-0.123480424
109	0xbbd5e076	-0.006527002
110	0xbd26f152	-0.040757485
111	0xbdd79858	-0.10527104
112	0x3c6f6564	0.014611576
113	0xbd1bebb0	-0.038066566
114	0xbdd0cd78	-0.1019544
115	0xbc00174b	-0.0078180535
116	0xbd32b95f	-0.043633815
117	0xbd8a1402	-0.067420974
118	0x3c9ed7c1	0.019389989
119	0xbd3538f9	-0.044243786
120	0x3c3da13b	0.011574085
121	0x3deb2964	0.11482504
122	0x3cdb0a07	0.02673818
123	0x3bc989b7	0.00615045
124	0x3dbf1543	0.09330227
125	0x3cf36c15	0.029714623
126	0xbdee9bc9	-0.116508074
127	0xbc9b3381	-0.018945457
128	0xbd9cecb6	-0.076623365
129	0xbcc56bb9	-0.024099218
130	0x3daab543	0.08335354
131	0x3c23d45f	0.009999364
132	0xbd1944c5	-0.0374191
133	0x3d619d70	0.055081785
134	0x36e57f4e	6.839552e-06
135	0x3defe9b9	0.11714501
136	0x3dba5693	0.09098544
137	0x3de2d167	0.110750966
138	0xbd2adcdd	-0.041714538
139	0xbeacc657	-0.3374507
140	0xbd897461	-0.06711651
141	0x3cf9cae3	0.030492252
142	0xbed0d072	-0.4078403
143	0xbe0acad0	-0.1355393
144	0x3da55973	0.08073702
145	0x3e169d49	0.14708437
146	0x3e41aba1	0.18913127
147	0xbdf650bb	-0.12027117
148	0xbe967757	-0.29387924
149	0x3b97d7b0	0.0046338663
150	0xbde7ebcd	-0.11324272
151	0xbecb2e17	-0.396836
152	0xbe07569d	-0.13216634
153	0x3cbdb4df	0.023157535
154	0x3e0ee30a	0.13953796
155	0x3df16cfc	0.11788365
156	0xbccd55fc	-0.025065415
157	0xbdf630db	-0.12021037
158	0x3d5eb1f2	0.05436892
159	0x3d6ead97	0.058271017
160	0xbe0399b7	-0.12851606
161	0x3c68a05f	0.014198392
162	0x3c420626	0.011842286
163	0x3b45b2ad	0.0030166314
164	0x3ba5cee6	0.0050600646
165	0x3cad1a83	0.021130806
166	0x3c2798cf	0.0102293035
167	0x3c3f4a4d	0.0116754295
168	0x3cad2bde	0.021139082
169	0x3c754158	0.014969192
170	0x3c852a0d	0.016255403
171	0x3ba01f58	0.004886549
172	0x3b859a5d	0.0040772394
173	0x3bd247c4	0.0064172465
174	0x3c445be0	0.011984795
175	0x3c1e3fa2	0.009658726
176	0x3c5a2732	0.013315009
177	0x3c27e75a	0.01024803
178	0x3c22f2bd	0.009945569
179	0x3c5e0c96	0.013552805
180	0xba038fc2	-0.0005018675
181	0xbb0c2090	-0.0021381713
182	0xbb0dee3a	-0.0021656887
183	0x3a8d5ef0	0.001078574
184	0xbb38ddf6	-0.002820847
185	0xbaacb802	-0.0013177397
186	0xba7fb4ba	-0.00097544084
187	0xbb34ef42	-0.002760843
188	0xbb0d6a71	-0.0021578337
189	0xbe9fb3a3	-0.3119174
190	0xbe8f37c5	-0.27972236
191	0xbe7466fd	-0.23867412
192	0xbe8d1bdd	-0.2756032
193	0xbe99fd9c	-0.300763
194	0xbe8c7ea2	-0.27440363
195	0xbe873aa2	-0.2641192
196	0xbea33add	-0.31880847
197	0xbe5a7e5a	-0.21337262
198	0xbdc4996c	-0.095995754
199	0x3acb2655	0.0015499095
200	0xbdb4b9fe	-0.08824538
201	0xbce963ef	-0.028490035
202	0x3c3b9f21	0.0114515135
203	0xbddd87e9	-0.108169384
204	0xbd12bdf2	-0.035825677
205	0xbc4000a2	-0.011718901
206	0xbd84edb5	-0.064906515
207	0x3e439b51	0.19102217
208	0x3ea0427b	0.3130072
209	0x3e3c8fc8	0.18414223
210	0x3ea96b22	0.33089548
211	0x3ed3828f	0.41310546
212	0x3e733335	0.23750003
213	0x3eb290c7	0.3487608
214	0x3ecaf06a	0.39636546
215	0x3e97dd09	0.29660824
216	0x39921e89	0.0002787004
217	0xbc512c05	-0.012766843
218	0xbb9cb192	-0.00478191
219	0xbc0042f5	-0.007828464
220	0x3c8ba18e	0.017044809
221	0x3ce983da	0.028505255
222	0x3b131b13	0.0022446557
223	0x3cd0edd7	0.025504036
224	0x3cb0aa52	0.02156559
225	0x3cca6d1d	0.024710232
226	0x3bd26d77	0.0064217406
227	0xba716ee0	-0.0009209942
228	0x3c5b8688	0.013398774
229	0x3d2601a8	0.040528923
230	0x3d0aa637	0.03384992
231	0xbabd75c3	-0.0014454651
232	0x3cc9a1ed	0.024613345
233	0x3c804780	0.015659094
234	0x3ca09d7e	0.019606348
235	0x3c44cc44	0.012011591
236	0x3c123189	0.008922943
237	0x3c9bbea3	0.019011801
238	0x3d5e3d4e	0.054257683
239	0x3d48bbb2	0.049007125
240	0xbb2db3be	-0.002650484
241	0x3d12816e	0.035767965
242	0x3ce56c6e	0.028005805
243	0xbc626df9	-0.013820165
244	0xbcb708d8	-0.022343084
245	0x3d63687a	0.05551956
246	0xbe308401	-0.17237855
247	0xbe224fb5	-0.15850718
248	0xbd9de6d5	-0.07710043
249	0xbe1b927d	-0.151926
250	0xbe209643	-0.1568232
251	0xbe090317	-0.13380085
252	0xbd305999	-0.043054197
253	0xbd44f707	-0.048087146
254	0xbc1f74ec	-0.009732466
255	0xbe03576b	-0.12826316

base.0.1.weight f4 [64]
0	0x3e0caba1	0.13737346
1	0xbcd6a864	-0.026203342
2	0x371e76dd	9.445209e-06
3	0x3e8040c8	0.25049424
4	0x3eae7f99	0.34081724
5	0x3f80229c	1.0010562
6	0xbda50d0d	-0.0805913
7	0x3f731712	0.9495708
8	0xbd20f208	-0.03929332
9	0x3f3ae870	0.7301092
10	0x3de89d9f	0.11358189
11	0x3f006b66	0.50163877
12	0x3af51db3	0.0018700868
13	0x3a08d435	0.00052196096
14	0xbda6c106	-0.08142285
15	0xba946052	-0.001132021
16	0x3ed0ca86	0.40779513
17	0xbbcc0044	-0.0062256176
18	0xbae9066b	-0.0017778402
19	0xb9b1a4af	-0.0003388277
20	0x3e93005b	0.2871121
21	0x3b560bdd	0.003266088
22	0x3ea84485	0.32864776
23	0xbb0766e7	-0.00206607
24	0x3db45f6c	0.08807263
25	0x3f1f9467	0.6233582
26	0x3c6eb724	0.014570031
27	0x3ea85404	0.328766
28	0xbe12ba2f	-0.14328836
29	0x3b37342c	0.002795468
30	0x3c03069c	0.007997181
31	0x3e86610a	0.2624591
32	0x3e4263c0	0.18983364
33	0x3a2a356a	0.00064929447
34	0x3b677ccc	0.0035322187
35	0x3c786728	0.015161313
36	0xba8b3a7d	-0.0010622289
37	0xbb17cdc7	-0.0023163424
38	0x3f41136a	0.7542025
39	0xbb9c31b4	-0.0047666673
40	0x3f204296	0.626016
41	0x3dbd6a79	0.09248824
42	0x3e3ed398	0.18635404
43	0xbb642a26	-0.0034815161
44	0xb9df29a0	-0.00042564888
45	0x3e9a99dd	0.30195513
46	0xba8a7189	-0.00105624
47	0xbb6dd242	-0.0036288654
48	0x3f05998f	0.52187437
49	0xbd9be872	-0.07612695
50	0x3e35b9b3	0.1774662
51	0x3b7bdfd0	0.0038432963
52	0xbba14904	-0.004922034
53	0x3e2bc699	0.16774978
54	0x3db82417	0.089912586
55	0xbe831362	-0.25600725
56	0x3a1ff224	0.00061014504
57	0x3dd51909	0.10405166
58	0x3acde349	0.0015707995
59	0x3a596cb7	0.0008294093
60	0x3af16c64	0.0018419144
61	0x3ccfda8a	0.025372762
62	0x3b0b2878	0.0021233838
63	0x3ec206dd	0.3789586

base.0.1.bias f4 [64]
0	0x3da46ce6	0.08028583
1	0xbd8c7ae2	-0.068593755
2	0xbc33f4e1	-0.010983677
3	0x3f48467f	0.7823257
4	0xbda8c8c4	-0.08241418
5	0xbea33585	-0.3187677
6	0x3c82adec	0.015952073
7	0x3f3a0dad	0.7267712
8	0xbd222d04	-0.03959371
9	0xbf0c84c9	-0.54890114
10	0xbd8f450c	-0.069955915
11	0x3ee9db76	0.45675248
12	0xbb85d8dc	-0.0040846895
13	0xbc1bb082	-0.009502532
14	0x3d6bc98d	0.05756526
15	0xbc544c70	-0.012957677
16	0x3f08c299	0.5342193
17	0xbd9d0d8b	-0.07668599
18	0xbc464f6e	-0.012103898
19	0xbb976869	-0.004620601
20	0xbe29dd4a	-0.16588321
21	0xbc324d6c	-0.010882717
22	0x3e495d4b	0.19664495
23	0xbbff43cb	-0.007790064
24	0xbddba3c5	-0.10724596
25	0x3f55371a	0.83287203
26	0xbcd9c17a	-0.026581515
27	0x3f0c153e	0.54719913
28	0xbd4431dc	-0.047899112
29	0xbc717442	-0.014737191
30	0xbc9653a6	-0.018350434
31	0xbd2eecfa	-0.042706467
32	0xbe0ad99c	-0.13559574
33	0xbc293dec	-0.010329705
34	0xbc1a0b1f	-0.009402066
35	0xbdbaa92a	-0.09114297
36	0xbbf21806	-0.0073881177
37	0xbc2a89de	-0.010408847
38	0x3dc54c24	0.09633663
39	0xbb310394	-0.002701019
40	0x3f1d7840	0.6151161
41	0x3d1c7ab3	0.038202953
42	0xbf092717	-0.5357527
43	0xbc6dacce	-0.014506532
44	0xbb5932ad	-0.0033141777
45	0x3f02de28	0.51120234
46	0xbc47ec37	-0.012202314
47	0xbc910fde	-0.017707761
48	0x3f1d9510	0.61555576
49	0xbd2678b8	-0.04064247
50	0xbc9bf9e6	-0.01904006
51	0x3bbe7a32	0.0058129067
52	0x3c19fa06	0.009397989
53	0xbf4d061d	-0.80087453
54	0xbf4f8e03	-0.8107607
55	0xbe0f057d	-0.13966937
56	0xbc1d61f5	-0.009605874
57	0xbd0cf4df	-0.034413215
58	0xbc31f968	-0.010862686
59	0xbb5e5d5c	-0.0033930158
60	0xbd507505	-0.05089285
61	0x3b8ea8d8	0.004353624
62	0xbbc0d40c	-0.005884653
63	0x3f12b7b2	0.57311547

base.0.1.running_mean f4 [64]
0	0x4103e770	8.244003
1	0x3d7c1453	0.06154282
2	0x00000004	6e-45
3	0xc14c3ca4	-12.764805
4	0x40614337	3.5197275
5	0x4173d0cf	15.238479
6	0xc0198b34	-2.3991213
7	0x421935b7	38.302456
8	0xc01b3f4c	-2.4257383
9	0x417f4fac	15.956951
10	0x4000d274	2.012845
11	0x41a9b43c	21.213005
12	0x80000004	-6e-45
13	0x00000004	6e-45
14	0xbf404f59	-0.75121075
15	0x00000004	6e-45
16	0x4079a856	3.9008994
17	0x400dcb47	2.215532
18	0x80000004	-6e-45
19	0x00000004	6e-45
20	0x3f1e2881	0.61780554
21	0x00000004	6e-45
22	0x40fd34e2	7.9127054
23	0x80000004	-6e-45
24	0x40a1549e	5.0415792
25	0xc0b358ac	-5.604574
26	0x408932e3	4.2874618
27	0xc089e761	-4.3094945
28	0x40844a81	4.1340947
29	0x00000004	6e-45
30	0x80000004	-6e-45
31	0xc1087e61	-8.530854
32	0xc08f511a	-4.47865
33	0x80000004	-6e-45
34	0x80000004	-6e-45
35	0x3e9801aa	0.2968877
36	0x80000004	-6e-45
37	0x80000004	-6e-45
38	0x41c0f8db	24.121511
39	0x80000004	-6e-45
40	0x409762ad	4.7307954
41	0xbf932e59	-1.1498519
42	0xc14281ef	-12.156722
43	0xbfbf1fc9	-1.4931575
44	0x00000004	6e-45
45	0x40f1b444	7.553255
46	0x00000004	6e-45
47	0x80000004	-6e-45
48	0x3ee3d129	0.44495514
49	0x40c71ed1	6.222512
50	0xc0753670	-3.8314476
51	0x00000004	6e-45
52	0x80000004	-6e-45
53	0x418532b2	16.649754
54	0xc0dadf68	-6.8397713
55	0xc0661b74	-3.5954256
56	0x00000004	6e-45
57	0x40307228	2.7569675
58	0x80000004	-6e-45
59	0x80000004	-6e-45
60	0x3f86915b	1.0513109
61	0x00000004	6e-45
62	0x00000004	6e-45
63	0x3fbafecc	1.4609008

base.0.1.running_var f4 [64]
0	0x44fef25f	2039.5741
1	0x42048e1a	33.13877
2	0x00000004	6e-45
3	0x4625bf26	10607.787
4	0x441cfc2c	627.9402
5	0x459ad61a	4954.7627
6	0x42ee668f	119.20031
7	0x46699f30	14951.797
8	0x4426233e	664.55066
9	0x45d74248	6888.285
10	0x43b2ac34	357.34534
11	0x451dbbea	2523.7446
12	0x00000004	6e-45
13	0x00000004	6e-45
14	0x424b3d46	50.809837
15	0x00000004	6e-45
16	0x44e9f6d6	1871.7136
17	0x433d4ff2	189.31229
18	0x00000004	6e-45
19	0x00000004	6e-45
20	0x449fd030	1278.5059
21	0x00000004	6e-45
22	0x4571cf0c	3868.9404
23	0x00000004	6e-45
24	0x43f00e94	480.1139
25	0x45c21553	6210.6655
26	0x44039b83	526.4299
27	0x4411d75e	583.3651
28	0x4441abc5	774.6839
29	0x00000004	6e-45
30	0x00000004	6e-45
31	0x43fd5b26	506.7121
32	0x4618a3eb	9768.9795
33	0x00000004	6e-45
34	0x00000004	6e-45
35	0x43eb900f	471.12546
36	0x00000004	6e-45
37	0x00000004	6e-45
38	0x450ded00	2270.8125
39	0x00000004	6e-45
40	0x4663833b	14560.808
41	0x44229ac1	650.418
42	0x46041d16	8455.271
43	0x42bd7220	94.7229
44	0x00000004	6e-45
45	0x45ded6a0	7130.828
46	0x00000004	6e-45
47	0x00000004	6e-45
48	0x44cfcee8	1662.4658
49	0x43e23396	452.403
50	0x43f5fea4	491.98938
51	0x00000004	6e-45
52	0x00000004	6e-45
53	0x45d33059	6758.0435
54	0x4490e732	1159.2249
55	0x447d4170	1013.02246
56	0x00000004	6e-45
57	0x4311bedc	145.74554
58	0x00000004	6e-45
59	0x00000004	6e-45
60	0x436cb0d5	236.69075
61	0x00000004	6e-45
62	0x00000004	6e-45
63	0x44252dd7	660.71625

base.1.conv.0.weight f4 [64, 1, 3, 3]
0	0x3cc05fb9	0.023483144
1	0x3d095d28	0.033536106
2	0x3ca2427e	0.019807097
3	0x3d48c320	0.04901421
4	0x3d021644	0.031759515
5	0x3cb676e2	0.022273485
6	0x3cb60a31	0.022221657
7	0x3c377e5f	0.011199563
8	0x3bcb60ea	0.0062066214
9	0x80002081	-1.166e-41
10	0x8000cd60	-7.3675e-41
11	0x0000cc19	7.3216e-41
12	0x00000682	2.335e-42
13	0x0000160a	7.906e-42
14	0x8000c3a5	-7.0184e-41
15	0x0000c426	7.0365e-41
16	0x8000cbc1	-7.3093e-41
17	0x0000cd0c	7.3557e-41
18	0x8000cd1d	-7.3581e-41
19	0x8000081f	-2.913e-42
20	0x0000ce07	7.3909e-41
21	0x0000c051	6.899e-41
22	0x8000ce2b	-7.3959e-41
23	0x8000c049	-6.8979e-41
24	0x0000ce0e	7.3918e-41
25	0x0000c06d	6.903e-41
26	0x8000e874	-8.3388e-41
27	0x3e8329d8	0.25617862
28	0x3f1def09	0.61692864
29	0x3ded2045	0.115784205
30	0x3e6bdd14	0.23033553
31	0x3ddca54b	0.10773715
32	0x3d9875c4	0.07444337
33	0xbe476e45	-0.19475658
34	0xbf86c623	-1.0529217
35	0xbe176c5f	-0.14787434
36	0x0000c363	7.0092e-41
37	0x8000c29f	-6.9817e-41
38	0x0000cbad	7.3065e-41
39	0x80000523	-1.843e-42
40	0x000079dc	4.3715e-41
41	0x000022a1	1.2423e-41
42	0x800022f7	-1.2543e-41
43	0x0000137b	6.988e-42
44	0x0000cde2	7.3857e-41
45	0xbda451da	-0.080234244
46	0x3f3de048	0.7417035
47	0xbe0121ea	-0.12610593
48	0xbe00fbfa	-0.12596121
49	0xbf00f482	-0.5037309
50	0x3deb9aa0	0.11504102
51	0x3db7e6f0	0.08979595
52	0xbe7feb0e	-0.2499201
53	0x3d929972	0.071581736
54	0x0000c124	6.9286e-41
55	0x0000c093	6.9083e-41
56	0x80000862	-3.007e-42
57	0x0000cd5e	7.3672e-41
58	0x8000cdd7	-7.3841e-41
59	0x8000053e	-1.88e-42
60	0x0000ce15	7.3928e-41
61	0x8000c461	-7.0447e-41
62	0x8000082e	-2.934e-42
63	0xbeb1e403	-0.34744272
64	0xbe85cac6	-0.26131266
65	0xbea3a018	-0.3195808
66	0xbe05dd4b	-0.13072698
67	0x3c125223	0.008930716
68	0xbdc11728	-0.09428245
69	0x3e9d960f	0.30778548
70	0x3f0bdad8	0.54630804
71	0x3e8afe97	0.27147362
72	0x000020ee	1.1813e-41
73	0x8000103e	-5.827e-42
74	0x8000071a	-2.548e-42
75	0x80001028	-5.796e-42
76	0x000016b6	8.147e-42
77	0x80000a84	-3.772e-42
78	0x80001086	-5.927e-42
79	0x0000ce31	7.3968e-41
80	0x0000c2f2	6.9933e-41
81	0x80000000	-0.0
82	0x00000000	0.0
83	0x80000000	-0.0
84	0x80000000	-0.0
85	0x80000000	-0.0
86	0x80000000	-0.0
87	0x00000000	0.0
88	0x80000000	-0.0
89	0x00000000	0.0
90	0x8000cbf3	-7.3163e-41
91	0x0000cbf2	7.3162e-41
92	0x000008a6	3.102e-42
93	0x0000c3e3	7.0271e-41
94	0x0000c053	6.8993e-41
95	0x000079da	4.3712e-41
96	0x000019b4	9.22e-42
97	0x80000517	-1.826e-42
98	0x80000513	-1.82e-42
99	0xbc070475	-0.008240809
100	0x3d999c90	0.07500565
101	0xbba215ca	-0.004946445
102	0x3d0d9823	0.034568917
103	0x3e3c2fb0	0.18377566
104	0x3ce0cd1c	0.027441554
105	0x3c0adc0c	0.008475315
106	0x3d85c0f1	0.06530941
107	0x3a662f59	0.0008780859
108	0x0000cc42	7.3274e-41
109	0x0000cbf8	7.317e-41
110	0x800008d7	-3.171e-42
111	0x8000053b	-1.876e-42
112	0x00000699	2.367e-42
113	0x800016cc	-8.178e-42
114	0x0000c146	6.9333e-41
115	0x0000ccc3	7.3455e-41
116	0x80000253	-8.34e-43
117	0x800008ba	-3.13e-42
118	0x8000ce2d	-7.3962e-41
119	0x80000878	-3.038e-42
120	0x0000c47e	7.0488e-41
121	0x8000cd6a	-7.3689e-41
122	0x8000c44e	-7.0421e-41
123	0x80001ac7	-9.606e-42
124	0x0000c369	7.01e-41
125	0x0000cbc3	7.3096e-41
126	0x80000861	-3.006e-42
127	0x8000cb82	-7.3005e-41
128	0x0000cd05	7.3547e-41
129	0x000002ff	1.075e-42
130	0x0000c3db	7.026e-41
131	0x0000cca4	7.3411e-41
132	0x0000bf88	6.8708e-41
133	0x0000cc12	7.3207e-41
134	0x80001ecc	-1.1048e-41
135	0x80000000	-0.0
136	0x00000000	0.0
137	0x80000000	-0.0
138	0x80000000	-0.0
139	0x00000000	0.0
140	0x00000000	0.0
141	0x80000000	-0.0
142	0x80000000	-0.0
143	0x80000000	-0.0
144	0x3db7b3ae	0.08969818
145	0x3d066091	0.032806937
146	0x3d82ffc3	0.06396439
147	0xbd1e667d	-0.03867196
148	0xbf33b164	-0.7019255
149	0x3dcbbd98	0.099482715
150	0xbe0dac31	-0.13835217
151	0x3e8a13d3	0.2696825
152	0xbdd662e3	-0.1046808
153	0x0000cd28	7.3596e-41
154	0x8000c37b	-7.0125e-41
155	0x0000cae4	7.2783e-41
156	0x0000c352	7.0068e-41
157	0x8000cd4b	-7.3645e-41
158	0x0000c41d	7.0352e-41
159	0x0000c207	6.9604e-41
160	0x0000c470	7.0468e-41
161	0x8000cb6b	-7.2973e-41
162	0x80000000	-0.0
163	0x80000000	-0.0
164	0x00000000	0.0
165	0x80000000	-0.0
166	0x00000000	0.0
167	0x80000000	-0.0
168	0x00000000	0.0
169	0x00000000	0.0
170	0x00000000	0.0
171	0x00000000	0.0
172	0x00000000	0.0
173	0x80000000	-0.0
174	0x00000000	0.0
175	0x80000000	-0.0
176	0x80000000	-0.0
177	0x80000000	-0.0
178	0x00000000	0.0
179	0x80000000	-0.0
180	0x00000000	0.0
181	0x00000000	0.0
182	0x80000000	-0.0
183	0x00000000	0.0
184	0x00000000	0.0
185	0x80000000	-0.0
186	0x00000000	0.0
187	0x80000000	-0.0
188	0x80000000	-0.0
189	0x80000000	-0.0
190	0x00000000	0.0
191	0x80000000	-0.0
192	0x80000000	-0.0
193	0x00000000	0.0
194	0x80000000	-0.0
195	0x00000000	0.0
196	0x80000000	-0.0
197	0x80000000	-0.0
198	0x8000cb31	-7.2891e-41
199	0x8000ccd2	-7.3476e-41
200	0x8000cdef	-7.3875e-41
201	0x0000cdf1	7.3878e-41
202	0x00001b39	9.766e-42
203	0x80002307	-1.2565e-41
204	0x00001433	7.246e-42
205	0x8000ccb2	-7.3431e-41
206	0x80000711	-2.535e-42
207	0x00000000	0.0
208	0x00000000	0.0
209	0x80000000	-0.0
210	0x80000000	-0.0
211	0x00000000	0.0
212	0x00000000	0.0
213	0x00000000	0.0
214	0x80000000	-0.0
215	0x00000000	0.0
216	0x8000bf99	-6.8732e-41
217	0x00001102	6.101e-42
218	0x8000c1e2	-6.9552e-41
219	0x00001048	5.84e-42
220	0x0000cd1f	7.3584e-41
221	0x00000686	2.34e-42
222	0x800022c0	-1.2466e-41
223	0x800007e5	-2.832e-42
224	0x8000c2bb	-6.9856e-41
225	0x3d98bff8	0.0745849
226	0x3ddfe0e6	0.10931568
227	0x3dac6b99	0.0841896
228	0x3d05b48c	0.032642886
229	0x3e642ed4	0.22283489
230	0x3d17b0eb	0.037033956
231	0xbe0e235f	-0.1388068
232	0x3e1f5752	0.15560654
233	0xbdc1e850	-0.09468138
234	0x00000000	0.0
235	0x80000000	-0.0
236	0x80000000	-0.0
237	0x80000000	-0.0
238	0x80000000	-0.0
239	0x80000000	-0.0
240	0x80000000	-0.0
241	0x80000000	-0.0
242	0x00000000	0.0
243	0x3d37adc6	0.044843458
244	0xbf089a67	-0.533606
245	0x3dd30b39	0.10304875
246	0x3c5b9edc	0.013404574
247	0x3f1fd4a6	0.6243385
248	0x3c818f31	0.01581535
249	0x3b479c5b	0.0030458185
250	0xbd90fc7f	-0.0707941
251	0xbc146910	-0.009058252
252	0x3d7619a4	0.060083047
253	0x3da8a633	0.08234825
254	0x3d38db86	0.04513123
255	0x3d56bed0	0.052428067

base.1.conv.0.bias f4 [64]
0	0x38cd359f	9.7851495e-05
1	0x8000c101	-6.9237e-41
2	0x8000cd00	-7.354e-41
3	0x3778d56c	1.4831643e-05
4	0x00001c8a	1.0238e-41
5	0xb96ca810	-0.00022569322
6	0x8000052b	-1.854e-42
7	0x38263b4a	3.96327e-05
8	0x80000521	-1.84e-42
9	0x80000000	-0.0
10	0x0000cbe7	7.3146e-41
11	0x36bdf34e	5.6609633e-06
12	0x800008cc	-3.156e-42
13	0x80000539	-1.874e-42
14	0x0000cc59	7.3306e-41
15	0x80000000	-0.0
16	0xb909520e	-0.00013095906
17	0x8000cae2	-7.278e-41
18	0x00000000	0.0
19	0x00000000	0.0
20	0x00000000	0.0
21	0x80000000	-0.0
22	0x0000cc5a	7.3308e-41
23	0x80000000	-0.0
24	0x0000cc15	7.3211e-41
25	0x3873baad	5.810957e-05
26	0x00000000	0.0
27	0x38fcdd98	0.000120575714
28	0xb8a1e332	-7.719397e-05
29	0x00000000	0.0
30	0x80000000	-0.0
31	0x80000000	-0.0
32	0x38c6207f	9.4474286e-05
33	0x00000000	0.0
34	0x00000000	0.0
35	0x00000000	0.0
36	0x00000000	0.0
37	0x80000000	-0.0
38	0xb8c4eed5	-9.390494e-05
39	0x00000000	0.0
40	0xb80c0e7b	-3.3392087e-05
41	0x80000000	-0.0
42	0xb8b18330	-8.464453e-05
43	0x80000000	-0.0
44	0x00000000	0.0
45	0xb9854376	-0.00025418
46	0x80000000	-0.0
47	0x00000000	0.0
48	0x38447bb0	4.6845234e-05
49	0x80000000	-0.0
50	0x00000000	0.0
51	0x00000000	0.0
52	0x00000000	0.0
53	0xb8522104	-5.009865e-05
54	0xb83c4ff9	-4.4897173e-05
55	0xb9623af8	-0.00021575007
56	0x80000000	-0.0
57	0x80000000	-0.0
58	0x80000000	-0.0
59	0x80000000	-0.0
60	0x00000000	0.0
61	0x80000000	-0.0
62	0x80000000	-0.0
63	0xb8214eae	-3.8458667e-05

base.1.conv.1.weight f4 [64]
0	0xbe4fe4ab	-0.20302074
1	0x80000814	-2.898e-42
2	0x0000c12b	6.9296e-41
3	0x3f33d811	0.70251566
4	0x8000051d	-1.834e-42
5	0x3e8dba75	0.27681318
6	0x8000cde8	-7.3865e-41
7	0x3eb8aa04	0.36067212
8	0x8000119b	-6.316e-42
9	0x0000c439	7.0391e-41
10	0x8000c1c4	-6.951e-41
11	0x3eb678c7	0.3563902
12	0x8000cbb1	-7.3071e-41
13	0x80000e2b	-5.083e-42
14	0x0000167b	8.064e-42
15	0x0000f5ee	8.8223e-41
16	0x3eb48e5d	0.35264865
17	0x0000184f	8.72e-42
18	0x000021db	1.2145e-41
19	0x0000cba2	7.305e-41
20	0x80000857	-2.992e-42
21	0x0000f8da	8.9271e-41
22	0x8000c439	-7.0391e-41
23	0x8000c3eb	-7.0282e-41
24	0x8000cb95	-7.3031e-41
25	0x3ef5b342	0.47988325
26	0x80001769	-8.398e-42
27	0x3eb80ac2	0.35945708
28	0xbe9e4b2e	-0.30916733
29	0x0000c47f	7.049e-41
30	0x0000cb64	7.2963e-41
31	0x0000cbe8	7.3148e-41
32	0x3f0e26f1	0.5552817
33	0x80001446	-7.273e-42
34	0x000015be	7.8e-42
35	0x0000c33d	7.0038e-41
36	0x8000cd4e	-7.365e-41
37	0x00001317	6.848e-42
38	0x3edac377	0.42727253
39	0x0000195c	9.097e-42
40	0x3edca242	0.43092543
41	0x8000cd57	-7.3662e-41
42	0x3f171953	0.59023017
43	0x80000f33	-5.452e-42
44	0x0000085c	2.999e-42
45	0x3ec4fa2a	0.3847211
46	0x0000c2a3	6.9822e-41
47	0x8000090c	-3.245e-42
48	0x3ea81e9e	0.3283586
49	0x8000f59c	-8.8108e-41
50	0x00002312	1.2581e-41
51	0x00001d8e	1.0602e-41
52	0x0000050e	1.813e-42
53	0x3f0f0acb	0.55875844
54	0x3ebf9f8b	0.3742641
55	0x3e4feb9f	0.20304726
56	0x0000c142	6.9328e-41
57	0x0000115e	6.23e-42
58	0x0000cde2	7.3857e-41
59	0x80001634	-7.965e-42
60	0x0000cd19	7.3575e-41
61	0x00000497	1.647e-42
62	0x80000529	-1.851e-42
63	0x3f002b2c	0.50065875

base.1.conv.1.bias f4 [64]
0	0xbdaf568d	-0.0856143
1	0x849b1cf1	-3.6466903e-36
2	0x851a0ce4	-7.243413e-36
3	0x3e1f10a4	0.15533692
4	0x8601aa91	-2.4387516e-35
5	0x3f28359f	0.6570682
6	0x85f592e8	-2.3093654e-35
7	0x3e860180	0.2617302
8	0x04cd9ceb	4.8339375e-36
9	0x86133525	-2.7686672e-35
10	0x05d35e76	1.9877044e-35
11	0xbe69ef63	-0.22845225
12	0x062320b7	3.0680928e-35
13	0x84f3c986	-5.7314095e-36
14	0x05df732c	2.1013127e-35
15	0x85a776d4	-1.5748255e-35
16	0x3f08805e	0.5332087
17	0x06064c4c	2.5258653e-35
18	0x860cc91b	-2.6478822e-35
19	0x0444877d	2.3101902e-36
20	0x84951062	-3.5044777e-36
21	0x85cbda5b	-1.917024e-35
22	0x05f14b90	2.2691288e-35
23	0x059678d4	1.4150317e-35
24	0x848144c8	-3.039092e-36
25	0x3e46bffd	0.19409175
26	0x053fc28b	9.016509e-36
27	0x3da17f80	0.07885647
28	0xbdb9d181	-0.09073163
29	0x858f6767	-1.348564e-35
30	0x03ec94da	1.3905008e-36
31	0x85bf9f19	-1.8019997e-35
32	0x3cbaec47	0.022817744
33	0x05c0daba	1.813594e-35
34	0x851d5082	-7.3968915e-36
35	0x05e2cdcc	2.1328536e-35
36	0x04fc9de3	5.938991e-36
37	0x059148f8	1.3662539e-35
38	0xbd8246a6	-0.06361131
39	0x85cfd787	-1.9545359e-35
40	0x3db02cd6	0.08602302
41	0x8449a47d	-2.3702966e-36
42	0x3e603398	0.21894681
43	0x04d6bd16	5.0484806e-36
44	0x05d45e18	1.9970949e-35
45	0xbc8ac3eb	-0.016939124
46	0x859110c6	-1.3641896e-35
47	0x059afaed	1.4574266e-35
48	0x3e4580ca	0.1928741
49	0x8624d014	-3.0997843e-35
50	0x04acd197	4.0629484e-36
51	0x8582cf90	-1.2301388e-35
52	0x84c1db0e	-4.5575252e-36
53	0x3ec937f8	0.39300513
54	0xbec2ceee	-0.380485
55	0x3de46e6a	0.11153872
56	0x85d99a26	-2.0463207e-35
57	0x8443d160	-2.301828e-36
58	0x067697e2	4.6379044e-35
59	0x058b59e2	1.3104515e-35
60	0x85a70b7b	-1.5708822e-35
61	0x05c6e896	1.8705269e-35
62	0x06099556	2.587655e-35
63	0xbcf4a02b	-0.02986153

base.1.conv.1.running_mean f4 [64]
0	0x3ca3531d	0.019937092
1	0x8000c0ce	-6.9165e-41
2	0x8000ccb5	-7.3435e-41
3	0x3b9d4773	0.004799777
4	0x00001c76	1.021e-41
5	0x3b8fe064	0.004390763
6	0x00000508	1.805e-42
7	0xbc79cf7e	-0.015247224
8	0x80000d05	-4.67e-42
9	0x00000004	6e-45
10	0x0000bbb1	6.7331e-41
11	0x3e3a1b89	0.18174566
12	0x80000a7c	-3.761e-42
13	0x800004f1	-1.773e-42
14	0x0000fc42	9.0493e-41
15	0x00000004	6e-45
16	0xbe6fc12c	-0.23413533
17	0x8000e318	-8.1466e-41
18	0x80000004	-6e-45
19	0x00000004	6e-45
20	0x80000004	-6e-45
21	0x00000004	6e-45
22	0x000048f6	2.6173e-41
23	0x80000004	-6e-45
24	0x0000e175	8.0879e-41
25	0x3ece7dce	0.40330356
26	0x80000004	-6e-45
27	0x3dd9aba1	0.10628439
28	0xbb3103f0	-0.0027010404
29	0x80000004	-6e-45
30	0x00000004	6e-45
31	0x80000004	-6e-45
32	0x3cf97308	0.030450359
33	0x80000004	-6e-45
34	0x00000004	6e-45
35	0x80000004	-6e-45
36	0x00000004	6e-45
37	0x80000004	-6e-45
38	0xbd88c1a6	-0.066775605
39	0x80000004	-6e-45
40	0x3e8eaacb	0.2786468
41	0x80000004	-6e-45
42	0xbc310ed9	-0.010806763
43	0x80000004	-6e-45
44	0x80000004	-6e-45
45	0xbc2c66ac	-0.010522526
46	0x00000004	6e-45
47	0x80000004	-6e-45
48	0x3c236e97	0.009975097
49	0x00000004	6e-45
50	0x80000004	-6e-45
51	0x80000004	-6e-45
52	0x80000004	-6e-45
53	0x3c963675	0.018336514
54	0x3ca6718f	0.02031782
55	0xbc2b162e	-0.0104423
56	0x00000004	6e-45
57	0x00000004	6e-45
58	0x80000004	-6e-45
59	0x00000004	6e-45
60	0x80000004	-6e-45
61	0x00000004	6e-45
62	0x00000004	6e-45
63	0xbcdaf628	-0.026728705

base.1.conv.1.running_var f4 [64]
0	0x3a23d56a	0.0006249758
1	0x00000004	6e-45
2	0x00000004	6e-45
3	0x3c9cb7ee	0.019130673
4	0x00000004	6e-45
5	0x3d1e19f6	0.038598977
6	0x00000004	6e-45
7	0x3d5d6b60	0.05405748
8	0x00000004	6e-45
9	0x00000004	6e-45
10	0x00000004	6e-45
11	0x3cef952c	0.029245935
12	0x00000004	6e-45
13	0x00000004	6e-45
14	0x00000004	6e-45
15	0x00000004	6e-45
16	0x3d398d89	0.045300994
17	0x00000004	6e-45
18	0x00000004	6e-45
19	0x00000004	6e-45
20	0x00000004	6e-45
21	0x00000004	6e-45
22	0x00000004	6e-45
23	0x00000004	6e-45
24	0x00000004	6e-45
25	0x3db1a94e	0.086748704
26	0x00000004	6e-45
27	0x3d1d7d9a	0.03844986
28	0x3a91e6de	0.0011131426
29	0x00000004	6e-45
30	0x00000004	6e-45
31	0x00000004	6e-45
32	0x3b85a455	0.004078428
33	0x00000004	6e-45
34	0x00000004	6e-45
35	0x00000004	6e-45
36	0x00000004	6e-45
37	0x00000004	6e-45
38	0x3d0ec0f9	0.034852
39	0x00000004	6e-45
40	0x3d4e21fa	0.05032537
41	0x00000004	6e-45
42	0x3b26067d	0.0025333457
43	0x00000004	6e-45
44	0x00000004	6e-45
45	0x3c35dcbf	0.011099993
46	0x00000004	6e-45
47	0x00000004	6e-45
48	0x3d32eb54	0.043681458
49	0x00000004	6e-45
50	0x00000004	6e-45
51	0x00000004	6e-45
52	0x00000004	6e-45
53	0x3ab0a3e2	0.0013476575
54	0x3a8a9f89	0.001057611
55	0x3a7326fa	0.00092755223
56	0x00000004	6e-45
57	0x00000004	6e-45
58	0x00000004	6e-45
59	0x00000004	6e-45
60	0x00000004	6e-45
61	0x00000004	6e-45
62	0x00000004	6e-45
63	0x3d3a9edf	0.045561668

base.1.conv.3.weight f4 [64, 64, 1, 1]
0	0xbca5cfa3	-0.02024061
1	0x85d3526f	-1.9872626e-35
2	0x863123ef	-3.33164e-35
3	0xbce6c6a0	-0.028170884
4	0x06e36788	8.5540035e-35
5	0x3cb2da23	0.021832531
6	0x06d8b81f	8.152071e-35
7	0x3d78ebb0	0.060771644
8	0x8744767b	-1.4780219e-34
9	0x84921602	-3.4344646e-36
10	0x868d5b34	-5.3172316e-35
11	0x3cb0cb60	0.021581352
12	0x054a4ef7	9.512498e-36
13	0x86f18cd0	-9.086103e-35
14	0x863390b9	-3.3772484e-35
15	0x86aded7a	-6.542431e-35
16	0xbd422076	-0.04739424
17	0x85ec3f96	-2.2216691e-35
18	0x842f223e	-2.0586874e-36
19	0x04a181b2	3.7970024e-36
20	0x065fdc02	4.2103275e-35
21	0x85462b9d	-9.317926e-36
22	0x871614e8	-1.129089e-34
23	0x0577aa7a	1.1645196e-35
24	0x864a68cd	-3.8068973e-35
25	0x3b844aae	0.004037223
26	0x8685799e	-5.020774e-35
27	0x3bff77d2	0.007796266
28	0xbd20e5bb	-0.039281588
29	0x8435d6dc	-2.1375106e-36
30	0x8701c7fd	-9.763653e-35
31	0x852a0a93	-7.995304e-36
32	0xbc992d63	-0.0186984
33	0x870eb9bb	-1.0737474e-34
34	0x86e63703	-8.6597217e-35
35	0x86a7072f	-6.2828973e-35
36	0x06d8e4b2	8.1586207e-35
37	0x86275a14	-3.1475388e-35
38	0x3c9d42ba	0.019196857
39	0x86a7d9ac	-6.313826e-35
40	0xbc62200b	-0.013801585
41	0x866206a7	-4.2510763e-35
42	0xbd50a069	-0.05093423
43	0x854d8e51	-9.665193e-36
44	0x861299e0	-2.7572598e-35
45	0xbcd79a0b	-0.02631857
46	0x872f9a40	-1.3210867e-34
47	0x86a10790	-6.057258e-35
48	0xbd400839	-0.04688284
49	0x85eb3795	-2.2119711e-35
50	0x8710dbf6	-1.0897997e-34
51	0x8754b4ff	-1.6002297e-34
52	0x855740e7	-1.0121172e-35
53	0xbd246b74	-0.040141538
54	0xbd0f3130	-0.03495902
55	0xbd29384e	-0.041313462
56	0x061a2fd7	2.8999328e-35
57	0x87281482	-1.2644942e-34
58	0x855c496d	-1.03578365e-35
59	0x86165e2a	-2.8281045e-35
60	0x0675aedb	4.6207842e-35
61	0x059dfbeb	1.4856749e-35
62	0x06d06f72	7.840466e-35
63	0x3d808545	0.06275419
64	0xbbd3574d	-0.006449616
65	0x0711e569	1.0976005e-34
66	0x071afb9b	1.1659613e-34
67	0x3c84ad95	0.016196052
68	0x06c69fb6	7.4713996e-35
69	0x3c15e585	0.00914896
70	0x07813f60	1.9447011e-34
71	0xbc424de3	-0.01185939
72	0x065e4c04	4.1809407e-35
73	0x068e10ef	5.3439345e-35
74	0x04e1e25e	5.310513e-36
75	0x3d06b01c	0.032882795
76	0x06d2ecf4	7.934139e-35
77	0x05cd4e89	1.9306957e-35
78	0x06c40e50	7.3748036e-35
79	0x07844efd	1.9907578e-34
80	0x3cf68615	0.030093232
81	0x86da6507	-8.215093e-35
82	0x06379e67	3.453485e-35
83	0x070ce8c3	1.0600832e-34
84	0x07439c2e	1.4716067e-34
85	0x0704b54d	9.983856e-35
86	0x85d1e1a1	-1.9737149e-35
87	0x07295009	1.2737667e-34
88	0x0683ecb2	4.9624516e-35
89	0x3d09b4ea	0.0336198
90	0x85e269cf	-2.1291806e-35
91	0x3c8afbad	0.016965711
92	0x3d0195d3	0.031637024
93	0x05810feb	1.2136949e-35
94	0x86d455e2	-7.987173e-35
95	0x0669e7fa	4.399286e-35
96	0x3b8a419b	0.0042192466
97	0x06d1880b	7.881696e-35
98	0x04cc6f43	4.8062347e-36
99	0x069feb18	6.015459e-35
100	0x0642f7ae	3.666931e-35
101	0x06c2e030	7.3304103e-35
102	0xbc473352	-0.012158232
103	0x06dd9ee6	8.336444e-35
104	0x39e3c91a	0.00043446646
105	0x06ce463e	7.75918e-35
106	0x3cadf8cd	0.021236802
107	0x06891381	5.156233e-35
108	0x07607bed	1.6888306e-34
109	0x3d2a43f1	0.0415687
110	0x06f7f3e9	9.326947e-35
111	0x059faaad	1.5014985e-35
112	0x3c057b92	0.008147137
113	0x0762343a	1.7017698e-34
114	0x06ced45a	7.780061e-35
115	0x076caf51	1.7806188e-34
116	0x06fb215f	9.446474e-35
117	0xbce5c56c	-0.02804824
118	0xbc8bf298	-0.017083451
119	0x3ce9be64	0.028533168
120	0x854b93c8	-9.572157e-36
121	0x0724a536	1.238654e-34
122	0x0685a67b	5.027366e-35
123	0x07043956	9.947426e-35
124	0x073548f5	1.3638367e-34
125	0x058d9278	1.331338e-35
126	0x8512e73f	-6.90736e-36
127	0x3d5abbdd	0.053401817
128	0x3cf8ba24	0.030362196
129	0x87109d5e	-1.0879602e-34
130	0x857c656e	-1.1867613e-35
131	0x3da703b4	0.08155003
132	0x871886c2	-1.1474811e-34
133	0x3d556777	0.052100625
134	0x86ee93f1	-8.974303e-35
135	0x3d69f1dd	0.057115424
136	0x86c88a05	-7.543444e-35
137	0x862e0d01	-3.2735316e-35
138	0x86e1f19a	-8.4990595e-35
139	0xbbe5c06a	-0.007011463
140	0x8707f57d	-1.0228414e-34
141	0x86fd5156	-9.5287535e-35
142	0x870fdde8	-1.0823337e-34
143	0x86b6028e	-6.8464545e-35
144	0x3d8d4ed6	0.068998024
145	0x8690beac	-5.4446947e-35
146	0x87227c60	-1.2224076e-34
147	0x86809274	-4.836344e-35
148	0x86380eb5	-3.461736e-35
149	0x0600db73	2.423535e-35
150	0x06623253	4.2542848e-35
151	0x86ecac90	-8.902689e-35
152	0x86a46b7e	-6.184789e-35
153	0x3cacba6b	0.021084985
154	0x8683d6e4	-4.9592477e-35
155	0x39a344ce	0.00031141046
156	0x3cbde722	0.023181502
157	0x05f66f46	2.3174604e-35
158	0x06722094	4.5539076e-35
159	0x86630ab3	-4.2701815e-35
160	0x3dc9aa3e	0.09846924
161	0x874a5a03	-1.5223243e-34
162	0x86bf5dbf	-7.198396e-35
163	0x8782c7e7	-1.9677718e-34
164	0x86121ac2	-2.7479207e-35
165	0x868813be	-5.118652e-35
166	0x3c99e86a	0.018787581
167	0x8613dae2	-2.7808437e-35
168	0x3d7a2858	0.06107363
169	0x86259519	-3.114259e-35
170	0xbdf06de9	-0.11739714
171	0x87163ccb	-1.1302611e-34
172	0x858a3150	-1.2995572e-35
173	0x3dbd29d5	0.092364945
174	0x871070b2	-1.0866474e-34
175	0x86d21709	-7.902707e-35
176	0xbd420172	-0.04736466
177	0x85d3f5bc	-1.9932613e-35
178	0x860b03ef	-2.6145884e-35
179	0x870ab62a	-1.0435499e-34
180	0x8682d047	-4.92066e-35
181	0x3d11a883	0.035561096
182	0xbd1c2964	-0.03812541
183	0x3c6376b3	0.013883281
184	0x85bfb032	-1.8026278e-35
185	0x86c1d402	-7.291005e-35
186	0x84bb6888	-4.4059486e-36
187	0x8714798a	-1.117e-34
188	0x03c9b355	1.1854891e-36
189	0x053e98dc	8.961833e-36
190	0x05cec512	1.9444539e-35
191	0xbd90c996	-0.070696995
192	0xbd3dfccf	-0.046383675
193	0x864ea4b4	-3.8865299e-35
194	0x8544b31b	-9.248772e-36
195	0xbe0d35d8	-0.13790071
196	0x04b77182	4.3127334e-36
197	0x3df7be92	0.12096895
198	0x0654d702	4.003073e-35
199	0xbd77cbcc	-0.06049709
200	0x85b1694a	-1.6683677e-35
201	0x854e788c	-9.7082144e-36
202	0x85d03bc5	-1.9582182e-35
203	0xbe6649d2	-0.22489098
204	0x85dc3016	-2.0706365e-35
205	0x8481e125	-3.0534517e-36
206	0x056c9f02	1.1125872e-35
207	0x86b5803f	-6.8273073e-35
208	0x3e0bca75	0.1365145
209	0x86147cb3	-2.792732e-35
210	0x846f8d6a	-2.815925e-36
211	0x053e77a8	8.9557344e-36
212	0x85051cf3	-6.258947e-36
213	0x864db197	-3.8686687e-35
214	0x84aab165	-4.012972e-36
215	0x84b0b299	-4.1541417e-36
216	0x85f9720a	-2.3457739e-35
217	0xbe375393	-0.17902975
218	0x03e8e0ee	1.3687376e-36
219	0xbd921fac	-0.07134947
220	0xbdd4de58	-0.10393971
221	0x868d3c1d	-5.3126634e-35
222	0x05c06f27	1.8096424e-35
223	0x855266d2	-9.893038e-36
224	0xbf244d3a	-0.6418034
225	0x863ae3c6	-3.5150053e-35
226	0x8539fd15	-8.745142e-36
227	0x8596aa2a	-1.416844e-35
228	0x863bf76c	-3.5352568e-35
229	0x04c88f21	4.7151217e-36
230	0xbe9bc30b	-0.30422243
231	0x05b606be	1.7117674e-35
232	0xbeb7770c	-0.35833013
233	0x861221f5	-2.7484496e-35
234	0xbd8d0db8	-0.06887382
235	0x85ea5597	-2.2036695e-35
236	0x058562d9	1.2543571e-35
237	0xbda1df6a	-0.07903941
238	0x854f6d4c	-9.753168e-36
239	0x86807843	-4.832496e-35
240	0x3e1d9bb0	0.15391421
241	0x04de4dd1	5.2263412e-36
242	0x8682fa5a	-4.9268424e-35
243	0x86019418	-2.4371006e-35
244	0x865f0098	-4.1942075e-35
245	0x3b4cfb22	0.0031277617
246	0xbcfc76cd	-0.030818367
247	0xbe0f84f8	-0.14015567
248	0x8708726b	-1.0265127e-34
249	0x06ca4812	7.608985e-35
250	0x04fe991c	5.985572e-36
251	0x84e8e0d9	-5.4749428e-36
252	0x85b70a5f	-1.7213047e-35
253	0x85ff4492	-2.4005274e-35
254	0x04dc967f	5.185996e-36
255	0xbd69901d	-0.057022203

base.1.conv.4.weight f4 [64]
0	0x3ae84981	0.0017722101
1	0x3ac84cb5	0.001528165
2	0xbd28982d	-0.04116075
3	0x3eff4814	0.4985968
4	0x3e13ef5d	0.14446779
5	0x3d188e99	0.037245367
6	0xb9fb44a7	-0.000479256
7	0x3b9fee54	0.004880706
8	0x3dd0ace3	0.101892255
9	0x3e22d90e	0.15903112
10	0x3eb94f9c	0.3619355
11	0x3e02ce25	0.1277395
12	0xbba78faa	-0.0051135616
13	0x3ecbc44a	0.39798194
14	0x3e18e1f4	0.14929944
15	0x3e3cd69a	0.18441239
16	0xbbac45ec	-0.005257359
17	0x3d6ed2ca	0.058306493
18	0x3e0aadf3	0.13542919
19	0x3d407e3e	0.046995394
20	0xbc4d1879	-0.012518042
21	0x3c077b6c	0.008269172
22	0xbd40b500	-0.047047615
23	0x3a969491	0.0011488368
24	0x3e8cc9b9	0.27497652
25	0x3c62739c	0.013821509
26	0x3ed91f0a	0.42406493
27	0x3e369526	0.17830333
28	0x3f2135e7	0.62972873
29	0x3c27974d	0.010228944
30	0xbb2f4aaa	-0.0026747384
31	0x3add5da0	0.0016888864
32	0x3e30b14e	0.17255136
33	0x3b5ad51f	0.003339119
34	0x3efd147b	0.49429688
35	0x3a9091e3	0.0011029806
36	0xbdfd415e	-0.123659834
37	0x3a19fe1f	0.0005874354
38	0x3e8cfef6	0.2753827
39	0x3b315699	0.0027059673
40	0x3e049d64	0.12950665
41	0x3ecb8148	0.3974707
42	0x3e9bd6d4	0.30437338
43	0xbc03f6d2	-0.008054452
44	0xba5ea8ad	-0.00084937626
45	0x3f159ebe	0.58445346
46	0x3e5e9ed2	0.21740273
47	0x3a608646	0.000856493
48	0x3b289990	0.0025726296
49	0xbc23f360	-0.010006756
50	0x3be12d54	0.0068718586
51	0xbbc66597	-0.006054591
52	0x3b180431	0.0023195858
53	0xbdeca533	-0.11554947
54	0x3e943d87	0.28953192
55	0x3e62f4bb	0.2216367
56	0xbe450405	-0.19239815
57	0x3da29aa2	0.0793965
58	0x3b4b8edd	0.0031060495
59	0xbb2c90c9	-0.0026331416
60	0xbb3bd55b	-0.0028661105
61	0xbc050a47	-0.008120126
62	0x3b842fa8	0.0040340014
63	0x3e0f7807	0.1401063

base.1.conv.4.bias f4 [64]
0	0xba8dfffa	-0.0010833733
1	0x3a8af7d1	0.001060242
2	0x39dc1cd3	0.00041983146
3	0xba18a1b0	-0.0005822433
4	0xb86e0240	-5.6745717e-05
5	0xba834441	-0.0010014848
6	0xbaaa0763	-0.0012972172
7	0xba5dac5a	-0.00084561633
8	0xb95553ec	-0.00020344526
9	0xbb0b06a9	-0.0021213687
10	0x394471e2	0.00018734441
11	0x3a4b5331	0.0007756232
12	0xb8a85bd8	-8.0279715e-05
13	0xb98496a9	-0.00025289253
14	0xbb124bbb	-0.002232297
15	0xba31645a	-0.00067669677
16	0xbb0a2600	-0.0021079779
17	0xbb079247	-0.0020686553
18	0x3942bb2a	0.00018571006
19	0xba8c6c1b	-0.001071337
20	0x38a1cc12	7.715089e-05
21	0x3a779a36	0.00094452815
22	0xb5bdef01	-1.4151157e-06
23	0x3a056315	0.0005088312
24	0x3a4f47dd	0.0007907132
25	0x3999de27	0.0002934795
26	0x3b0240a1	0.0019874948
27	0x3a75ab53	0.00093715376
28	0xb98febd9	-0.00027450806
29	0xbb107897	-0.0022044533
30	0x393cb216	0.0001799542
31	0x3a23f6b3	0.00062547176
32	0x3ad0117c	0.0015874351
33	0x3b27a377	0.002557961
34	0x3b6fdf9d	0.003660179
35	0x3b03fb64	0.0020138854
36	0x3a469f6c	0.00075768563
37	0x3a7d59e2	0.00096645777
38	0xb9d1a611	-0.00039987316
39	0x392ffa1e	0.00016782476
40	0x3b378c65	0.0028007266
41	0x3b0955a0	0.0020955577
42	0xba2a5c3b	-0.0006498729
43	0xb9eef8f4	-0.00045580382
44	0x38a0701d	7.650277e-05
45	0xb82e5295	-4.1561743e-05
46	0x38e83a12	0.000110734385
47	0x3aa565c2	0.0012618827
48	0x3ae60db6	0.0017551694
49	0x3917f625	0.00014492178
50	0xb9c670ed	-0.0003784964
51	0x3a33a9f3	0.00068536325
52	0xb99d39bf	-0.00029988398
53	0xbaab81ad	-0.0013084911
54	0xba504887	-0.0007945378
55	0xba8b2575	-0.0010616021
56	0xbafe3e9b	-0.001939732
57	0xba0f6545	-0.00054701074
58	0xba332219	-0.0006833389
59	0xb92b3200	-0.00016326457
60	0x3a3d1d90	0.0007214183
61	0x3a34a408	0.00068908976
62	0x38b40363	8.5837e-05
63	0x3a57ae00	0.0008227527

base.1.conv.4.running_mean f4 [64]
0	0xbd893adb	-0.06700679
1	0x3d7ee14f	0.06222659
2	0x3e145501	0.14485551
3	0xbf061265	-0.5237182
4	0x3e28a445	0.16468914
5	0xbd312e8a	-0.043257274
6	0x00000004	6e-45
7	0xbc9fa3a5	-0.019487211
8	0xbd68e9f9	-0.05686376
9	0xbc9791c5	-0.018502126
10	0x3e826ad6	0.25472134
11	0x3d69c286	0.057070278
12	0x00000004	6e-45
13	0xbdb520ce	-0.088441476
14	0xbdc85ce9	-0.09783346
15	0x3d709e60	0.05874479
16	0x00000004	6e-45
17	0xbcccb9fd	-0.02499103
18	0xbc8d2431	-0.017229171
19	0x3c46fc03	0.012145045
20	0xbd62a68e	-0.05533462
21	0x80000004	-6e-45
22	0x3d35b8b5	0.044365603
23	0x80000004	-6e-45
24	0x3e31ca62	0.17362359
25	0xbbda5e2a	-0.0066640573
26	0x3f041faa	0.51610816
27	0xbe07cbb1	-0.13261296
28	0xbd7ffc3d	-0.062496413
29	0x80000004	-6e-45
30	0x80000004	-6e-45
31	0x00000004	6e-45
32	0x3d47457f	0.04865026
33	0x80000004	-6e-45
34	0x3f0a02e9	0.5391069
35	0x80000004	-6e-45
36	0xbc4f5fe5	-0.01265714
37	0x00000004	6e-45
38	0x3da14e8c	0.0787631
39	0x80000004	-6e-45
40	0x3e92c7ac	0.28667963
41	0xbe85f4fe	-0.26163477
42	0x3d858b5a	0.0652072
43	0x80000004	-6e-45
44	0x80000004	-6e-45
45	0x3f135fe5	0.575682
46	0x3d82683d	0.06367538
47	0x00000004	6e-45
48	0x00000004	6e-45
49	0x80000004	-6e-45
50	0x00000004	6e-45
51	0x00000004	6e-45
52	0x80000004	-6e-45
53	0x3d56b301	0.052416805
54	0xbe849b13	-0.25899562
55	0xbe055311	-0.13019969
56	0xbda2ffe6	-0.07958965
57	0x3e673196	0.2257751
58	0x00000004	6e-45
59	0x80000004	-6e-45
60	0x00000004	6e-45
61	0x80000004	-6e-45
62	0x00000004	6e-45
63	0x3dd9786f	0.10618674

base.1.conv.4.running_var f4 [64]
0	0x3b3c4af7	0.0028731206
1	0x3b16ad4c	0.0022991477
2	0x3bdfb9aa	0.006827553
3	0x3e0d648b	0.13807885
4	0x3d192782	0.037391193
5	0x3b486b84	0.0030581662
6	0x00000004	6e-45
7	0x3b12265d	0.0022300698
8	0x3c281d26	0.010260856
9	0x3d2ac89e	0.04169523
10	0x3d9c81b6	0.07641928
11	0x3d1af483	0.03783084
12	0x00000004	6e-45
13	0x3d927806	0.07151799
14	0x3ca365da	0.019946028
15	0x3cda84b0	0.026674598
16	0x00000004	6e-45
17	0x3b779785	0.0037779522
18	0x3b0f8318	0.0021898206
19	0x3b48db78	0.0030648392
20	0x3b9315a7	0.004488665
21	0x00000004	6e-45
22	0x3c03575d	0.0080164345
23	0x00000004	6e-45
24	0x3d571ed3	0.05251963
25	0x3bbc6560	0.0057493895
26	0x3da86d4b	0.08223971
27	0x3d0fbf91	0.0350948
28	0x3dc06c51	0.0939566
29	0x00000004	6e-45
30	0x00000004	6e-45
31	0x00000004	6e-45
32	0x3c2b5535	0.010457327
33	0x00000004	6e-45
34	0x3db69e69	0.08916933
35	0x00000004	6e-45
36	0x3bf0030e	0.007324583
37	0x00000004	6e-45
38	0x3d1444c9	0.03619841
39	0x00000004	6e-45
40	0x3d035c7b	0.032070618
41	0x3da93e40	0.08263826
42	0x3cf1e3cf	0.029527573
43	0x00000004	6e-45
44	0x00000004	6e-45
45	0x3e3ae6ac	0.18252057
46	0x3d11cbcc	0.035594746
47	0x00000004	6e-45
48	0x00000004	6e-45
49	0x00000004	6e-45
50	0x00000004	6e-45
51	0x00000004	6e-45
52	0x00000004	6e-45
53	0x3d267f57	0.040648784
54	0x3d693093	0.05693109
55	0x3d885374	0.066565424
56	0x3c2021ce	0.009773685
57	0x3cec03b4	0.02881036
58	0x00000004	6e-45
59	0x00000004	6e-45
60	0x00000004	6e-45
61	0x00000004	6e-45
62	0x00000004	6e-45
63	0x3c4092c6	0.0117537435

base.2.conv.0.weight f4 [128, 64, 1, 1]
0	0xbe7f09db	-0.24906103
1	0xbe319fe1	-0.17346145
2	0xbeeb0aa9	-0.4590657
3	0xbd234de6	-0.03986921
4	0x3ce7d7a2	0.028301064
5	0xbe060e68	-0.13091433
6	0xbc438501	-0.011933566
7	0x3df014b6	0.117227
8	0x3d496e92	0.049177714
9	0xbe86b5bf	-0.26310536
10	0xbdb7f500	-0.08982277
11	0xbd6f6a6e	-0.05845111
12	0x3b4309fc	0.002976059
13	0x3d6b128e	0.057390742
14	0x3e560420	0.20900011
15	0xbcbf2123	-0.02333123
16	0x3e6c3036	0.23065266
17	0xbdce7f52	-0.10082878
18	0xbda24431	-0.07923163
19	0xbbb16709	-0.005413894
20	0xbcee000b	-0.029052755
21	0x3c06a689	0.008218416
22	0xbbd50307	-0.006500605
23	0xbb66894a	-0.0035177046
24	0x3e11f51c	0.14253658
25	0xbb3c13f0	-0.0028698407
26	0x3ddd2208	0.107975066
27	0x3d8b9097	0.06814688
28	0xbe71db71	-0.23618867
29	0xbd5074a8	-0.050892502
30	0xbca7c460	-0.020479381
31	0x3d585ae4	0.052821055
32	0x3da4f9b5	0.0805544
33	0xbd1e7db2	-0.03869409
34	0x3ddbe599	0.10737152
35	0x3d01c95b	0.03168617
36	0xbc66d4ec	-0.0140888505
37	0x3b183db0	0.0023230128
38	0xbc0d5116	-0.008625289
39	0x3b11d7a1	0.002225377
40	0xbe4f4d18	-0.20244253
41	0xbe14ac79	-0.14518918
42	0xbda85260	-0.08218837
43	0x3ce99c5d	0.028516943
44	0x3b014a77	0.0019728222
45	0xbd40cca0	-0.047070146
46	0xbda31c1c	-0.07964346
47	0x3d35cffa	0.044387795
48	0xbebbc1a5	-0.36671177
49	0xbca8a9a3	-0.020588702
50	0xbd267520	-0.040639043
51	0x3c860c2d	0.016363228
52	0x3a8d23dd	0.0010768134
53	0xbe8f80e7	-0.28028032
54	0x3cbcefc3	0.023063546
55	0x3f189997	0.5960936
56	0xbdd627e5	-0.10456828
57	0x3cc62d8f	0.024191646
58	0x3bd43251	0.0064757247
59	0xbb6a7cb0	-0.0035779886
60	0x3ce06f4a	0.027396817
61	0x3ca5fd04	0.020262249
62	0xbb20759c	-0.0024484163
63	0x3dcf73c6	0.10129504
64	0x00002316	1.2586e-41
65	0x8000c2ae	-6.9838e-41
66	0x0000cc1f	7.3225e-41
67	0x8000cc86	-7.3369e-41
68	0x80000838	-2.948e-42
69	0x8000c3ff	-7.031e-41
70	0x00000539	1.874e-42
71	0x8000cbab	-7.3062e-41
72	0x80001837	-8.687e-42
73	0x8000c070	-6.9034e-41
74	0x00000efa	5.373e-42
75	0x8000c441	-7.0403e-41
76	0x0000cbb3	7.3074e-41
77	0x0000c128	6.9291e-41
78	0x0000cc33	7.3253e-41
79	0x0000ce24	7.395e-41
80	0x0000ce1f	7.3942e-41
81	0x8000c2c2	-6.9866e-41
82	0x0000ce10	7.3921e-41
83	0x8000cc94	-7.3389e-41
84	0x0000c2cf	6.9884e-41
85	0x0000053b	1.876e-42
86	0x0000cc10	7.3204e-41
87	0x8000bf80	-6.8697e-41
88	0x0000cbe1	7.3138e-41
89	0x0000cd0a	7.3554e-41
90	0x00000844	2.965e-42
91	0x8000cd47	-7.364e-41
92	0x8000230c	-1.2572e-41
93	0x0000082e	2.934e-42
94	0x8000cc57	-7.3303e-41
95	0x8000230e	-1.2575e-41
96	0x8000cd86	-7.3728e-41
97	0x0000c38f	7.0153e-41
98	0x8000cb9b	-7.304e-41
99	0x8000cd5d	-7.367e-41
100	0x8000c11b	-6.9273e-41
101	0x80002307	-1.2565e-41
102	0x0000f5d7	8.8191e-41
103	0x8000c2b8	-6.9852e-41
104	0x0000cbdb	7.313e-41
105	0x8000c2b1	-6.9842e-41
106	0x8000bf93	-6.8724e-41
107	0x80000865	-3.011e-42
108	0x8000ce11	-7.3923e-41
109	0x0000cc74	7.3344e-41
110	0x8000ce27	-7.3954e-41
111	0x8000bf8f	-6.8718e-41
112	0x8000090a	-3.243e-42
113	0x0000cdf8	7.3888e-41
114	0x0000cd32	7.361e-41
115	0x0000f5a4	8.8119e-41
116	0x80000b27	-4.001e-42
117	0x8000c37f	-7.0131e-41
118	0x0000c399	7.0167e-41
119	0x8000cbce	-7.3111e-41
120	0x0000cd03	7.3544e-41
121	0x8000cb52	-7.2938e-41
122	0x0000c1ff	6.9593e-41
123	0x8000cc72	-7.3341e-41
124	0x0000cbd1	7.3116e-41
125	0x0000cbf6	7.3167e-41
126	0x8000230d	-1.2574e-41
127	0x8000c44d	-7.042e-41
128	0xbc13efe1	-0.00902936
129	0x3e629b8b	0.22129647
130	0x3e1533a2	0.14570478
131	0xbd55b84c	-0.052177712
132	0xbe0cb44e	-0.13740656
133	0xbe0d2ce3	-0.13786654
134	0xbb751a81	-0.003739983
135	0xbd9bc418	-0.07605761
136	0xbdd00cfb	-0.10158726
137	0x3c9ab19a	0.018883515
138	0x3eb42718	0.35186076
139	0x3d08c5a8	0.033391625
140	0x3a4f6b98	0.0007912456
141	0xbd4a264f	-0.04935294
142	0xbced75e1	-0.028986873
143	0x3dacca85	0.08437065
144	0xbe13bc7a	-0.14427367
145	0x3e933c28	0.28756833
146	0x3d9879d6	0.07445113
147	0xbe322b9e	-0.17399451
148	0xbe5a5dcf	-0.21324848
149	0xbda172c6	-0.078832194
150	0xbe009a50	-0.12558866
151	0x3bc88753	0.0061196475
152	0xbe14edfb	-0.14543907
153	0x3c3ae429	0.011406937
154	0xbb42814e	-0.0029679122
155	0x3d94510c	0.07242021
156	0xbd36788a	-0.04454855
157	0xbe117f6a	-0.14208761
158	0x3d139eab	0.03603999
159	0xbd154ac0	-0.03644824
160	0xba1e2fd8	-0.0006034351
161	0xbd14cec2	-0.036329992
162	0x3c9a3ae9	0.018826919
163	0xbc19b81d	-0.009382275
164	0xbd0d1584	-0.034444347
165	0xbbec9314	-0.0072196815
166	0xbd565302	-0.052325256
167	0xbc1f6ac0	-0.009730041
168	0xbe2c4e64	-0.16826779
169	0x3d9498cb	0.072557054
170	0x3dc8a9b9	0.09797997
171	0xbd2c29e4	-0.042032138
172	0xbada1905	-0.0016639536
173	0x3e71164c	0.23543662
174	0x3dc4d4b2	0.09610881
175	0x3cf184e9	0.029482322
176	0x3eace193	0.3376585
177	0xbccabfd8	-0.024749681
178	0x3c140ae3	0.009035799
179	0x3b7c404e	0.0038490477
180	0x3ad68353	0.0016366042
181	0xbd82c111	-0.06384481
182	0xbd1c8441	-0.038212065
183	0xbe856d80	-0.26060104
184	0x3cea28c5	0.028583894
185	0xbe095d36	-0.13414463
186	0x3b9c7296	0.004774402
187	0x3abb07c5	0.0014269283
188	0x3e4c4358	0.19947565
189	0x3b5e04ae	0.00338773
190	0xb9da48a4	-0.00041634322
191	0xbd34e010	-0.044158995
192	0x8000cd69	-7.3687e-41
193	0x0000081c	2.909e-42
194	0x0000c1e6	6.9558e-41
195	0x8000cd4d	-7.3648e-41
196	0x0000c488	7.0502e-41
197	0x8000cd48	-7.3641e-41
198	0x00000904	3.234e-42
199	0x8000cbf6	-7.3167e-41
200	0x8000ccea	-7.351e-41
201	0x80000914	-3.257e-42
202	0x8000053f	-1.882e-42
203	0x0000bf9a	6.8734e-41
204	0x0000cde5	7.3861e-41
205	0x0000c44d	7.042e-41
206	0x8000cc00	-7.3181e-41
207	0x0000c06b	6.9027e-41
208	0x8000cd6d	-7.3693e-41
209	0x0000cd57	7.3662e-41
210	0x8000cbf4	-7.3165e-41
211	0x0000c52a	7.0729e-41
212	0x0000cd78	7.3708e-41
213	0x8000c11e	-6.9277e-41
214	0x00000541	1.885e-42
215	0x8000ccd9	-7.3485e-41
216	0x8000cb51	-7.2936e-41
217	0x0000c14e	6.9345e-41
218	0x0000ce2b	7.3959e-41
219	0x0000ce19	7.3934e-41
220	0x800005b8	-2.052e-42
221	0x0000cdf4	7.3882e-41
222	0x8000c214	-6.9622e-41
223	0x0000bf86	6.8706e-41
224	0x0000c2b2	6.9844e-41
225	0x8000230d	-1.2574e-41
226	0x8000cbee	-7.3156e-41
227	0x80000989	-3.42e-42
228	0x0000c12e	6.93e-41
229	0x0000cc64	7.3322e-41
230	0x8000231a	-1.2592e-41
231	0x0000cc78	7.335e-41
232	0x8000cbd3	-7.3118e-41
233	0x8000cde0	-7.3854e-41
234	0x8000c394	-7.016e-41
235	0x8000c10f	-6.9256e-41
236	0x0000c2b2	6.9844e-41
237	0x8000c487	-7.0501e-41
238	0x8000cb58	-7.2946e-41
239	0x800001c0	-6.28e-43
240	0x00000921	3.275e-42
241	0x0000c44b	7.0417e-41
242	0x0000ccdd	7.3491e-41
243	0x0000cb91	7.3026e-41
244	0x0000050a	1.808e-42
245	0x8000cc92	-7.3386e-41
246	0x0000cc81	7.3362e-41
247	0x8000f5c3	-8.8163e-41
248	0x8000230e	-1.2575e-41
249	0x0000c06a	6.9025e-41
250	0x8000c13f	-6.9324e-41
251	0x8000cd61	-7.3676e-41
252	0x800008ba	-3.13e-42
253	0x0000cc40	7.3271e-41
254	0x8000148f	-7.375e-42
255	0x0000c30e	6.9972e-41
