Pruned_Models/EXTD/L1/EXTD50_L1.pth (torch, 722013 bytes, 134 tensors)

base.0.0.weight f4 [64, 3, 3, 3]
00000000: 0000 0080 0000 0080 0000 0080 0000 0080
00000010: 0000 0080 0000 0080 0000 0080 0000 0080
00000020: 0000 0080 0000 0080 0000 0080 0000 0080
00000030: 0000 0080 0000 0000 0000 0000 0000 0000
00000040: 0000 0000 0000 0000 0000 0080 0000 0080
00000050: 0000 0080 0000 0000 0000 0000 0000 0000
00000060: 0000 0000 0000 0000 0000 0000 0000 0000
00000070: 0000 0000 0000 0000 0000 0000 0000 0080
00000080: 0000 0080 0000 0000 0000 0080 0000 0080
00000090: 0000 0080 0000 0080 0000 0080 0000 0080
000000a0: 0000 0080 0000 0080 0000 0080 0000 0080
000000b0: 0000 0080 0000 0080 0000 0080 0000 0080
000000c0: 0000 0080 0000 0080 0000 0080 0000 0080
000000d0: 0000 0080 0000 0080 0000 0000 0000 0000
000000e0: 0000 0000 0000 0000 0000 0000 0000 0000
000000f0: 0000 0000 0000 0000 0000 0000 0000 0000
00000100: 0000 0000 0000 0000 0000 0000 0000 0000
00000110: 0000 0000 0000 0000 0000 0000 0000 0000
00000120: 0000 0000 0000 0000 0000 0080 0000 0000
00000130: 0000 0000 0000 0080 0000 0000 0000 0000
00000140: 0000 0080 dc2f 5b42 c81b 4042 3f75 1242
00000150: 70c4 4242 e9fd 1642 380f bb41 6858 b741
00000160: 9c50 1441 aec8 48c1 75a0 2f42 1c61 1142
00000170: d476 c341 e04d 2042 4bae ea41 045c 3841
00000180: be1f 9041 cc35 0abf 38b9 a8c1 fe1d 2a42
00000190: d42c 0942 81f8 a941 2c12 e841 c59b a741
000001a0: 6ba6 3640 c610 b43e 461f 58c1 e90c 0ec2
000001b0: 0000 0080 0000 0080 0000 0080 0000 0080
000001c0: 0000 0080 0000 0080 0000 0080 0000 0080
000001d0: 0000 0080 0000 0080 0000 0080 0000 0080
000001e0: 0000 0080 0000 0080 0000 0080 0000 0080
000001f0: 0000 0080 0000 0080 0000 0080 0000 0080
00000200: 0000 0080 0000 0080 0000 0080 0000 0080
00000210: 0000 0080 0000 0080 0000 0080 a3fb 8e41
00000220: ba9e aa42 416c f442 c8eb 2d42 6f1b fd42
00000230: 33c2 2543 63c7 da41 55b1 ba42 58cd 0743
00000240: 964c 0642 c674 a842 415e e042 892e f441
00000250: fc87 d542 596f 1043 3889 30c1 f505 7642
00000260: 67be be42 7133 28c2 7b69 d441 61c7 4942
00000270: fff1 67c1 853f 8142 7a77 d542 756d 13c2
00000280: 6f10 f441 812d 9742 0000 0080 0000 0080
00000290: 0000 0080 0000 0080 0000 0080 0000 0080
000002a0: 0000 0080 0000 0080 0000 0080 0000 0080
000002b0: 0000 0080 0000 0080 0000 0080 0000 0080
000002c0: 0000 0080 0000 0080 0000 0080 0000 0080
000002d0: 0000 0080 0000 0080 0000 0080 0000 0080
000002e0: 0000 0080 0000 0080 0000 0080 0000 0080
000002f0: 0000 0080 afee ea43 4a1f 1144 1305 2e44
00000300: 5311 1e44 f426 4344 282f 5144 53b5 7744
00000310: 6fdb 9344 6349 9644 7dcc 9c43 b8aa c843
00000320: fe5a 0044 f777 c743 133b 0744 8c05 1d44
00000330: f01f 4044 5ebf 7544 fc2a 7f44 022b f842
00000340: e8e8 7e43 89d8 c043 d3ff a143 47b2 e843
00000350: 416e 1544 4405 4244 66f1 7744 0281 8944
00000360: 0000 0000 0000 0000 0000 0000 0000 0000
00000370: 0000 0000 0000 0000 0000 0000 0000 0000
00000380: 0000 0000 0000 0000 0000 0000 0000 0000
00000390: 0000 0000 0000 0000 0000 0000 0000 0000
000003a0: 0000 0000 0000 0000 0000 0080 0000 0000
000003b0: 0000 0000 0000 0080 0000 0000 0000 0000
000003c0: 0000 0080 0000 0000 0000 0000 0000 0000
000003d0: 0000 0000 0000 0080 0000 0000 0000 0000
000003e0: 0000 0000 0000 0000 0000 0000 0000 0000
000003f0: 0000 0000 0000 0080 0000 0080 0000 0000
-0.0 -0.0 -0.0 -0.0 -0.0 -0.0 -0.0 -0.0
-0.0 -0.0 -0.0 -0.0 -0.0 0.0 0.0 0.0
0.0 0.0 -0.0 -0.0 -0.0 0.0 0.0 0.0
0.0 0.0 0.0 0.0 0.0 0.0 0.0 -0.0
-0.0 0.0 -0.0 -0.0 -0.0 -0.0 -0.0 -0.0
-0.0 -0.0 -0.0 -0.0 -0.0 -0.0 -0.0 -0.0
-0.0 -0.0 -0.0 -0.0 -0.0 -0.0 0.0 0.0
0.0 0.0 0.0 0.0 0.0 0.0 0.0 0.0
0.0 0.0 0.0 0.0 0.0 0.0 0.0 0.0
0.0 0.0 -0.0 0.0 0.0 -0.0 0.0 0.0
-0.0 54.796738 48.02713 36.6145 48.691833 37.74796 23.382431 22.918167
9.26968 -12.548994 43.906696 36.344833 24.433022 40.07605 29.335104 11.522465
18.0155 -0.5398834 -21.090439 42.52929 34.293777 21.24634 29.008873 20.95106
2.8539073 0.35169047 -13.507635 -35.512608 -0.0 -0.0 -0.0 -0.0
-0.0 -0.0 -0.0 -0.0 -0.0 -0.0 -0.0 -0.0
-0.0 -0.0 -0.0 -0.0 -0.0 -0.0 -0.0 -0.0
-0.0 -0.0 -0.0 -0.0 -0.0 -0.0 -0.0 17.87287
85.31001 122.21143 43.480255 126.55358 165.75859 27.347357 93.34635 135.80212
33.57479 84.22807 112.18409 30.522722 106.765594 144.43495 -11.033501 61.505817
95.37188 -42.050236 26.551504 50.444706 -14.496581 64.62406 106.73335 -36.85689
30.508024 75.588875 -0.0 -0.0 -0.0 -0.0 -0.0 -0.0
-0.0 -0.0 -0.0 -0.0 -0.0 -0.0 -0.0 -0.0
-0.0 -0.0 -0.0 -0.0 -0.0 -0.0 -0.0 -0.0
-0.0 -0.0 -0.0 -0.0 -0.0 469.86472 580.4889 696.0793
632.2707 780.60864 836.7368 990.8332 1182.8573 1202.2933 313.59756 401.33374
513.42175 398.93723 540.92303 628.0867 768.499 982.9901 1020.67163 124.084
254.90979 385.69168 323.99863 465.3928 597.7227 776.0823 991.77185 1100.0315
0.0 0.0 0.0 0.0 0.0 0.0 0.0 0.0
0.0 0.0 0.0 0.0 0.0 0.0 0.0 0.0
0.0 0.0 -0.0 0.0 0.0 -0.0 0.0 0.0
-0.0 0.0 0.0 0.0 0.0 -0.0 0.0 0.0
0.0 0.0 0.0 0.0 0.0 -0.0 -0.0 0.0

base.0.1.weight f4 [64]
00000000: 7834 34bb c70e 753d 0fd6 22bc 64c4 973e
00000010: 23b3 70bc 6ad2 ed3e e14a f13c e5c6 f93d
00000020: d1c4 a0bc 3700 27bd d6a0 94bc b2bf 5e3f
00000030: e52e 07bd 6d19 b0bd f861 a53b e70a c7bc
00000040: fa62 593f 1da3 183b 8d42 f03d 7d84 cd3d
00000050: 06b4 7b3c cec9 673c 4944 10bd b68c d13c
00000060: 31b3 fdbc 1962 103e b8eb f9bc 7e49 ad3e
00000070: 6954 533e 5891 213e 2d6c 413c e218 f93d
00000080: b1f2 363e 876a f6bc db81 643e c968 b2bc
00000090: 816a 1bbe 1554 99bc e0fd 66be e091 81be
000000a0: 81e8 fe3d a8be b7bc 1c10 d23e f32e 2f3e
000000b0: 4f08 4d3b 6102 913e e7f6 9c3c 0d9e 0fbc
000000c0: a9cd 033d b9a1 1b3f e134 313c 0bfb 283d
000000d0: 8b41 c43e 0973 e83d 3f9b 013e 5996 39bd
000000e0: 95e7 24be 2c33 62bc c379 6d3f 62ff 1bbc
000000f0: e290 c13c 056d 933d 1d5e 853e c2f3 4b3e
-0.0027497094 0.059828546 -0.009938731 0.29642022 -0.014691147 0.46449596 0.02945465 0.12196139
-0.0196251 -0.04077169 -0.018143099 0.87011254 -0.033003706 -0.085985996 0.005047079 -0.02429719
0.8491665 0.0023290582 0.117314436 0.10035036 0.015362745 0.014147235 -0.03522137 0.025579792
-0.030969234 0.14099921 -0.030507907 0.33845133 0.20637669 0.157781 0.011805576 0.12162949
0.17866017 -0.030080093 0.22315161 -0.021778481 -0.15177347 -0.018716851 -0.22557783 -0.25306606
0.1244669 -0.02242978 0.41027915 0.17107753 0.003128547 0.28322127 0.019160701 -0.00876571
0.032178555 0.60793644 0.01081583 0.04125504 0.38331255 0.11350066 0.12656878 -0.0453094
-0.16103967 -0.013806146 0.9276392 -0.009521337 0.023628656 0.07198528 0.26048365 0.19917205

base.0.1.bias f4 [64]
00000000: 7d49 67bd ae31 c3bd 8d0d 9abd 3306 553f
00000010: f549 9bbd 8b98 25be 766b 66bd eb37 8ebe
00000020: 29f2 bdbd 6b38 c5bd 87ed bcbd 29bc 04be
00000030: fb3f 7bbd 5e06 0dbe 6c49 96bd cdc7 87bd
00000040: a7ab 13be 80ea 9bbd 876f 20be bfba d6bd
00000050: b026 abbd eef3 003f 08e3 f5bd b50a 53bd
00000060: 7453 34bd 0ab1 223f 3957 3bbd 0435 05bf
00000070: 8837 c5bd ddf8 03be 2fe7 9dbd 6826 85bc
00000080: e8a4 4a3e 081a 86bd da8c e8bd c56e 69bd
00000090: e9bd 4b3e 73eb 88bd 2502 2dbd e982 56be
000000a0: c335 9e3d b28d b9bd 2e43 0bbf f967 7b3d
000000b0: 7066 85bd 7191 37bf 4d34 92bd b08d 63bd
000000c0: 2971 e3bd f0fa 1bbf 0957 84bd f096 87bd
000000d0: 3c84 723d 4d57 c1be 7cc4 a43c df9d b0bd
000000e0: 1857 65bd ce8a a2bd 520e 71bf 5f33 92bc
000000f0: c6d6 aebd c07a dfbc 0d3a 46be 5c4d d53e
-0.05646657 -0.0953096 -0.07522116 0.83212584 -0.075824656 -0.16171472 -0.056254826 -0.27777037
-0.09274704 -0.096299015 -0.09224992 -0.12962402 -0.061340313 -0.1377196 -0.07338223 -0.06629906
-0.14420949 -0.07613087 -0.15667544 -0.10484838 -0.083569884 0.5037221 -0.120061934 -0.051523883
-0.0440249 0.6355139 -0.04573748 -0.5203402 -0.09629732 -0.12887903 -0.077101104 -0.016253665
0.19789469 -0.06547934 -0.1135499 -0.056990404 0.19896664 -0.066855334 -0.042238373 -0.20948376
0.07725098 -0.09060229 -0.54399383 0.061378453 -0.06513679 -0.717063 -0.07138882 -0.055555046
-0.11105568 -0.60929775 -0.06461913 -0.06620586 0.05920814 -0.37761918 0.020113222 -0.086238615
-0.055991262 -0.07936631 -0.94162476 -0.017846761 -0.085370585 -0.027280211 -0.19358082 0.41660583

base.0.1.running_mean f4 [64]
00000000: 4d94 0040 80d9 9cbf 50ca 13c1 07aa afc4
00000010: 7d3f bf3f fdd4 92c5 8342 2841 9f62 02c7
00000020: 00b9 88c1 4b9b 16bf 0602 8041 b676 b8c4
00000030: 3226 19c1 94b1 a645 3ffe 55bf 515c 90bf
00000040: 23a1 5046 c2b4 e33e adb9 80c4 4173 08c4
00000050: 769c a141 9d6b a340 f12a 2240 8a30 1b3f
00000060: ea21 76c1 23a9 8344 2ccc 7dbe 0624 d945
00000070: 4ca0 d742 e522 ab44 bb85 07c0 60b3 89c5
00000080: e5bc 4244 b5b6 91c0 d540 5ac3 55cb c2bf
00000090: a76d d2c1 5d9e a1c0 a519 fac5 9398 88c4
000000a0: 29a7 29c5 e701 0541 ee40 6245 1af8 92c3
000000b0: 7af1 bf40 b257 f643 717a e63e f9b6 523f
000000c0: 2fa3 e8c4 fa32 9742 f7b1 40bf b62f 95c0
000000d0: 367c 25c5 a28e 9644 cfde 5ac4 f718 33c0
000000e0: dcae 62c4 9c16 8640 0025 af43 4f2e e83e
000000f0: c194 0c40 b269 69c5 6b4c 94c4 2349 d1c5
2.0090516 -1.2253876 -9.236893 -1405.3134 1.494125 -4698.6235 10.516238 -33378.62
-17.090332 -0.5883071 16.000988 -1475.7097 -9.571825 5334.1973 -0.83591074 -1.1278173
13352.284 0.44473845 -1029.8024 -545.80084 20.201397 5.1068864 2.533871 0.6062094
-15.38328 1053.2855 -0.24784917 6948.503 107.81308 1369.0905 -2.1175373 -4406.422
778.9515 -4.553553 -218.25325 -1.5218302 -26.303541 -5.0505815 -8003.2056 -1092.768
-2714.4475 8.312964 3620.058 -293.9383 5.998227 492.68512 0.4501529 0.82310444
-1861.0995 75.59956 -0.7527155 -4.662074 -2647.7632 1204.4573 -875.4814 -2.7983987
-906.7322 4.19026 350.28906 0.4534783 2.1965792 -3734.606 -1186.3881 -6697.142

base.0.1.running_var f4 [64]
00000000: 2f07 5043 a8ef 0d46 e12f 0747 ea6d 814e
00000010: f49e 9146 475d 1f50 392c 9547 d105 8253
00000020: 51d1 b147 0f8f 9544 13dd 8f47 472f 4a4f
00000030: ac72 8347 2537 8051 5a14 9f44 c4df 3745
00000040: 1844 db50 46e3 c745 5baa cd4e 7012 364e
00000050: 5593 ff48 ef26 8f46 3bd4 a243 1ba6 9d42
00000060: 0b7e 3c48 0285 204e e128 a343 d223 0451
00000070: caf5 954b 8a2e 964e d32d 1844 9506 f351
00000080: aa09 4d4d 62f0 c845 19a9 5d4c b049 ac43
00000090: 9086 5a4b ac1b 8546 536c 0551 e5fe d54e
000000a0: 9ffb 9451 fc61 0446 b988 0850 f7f3 b84d
000000b0: c36a c045 be2a 994d f6c4 f346 e75f 6644
000000c0: 2d27 7550 a803 f94d 087f ee42 6f99 5746
000000d0: 9bc1 a64f 6f75 1250 0a39 9e4d 0cdd c244
000000e0: d3c3 cd4e 6ade 5846 4d44 6e4b 7bd0 6b43
000000f0: 422c 9046 0630 f950 7186 0c4f 458e 8950
208.02806 9083.914 34607.88 1.0857321e+09 18639.477 1.0694761e+10 76376.445 1.1168867e+12
91042.63 1196.4706 73658.15 3.392096e+09 67301.34 6.883512e+10 1272.636 2941.9854
2.9429383e+10 6396.409 1.7252468e+09 7.636654e+08 523418.66 18323.467 325.65805 78.824425
193016.17 6.7326784e+08 326.31937 3.547104e+10 1.9655572e+07 1.2598162e+09 608.716 1.30473435e+11
2.1499766e+08 6430.048 5.810698e+07 344.57568 1.4321296e+07 17037.836 3.58155e+10 1.7951259e+09
7.998458e+10 8472.496 9.162647e+09 3.8787453e+08 6157.345 3.212144e+08 31202.48 921.4985
1.6451941e+10 5.222208e+08 119.24811 13798.358 5.595412e+09 9.828679e+09 3.3181728e+08 1558.9077
1.7260814e+09 13879.604 1.5615053e+07 235.81438 18454.129 3.3445392e+10 2.357621e+09 1.8462419e+10

base.1.conv.0.weight f4 [64, 1, 3, 3]
00000000: 0000 0000 0000 0000 0000 0000 0000 0000
00000010: 0000 0000 0000 0000 0000 0000 0000 0000
00000020: 0000 0000 0000 0080 0000 0080 0000 0080
00000030: 0000 0080 0000 0080 0000 0080 0000 0080
00000040: 0000 0080 0000 0080 0000 0080 0000 0080
00000050: 0000 0080 0000 0080 0000 0080 0000 0080
00000060: 0000 0080 0000 0080 0000 0080 4617 26bc
00000070: d70b 193e 2bc6 ac3c 70dd 473d df8f 3e3f
00000080: fbc5 7c3e 5e92 443c b4ed 9ebf ea7d 9d3d
00000090: 0000 0000 0000 0000 0000 0000 0000 0000
000000a0: 0000 0000 0000 0000 0000 0000 0000 0000
000000b0: 0000 0000 ddb1 9abe 85cb 113e 52bc 27bd
000000c0: 7181 8d3d e2e6 bbbe 78df b03d d463 88be
000000d0: c0ed 3dbd 41b9 f23d 0000 0080 0000 0080
000000e0: 0000 0080 0000 0080 0000 0080 0000 0080
000000f0: 0000 0080 0000 0080 0000 0080 b5e8 d1be
00000100: 6978 f8be 9a8c 99be e0e3 88bd af87 1d3e
00000110: 832f c33c 684d 123e 3050 2e3f fcd1 b33e
00000120: 0000 0080 0000 0080 0000 0080 0000 0080
00000130: 0000 0080 0000 0080 0000 0080 0000 0080
00000140: 0000 0080 0000 0080 0000 0080 0000 0080
00000150: 0000 0080 0000 0000 0000 0000 0000 0000
00000160: 0000 0080 0000 0080 0000 0080 0000 0080
00000170: 0000 0080 0000 0080 0000 0080 0000 0080
00000180: 0000 0080 0000 0080 0000 0080 e1a9 c63c
00000190: e14c d63b 55c3 eebc 12e2 1b3d 8ad4 5b3d
000001a0: fdbc 55be c2d5 0a3e 3fc8 7dbe bee1 d5be
000001b0: 0000 0080 0000 0080 0000 0080 0000 0080
000001c0: 0000 0080 0000 0080 0000 0080 0000 0080
000001d0: 0000 0080 b44b 6a3c 55b0 273b 85b7 143c
000001e0: 29c0 723b e396 13bc b6f3 9e3b f890 603d
000001f0: 9d43 573d 9207 613d 0000 0000 0000 0000
00000200: 0000 0000 0000 0000 0000 0000 0000 0000
00000210: 0000 0000 0000 0000 0000 0000 0000 0000
00000220: 0000 0000 0000 0000 0000 0000 0000 0000
00000230: 0000 0000 0000 0080 0000 0000 0000 0000
00000240: ac87 f9bb 3590 1a3d 5d23 b9bc 94c7 533d
00000250: 0c20 41bf bce4 043f 658d 89bc 44b1 003e
00000260: 1b85 cbbd 0000 0080 0000 0080 0000 0000
00000270: 0000 0080 0000 0080 0000 0080 0000 0080
00000280: 0000 0080 0000 0080 4992 23bc a137 cfbc
00000290: 1d6a 19be e94a 8b3d 433f 8c3e 0daf fd3d
000002a0: e37b 1ebd de75 403e b103 62b9 4758 c1bc
000002b0: 7031 f0bd d939 68be b3ad 25bc eebb 2f39
000002c0: c421 ac3b 6f13 343d 1bd3 813d 6288 6e3c
000002d0: 0000 0080 0000 0080 0000 0080 0000 0080
000002e0: 0000 0080 0000 0080 0000 0080 0000 0080
000002f0: 0000 0080 b3f2 08be 650b f83d 636c 1bbe
00000300: c75f b03d bfcf a73e 7253 3f3d 6589 77be
00000310: 435f 733d 5b8a 56be 0000 0000 0000 0000
00000320: 0000 0000 0000 0000 0000 0000 0000 0000
00000330: 0000 0000 0000 0000 0000 0000 0000 0080
00000340: 0000 0080 0000 0080 0000 0000 0000 0080
00000350: 0000 0080 0000 0000 0000 0000 0000 0080
00000360: 0000 0080 0000 0080 0000 0000 0000 0080
00000370: 0000 0000 0000 0080 0000 0080 0000 0000
00000380: 0000 0080 bb52 7bbd 8717 bb3e 289f b6bd
00000390: 0358 33be 9f9d 573f d165 833e 3f18 2abd
000003a0: ddee 7c3e bd36 66bd 0000 0000 0000 0080
000003b0: 0000 0080 0000 0000 0000 0000 0000 0000
000003c0: 0000 0080 0000 0000 0000 0080 7b53 2b3c
000003d0: 3e79 02be 919c b0bc e7eb b4be 0227 b03f
000003e0: 0fa5 9e3d 98c0 68be 9e1f e2be 94fc 76be
000003f0: 0000 0000 0000 0000 0000 0000 0000 0000
0.0 0.0 0.0 0.0 0.0 0.0 0.0 0.0
0.0 -0.0 -0.0 -0.0 -0.0 -0.0 -0.0 -0.0
-0.0 -0.0 -0.0 -0.0 -0.0 -0.0 -0.0 -0.0
-0.0 -0.0 -0.0 -0.010137385 0.14945923 0.021090588 0.048795164 0.7443828
0.24684899 0.011997787 -1.2416291 0.07690032 0.0 0.0 0.0 0.0
0.0 0.0 0.0 0.0 0.0 -0.30213824 0.14237793 -0.04095108
0.069094546 -0.36699587 0.08636373 -0.26638663 -0.046369314 0.11851741 -0.0 -0.0
-0.0 -0.0 -0.0 -0.0 -0.0 -0.0 -0.0 -0.40997854
-0.48529366 -0.29990083 -0.06684089 0.1538379 0.023826366 0.1428734 0.68091106 0.35121143
-0.0 -0.0 -0.0 -0.0 -0.0 -0.0 -0.0 -0.0
-0.0 -0.0 -0.0 -0.0 -0.0 0.0 0.0 0.0
-0.0 -0.0 -0.0 -0.0 -0.0 -0.0 -0.0 -0.0
-0.0 -0.0 -0.0 0.024250926 0.0065399264 -0.029145876 0.038057394 0.05366949
-0.20872875 0.13558105 -0.24783419 -0.4177379 -0.0 -0.0 -0.0 -0.0
-0.0 -0.0 -0.0 -0.0 -0.0 0.014300276 0.002558728 0.009076958
0.0037040806 -0.009008142 0.00485083 0.054825753 0.052554715 0.05493886 0.0 0.0
0.0 0.0 0.0 0.0 0.0 0.0 0.0 0.0
0.0 0.0 0.0 0.0 0.0 -0.0 0.0 0.0
-0.0076150503 0.037735183 -0.02259987 0.051704004 -0.75439525 0.5191152 -0.016791055 0.12567621
-0.09937497 -0.0 -0.0 0.0 -0.0 -0.0 -0.0 -0.0
-0.0 -0.0 -0.009983608 -0.02529508 -0.14981885 0.06801397 0.27392015 0.12386904
-0.038692366 0.18794963 -0.00021554415 -0.023601664 -0.117281795 -0.22678317 -0.010112214 0.0001675931
0.0052530486 0.043963846 0.06339093 0.014558883 -0.0 -0.0 -0.0 -0.0
-0.0 -0.0 -0.0 -0.0 -0.0 -0.13373832 0.12111548 -0.15178065
0.08612018 0.32775685 0.04671044 -0.24173506 0.05941702 -0.20951216 0.0 0.0
0.0 0.0 0.0 0.0 0.0 0.0 0.0 -0.0
-0.0 -0.0 0.0 -0.0 -0.0 0.0 0.0 -0.0
-0.0 -0.0 0.0 -0.0 0.0 -0.0 -0.0 0.0
-0.0 -0.061358195 0.36541387 -0.089170754 -0.17514043 0.84224886 0.25663617 -0.04152703
0.24700494 -0.056204546 0.0 -0.0 -0.0 0.0 0.0 0.0
-0.0 0.0 -0.0 0.010456915 -0.12741563 -0.021559032 -0.3533623 1.3761904
0.07746326 -0.22729719 -0.44164747 -0.24119788 0.0 0.0 0.0 0.0

base.1.conv.0.bias f4 [64]
00000000: 0000 0000 0000 0080 0000 0000 155e 6c3b
00000010: 0000 0080 64a1 6b3c 0000 0080 ace7 2d3c
00000020: 0000 0000 0000 0000 0000 0000 704c 803c
00000030: 0000 0000 6542 003b 0000 0080 0000 0000
00000040: b365 073d 0000 0080 f1df 8abb 131d fdbb
00000050: 0000 0000 6ad0 fdba 0000 0000 0000 0000
00000060: 0000 0000 50b4 0a3c 0000 0080 3021 893c
00000070: 0000 0000 aeb2 4eb8 0000 0080 0583 e239
00000080: 5ce6 833a 0000 0000 d628 50ba 0000 0080
00000090: 946e 71ba 0000 0000 0572 aa3b c25a 49bc
000000a0: 1cf0 9d3a 0000 0000 26da 253c 4611 a03b
000000b0: 0000 0000 7d47 fab9 0000 0000 0000 0080
000000c0: fb6d b13c 4ff2 c93c 0000 0000 0000 0080
000000d0: e620 fc3b a09d 473c a01d 80bc 0000 0080
000000e0: a01c e4bc 0000 0000 9552 cfbb 0000 0080
000000f0: 0000 0000 7bfe b938 87f3 53bb b752 163c
0.0 -0.0 0.0 0.003606682 -0.0 0.01438174 -0.0 0.010614317
0.0 0.0 0.0 0.015661448 0.0 0.0019570824 -0.0 0.0
0.033055972 -0.0 -0.0042381217 -0.007724413 0.0 -0.001936448 0.0 0.0
0.0 0.008465841 -0.0 0.016739458 0.0 -4.9280636e-05 -0.0 0.00043203696
0.0010063159 0.0 -0.00079406553 -0.0 -0.0009209898 0.0 0.0052015805 -0.012289705
0.0012049708 0.0 0.010122811 0.0048848717 0.0 -0.0004773698 0.0 -0.0
0.021658888 0.024651675 0.0 -0.0 0.0076943515 0.012183577 -0.015639126 -0.0
-0.02784568 0.0 -0.006326983 -0.0 0.0 8.868888e-05 -0.0032341199 0.009174994

base.1.conv.1.weight f4 [64]
00000000: f7b6 113c 428f 713c 0315 4c3c 5cd8 a43e
00000010: aa58 623c 3814 c63e a3cd 523c 6fe7 893e
00000020: a39c 353c 63cd 133c 840b 6a3c 0a46 f53e
00000030: 1c06 d63b e3cb dd3d 96e3 a73b d8b9 2a3c
00000040: 6f79 063e f6ec 8e3c 28c7 cd3e dfb9 2f3e
00000050: 88a9 193c b7a2 8d3e 581d d03b fefb 903a
00000060: 5e1a 5f3c 4a2e 153f 5e50 5c3c fad9 953e
00000070: 27a7 b43b d2f9 ea3d c0fd 083c 28da c63e
00000080: 3c0f cc3e bce7 093c 993e 8b3e ceb5 363c
00000090: 41d7 143e 5c53 7f3c 1330 9ebe 1fc6 d13e
000000a0: 7b5b b43b 42bd 383c 6444 a63e 05df e73d
000000b0: eb30 633c 1358 cf3e 2f42 4a3c 75bc 1b3c
000000c0: c5c7 603d dcc8 263f 8241 343c e891 583c
000000d0: 05bd 523d 7845 5d3e f355 3a3e 6369 383c
000000e0: 96a5 ae3d 15b2 893c 4804 2f3f 9238 743b
000000f0: e4fc 1c3c 3230 3a3d 0e79 973e fe67 713e
0.00889372 0.014743628 0.012456181 0.3219632 0.0138150845 0.386873 0.01286641 0.26934382
0.011084708 0.009021136 0.014284972 0.47904998 0.00653149 0.10829904 0.005123566 0.010420285
0.1313226 0.017446976 0.40191007 0.17160748 0.009378798 0.27663204 0.0063511543 0.0011061428
0.013617126 0.58273757 0.013446895 0.29267865 0.00551309 0.11473431 0.00836128 0.38838315
0.39855373 0.008417066 0.27196196 0.011151744 0.14535238 0.015583839 -0.30896053 0.40971467
0.0055040694 0.011275591 0.32474053 0.113218345 0.013866643 0.40496883 0.012344881 0.009505381
0.054878015 0.6515024 0.011001946 0.0132183805 0.051449794 0.21608531 0.1819685 0.011255595
0.08527677 0.016808549 0.6836591 0.0037265164 0.009581778 0.04545612 0.29584545 0.23574826

base.1.conv.1.bias f4 [64]
00000000: 6030 89ba 3feb 02bb b5c6 1fbb c663 d03e
00000010: d8c3 25bc dee5 9f3e 8132 a4ba 88bc 313e
00000020: e460 a8bb 2f8a c0bb 6bd0 16bc 9f5f 1c3d
00000030: 4777 13bc 2073 c9bc 9b52 dbbb 061e e6bb
00000040: 7162 913e c2f1 ce3b 1b6a 91be 187c 4abd
00000050: ce90 f3bb 81cf 02be c067 0fbc f8b3 c53b
00000060: 27b1 c0ba 15d4 9f3f 692a 24bb 188a a23e
00000070: ba07 a0bb 6033 d4bd e885 913b b867 80be
00000080: 4754 883e 6356 c03b d3a5 be3e b336 1ebc
00000090: 0cfc c2bd 6723 3dbb ad4c f53d 0a71 d5be
000000a0: 8668 573d ab9a 92bb 4c73 a33e b9a5 06be
000000b0: 48a9 56bb 4ac3 c03e 1bce 1cbb fb91 dbbb
000000c0: 59a3 033d 4a91 6c3f 154a 28bc 54fb 6cbb
000000d0: f660 5d3d a4ce 993e 030a 19be 63fa 72bb
000000e0: 6daa 72bd 6e1f 7bbb 948f ffbd de3c 1cbc
000000f0: 72bf 2fbc dc2a 3a3d 416b cfbd d6ce ec3e
-0.0010466687 -0.0019976643 -0.0024379913 0.4070112 -0.010117494 0.31230062 -0.0012527258 0.17357075
-0.0051385034 -0.005875848 -0.009204964 0.03817713 -0.009000606 -0.024591029 -0.006693197 -0.007022622
0.28395417 0.006315441 -0.28401265 -0.04943475 -0.0074330335 -0.12774469 -0.008752763 0.006033417
-0.0014701233 1.2486597 -0.0025049692 0.31745982 -0.0048837336 -0.103613615 0.0044410117 -0.2507913
0.266268 0.005869673 0.3723589 -0.009656596 -0.095207304 -0.0028860213 0.11977515 -0.41687804
0.052589916 -0.0044740043 0.31923902 -0.13149156 -0.0032754708 0.37648994 -0.002392656 -0.006700752
0.032138202 0.92409194 -0.010271569 -0.0036160545 0.054047547 0.30040467 -0.14945225 -0.0037075512
-0.059244562 -0.0038318294 -0.12478557 -0.009535996 -0.010726796 0.04545103 -0.10127879 0.46251553

base.1.conv.1.running_mean f4 [64]
00000000: c8b0 3cb6 f030 aa37 6409 1238 2801 523d
00000010: d8ae 9ab7 7a46 363d a9d7 0437 b491 36bb
00000020: c578 1938 674f 8c36 3fba 1f38 dcd9 bdbb
00000030: 68ab 2f36 120f 5cbc 4262 85b6 98f1 a9b6
00000040: 44c4 f93c 6f86 7f38 cd9b 32bd 0b67 ef3b
00000050: 93c6 1a37 0cb9 44bd cc8c c6b7 5db9 c834
00000060: 4f1a 3336 9e7d 523f 0419 ad34 674b a7bb
00000070: 4955 d8b7 4f69 0abc 62ba 03b6 1448 953b
00000080: b05a 3abe 9770 71b6 1e28 f73c ea5a 34b7
00000090: aade 48bc b6ca 9fb6 ef98 8d3b d90e 7fbd
000000a0: ac07 483c 84ab 1eb8 425f a5bd 131b 0abb
000000b0: 6171 0138 bf16 ff3b 163d 8036 69fe ccb6
000000c0: fe46 d53c fa39 333f afa9 2836 c5db 1fb5
000000d0: e2df 84bb 2868 a0bc 1a20 44bc 6ef6 4737
000000e0: 647b c9bc 05cf 1bb6 00a6 b8be a40a 11b4
000000f0: af13 2a37 862b 363a d5f4 53bd 2dcb d43d
-2.8117083e-06 2.0288368e-05 3.481786e-05 0.051270634 -1.8439649e-05 0.044500805 7.918025e-06 -0.0027857842
3.6590518e-05 4.181569e-06 3.808201e-05 -0.005793793 2.6176804e-06 -0.013431327 -3.9751476e-06 -5.0647177e-06
0.030489095 6.092194e-05 -0.043605614 0.007305985 9.2253495e-06 -0.048028037 -2.3669003e-05 3.7387773e-07
2.6688392e-06 0.82222927 3.2241962e-07 -0.005105424 -2.578892e-05 -0.008447959 -1.962901e-06 0.0045557115
-0.18198657 -3.5977334e-06 0.030170497 -1.0750004e-05 -0.0122601185 -4.762168e-06 0.0043212096 -0.06227002
0.01220886 -3.7829872e-05 -0.080748096 -0.0021073266 3.086159e-05 0.007784694 3.8218086e-06 -6.109291e-06
0.026034828 0.7001034 2.513272e-06 -5.955192e-07 -0.004055009 -0.019580916 -0.011970544 1.1918701e-05
-0.02459497 -2.32173e-06 -0.36064148 -1.3508048e-07 1.0137373e-05 0.00069492345 -0.051747162 0.10390315

base.1.conv.1.running_var f4 [64]
00000000: b9c6 1f29 2446 1f2f 6b67 a02d 5c96 663c
00000010: 9a06 932d ebd3 423d e6f9 8d2d 4c14 c03a
00000020: e895 952e f498 6d2c b013 7b2e da82 473e
00000030: ba2f 102c 9c7e d738 5d10 b029 e65a 542c
00000040: 28ff 9b3c b8f6 3b2d 5283 953a 2bb9 ac39
00000050: 50b1 3d2c dca8 9939 142c 492e 58e5 1b29
00000060: 20ea 852c 7f1c 083d b214 b229 9975 6d3b
00000070: 3fc6 1132 0115 2839 8c01 e929 ca51 a53b
00000080: 1c72 b43c 667c 492c bf10 323c ac25 852d
00000090: 82d1 f639 5a7b ce2b d9d6 003c 5a51 b13b
000000a0: 3da6 5f39 0282 b72e 7917 8d3c b8b6 c739
000000b0: 7e85 a32c d033 9e3b 2e26 6a2b 94b3 862b
000000c0: 62bc ce35 3586 1f3f 8f00 612a 70d9 bb2a
000000d0: a881 a93a e291 053a 5eda 803a ba54 282e
000000e0: ec03 ec39 a589 8e2a 5578 2a3e bae3 c027
000000f0: fc0b 052d 1e97 4b37 a628 f93b 99f9 443b
3.5477457e-14 1.4485885e-10 1.823582e-11 0.014073934 1.6714897e-11 0.047565382 1.6140821e-11 0.0014654486
6.802364e-11 3.3764632e-12 5.708828e-11 0.1948351 2.0490124e-12 0.00010275582 7.818809e-14 3.017747e-12
0.019042566 1.0684502e-11 0.0011406934 0.00032944357 2.6956944e-12 0.00029308244 4.5741258e-11 3.4615838e-14
3.8060805e-12 0.0332303 7.908378e-14 0.0036233424 8.485187e-09 0.00016029553 1.0347547e-13 0.0050451504
0.022027068 2.8632873e-12 0.01086825 1.5137079e-11 0.00047076872 1.4671417e-12 0.007863724 0.005411309
0.00021328866 8.3449705e-11 0.017223107 0.00038092374 4.6475592e-12 0.004827954 8.3186485e-13 9.571116e-13
1.5403023e-06 0.6231416 1.9984208e-13 3.336875e-13 0.0012932317 0.00050952856 0.0009830703 3.827403e-11
0.0004501635 2.5319777e-13 0.16647466 5.3537607e-15 7.562836e-12 1.2134928e-05 0.0076037226 0.0030055998

base.1.conv.3.weight f4 [64, 64, 1, 1]
00000000: 0000 0000 0000 0080 0000 0000 0000 0080
00000010: 0000 0000 0000 0080 0000 0000 0000 0080
00000020: 0000 0000 0000 0000 0000 0080 0000 0000
00000030: 0000 0000 0000 0000 0000 0080 0000 0080
00000040: 0000 0080 0000 0000 0000 0000 0000 0080
00000050: 0000 0080 0000 0000 0000 0080 0000 0080
00000060: 0000 0080 0000 0000 0000 0000 0000 0080
00000070: 0000 0080 0000 0080 0000 0080 0000 0000
00000080: 0000 0000 0000 0080 0000 0080 0000 0000
00000090: 0000 0080 0000 0080 0000 0080 0000 0080
000000a0: 0000 0000 0000 0000 0000 0000 0000 0080
000000b0: 0000 0000 0000 0080 0000 0000 0000 0000
000000c0: 0000 0080 0000 0080 0000 0000 0000 0000
000000d0: 0000 0080 0000 0080 0000 0080 0000 0000
000000e0: 0000 0000 0000 0000 0000 0080 0000 0000
000000f0: 0000 0000 0000 0080 0000 0000 0000 0000
00000100: 0000 0080 0000 0080 0000 0000 0000 0000
00000110: 0000 0000 0000 0080 0000 0000 0000 0000
00000120: 0000 0000 0000 0000 0000 0000 0000 0000
00000130: 0000 0000 0000 0000 0000 0000 0000 0080
00000140: 0000 0000 0000 0000 0000 0000 0000 0080
00000150: 0000 0000 0000 0080 0000 0080 0000 0080
00000160: 0000 0080 0000 0000 0000 0000 0000 0000
00000170: 0000 0080 0000 0080 0000 0080 0000 0000
00000180: 0000 0000 0000 0080 0000 0080 0000 0080
00000190: 0000 0000 0000 0080 0000 0080 0000 0080
000001a0: 0000 0000 0000 0080 0000 0080 0000 0080
000001b0: 0000 0000 0000 0080 0000 0000 0000 0000
000001c0: 0000 0080 0000 0080 0000 0080 0000 0080
000001d0: 0000 0080 0000 0080 0000 0080 0000 0000
000001e0: 0000 0000 0000 0000 0000 0080 0000 0000
000001f0: 0000 0000 0000 0080 0000 0000 0000 0080
00000200: 0000 0000 0000 0080 0000 0000 0000 0080
00000210: 0000 0000 0000 0080 0000 0000 0000 0000
00000220: 0000 0000 0000 0000 0000 0080 0000 0000
00000230: 0000 0080 0000 0000 0000 0000 0000 0080
00000240: 0000 0000 0000 0000 0000 0000 0000 0000
00000250: 0000 0000 0000 0080 0000 0000 0000 0080
00000260: 0000 0080 0000 0000 0000 0000 0000 0000
00000270: 0000 0080 0000 0080 0000 0000 0000 0000
00000280: 0000 0000 0000 0080 0000 0080 0000 0000
00000290: 0000 0080 0000 0080 0000 0080 0000 0080
000002a0: 0000 0000 0000 0000 0000 0080 0000 0000
000002b0: 0000 0000 0000 0080 0000 0080 0000 0000
000002c0: 0000 0080 0000 0080 0000 0000 0000 0080
000002d0: 0000 0080 0000 0000 0000 0000 0000 0000
000002e0: 0000 0000 0000 0000 0000 0080 0000 0000
000002f0: 0000 0080 0000 0080 0000 0000 0000 0080
00000300: 4b88 b33a 4892 3db7 6c93 27bb a998 fd3b
00000310: 78f2 8dbb 88c6 88bd 6efd 10bb f065 9e3c
00000320: 8fa7 b03b cdb6 87bb 96d4 20bc 0bda f4bd
00000330: 54d8 4fba 315e f0bc d284 823a efbc 743b
00000340: 9f88 adbd 6b6a 273b decf 60bc c8d6 6dbd
00000350: 723d e33b e99f 6cbe 10ea d63b 62c6 abbb
00000360: 969c e4b9 f677 c93d cb20 50bb 520e a2bd
00000370: 8ed2 b9bb f0f8 46bd cd00 57bb 0b99 58be
00000380: 8b05 a13d 45b3 18bb 1aa0 0fbd f539 53ba
00000390: 459d e7bb 65f1 55bb 359f 34be faa6 33be
000003a0: f128 c1ba a71c e4bb c988 7fbe b46c eb3d
000003b0: 715a 763b 667f 23bd a8f9 09bb 2ada 45bb
000003c0: 8248 35bd 7dc2 c93e fa7e 17bc a9d6 54ba
000003d0: e9e4 2abd 2a3b 4cbc 650d e8bd 2649 af3a
000003e0: 91f8 e7bb 6a16 11bb 3f1c 04bf ceb5 babb
000003f0: 8968 3dbc 2207 cdbc f2b0 3abd 491a 8ebd
0.0 -0.0 0.0 -0.0 0.0 -0.0 0.0 -0.0
0.0 0.0 -0.0 0.0 0.0 0.0 -0.0 -0.0
-0.0 0.0 0.0 -0.0 -0.0 0.0 -0.0 -0.0
-0.0 0.0 0.0 -0.0 -0.0 -0.0 -0.0 0.0
0.0 -0.0 -0.0 0.0 -0.0 -0.0 -0.0 -0.0
0.0 0.0 0.0 -0.0 0.0 -0.0 0.0 0.0
-0.0 -0.0 0.0 0.0 -0.0 -0.0 -0.0 0.0
0.0 0.0 -0.0 0.0 0.0 -0.0 0.0 0.0
-0.0 -0.0 0.0 0.0 0.0 -0.0 0.0 0.0
0.0 0.0 0.0 0.0 0.0 0.0 0.0 -0.0
0.0 0.0 0.0 -0.0 0.0 -0.0 -0.0 -0.0
-0.0 0.0 0.0 0.0 -0.0 -0.0 -0.0 0.0
0.0 -0.0 -0.0 -0.0 0.0 -0.0 -0.0 -0.0
0.0 -0.0 -0.0 -0.0 0.0 -0.0 0.0 0.0
-0.0 -0.0 -0.0 -0.0 -0.0 -0.0 -0.0 0.0
0.0 0.0 -0.0 0.0 0.0 -0.0 0.0 -0.0
0.0 -0.0 0.0 -0.0 0.0 -0.0 0.0 0.0
0.0 0.0 -0.0 0.0 -0.0 0.0 0.0 -0.0
0.0 0.0 0.0 0.0 0.0 -0.0 0.0 -0.0
-0.0 0.0 0.0 0.0 -0.0 -0.0 0.0 0.0
0.0 -0.0 -0.0 0.0 -0.0 -0.0 -0.0 -0.0
0.0 0.0 -0.0 0.0 0.0 -0.0 -0.0 0.0
-0.0 -0.0 0.0 -0.0 -0.0 0.0 0.0 0.0
0.0 0.0 -0.0 0.0 -0.0 -0.0 0.0 -0.0
0.0013697235 -1.1299337e-05 -0.0025570048 0.007739146 -0.004331883 -0.06678492 -0.0022123712 0.019335717
0.0053910683 -0.0041416646 -0.009816309 -0.11955651 -0.0007928659 -0.029341789 0.0009957796 0.0037344059
-0.08473324 0.0025545608 -0.013721434 -0.05806616 0.006934815 -0.23107876 0.006558664 -0.005242155
-0.00043604214 0.09837334 -0.0031757827 -0.07912888 -0.005670852 -0.04857725 -0.0032806874 -0.21152131
0.07862385 -0.0023300212 -0.035064794 -0.00080576475 -0.0070683085 -0.0032645103 -0.17638858 -0.17544165
-0.0014736933 -0.0069614234 -0.24954523 0.11495343 0.0037590528 -0.03991642 -0.0021053348 -0.003018985
-0.044258602 0.39406195 -0.009246582 -0.0008119145 -0.041722212 -0.012465278 -0.1133068 0.001337324
-0.007079192 -0.0022138604 -0.516056 -0.0056979423 -0.011560568 -0.025027815 -0.045578904 -0.06938607

base.1.conv.4.weight f4 [64]
00000000: 2f9e 15bd 7236 2bbd a928 e03c 0faa 8c3e
00000010: 3cd6 b73d 9fa1 37bb 6050 5a3b b388 be3e
00000020: cea6 b33d bc5d cabc a4f5 823e b5e5 8b3e
00000030: ef8a 123f 456b 693e 4db0 1f3e db7d 9b3e
00000040: 76b3 d83e cb63 4fbd 9033 593c 84d5 b1bc
00000050: 52bd 873a 42af 84bc f256 713e 28de 3d3e
00000060: f00c 8f3e 5776 1bbd f97e b33e 4fe6 d7bb
00000070: 9fb8 af3e 57d8 ad3e 65cc 24bc 930b 0abd
00000080: 1692 3b3e 9de8 9a3a e308 bc3e 1129 47bd
00000090: dec3 34bc 414c 2fbc bed7 f03e 08fb bd3e
000000a0: e3d6 033f 2f56 8a3e 95c1 043f 9028 983e
000000b0: d802 d53c 9027 ef3e 7312 3b3d 67ec cd3b
000000c0: 0064 18bb 8658 bf3e 8101 953e f54b d73e
000000d0: 190a b8bb a03e 83bc 9259 403c 63d4 2f3e
000000e0: bb14 27bb 8e61 8fbc f1a3 623c 7edb 13a9
000000f0: 8dd6 ccbc e2c5 8a3b eabe 143f 7a72 5e3e
-0.03652781 -0.04179997 0.027363138 0.27473494 0.08976409 -0.0028019918 0.0033312067 0.37213668
0.0877205 -0.0247029 0.25578034 0.2732369 0.57243246 0.22794826 0.15594597 0.30369458
0.42324418 -0.05063228 0.013256922 -0.021708257 0.0010356104 -0.01619685 0.23568323 0.18541777
0.27939558 -0.037954655 0.3505781 -0.006588734 0.34320542 0.33954117 -0.010058497 -0.033702444
0.18317446 0.0011818592 0.3672553 -0.04862315 -0.0110330265 -0.010699333 0.47039598 0.37105584
0.51499766 0.27018878 0.5185788 0.29718447 0.026002333 0.4670987 0.04567189 0.006284285
-0.0023252964 0.37372226 0.2910271 0.42050138 -0.005616438 -0.016021073 0.011740105 0.17170863
-0.0025494534 -0.017502572 0.013833032 -3.2830936e-14 -0.02500465 0.0042350153 0.5810381 0.21723357

base.1.conv.4.bias f4 [64]
00000000: 3c01 d23b 0b78 bc3b 1b41 1dbc 2a1c 073d
00000010: 0b7c 51bc 7d74 1b3b ff11 ddbb edae 1ebc
00000020: 1c39 53bc 6834 49bc 4c53 2339 afdf 15bc
00000030: 89d4 053b fa26 7d3b 4685 de3b af2f b0bb
00000040: 831d 3f3c 6a6e afbb c377 3b3b 3e94 543b
00000050: ebeb 0b3c ae70 103c ef30 c23b d3e8 983c
00000060: 90a8 b4bb bf40 673b 8396 323a 970b e43b
00000070: c6cb 5b3c e680 373c 0d9b 1f3a 2ec0 363c
00000080: adb3 1a3b b9f6 b5bb ec3d 183c d1ed 313c
00000090: abef 023b 2402 57bb 09a2 e9b9 e6fd 7abb
000000a0: 7a73 543c b31a 4abc 389c 833b 52cd 38bb
000000b0: 7b24 fe3b b8a8 98bb 59bf 0c3c 8bc8 4a3b
000000c0: ea17 87ba 4d4d f63b 11e0 37bb df44 3abc
000000d0: f5ee 9ebb 3928 c3ba 4a34 edb9 b2e0 503a
000000e0: f073 61bb 3961 473b 6675 9bbb 193d 48bb
000000f0: 6aef fd3a 8d3c 47ba ed04 3dbb bd3e 09bc
0.0064088386 0.005751615 -0.009598042 0.032985844 -0.012785922 0.0023720555 -0.00674653 -0.00968526
-0.012892034 -0.012280561 0.00015575922 -0.009147569 0.002042087 0.0038627968 0.00679079 -0.005376778
0.011664751 -0.0053537386 0.002860532 0.0032436992 0.008540134 0.008815927 0.0059262435 0.018665707
-0.0055132583 0.0035286394 0.0006812589 0.0069593894 0.013415283 0.011200165 0.0006088473 0.011154218
0.002360563 -0.0055530933 0.009292107 0.0108599225 0.001997928 -0.0032807672 -0.0004456195 -0.0038298308
0.012966985 -0.012335467 0.0040164255 -0.0028198552 0.0077558137 -0.0046587847 0.008590543 0.0030942287
-0.001030681 0.007516539 -0.0028057138 -0.011368959 -0.0048502632 -0.0014889307 -0.0004524312 0.00079680525
-0.003440138 0.003042294 -0.0047442196 -0.0030553995 0.0019373719 -0.00076002703 -0.0028842047 -0.008376774

base.1.conv.4.running_mean f4 [64]
00000000: 17b3 19bd e9d7 103d 431e 93bc 3094 813e
00000010: 0151 a8be 3edd 76bc e384 8f3b 628c 8b3f
00000020: 7867 08bf ad23 30bd 7804 3cbe 0dcd d6be
00000030: 38cc e0bd f2d2 e93d 9767 c43e 9d61 c2be
00000040: 1eb0 3abe 04ee 69bb cecf 473c 518c 943c
00000050: c587 443d de08 073d 0a65 78be 7498 53be
00000060: 9a3a fe3d 7ff7 513d 2f01 823e 2f59 383d
00000070: 8279 5ebe b1fb ccbe a01a 173c 7f65 b83c
00000080: 8ea6 04be 2dda a03c 5487 053e e12b 38bb
00000090: 0cd6 45bb 0a84 e73b 97f9 ccbd b569 3e3e
000000a0: fd50 413f 2f88 b73e 685f aabf aaf0 b53e
000000b0: 78af 94bb 05ab 2e3f c080 11bd 179c 89bc
000000c0: 5323 523b 0a86 a8be 8624 f23d 8765 e73e
000000d0: d755 56bd 3b8c 63bc 6da1 babc c8eb 633d
000000e0: bb16 383d c1c1 7cbc 9ef9 6d3d 3a9d b62a
000000f0: 70c4 0d3b c644 523c 2ee6 8ebf be01 34bd
-0.03752431 0.035362158 -0.017958766 0.2530837 -0.328743 -0.015067397 0.004379855 1.0902216
-0.5328288 -0.043002773 -0.1836108 -0.41953316 -0.10976452 0.11417188 0.38360283 -0.37965098
-0.18231246 -0.0035694847 0.012195541 0.018133314 0.047981042 0.03296744 -0.24257293 -0.20663625
0.12413521 0.05126142 0.25391528 0.045006927 -0.21726039 -0.40035775 0.0092226565 0.022509335
-0.1295416 0.019635284 0.13039905 -0.0028102326 -0.0030187396 0.007065301 -0.10008543 0.18595012
0.75514203 0.35846087 -1.3310366 0.35535175 -0.004537519 0.68229705 -0.035523176 -0.016798062
0.0032064512 -0.32914764 0.118233725 0.45194647 -0.052327957 -0.013888414 -0.022782052 0.05564478
0.044943552 -0.015427054 0.05809938 3.2438792e-13 0.0021631978 0.01283378 -1.1163995 -0.043946974

base.1.conv.4.running_var f4 [64]
00000000: cce1 3f3b ce81 d33b bbf1 823b 9385 1c3d
00000010: f307 703d 029c aa3a e2fa b23a 99c8 6c3e
00000020: 999e f73c d0f5 7b3b c669 363e d2c2 533d
00000030: d3a4 4c3d 447b 253d 4ddc 4a3d ba83 033d
00000040: 2a39 833d fb2d a03b 0168 7e3b aff3 af3b
00000050: 9ef7 163c 72cb 9c3a e50b 963d 572f 803c
00000060: d346 f43c 795a 173b fb41 1e3d 70f4 223b
00000070: cd35 df3d c584 b83d 10e5 6c3a 53a4 6f3b
00000080: 58fb 333d 6b44 ca3a f94f 883c 87f4 213b
00000090: 2dfc 3f3b bded 493b 3e6c 163e 4900 963d
000000a0: c9c1 cb3d 0c0a 3b3e f484 233e 665c ab3c
000000b0: f678 ac3b b485 683e eaef d73b 41d4 323b
000000c0: 0b68 d33a cc52 ad3d 8829 ed3d 248d fd3c
000000d0: 9bca 703b e5b4 7e3b 38cd 693b 518f bf3d
000000e0: 195c b03a dc34 a33b 35a9 ac3b eda3 c515
000000f0: 5014 333b 8268 963a 2a0c db3d 7416 653d
0.0029278873 0.006454683 0.0039961017 0.038213324 0.05860133 0.0013016465 0.0013655091 0.23123397
0.030226992 0.0038446076 0.17813787 0.051699467 0.049961876 0.04040076 0.0495265 0.032108046
0.064073876 0.004888294 0.0038819315 0.0053696255 0.00921431 0.0011962487 0.073264875 0.015647573
0.029818928 0.0023094697 0.038637143 0.0024864934 0.108989336 0.09009699 0.00090368185 0.003656645
0.043940872 0.0015431767 0.016639696 0.00247124 0.0029294596 0.003081187 0.14689729 0.07324273
0.09949071 0.18265551 0.15968686 0.020918082 0.005263443 0.22707254 0.0065898793 0.0027287158
0.001612903 0.08463058 0.11580187 0.03095109 0.0036741856 0.0038865146 0.0035675298 0.09353507
0.0013455182 0.0049806666 0.0052691945 7.9826296e-26 0.002732534 0.0011475238 0.106956795 0.055929616

base.2.conv.0.weight f4 [128, 64, 1, 1]
00000000: 0000 0080 0000 0000 0000 0000 0000 0080
00000010: 0000 0080 0000 0080 0000 0080 0000 0000
00000020: 0000 0080 0000 0080 0000 0000 0000 0080
00000030: 0000 0000 0000 0000 0000 0000 0000 0080
00000040: 0000 0000 0000 0000 0000 0080 0000 0000
00000050: 0000 0080 0000 0080 0000 0080 0000 0080
00000060: 0000 0000 0000 0080 0000 0000 0000 0000
00000070: 0000 0080 0000 0000 0000 0000 0000 0080
00000080: 0000 0000 0000 0000 0000 0000 0000 0080
00000090: 0000 0000 0000 0000 0000 0080 0000 0080
000000a0: 0000 0000 0000 0080 0000 0000 0000 0000
000000b0: 0000 0080 0000 0080 0000 0080 0000 0080
000000c0: 0000 0000 0000 0080 0000 0080 0000 0000
000000d0: 0000 0080 0000 0000 0000 0000 0000 0000
000000e0: 0000 0000 0000 0000 0000 0000 0000 0080
000000f0: 0000 0080 0000 0080 0000 0080 0000 0000
00000100: 0000 0080 0000 0000 0000 0080 0000 0000
00000110: 0000 0080 0000 0000 0000 0000 0000 0000
00000120: 0000 0080 0000 0080 0000 0000 0000 0080
00000130: 0000 0000 0000 0080 0000 0080 0000 0080
00000140: 0000 0080 0000 0000 0000 0080 0000 0000
00000150: 0000 0080 0000 0080 0000 0080 0000 0000
00000160: 0000 0080 0000 0080 0000 0080 0000 0080
00000170: 0000 0080 0000 0000 0000 0000 0000 0000
00000180: 0000 0080 0000 0080 0000 0080 0000 0000
00000190: 0000 0080 0000 0000 0000 0000 0000 0000
000001a0: 0000 0080 0000 0080 0000 0000 0000 0000
000001b0: 0000 0080 0000 0000 0000 0080 0000 0080
000001c0: 0000 0000 0000 0080 0000 0000 0000 0000
000001d0: 0000 0000 0000 0000 0000 0000 0000 0000
000001e0: 0000 0080 0000 0000 0000 0080 0000 0000
000001f0: 0000 0080 0000 0000 0000 0000 0000 0000
00000200: 8cfc 43bc cc59 4cbd a4f0 063e 70da f03c
00000210: edff cebd bcc7 78bd 860e 45bc 2b86 c53d
00000220: c2c5 3cbd 0b3e 413e b03f 8e3e a6e5 20ba
00000230: 7c1a 873d f6d5 4fbc ab8a 36be 9554 46bd
00000240: 682a 8abb 8d4f 2d3d ba48 e73d 47b7 81be
00000250: accd d2bd dc37 e43c ba8d 87bb a46f 91bb
00000260: a2ce 3d3e 6c1e 5abd 4cbc 083d 54ae f43b
00000270: dffd ca3d 131e d83d 6e0c 543c ab0c 5b3d
00000280: 2f93 163e 104b 043d d7c8 be3d 33f1 89bc
00000290: 5993 b13c 6cfe a53d 23d3 42be a8c9 b2bd
000002a0: f55c 3c3e 2fff 85bd a71c 3d3d d78f e1bc
000002b0: a087 513e 41fa b83e ab9e b5bc dc04 93be
000002c0: fe9c 40b9 96a5 40be fb58 093d 9cc3 26be
000002d0: f038 2ebd f94e e1bd 43af b7be 7357 813c
000002e0: 2a97 1e3c ea8a a33c 8053 983d 9a5d 75ba
000002f0: a1ff 013e 59a1 d0bb 48e5 42bd 9c6f 07be
00000300: 0000 0000 0000 0000 0000 0000 0000 0080
00000310: 0000 0080 0000 0080 0000 0080 0000 0080
00000320: 0000 0080 0000 0080 0000 0000 0000 0080
00000330: 0000 0080 0000 0000 0000 0080 0000 0000
00000340: 0000 0000 0000 0000 0000 0080 0000 0000
00000350: 0000 0000 0000 0080 0000 0000 0000 0080
00000360: 0000 0080 0000 0000 0000 0000 0000 0000
00000370: 0000 0080 0000 0080 0000 0000 0000 0080
00000380: 0000 0000 0000 0080 0000 0080 0000 0080
00000390: 0000 0000 0000 0080 0000 0080 0000 0000
000003a0: 0000 0000 0000 0000 0000 0000 0000 0000
000003b0: 0000 0000 0000 0000 0000 0000 0000 0080
000003c0: 0000 0080 0000 0000 0000 0080 0000 0080
000003d0: 0000 0080 0000 0000 0000 0000 0000 0080
000003e0: 0000 0000 0000 0080 0000 0000 0000 0000
000003f0: 0000 0080 0000 0080 0000 0080 0000 0000
-0.0 0.0 0.0 -0.0 -0.0 -0.0 -0.0 0.0
-0.0 -0.0 0.0 -0.0 0.0 0.0 0.0 -0.0
0.0 0.0 -0.0 0.0 -0.0 -0.0 -0.0 -0.0
0.0 -0.0 0.0 0.0 -0.0 0.0 0.0 -0.0
0.0 0.0 0.0 -0.0 0.0 0.0 -0.0 -0.0
0.0 -0.0 0.0 0.0 -0.0 -0.0 -0.0 -0.0
0.0 -0.0 -0.0 0.0 -0.0 0.0 0.0 0.0
0.0 0.0 0.0 -0.0 -0.0 -0.0 -0.0 0.0
-0.0 0.0 -0.0 0.0 -0.0 0.0 0.0 0.0
-0.0 -0.0 0.0 -0.0 0.0 -0.0 -0.0 -0.0
-0.0 0.0 -0.0 0.0 -0.0 -0.0 -0.0 0.0
-0.0 -0.0 -0.0 -0.0 -0.0 0.0 0.0 0.0
-0.0 -0.0 -0.0 0.0 -0.0 0.0 0.0 0.0
-0.0 -0.0 0.0 0.0 -0.0 0.0 -0.0 -0.0
0.0 -0.0 0.0 0.0 0.0 0.0 0.0 0.0
-0.0 0.0 -0.0 0.0 -0.0 0.0 0.0 0.0
-0.011962067 -0.049890324 0.13177735 0.029401034 -0.10107408 -0.060737357 -0.012027388 0.09644731
-0.046087034 0.18871324 0.27782965 -0.0006137736 0.06596848 -0.01268529 -0.17826335 -0.048420507
-0.004216481 0.042312194 0.11293168 -0.25335142 -0.10293135 0.027858667 -0.004136768 -0.0044383574
0.18535855 -0.05325167 0.0333827 0.0074670706 0.09911703 0.10552611 0.012942417 0.053478878
0.14704584 0.032298148 0.09315651 -0.016838646 0.021676706 0.08105168 -0.19025855 -0.08729869
0.18394835 -0.06542813 0.046169903 -0.027534408 0.20461893 0.3612843 -0.022170385 -0.28714645
-0.00018369031 -0.18813166 0.033532124 -0.16285557 -0.04253477 -0.11001391 -0.35875902 0.01578877
0.009679595 0.0199637 0.07437801 -0.0009359956 0.12695171 -0.0063668904 -0.04758194 -0.1322617
0.0 0.0 0.0 -0.0 -0.0 -0.0 -0.0 -0.0
-0.0 -0.0 0.0 -0.0 -0.0 0.0 -0.0 0.0
0.0 0.0 -0.0 0.0 0.0 -0.0 0.0 -0.0
-0.0 0.0 0.0 0.0 -0.0 -0.0 0.0 -0.0
0.0 -0.0 -0.0 -0.0 0.0 -0.0 -0.0 0.0
0.0 0.0 0.0 0.0 0.0 0.0 0.0 -0.0
-0.0 0.0 -0.0 -0.0 -0.0 0.0 0.0 -0.0
0.0 -0.0 0.0 0.0 -0.0 -0.0 -0.0 0.0

base.2.conv.1.weight f4 [128]
00000000: 7c4a 833d affb b73c fe59 093e 061d bc3c
00000010: a958 4d3e 8ee4 ae3c d0dc 1f3e 4036 bc3c
00000020: 7758 093e d8a1 d33c 334d bc3c 3095 283e
00000030: b8a7 753d 6509 4b3e b878 d03c d7db 013d
00000040: 13bb 1c3d e551 303e b010 2e3d e116 bb3c
00000050: fff2 553e 5e0e ec3c 3324 163e a7e6 c43c
00000060: 6c37 183e 90f2 a73c e6df 1c3e dbc7 a83d
00000070: 36fb e43d 7b7e 1f3d 267a 593d 9a03 083e
00000080: 4ebf 613d a5f5 503e 2baa 1a3e 6b27 613e
00000090: 6356 edbd 3911 ab3c 527b c03c a98a 613d
000000a0: a0c2 013e 2494 383e fc5b 623e cff9 073e
000000b0: 2ef4 503e 364f ee3d 0360 593e 25f8 1d3e
000000c0: 8d7a df3c 796d e93c c691 b03c b711 b83c
000000d0: 0583 1a3d 6441 3d3e 72b4 853e 9214 1c3e
000000e0: ec48 f43d cb06 4c3d 4e3c 253e 64a3 353e
000000f0: ae36 773e c6cd 603e a655 223e 3887 3e3d
00000100: 1a59 3d3e 1b2c a83c 309e 6e3d 8006 e73c
00000110: 4acb 523d d974 5e3e 8fa7 493e 46ec 543d
00000120: b101 2d3e e031 443e 0cd5 e53c 95a1 0a3e
00000130: 9cd1 273e 575d ae3c 96bd cc3c 0601 3e3e
00000140: 25cd 5a3e 4c60 e53c c25b 283d 188c 4f3e
00000150: 5148 a93c 4a45 613e 927e 363e 8524 4c3d
00000160: 82a0 463d 7651 a83c 0850 de3d 3b47 553e
00000170: 6cee 763e 635c c73c 054f 223d cddf 353d
00000180: 9a1d 323e 043d 303e 3a04 3b3d ee92 5f3d
00000190: 96f7 543e b4ac 603e 7d2a b73c 5fa6 133e
000001a0: 6671 ed3c de03 633d d97d 253e 478f 2e3e
000001b0: e8ff 193e bbca 2e3e 1fb8 423d 1951 dc3c
000001c0: 443b 533d eb84 513d 168a 483d e78e 383d
000001d0: 3d2f 003d e35a 563d d4f2 763e 14a9 233e
000001e0: a4e0 423d 553d 183d a4ba fc3d 90e7 513e
000001f0: 8a89 a53c 52de 143e 02d7 a63c 4307 a03c
0.06410691 0.02245888 0.13413236 0.022963058 0.20053352 0.021349218 0.15611577 0.022975087
0.13412653 0.025834009 0.02298603 0.1646316 0.059974402 0.19827802 0.025448188 0.031703796
0.038264345 0.1721874 0.042496383 0.022838058 0.20893477 0.028815445 0.14662246 0.024035765
0.14864892 0.020501405 0.15319785 0.082412444 0.11180727 0.03893898 0.053095005 0.13282624
0.055114083 0.20406206 0.15103976 0.21987693 -0.115887426 0.020882236 0.023496304 0.055063877
0.126719 0.18025261 0.22105402 0.13278888 0.20405647 0.11636202 0.21228032 0.15426691
0.027280116 0.028494583 0.021553885 0.022469385 0.037722606 0.18481976 0.2611423 0.15242222
0.11927971 0.049811166 0.16136286 0.1773811 0.24141952 0.21953496 0.15852985 0.046515673
0.18491021 0.020528844 0.058256328 0.028201342 0.051463403 0.21724261 0.19692825 0.05198314
0.16895176 0.19159651 0.02805569 0.13538201 0.16388553 0.021284742 0.024992745 0.18555078
0.21367319 0.02800002 0.041103132 0.20268285 0.020664366 0.21999088 0.1782172 0.049839515
0.048492916 0.020546656 0.108551085 0.20827954 0.24114388 0.024336046 0.03962614 0.044402886
0.17394105 0.17210776 0.045658328 0.054583482 0.20797572 0.21940881 0.022359127 0.14418934
0.028984737 0.05542361 0.16161288 0.17046843 0.15039027 0.17069523 0.047538873 0.02689414
0.051570192 0.05115215 0.048959814 0.045058157 0.03129505 0.05233277 0.24116069 0.15982467
0.047577515 0.037167866 0.123402864 0.2049849 0.020207185 0.14537933 0.020366196 0.019534713

base.2.conv.1.bias f4 [128]
00000000: 35f8 7e3a 4724 103b 2cbb 08bd ab0f 5f3b
00000010: 913a 2e3e 4e90 dfba a04d 3a3e 7d6e 313a
00000020: dc37 55be 60a7 303b 122b 6e3b c109 3f3e
00000030: db8e ca3b 5c4a 55bd 80c8 d03b a0b3 593a
00000040: fa34 f1bb c399 f33d e692 35bb b5f4 663a
00000050: 9dec f13d 77e3 e43b 5118 543e 8fdb 863b
00000060: 7e5c 01be 12ef c4b9 eb43 1c3e aeab 923d
00000070: b45b 81bb e8b6 01b9 e5ad f2bb e3b9 c23d
00000080: ea3d 12bb 5e0a 2339 cc45 e6bb 516d c6bd
00000090: b58c 2f3e c187 8c3a 48e1 563a dac2 b136
000000a0: 76d6 c43c c739 513e 20b2 17be fa0c 033e
000000b0: 3739 52bd 9452 df3d f35c 943d 4aa1 1f3d
000000c0: 3fa4 0539 6725 9e39 d049 56ba 1490 8e3b
000000d0: 99ad d93a 2f96 0fbe 2183 cbbe d374 c73d
000000e0: 8269 80bd feb0 53bb b8a0 26bd cf30 343e
000000f0: 5625 3fbe 3342 32be 869c 223e 9be6 bfbb
00000100: a443 89bd b89c 013b 340d 2dbc be4a af3b
00000110: 6d1c c6b9 5b30 603e a376 50bd 1882 223c
00000120: 8c6d 9abd 7069 babd 416b f23b 57c4 08be
00000130: 15fe 19bd d5be 453a df57 083b d696 483e
00000140: 26f8 b4bd 3540 dc3b 5f8a 113c 4e9a 53be
00000150: 96f8 843b aab3 12bc d4f5 3e3e 885a 173c
00000160: b274 0e3a 408e 203a ca44 073d df03 993d
00000170: ce6a 5a3e 1f2c a93b ad48 f0ba 127e 823a
00000180: b216 943d b0df 84bd 3bb7 2c3c dbcd c7bb
00000190: 9e55 31be 90ae d63c fa8d 323a 3888 1c3e
000001a0: 638b 8339 4b52 dbbb d63f b63d d539 943a
000001b0: 0e2d fd3d c6a9 6d3e 63ff 8d39 f433 863a
000001c0: 2a3f 6b3b 699c fabb 85c2 86ba 2377 5fbb
000001d0: 17c0 a9ba e923 1bbc 3874 8cbe 6f49 173e
000001e0: 02a3 163b 155a c63a 0ca7 0dbd 3d7b 883c
000001f0: 40cd 193b d481 7fbd b1e6 653b f5dd 8839
0.0009726317 0.002199428 -0.033381626 0.0034036438 0.17014529 -0.0017056556 0.18193674 0.0006768478
-0.2082209 0.0026955232 0.003634159 0.18656065 0.0061815805 -0.052072868 0.0063715577 0.0008304659
-0.0073610516 0.11894562 -0.0027705966 0.0008810268 0.118127085 0.0069851237 0.20712401 0.004115529
-0.12632939 -0.00037562154 0.15260284 0.071616516 -0.0039476994 -0.00012370537 -0.0074059837 0.09508111
-0.0022314736 0.00015548753 -0.0070273634 -0.09688819 0.17143519 0.001072161 0.00081970217 5.2976948e-06
0.024028044 0.20432197 -0.14814043 0.12797919 -0.051324096 0.109044224 0.07244291 0.038972177
0.00012745055 0.00030163975 -0.0008174451 0.0043506715 0.0016607522 -0.14022134 -0.3974848 0.09739079
-0.06270124 -0.003230154 -0.040680617 0.17596744 -0.18666586 -0.17408065 0.15880021 -0.0058563477
-0.067023546 0.001977725 -0.01056223 0.005349486 -0.00037786682 0.21893446 -0.05089439 0.009918712
-0.07540426 -0.09102142 0.0073980396 -0.13356148 -0.037595827 0.000754339 0.0020804328 0.1958879
-0.08836393 0.0067215213 0.008883088 -0.20664331 0.004057954 -0.008953968 0.18648463 0.009237893
0.0005434259 0.00061247125 0.033024587 0.074714415 0.21329805 0.0051627303 -0.0018332206 0.0009955785
0.07230891 -0.064879775 0.010541732 -0.006097538 -0.17317817 0.026206285 0.0006811317 0.15286338
0.00025090118 -0.0066931597 0.088988945 0.0011308739 0.12362109 0.23209295 0.00027083894 0.0010238872
0.0035895803 -0.00764804 -0.001028136 -0.003409811 -0.0012950924 -0.009469011 -0.27432418 0.14774106
0.0022985344 0.0015133048 -0.034583136 0.016660327 0.0023468286 -0.062379673 0.003508013 0.00026105312

base.2.conv.1.running_mean f4 [128]
00000000: fb2f 7831 178c cf31 a54f 1fbe 166f 0d32
00000010: 2b66 623e 67ef e0b1 52e3 a13e ed45 952f
00000020: af92 b13d 07fe 69b1 7b06 a431 6ca9 9a3e
00000030: d981 15b1 3827 c9be 394a 7db1 6cfa 2933
00000040: 2079 02b8 d666 873c a5d5 2131 ee19 ecaf
00000050: 70ba 1abe 4a8a a032 2c59 253e fcb6 68b2
00000060: 0024 21bd 6778 f7af 6633 90be da66 963f
00000070: 0548 33c0 d2ad 82ad f35e f1ae af41 d43c
00000080: 9f29 2eb2 c66a 853e cfe9 09be da8c a6be
00000090: 6225 7a3e afb6 2831 35ff 34b0 19b5 b4ac
000000a0: f634 7cbf f5c2 5dbe 1d4e 0dbe 56d7 70be
000000b0: 7255 0bbc 730e 893d 4990 a1be f56a 75be
000000c0: fce0 2430 0b80 b2ad 5c1d e6b0 0cd7 28b3
000000d0: 753c f3b2 d166 c7bd 3139 9dbe e756 78be
000000e0: ad52 1cbf fd33 2830 d56a 9bbd b872 f3bd
000000f0: b2c9 113f 2f57 d33e 37d4 ff3d a18a 0bb3
00000100: 0555 523d 2fc7 8931 dbb4 a4ab e5d1 ecb2
00000110: 9810 a023 97ed e53d b648 133e 23a1 87b2
00000120: 8640 92bd ed42 8abd 229a 9a32 f441 85bd
00000130: 65b3 46be aa93 96b0 ff54 aa31 162d b33b
00000140: 770f f1be 5776 3733 e9e1 b32f 4c86 43be
00000150: 4721 3eb0 5716 0fbf cd3c 403d 0f0f 85af
00000160: 3016 9d30 8a85 4130 8cf6 f4bd 4573 323d
00000170: e64b c83e 4b73 cab2 59dd 66b2 81ab 562f
00000180: 3841 62be 57fe 05bf b07b 1d32 3a93 19b1
00000190: 7ec5 8fbd 9597 65be b44d 56b0 8d28 1c3e
000001a0: aa09 302f aeff 4234 6e3b 303e 2b46 253e
000001b0: 9cf5 bebc 5796 2f3f 9fd8 20b0 b6cd a4b2
000001c0: 6e53 0a30 45f4 0aae 33b5 5232 26d9 adb2
000001d0: 345b c1b1 fd13 22b2 4406 b63e 21f3 81be
000001e0: 1094 58b0 da33 4b32 5594 133e a389 e8bd
000001f0: 398b 6d31 822d b0be d77c ff31 14f7 f22d
3.6116024e-09 6.0404193e-09 -0.15557726 8.232538e-09 0.22109286 -6.546475e-09 0.31618744 2.7152627e-10
0.08670556 -3.405036e-09 4.773765e-09 0.30207384 -2.1756164e-09 -0.39287734 -3.6858536e-09 3.9576136e-08
-3.110722e-05 0.016528528 2.3550026e-09 -4.2946574e-10 -0.15110183 1.8689338e-08 0.16147298 -1.3545783e-08
-0.039340973 -4.501459e-10 -0.28164214 1.1750138 -2.8012707 -1.485648e-11 -1.09762775e-10 0.025910227
-1.01375965e-08 0.26058024 -0.13468097 -0.32529336 0.24428323 2.4551061e-09 -6.584629e-10 -5.1360136e-12
-0.9851831 -0.21656401 -0.13799329 -0.23519644 -0.0085042585 0.06692209 -0.31555393 -0.23966582
5.9982574e-10 -2.029312e-11 -1.6743047e-09 -3.9311132e-08 -2.8316416e-08 -0.097364075 -0.30707696 -0.242519
-0.61063653 6.1191924e-10 -0.07588736 -0.11887115 0.5694839 0.41277453 0.12491649 -3.248954e-08
0.051350612 4.0098693e-09 -1.1703098e-12 -2.7569465e-08 1.7354262e-17 0.11226957 0.14383206 -1.5789345e-08
-0.07141213 -0.06751046 1.7998051e-08 -0.0650672 -0.19404371 -1.0955905e-09 4.957314e-09 0.005468021
-0.4708211 4.2715637e-08 3.272043e-10 -0.19094199 -6.916889e-10 -0.5589346 0.046932984 -2.420326e-10
1.142956e-09 7.040276e-10 -0.119610876 0.04356696 0.39120406 -2.3568324e-08 -1.3438091e-08 1.9524117e-10
-0.22095191 -0.52341217 9.166726e-09 -2.234812e-09 -0.070200905 -0.22421105 -7.796317e-10 0.15249844
1.601054e-10 1.8160674e-07 0.1721017 0.16140048 -0.023310475 0.68588775 -5.85155e-10 -1.918566e-08
5.032267e-10 -3.1594522e-11 1.2264809e-08 -2.0238598e-08 -5.627408e-09 -9.434186e-09 0.35551655 -0.25380805
-7.879075e-10 1.1827945e-08 0.14412053 -0.11354377 3.4567178e-09 -0.3440972 7.4356694e-09 2.762194e-11
