Pruned_Models/EXTD/L1/EXTD30_L1.pth (torch, 722013 bytes, 134 tensors)

base.0.0.weight f4 [64, 3, 3, 3]
-0.0 -0.0 -0.0 -0.0 -0.0 -0.0 -0.0 -0.0
-0.0 -0.0 -0.0 -0.0 -0.0 -0.0 -0.0 -0.0
-0.0 -0.0 -0.0 -0.0 -0.0 -0.0 -0.0 -0.0
-0.0 -0.0 -0.0 -0.0 -0.0 -0.0 -0.0 -0.0
-0.0 -0.0 -0.0 -0.0 -0.0 -0.0 -0.0 -0.0
-0.0 -0.0 -0.0 -0.0 -0.0 0.0 0.0 0.0
0.0 0.0 0.0 0.0 0.0 0.0 -0.0 -0.0
-0.0 -0.0 -0.0 -0.0 -0.0 -0.0 -0.0 0.0
0.0 0.0 -0.0 -0.0 -0.0 -0.0 -0.0 -0.0
-0.0 -0.0 -0.0 -0.0 -0.0 -0.0 -0.0 -0.0
-0.0 7.1546526 6.3189454 7.635072 5.740574 6.625942 3.7587125 1.363848
1.5800673 2.8188546 8.34511 7.6019716 9.632336 6.1222115 6.904373 4.303651
1.1161952 1.0149012 1.5675352 8.46452 7.3035364 9.90104 6.274408 6.4632707
3.9655237 2.082501 1.0561534 1.3529717 -6.531456 -5.1576824 -5.609509 -8.179115
-7.175791 -7.637557 -8.157081 -7.4916134 -8.206004 -10.812556 -9.534526 -8.979871
-12.397092 -11.508781 -10.930515 -12.474003 -11.947507 -11.596171 -9.576126 -8.398577
-7.5488763 -11.349199 -10.348053 -9.704052 -11.518988 -10.848035 -10.439694 -13.376088
-16.83807 -21.763245 -6.4878435 -17.766148 -23.218094 -5.7141614 -19.190996 -27.119236
-14.849278 -18.635824 -25.409996 -2.4220471 -15.463455 -20.10028 0.25517794 -16.024261
-23.290457 -12.379679 -16.527716 -23.952217 2.511381 -10.033898 -14.113517 5.6528177
-10.264795 -16.15831 0.0 0.0 0.0 0.0 0.0 0.0
0.0 0.0 0.0 -0.0 0.0 0.0 -0.0 0.0
0.0 -0.0 0.0 0.0 -0.0 -0.0 0.0 -0.0
-0.0 0.0 -0.0 -0.0 0.0 17.165913 -2.24388 -10.0929575
-2.010835 -23.867897 -28.844955 -39.245914 -54.79063 -50.27363 25.86982 7.2875934
-0.8990309 17.285156 -2.5873141 -8.820023 -9.710003 -23.55492 -21.172812 30.29083
16.58639 13.229343 23.558697 9.492754 6.7109213 -5.6401076 -14.243393 -10.440418
-0.0 -0.0 -0.0 -0.0 -0.0 -0.0 -0.0 -0.0
-0.0 -0.0 -0.0 -0.0 -0.0 -0.0 -0.0 -0.0
-0.0 -0.0 -0.0 -0.0 -0.0 -0.0 -0.0 -0.0
-0.0 -0.0 -0.0 0.0 0.0 0.0 0.0 -0.0
0.0 0.0 -0.0 0.0 0.0 0.0 0.0 0.0
00000000: 0000 0080 0000 0080 0000 0080 0000 0080
00000010: 0000 0080 0000 0080 0000 0080 0000 0080
00000020: 0000 0080 0000 0080 0000 0080 0000 0080
00000030: 0000 0080 0000 0080 0000 0080 0000 0080
00000040: 0000 0080 0000 0080 0000 0080 0000 0080
00000050: 0000 0080 0000 0080 0000 0080 0000 0080
00000060: 0000 0080 0000 0080 0000 0080 0000 0080
00000070: 0000 0080 0000 0080 0000 0080 0000 0080
00000080: 0000 0080 0000 0080 0000 0080 0000 0080
00000090: 0000 0080 0000 0080 0000 0080 0000 0080
000000a0: 0000 0080 0000 0080 0000 0080 0000 0080
000000b0: 0000 0080 0000 0000 0000 0000 0000 0000
000000c0: 0000 0000 0000 0000 0000 0000 0000 0000
000000d0: 0000 0000 0000 0000 0000 0080 0000 0080
000000e0: 0000 0080 0000 0080 0000 0080 0000 0080
000000f0: 0000 0080 0000 0080 0000 0080 0000 0000
00000100: 0000 0000 0000 0000 0000 0080 0000 0080
00000110: 0000 0080 0000 0080 0000 0080 0000 0080
00000120: 0000 0080 0000 0080 0000 0080 0000 0080
00000130: 0000 0080 0000 0080 0000 0080 0000 0080
00000140: 0000 0080 eaf2 e440 cd34 ca40 8352 f440
00000150: c8b2 b740 b807 d440 bf8e 7040 9292 ae3f
00000160: a53f ca3f 1d68 3440 9285 0541 5a43 f340
00000170: 0c1e 1a41 28e9 c340 a0f0 dc40 82b7 8940
00000180: 7cdf 8e3f 48e8 813f fea4 c83f ad6e 0741
00000190: 92b6 e940 a96a 1e41 f3c7 c840 1dd3 ce40
000001a0: 24cb 7d40 b247 0540 0930 873f 2d2e ad3f
000001b0: b001 d1c0 bc0b a5c0 1981 b3c0 a8dd 02c1
000001c0: 14a0 e5c0 de66 f4c0 6783 02c1 4cbb efc0
000001d0: cb4b 03c1 3b00 2dc1 6b8d 18c1 8dad 0fc1
000001e0: 7d5a 46c1 f823 38c1 64e3 2ec1 8495 47c1
000001f0: fd28 3fc1 eb89 39c1 d037 19c1 9260 06c1
00000200: 6590 f1c0 5296 35c1 a091 25c1 cc43 1bc1
00000210: c64d 38c1 8d91 2dc1 fd08 27c1 7504 56c1
00000220: 5eb4 86c1 201b aec1 6a9c cfc0 1221 8ec1
00000230: a8be b9c1 69da b6c0 2987 99c1 32f4 d8c1
00000240: a596 6dc1 2b16 95c1 ac47 cbc1 d202 1bc0
00000250: 506a 77c1 60cd a0c1 afa6 823e b031 80c1
00000260: db52 bac1 2a13 46c1 c338 84c1 249e bfc1
00000270: 77ba 2040 d98a 20c1 f7d0 61c1 e2e3 b440
00000280: 9a3c 24c1 3844 81c1 0000 0000 0000 0000
00000290: 0000 0000 0000 0000 0000 0000 0000 0000
000002a0: 0000 0000 0000 0000 0000 0000 0000 0080
000002b0: 0000 0000 0000 0000 0000 0080 0000 0000
000002c0: 0000 0000 0000 0080 0000 0000 0000 0000
000002d0: 0000 0080 0000 0080 0000 0000 0000 0080
000002e0: 0000 0080 0000 0000 0000 0080 0000 0080
000002f0: 0000 0000 ca53 8941 bb9b 0fc0 c17c 21c1
00000300: 85b1 00c0 74f1 bec1 78c2 e6c1 d1fb 1cc2
00000310: 9b29 5bc2 3218 49c2 64f5 ce41 f733 e940
00000320: e426 66bf 0048 8a41 8e96 25c0 d01e 0dc1
00000330: 2c5c 1bc1 7a70 bcc1 eb61 a9c1 9f53 f241
00000340: edb0 8441 64ab 5341 3678 bc41 52e2 1741
00000350: debf d640 c37b b4c0 f0e4 63c1 f40b 27c1
00000360: 0000 0080 0000 0080 0000 0080 0000 0080
00000370: 0000 0080 0000 0080 0000 0080 0000 0080
00000380: 0000 0080 0000 0080 0000 0080 0000 0080
00000390: 0000 0080 0000 0080 0000 0080 0000 0080
000003a0: 0000 0080 0000 0080 0000 0080 0000 0080
000003b0: 0000 0080 0000 0080 0000 0080 0000 0080
000003c0: 0000 0080 0000 0080 0000 0080 0000 0000
000003d0: 0000 0000 0000 0000 0000 0000 0000 0080
000003e0: 0000 0000 0000 0000 0000 0080 0000 0000
000003f0: 0000 0000 0000 0000 0000 0000 0000 0000

base.0.1.weight f4 [64]
0.0019975766 0.003260747 -0.00025160555 0.1745228 -0.056721438 0.4738071 -0.0014672343 0.92986304
0.011327215 0.004404859 0.25802287 0.5488612 0.0022187405 -0.2563074 0.0075541637 0.0074634543
0.5861251 0.022930508 0.10044005 0.1840301 -0.0025302237 -0.22340067 0.004278048 -0.055066623
-0.007091835 0.14900601 -0.1471651 0.568325 0.27695787 0.155922 0.0062683937 0.17400312
-0.22537816 -0.002052101 0.38768178 0.03069058 0.41405198 -0.00057749666 1.0412885 0.09593346
0.54256177 0.09138151 0.1969228 0.08185203 -0.04409534 0.18486205 0.23412399 0.14244789
0.4413004 -0.06819419 0.24680059 0.00071859587 -0.19901985 0.13451636 0.18120451 0.17708647
0.3486425 0.19113499 0.2199346 0.0036494061 -0.0031119708 0.27964792 0.021681182 0.23494281
00000000: c6e9 023b 42b2 553b ede9 83b9 1bb6 323e
00000010: bd54 68bd d896 f23e 3750 c0ba 810b 6e3f
00000020: c895 393c a356 903b 931b 843e 2b82 0c3f
00000030: 4a68 113b b93a 83be eb88 f73b fe8f f43b
00000040: 4b0c 163f c3d8 bb3c 83b3 cd3d 6372 3c3e
00000050: 1cd2 25bb 25c3 64be de2e 8c3b 8a8d 61bd
00000060: a062 e8bb 0895 183e 73b2 16be bf7d 113f
00000070: 6ccd 8d3e 04aa 1f3e 1967 cd3b e02d 323e
00000080: 88c9 66be 8b7c 06bb 3a7e c63e d06a fb3c
00000090: 9ffe d33e 2563 17ba f148 853f c378 c43d
000000a0: 54e5 0a3f 3b26 bb3d 21a6 493e 09a2 a73d
000000b0: 519d 34bd 7a4c 3d3e 33be 6f3e dcdd 113e
000000c0: 20f2 e13e 65a9 8bbd 4bb9 7c3e 2760 3c3a
000000d0: dccb 4bbe a8be 093e ad8d 393e 2856 353e
000000e0: 4581 b23e e4b8 433e 8936 613e e02a 6f3b
000000f0: 35f2 4bbb 032e 8f3e bc9c b13c d994 703e

base.0.1.bias f4 [64]
-0.028002884 -0.04847119 -0.052645985 0.82393724 -0.08485958 -0.23254013 -0.024544641 -0.25770566
-0.027681231 -0.04601081 0.014665632 -0.062857665 -0.02241854 -0.2469753 0.03817358 -0.034155063
-0.4989101 -0.13789198 -0.17453833 -0.07202403 -0.0642046 -0.3852161 -0.047324143 0.31133294
-0.026575016 0.23646133 -0.2171248 0.47188225 0.11820408 0.07633509 -0.021716923 -0.102046154
-0.1869828 -0.03062826 0.0981033 -0.042193394 0.10851169 -0.03578056 0.17163531 -0.14022508
0.059439015 -0.07993594 -0.187294 -0.71813035 -0.18058936 -0.34896344 0.10849087 -0.09596291
-0.42591926 -0.09282384 -0.010207685 -0.06215539 0.12691839 -0.39020008 0.04203144 0.11896343
-0.086908065 0.3993776 -0.139372 -0.022990815 -0.032778706 -0.0712549 -0.08263734 -0.54388183
00000000: 4e66 e5bc ba89 46bd 51a3 57bd 8ded 523f
00000010: dcca adbd 001f 6ebe d811 c9bc fff1 83be
00000020: c0c3 e2bc d575 3cbd 1e48 703c 85bb 80bd
00000030: 16a7 b7bc 18e7 7cbe e65b 1c3d 2ee6 0bbd
00000040: 2571 ffbe 8e33 0dbe 2dba 32be 5681 93bd
00000050: b47d 83bd 0b3b c5be f6d6 41bd 0867 9f3e
00000060: d9b3 d9bc eb22 723e f755 5ebe 8d9a f13e
00000070: fb14 f23d 9255 9c3d b0e7 b1bc 93fd d0bd
00000080: 6b78 3fbe 1ee8 fabc 62ea c83d fbd2 2cbd
00000090: 603b de3d a38e 12bd 2bc1 2f3e 2a97 0fbe
000000a0: 5376 733d 74b5 a3bd 00ca 3fbe 64d7 37bf
000000b0: 6bec 38be 56ab b2be 7630 de3d 3488 c4bd
000000c0: 1712 dabe 6d1a bebd 223e 27bc a696 7ebd
000000d0: e5f6 013e 4ec8 c7be 2929 2c3d 19a3 f33d
000000e0: dbfc b1bd 397b cc3e 89b7 0ebe 3c57 bcbc
000000f0: f742 06bd 17ee 91bd c43d a9bd d73b 0bbf

base.0.1.running_mean f4 [64]
6e-45 6e-45 6e-45 45.502056 -115.561264 179.87592 -6e-45 996.513
6e-45 -6e-45 -166.66101 555.7907 -6e-45 660.55096 6e-45 -6e-45
522.397 450.8875 140.82231 -392.38522 -6e-45 -386.7745 -6e-45 -147.68744
-6e-45 -1290.0005 -312.1732 -158.42003 -24.869522 31.52797 6e-45 -518.55585
-395.44757 -6e-45 -125.91021 -6e-45 -268.93997 6e-45 -1908.2745 753.3115
7780.936 -0.37751123 209.83055 10.718549 140.12054 -199.4114 -20.53757 28.18822
-268.22708 83.05683 -43.69818 -6e-45 -385.1258 -157.86592 -383.05 -158.898
-385.99384 19.096786 -169.26993 -6e-45 6e-45 145.45381 145.27109 -382.63266
00000000: 0400 0000 0400 0000 0400 0000 1b02 3642
00000010: 5e1f e7c2 3ce0 3343 0400 0080 d520 7944
00000020: 0400 0000 0400 0080 38a9 26c3 9bf2 0a44
00000030: 0400 0080 4323 2544 0400 0000 0400 0080
00000040: 6899 0244 9a71 e143 83d2 0c43 4f31 c4c3
00000050: 0400 0080 2363 c1c3 0400 0080 fcaf 13c3
00000060: 0400 0080 0440 a1c4 2b16 9cc3 876b 1ec3
00000070: c8f4 c6c1 4839 fc41 0400 0000 93a3 01c4
00000080: 4ab9 c5c3 0400 0080 07d2 fbc2 0400 0080
00000090: 5178 86c3 0400 0000 c988 eec4 f053 3c44
000000a0: 7d27 f345 2749 c1be 9fd4 5143 2d7f 2b41
000000b0: dc1e 0c43 5269 47c3 f24c a4c1 7981 e141
000000c0: 111d 86c3 191d a642 f0ca 2ec2 0400 0080
000000d0: 1a90 c0c3 addd 1dc3 6686 bfc3 e3e5 1ec3
000000e0: 36ff c0c3 38c6 9841 1a45 29c3 0400 0080
000000f0: 0400 0000 2d74 1143 6645 1143 fb50 bfc3

base.0.1.running_var f4 [64]
6e-45 6e-45 6e-45 6.4605508e+07 2.2373842e+08 5.1038333e+08 6e-45 1.0392561e+08
6e-45 6e-45 4.5211683e+08 4.2871933e+09 6e-45 1.0569529e+09 6e-45 6e-45
2.5932295e+11 1.5376307e+08 2.3640745e+09 7.0877285e+06 6e-45 7.898766e+06 6e-45 3.8447188e+07
6e-45 8.084013e+09 4.3828593e+09 2.4780926e+07 3.0547928e+07 5.811327e+08 6e-45 2.5077583e+09
2.2277468e+07 6e-45 5.169597e+07 6e-45 1.22363e+07 6e-45 8.1457184e+08 2.356606e+09
3.2587295e+09 6.6219256e+07 5.36589e+09 1.0939627e+07 1.7370725e+08 6.0749715e+08 4.0136336e+07 1.24617784e+08
1.0528363e+09 4.3292657e+09 2.738421e+07 6e-45 1.5080657e+09 4.5888135e+06 3.9792568e+09 2.2505216e+07
6.2595206e+08 2.2916408e+06 3.0134643e+08 6e-45 6e-45 1.078648e+08 6.632825e+08 1.162804e+11
00000000: 0400 0000 0400 0000 0400 0000 5173 764c
00000010: a35f 554d a75e f34d 0400 0000 ed38 c64c
00000020: 0400 0000 0400 0000 0b96 d74d 6189 7f4f
00000030: 0400 0000 49ff 7b4e 0400 0000 0400 0000
00000040: 6983 7152 d0a3 124d eae8 0c4f e14c d84a
00000050: 0400 0000 1c0d f14a 0400 0000 15aa 124c
00000060: 0400 0000 20ec f04f 909e 824f 3f10 bd4b
00000070: ec0f e94b 868d 0a4e 0400 0000 5b79 154f
00000080: aef6 a94b 0400 0000 5834 454c 0400 0000
00000090: 0cb6 3a4b 0400 0000 8535 424e f476 0c4f
000000a0: 443c 424f 3e9b 7c4c 7eea 9f4f ebec 264b
000000b0: ffa8 254d afd6 104e a41b 194c 87b0 ed4c
000000c0: 0704 7b4e ad05 814f c9ec d04b 0400 0000
000000d0: 83c6 b34e 1b0a 8c4a a42e 6d4f 80b3 ab4b
000000e0: 153d 154e e3de 0b4a 74b1 8f4d 0400 0000
000000f0: 0400 0000 5cbc cd4c 8d23 1e4e d196 d851

base.1.conv.0.weight f4 [64, 1, 3, 3]
-0.0 0.0 0.0 0.0 0.0 0.0 0.0 0.0
0.0 -0.0 -0.0 -0.0 0.0 -0.0 -0.0 0.0
0.0 -0.0 0.0 -0.0 -0.0 0.0 0.0 0.0
0.0 0.0 0.0 0.13240165 0.62322307 0.05967029 0.10770359 0.4039098
0.1595717 -0.3796505 -0.8729523 -0.22336666 0.0015439369 -0.017385207 -0.014693446 0.0067796856
-0.014476204 -0.03656636 0.0073038386 -0.03563364 -0.029761242 0.14634016 0.848873 0.09849382
-0.24348594 0.17661317 0.029224882 -0.16078973 -0.7899766 -0.10105112 -0.0 -0.0
-0.0 0.0 0.0 0.0 0.0 0.0 0.0 -0.031311125
-0.5734802 -0.09771159 0.41532832 0.022389172 -0.11162 0.21774663 0.0892572 -0.008930893
0.0 0.0 0.0 0.0 0.0 0.0 0.0 0.0
0.0 -0.0 -0.0 -0.0 -0.0 0.0 -0.0 0.0
0.0 0.0 0.015768351 -0.0416132 0.018489553 0.043060556 -0.0135699045 0.017664727
-7.4838514e-05 0.0006570545 0.08227543 0.08202343 -0.016188521 0.079678036 -0.16141771 -0.0528659
0.06099441 -0.25186968 -0.074906014 0.15338951 0.0 0.0 0.0 0.0
0.0 0.0 0.0 0.0 0.0 -0.03743149 -0.08410128 -0.034866445
0.08625041 0.6074427 -0.371385 -0.06257818 -0.015596015 -0.0946219 -0.036715668 -0.0059444443
0.008422857 -0.028643854 0.009993362 0.023636475 -0.013249729 0.016816448 0.022780782 -0.0
-0.0 -0.0 -0.0 -0.0 -0.0 -0.0 -0.0 -0.0
0.124408044 -0.119186476 -0.0056540472 0.1332473 -0.96040744 0.1237988 -0.12509073 0.9523646
-0.11643112 -0.0 -0.0 -0.0 -0.0 -0.0 -0.0 -0.0
-0.0 -0.0 -0.022689126 0.014551599 -0.07202418 -0.06201794 0.010243027 -0.026982782
0.04945235 0.03157254 -0.09276884 -0.007461723 -0.21060278 0.21918453 -0.090908155 0.78878075
-0.13426876 -0.024673859 -0.10560372 0.0036336016 0.0 0.0 -0.0 0.0
-0.0 -0.0 0.0 0.0 -0.0 -0.0112922955 -0.112403184 -0.05374413
-0.14915885 -0.044776604 -0.031382836 -0.11789093 -0.29184365 -0.2157686 -0.0 -0.0
0.0 -0.0 -0.0 0.0 -0.0 -0.0 0.0 -0.1673799
0.014475844 -0.19348902 -0.05602114 0.16708337 -0.0018239681 -0.06814733 -0.0033268991 -0.11432963
-0.0 -0.0 -0.0 -0.0 -0.0 -0.0 -0.0 -0.0
-0.0 -0.029162912 -0.07770895 0.16179256 0.12551169 -0.3120192 0.12211205 -0.004072283
0.060424943 0.032001503 -0.050280146 0.109176226 -0.073106006 -0.054182343 0.19374521 0.10766809
-0.058642834 0.06677748 -0.048472997 0.20133282 -0.41347876 0.14459755 -0.20446666 0.61877716
-0.15292412 0.032168042 -0.013059276 0.037528217 0.009919591 0.00030732987 -0.019181127 -0.015481432
00000000: 0000 0080 0000 0000 0000 0000 0000 0000
00000010: 0000 0000 0000 0000 0000 0000 0000 0000
00000020: 0000 0000 0000 0080 0000 0080 0000 0080
00000030: 0000 0000 0000 0080 0000 0080 0000 0000
00000040: 0000 0000 0000 0080 0000 0000 0000 0080
00000050: 0000 0080 0000 0000 0000 0000 0000 0000
00000060: 0000 0000 0000 0000 0000 0000 4c94 073e
00000070: 8c8b 1f3f d668 743d b393 dc3d 44cd ce3e
00000080: c466 233e 8d61 c2be cd79 5fbf 3bba 64be
00000090: ed5d ca3a 6c6b 8ebc c8bc 70bc 2028 de3b
000000a0: 9a2d 6dbc 9cc6 15bd 0a55 ef3b 94f4 11bd
000000b0: d9cd f3bc 32da 153e be4f 593f 21b7 c93d
000000c0: 6154 79be 15da 343e 0569 ef3c 10a6 24be
000000d0: e83b 4abf e4f3 cebd 0000 0080 0000 0080
000000e0: 0000 0080 0000 0000 0000 0000 0000 0000
000000f0: 0000 0000 0000 0000 0000 0000 1840 00bd
00000100: 99cf 12bf 041d c8bd eaa5 d43e 7f69 b73c
00000110: 0799 e4bd f9f8 5e3e 7bcc b63d e152 12bc
00000120: 0000 0000 0000 0000 0000 0000 0000 0000
00000130: 0000 0000 0000 0000 0000 0000 0000 0000
00000140: 0000 0000 0000 0080 0000 0080 0000 0080
00000150: 0000 0080 0000 0000 0000 0080 0000 0000
00000160: 0000 0000 0000 0000 a12c 813c 9a72 2abd
00000170: 6777 973c 4460 303d 4e54 5ebc 9eb5 903c
00000180: 9ff2 9cb8 2e3e 2c3a 0580 a83d e6fb a73d
00000190: ca9d 84bc 3d2e a33d af4a 25be ea89 58bd
000001a0: 46d5 793d 10f5 80be 5368 99bd 2412 1d3e
000001b0: 0000 0000 0000 0000 0000 0000 0000 0000
000001c0: 0000 0000 0000 0000 0000 0000 0000 0000
000001d0: 0000 0000 c351 19bd 4b3d acbd 1ed0 0ebd
000001e0: 0ea4 b03d 5d81 1b3f 2d26 bebe fd28 80bd
000001f0: 6e86 7fbc 20c9 c1bd 2b63 16bd 9dc9 c2bb
00000200: 0600 0a3c 84a6 eabc 33bb 233c 48a1 c13c
00000210: 6415 59bc a6c2 893c c39e ba3c 0000 0080
00000220: 0000 0080 0000 0080 0000 0080 0000 0080
00000230: 0000 0080 0000 0080 0000 0080 0000 0080
00000240: a5c9 fe3d 0a18 f4bd 9645 b9bb fb71 083e
00000250: 43dd 75bf 3a8a fd3d c917 00be 2bce 733f
00000260: 7073 eebd 0000 0080 0000 0080 0000 0080
00000270: 0000 0080 0000 0080 0000 0080 0000 0080
00000280: 0000 0080 0000 0080 8cde b9bc d469 6e3c
00000290: 6a81 93bd 8606 7ebd 5ed2 273c ff0a ddbc
000002a0: 8c8e 4a3d 3552 013d 97fd bdbd 7881 f4bb
000002b0: 41a8 57be e971 603e 0e2e babd 89ed 493f
000002c0: c07d 09be d520 cabc c346 d8bd b821 6e3b
000002d0: 0000 0000 0000 0000 0000 0080 0000 0000
000002e0: 0000 0080 0000 0080 0000 0000 0000 0000
000002f0: 0000 0080 5203 39bc a433 e6bd ce22 5cbd
00000300: 19bd 18be ac67 37bd 4a8b 00bd cd70 f1bd
00000310: 886c 95be 72f2 5cbe 0000 0080 0000 0080
00000320: 0000 0000 0000 0080 0000 0080 0000 0000
00000330: 0000 0080 0000 0080 0000 0000 a365 2bbe
00000340: 172c 6d3c fc21 46be 6c76 65bd e717 2b3e
00000350: 3712 efba d490 8bbd 1b08 5abb a725 eabd
00000360: 0000 0080 0000 0080 0000 0080 0000 0080
00000370: 0000 0080 0000 0080 0000 0080 0000 0080
00000380: 0000 0080 0fe7 eebc df25 9fbd f3ac 253e
00000390: 2386 003e fbc0 9fbe e215 fa3d c970 85bb
000003a0: 2580 773d 0214 033d 8ef2 4dbd c997 df3d
000003b0: 9ab8 95bd 4eee 5dbd 2565 463e 1681 dc3d
000003c0: 7833 70bd a2c2 883d 9f8b 46bd 312a 4e3e
000003d0: 7db3 d3be 6111 143e b55f 51be 2e68 1e3f
000003e0: 2498 1cbe a3c2 033d 93f6 55bc 30b7 193d
000003f0: c885 223c 1e21 a139 bd21 9dbc d5a5 7dbc

base.1.conv.0.bias f4 [64]
0.0 0.0 0.0 0.0030701405 -0.0030862316 0.01213939 -0.0 0.009144974
-0.0 -0.0 -0.0017699396 0.013448296 0.0 0.001670956 5.114144e-07 0.0
0.028235678 0.0 -0.003603359 -0.0066047926 -0.0 -0.0016587754 0.0 0.001513893
0.0 0.0071876505 0.0006170091 0.01428289 1.5846456e-07 -4.1936775e-05 -0.0 0.00036801715
0.000858327 -0.0 -0.0006751273 -2.3896984e-08 -0.0007831382 -0.00058407674 0.0044879136 -0.010512429
0.0010308896 0.0 0.008717735 0.004174181 0.0022198274 -0.00040612958 0.0 0.0
0.018531583 0.02103839 -4.103066e-08 0.0 0.006594779 0.010382071 -0.013426173 8.397147e-07
-0.023588983 -8.1321915e-08 -0.0054207095 -4.8996146e-05 -0.0 7.615962e-05 -0.002770681 0.007886087
00000000: 0000 0000 0000 0000 0000 0000 6934 493b
00000010: 6042 4abb 4be4 463c 0000 0080 cdd4 153c
00000020: 0000 0080 0000 0080 51fd e7ba 3e56 5c3c
00000030: 0000 0000 fb03 db3a 2148 0935 0000 0000
00000040: 824e e73c 0000 0000 5526 6cbb 046d d8bb
00000050: 0000 0080 446b d9ba 0000 0000 d26d c63a
00000060: 0000 0000 6286 eb3b c8be 213a c802 6a3c
00000070: 6826 2a34 45e5 2fb8 0000 0080 6df2 c039
00000080: 5a01 613a 0000 0080 07fb 30ba 0646 cdb2
00000090: 844b 4dba ba1c 19ba 590f 933b 533c 2cbc
000000a0: ea1e 873a 0000 0000 d5d4 0e3c 91c7 883b
000000b0: 867a 113b caed d4b9 0000 0000 0000 0000
000000c0: 8ccf 973c b458 ac3c b039 30b3 0000 0000
000000d0: 0419 d83b 9019 2a3c 73f9 5bbc c168 6135
000000e0: af3d c1bc 32a3 aeb3 35a0 b1bb 3681 4db8
000000f0: 0000 0080 e2b7 9f38 5094 35bb a534 013c

base.1.conv.1.weight f4 [64]
0.0073855533 0.010030108 0.016798252 0.5480361 0.0075431233 0.36513922 0.008181104 0.26082245
0.00861014 0.009232219 0.19443531 0.39695868 0.009987056 0.31909612 0.049244504 0.009367087
0.26246208 0.0053205215 0.07273574 0.4061877 0.013169897 0.43956265 0.008419004 0.18003047
0.008160621 0.14038451 0.4516477 0.34866148 0.16676988 0.11054259 0.00877231 0.3247285
0.47376025 0.012181698 0.28321943 0.053644504 0.32819852 0.0074836565 0.2602705 0.37308833
0.57237655 0.016208505 0.28636664 0.39276102 0.2453585 0.42575058 0.038124803 0.025420658
0.28692827 0.04042314 0.10272702 0.009747742 0.25193396 0.2732885 0.1578149 0.35230047
0.08079644 0.51131004 0.26731563 0.0044750706 0.010591184 0.068964176 0.013056575 0.3616754
00000000: 8302 f23b 5255 243c 7d9c 893c 184c 0c3f
00000010: 4e2c f73b 87f3 ba3e 0a0a 063c 858a 853e
00000020: 8b11 0d3c bc42 173c 0d1a 473e 2b3e cb3e
00000030: c0a0 233c 9160 a33e 9bb4 493d 6978 193c
00000040: 6e61 863e c557 ae3b 7af6 943d d6f7 cf3e
00000050: 8dc6 573c 5b0e e13e ddef 093c e859 383e
00000060: 20b4 053c f5c0 0f3e 5e3e e73e c283 b23e
00000070: b9c5 2a3e 2764 e23d bcb9 0f3c d042 a63e
00000080: b490 f23e bf95 473c 2302 913e 57ba 5b3d
00000090: a309 a83e 7639 f53b 2d42 853e 6f05 bf3e
000000a0: 4587 123f b3c7 843c a69e 923e f917 c93e
000000b0: 423f 7b3e fbfb d93e c128 1c3d fc3e d03c
000000c0: 43e8 923e bc92 253d 8b62 d23d feb4 1f3c
000000d0: 7dfd 803e 78ec 8b3e 3b9a 213e ba60 b43e
000000e0: 9b78 a53d 37e5 023f 98dd 883e 9da3 923b
000000f0: a586 2d3c 173d 8d3d 3feb 553c 852d b93e

base.1.conv.1.bias f4 [64]
-0.002959153 -0.0037942342 -0.0138486335 0.15116674 -0.040161792 0.2168527 -0.007868664 0.3438579
-0.0044634296 -0.002791381 0.04819612 0.023138674 -0.0056694224 0.33587435 0.00087707007 -0.0024369208
0.5669973 0.0044670855 0.12684031 0.46836698 -0.003810819 0.7852998 -0.0073506455 -0.06853824
-0.010230776 0.33068562 -0.2941011 0.09323501 -0.04731254 -0.019508475 -0.005484965 0.2985131
0.3012119 -0.0067089642 -0.11774708 -0.03112514 -0.0067447955 -0.02851511 0.045330513 -0.06627523
0.5170086 -0.010696976 -0.004098959 0.15343381 -0.048266895 0.3075058 -0.03570032 0.014054803
0.18391366 0.07846811 -0.052499555 -0.0048313374 -0.017652458 0.53299934 -0.124098785 0.31373155
-0.24561197 0.963235 -0.22306502 -0.030632371 -0.010895291 0.12849918 0.12245961 0.33363497
00000000: 59ee 41bb b0a8 78bb 61e5 62bc 74cb 1a3e
00000010: b180 24bd a20e 5e3e 92eb 00bc 250e b03e
00000020: f641 92bb 9aef 36bb 4b69 453d 518d bd3c
00000030: 90c6 b9bb b9f7 ab3e 2deb 653a bfb4 1fbb
00000040: bc26 113f a160 923b 6de2 013e cccd ef3e
00000050: efbe 79bb 6809 493f afdd f0bb c75d 8cbd
00000060: fc9e 27bc a04f a93e 6b94 96be fff1 be3d
00000070: cbca 41bd 3dd0 9fbc 39bb b3bb b6d6 983e
00000080: 7238 9a3e dfd6 dbbb 6225 f1bd 26fa febc
00000090: 7203 ddbb 8598 e9bc 7dac 393d 4fbb 87bd
000000a0: ad5a 043f 5f42 2fbc 8f50 86bb c11d 1d3e
000000b0: 82b3 45bd 6671 9d3e 803a 12bd 1e46 663c
000000c0: dd53 3c3e e3b3 a03d c609 57bd 3250 9ebb
000000d0: e39b 90bc a572 083f 8127 febd 6ca1 a03e
000000e0: b481 7bbe 9296 763f 286b 64be bdf0 fabc
000000f0: 2a82 32bc 4a95 033e 1bcc fa3d 34d2 aa3e

base.1.conv.1.running_mean f4 [64]
-6e-45 6e-45 -6e-45 0.0138237765 0.0040062126 0.011392668 -6e-45 0.014881212
-6e-45 6e-45 0.004223201 0.00899607 -6e-45 0.0023254976 -0.000106855325 6e-45
0.02697538 6e-45 0.01526636 -0.019880243 -6e-45 0.24970356 6e-45 -0.1292602
6e-45 0.02548009 -0.02588813 0.1369752 -0.017105913 0.015038595 -6e-45 -0.013881505
0.10295553 -6e-45 0.011274442 -0.0025289422 0.019670688 0.00044967092 -0.0132749025 0.007502149
0.05631459 -6e-45 0.0016958765 0.006873403 0.03699653 -0.003865936 6e-45 6e-45
0.030095255 0.025654314 0.00264501 -6e-45 -0.0078530675 0.067540556 -0.006860509 -0.051060848
-0.032652434 0.5631497 0.038822617 -0.0009038152 6e-45 0.0016824708 -0.01268501 -0.011255573
00000000: 0400 0080 0400 0000 0400 0080 1f7d 623c
00000010: 8c46 833b 50a8 3a3c 0400 0080 54d0 733c
00000020: 0400 0080 0400 0000 c762 8a3b 4164 133c
00000030: 0400 0080 6067 183b 8417 e0b8 0400 0000
00000040: 79fb dc3c 0400 0000 c11f 7a3c e4db a2bc
00000050: 0400 0080 4ab2 7f3e 0400 0000 c95c 04be
00000060: 0400 0000 9fbb d03c 5813 d4bc 3a43 0c3e
00000070: b321 8cbc 7064 763c 0400 0080 406f 63bc
00000080: 59da d23d 0400 0080 70b8 383c 9cbc 25bb
00000090: 6c24 a13c cfc1 eb39 fa7e 59bc 96d4 f53b
000000a0: 21aa 663d 0400 0080 2c48 de3a 493a e13b
000000b0: ac89 173d a55b 7dbb 0400 0000 0400 0000
000000c0: 538a f63c ff28 d23c e757 2d3b 0400 0080
000000d0: 27aa 00bc b452 8a3d 1fce e0bb 2e25 51bd
000000e0: 8fbe 05bd 942a 103f 7704 1f3d 03ee 6cba
000000f0: 0400 0000 5a86 dc3a cad4 4fbc 4b69 38bc

base.1.conv.1.running_var f4 [64]
6e-45 6e-45 6e-45 0.011794055 2.2816308e-05 0.019090287 6e-45 0.04736536
6e-45 6e-45 0.0006914975 0.009101351 6e-45 0.00043153067 5.0432075e-08 6e-45
0.00721486 6e-45 0.00011519775 0.004236693 6e-45 0.020548355 6e-45 0.0007221872
6e-45 0.00020975225 0.0003688876 0.042686015 0.00090006413 0.0006491982 6e-45 0.0012646466
0.017245855 6e-45 0.0011001844 3.1880987e-09 0.002374517 3.213121e-08 0.04990219 0.0001642129
0.039213497 6e-45 0.0010870998 0.0011943408 8.988305e-05 0.0005456739 6e-45 6e-45
0.0030151037 1.6642956e-05 0.00034913828 6e-45 0.00034322756 0.0008498281 0.0003764216 0.0040192753
0.012765174 0.06857379 0.0076965843 3.3281313e-09 6e-45 0.00047730774 8.332637e-06 0.0008121654
00000000: 0400 0000 0400 0000 0400 0000 da3b 413c
00000010: a665 bf37 3c63 9c3c 0400 0000 2e02 423d
00000020: 0400 0000 0400 0000 9d45 353a d51d 153c
00000030: 0400 0000 113f e239 a79a 5833 0400 0000
00000040: a26a ec3b 0400 0000 5296 f138 f5d3 8a3b
00000050: 0400 0000 0655 a83c 0400 0000 2a51 3d3a
00000060: 0400 0000 f1f0 5b39 4167 c139 88d7 2e3d
00000070: 48f2 6b3a f42e 2a3a 0400 0000 80c2 a53a
00000080: 2e47 8d3c 0400 0000 1034 903a a015 5b31
00000090: c99d 1b3b a400 0a33 3d66 4c3d 9130 2c39
000000a0: 559e 203d 0400 0000 047d 8e3a 6d8b 9c3a
000000b0: 987f bc38 8e0b 0f3a 0400 0000 0400 0000
000000c0: 0c99 453b 7a9c 8b37 8c0c b739 0400 0000
000000d0: 39f3 b339 00c7 5e3a 745a c539 20b4 833b
000000e0: 0525 513c 6a70 8c3d a133 fc3b 1bb5 6431
000000f0: 0400 0000 293f fa39 67cc 0b37 7fe7 543a

base.1.conv.3.weight f4 [64, 64, 1, 1]
-0.0 -0.0 -0.0 -0.0 0.0 0.0 -0.0 -0.0
-0.0 -0.0 0.0 0.0 -0.0 -0.0 -0.0 -0.0
-0.0 -0.0 0.0 -0.0 -0.0 0.0 -0.0 -0.0
-0.0 0.0 -0.0 -0.0 -0.0 0.0 -0.0 0.0
0.0 -0.0 0.0 0.0 -0.0 0.0 0.0 -0.0
0.0 -0.0 -0.0 -0.0 -0.0 -0.0 0.0 -0.0
-0.0 0.0 -0.0 -0.0 0.0 0.0 0.0 -0.0
-0.0 0.0 0.0 -0.0 -0.0 0.0 0.0 0.0
-0.0 -0.0 -0.0 0.0 0.0 -0.0 -0.0 0.0
-0.0 -0.0 0.0 -0.0 -0.0 -0.0 0.0 -0.0
0.0 0.0 0.0 -0.0 -0.0 -0.0 -0.0 0.0
-0.0 0.0 0.0 -0.0 -0.0 0.0 -0.0 0.0
-0.0 -0.0 -0.0 -0.0 0.0 0.0 -0.0 0.0
0.0 -0.0 0.0 0.0 0.0 0.0 0.0 0.0
-0.0 0.0 0.0 -0.0 0.0 0.0 -0.0 0.0
0.0 -0.0 -0.0 -0.0 -0.0 0.0 0.0 0.0
0.0 0.0 0.0 -0.0 0.0 -0.0 0.0 -0.0
0.0 0.0 0.0 -0.0 0.0 0.0 -0.0 0.0
0.0 -0.0 0.0 0.0 0.0 0.0 0.0 0.0
0.0 0.0 0.0 -0.0 -0.0 0.0 0.0 0.0
0.0 0.0 0.0 -0.0 0.0 0.0 0.0 -0.0
0.0 0.0 -0.0 0.0 -0.0 -0.0 -0.0 -0.0
-0.0 0.0 0.0 0.0 0.0 0.0 0.0 -0.0
0.0 0.0 -0.0 0.0 0.0 0.0 0.0 0.0
0.0032569545 -0.000964369 -0.013409331 0.02447523 -0.040172115 -0.06681268 -0.0051631886 0.0906075
0.005590679 -0.009515973 -0.014384564 -0.06332975 -0.001919549 0.019181043 -0.021429108 0.0020886364
-0.108730175 0.0053220293 -0.0931568 -0.38585052 -0.0036088915 0.024573322 -0.0005887413 -0.23201202
-0.0019919418 0.04217678 -0.364219 -0.054315563 -0.074858174 0.008291664 -0.0077074235 -0.08651468
-0.06818559 0.0041882624 0.047705088 -0.026610458 -0.109199665 -0.017421182 -0.090846136 -0.11937703
-0.06846924 -0.019601647 0.02223746 -0.08056967 -0.107581735 0.10868896 -0.0067721223 -0.0121939955
0.08798628 0.057399586 -0.043898653 -0.0009872381 -0.061437067 0.039040297 0.0038687726 -0.06604097
-0.09821701 -0.06183292 -0.14452538 -0.018687086 -0.009233226 -0.037181713 -0.027487792 -0.08128434
00000000: 0000 0080 0000 0080 0000 0080 0000 0080
00000010: 0000 0000 0000 0000 0000 0080 0000 0080
00000020: 0000 0080 0000 0080 0000 0000 0000 0000
00000030: 0000 0080 0000 0080 0000 0080 0000 0080
00000040: 0000 0080 0000 0080 0000 0000 0000 0080
00000050: 0000 0080 0000 0000 0000 0080 0000 0080
00000060: 0000 0080 0000 0000 0000 0080 0000 0080
00000070: 0000 0080 0000 0000 0000 0080 0000 0000
00000080: 0000 0000 0000 0080 0000 0000 0000 0000
00000090: 0000 0080 0000 0000 0000 0000 0000 0080
000000a0: 0000 0000 0000 0080 0000 0080 0000 0080
000000b0: 0000 0080 0000 0080 0000 0000 0000 0080
000000c0: 0000 0080 0000 0000 0000 0080 0000 0080
000000d0: 0000 0000 0000 0000 0000 0000 0000 0080
000000e0: 0000 0080 0000 0000 0000 0000 0000 0080
000000f0: 0000 0080 0000 0000 0000 0000 0000 0000
00000100: 0000 0080 0000 0080 0000 0080 0000 0000
00000110: 0000 0000 0000 0080 0000 0080 0000 0000
00000120: 0000 0080 0000 0080 0000 0000 0000 0080
00000130: 0000 0080 0000 0080 0000 0000 0000 0080
00000140: 0000 0000 0000 0000 0000 0000 0000 0080
00000150: 0000 0080 0000 0080 0000 0080 0000 0000
00000160: 0000 0080 0000 0000 0000 0000 0000 0080
00000170: 0000 0080 0000 0000 0000 0080 0000 0000
00000180: 0000 0080 0000 0080 0000 0080 0000 0080
00000190: 0000 0000 0000 0000 0000 0080 0000 0000
000001a0: 0000 0000 0000 0080 0000 0000 0000 0000
000001b0: 0000 0000 0000 0000 0000 0000 0000 0000
000001c0: 0000 0080 0000 0000 0000 0000 0000 0080
000001d0: 0000 0000 0000 0000 0000 0080 0000 0000
000001e0: 0000 0000 0000 0080 0000 0080 0000 0080
000001f0: 0000 0080 0000 0000 0000 0000 0000 0000
00000200: 0000 0000 0000 0000 0000 0000 0000 0080
00000210: 0000 0000 0000 0080 0000 0000 0000 0080
00000220: 0000 0000 0000 0000 0000 0000 0000 0080
00000230: 0000 0000 0000 0000 0000 0080 0000 0000
00000240: 0000 0000 0000 0080 0000 0000 0000 0000
00000250: 0000 0000 0000 0000 0000 0000 0000 0000
00000260: 0000 0000 0000 0000 0000 0000 0000 0080
00000270: 0000 0080 0000 0000 0000 0000 0000 0000
00000280: 0000 0000 0000 0000 0000 0000 0000 0080
00000290: 0000 0000 0000 0000 0000 0000 0000 0080
000002a0: 0000 0000 0000 0000 0000 0080 0000 0000
000002b0: 0000 0080 0000 0080 0000 0080 0000 0080
000002c0: 0000 0080 0000 0000 0000 0000 0000 0000
000002d0: 0000 0000 0000 0000 0000 0000 0000 0080
000002e0: 0000 0000 0000 0000 0000 0080 0000 0000
000002f0: 0000 0000 0000 0000 0000 0000 0000 0000
00000300: a172 553b b5cd 7cba d0b2 5bbc 4780 c83c
00000310: 848b 24bd 16d5 88bd f72f a9bb 6d90 b93d
00000320: 0432 b73b e2e8 1bbc 3cad 6bbc 07b3 81bd
00000330: 6099 fbba 9021 9d3c 198c afbc 81e1 083b
00000340: edad debd 6b64 ae3b fec8 bebd 338e c5be
00000350: 2783 6cbb fe4d c93c c355 1aba 8f94 6dbe
00000360: 3d8b 02bb 8fc1 2c3d ea7a babe ff79 5ebd
00000370: 3e4f 99bd c2d9 073c 8e8e fcbb 9c2e b1bd
00000380: e3a4 8bbd b13d 893b 6966 433d 2dfe d9bc
00000390: 13a4 dfbd deb6 8ebc 8a0d babd f27b f4bd
000003a0: 9a39 8cbd a293 a0bc 552b b63c b601 a5bd
000003b0: d053 dcbd 5198 de3d aee8 ddbb 53c9 47bc
000003c0: 2732 b43d d41b 6b3d 13cf 33bd 3766 81ba
000003d0: 6fa5 7bbd b8e8 1f3d 3c8b 7d3b 7d40 87bd
000003e0: 0026 c9bd 8444 7dbd 76fe 13be a915 99bc
000003f0: f546 17bc da4b 18bd 142e e1bc 6778 a6bd

base.1.conv.4.weight f4 [64]
4.9281607e-05 0.0017515554 9.4029405e-05 0.3014465 0.24923229 0.21695693 -2.0705402e-06 0.20989105
0.16096175 0.16007811 0.24895294 0.5721394 0.3719252 0.22643955 0.17395383 -0.027864533
0.37696517 -8.413346e-06 0.0031153543 -0.00082058384 -0.0017168546 -0.002931557 0.05317165 0.48683527
0.18695916 0.15971497 0.14704819 0.19707642 0.378751 0.32405776 4.607008e-07 0.212739
0.16131204 0.05802369 0.52548444 -0.00016907597 0.26212746 -0.119478874 0.3724575 0.076916344
0.19769533 0.20776592 0.39566058 0.20084342 5.641733e-05 0.19352305 0.20142801 -8.821245e-07
0.30101845 0.24946071 0.27484939 0.26040408 -5.2488383e-07 2.3406943e-05 0.30439842 0.29809535
0.23272024 9.785665e-05 4.909243e-15 0.001275248 -0.00484709 0.15040804 0.31335285 0.28825575
00000000: b9b3 4e38 7294 e53a a731 c538 3257 9a3e
00000010: c036 7f3e f529 5e3e 9cf3 0ab6 aeed 563e
00000020: 28d3 243e 84eb 233e 85ed 7e3e ba77 123f
00000030: fb6c be3e c5df 673e f420 323e 2944 e4bc
00000040: 9401 c13e 0c27 0db7 f92a 4c3b 731c 57ba
00000050: 1508 e1ba 5d1f 40bb 84ca 593d 7942 f93e
00000060: 3972 3f3e 528c 233e cd93 163e 67ce 493e
00000070: a7eb c13e e6ea a53e 3c56 f734 41d8 593e
00000080: fc2e 253e 40aa 6d3d 2686 063f fc49 31b9
00000090: 9235 863e 57b1 f4bd c0b2 be3e 5186 9d3d
000000a0: a570 4a3e 97c0 543e 0694 ca3e e6a9 4d3e
000000b0: a6a1 6c38 e82a 463e 2543 4e3e 22cb 6cb5
000000c0: 171f 9a3e a172 7f3e 0fb9 8c3e af53 853e
000000d0: bee5 0cb5 075a c437 1cda 9b3e f49f 983e
000000e0: 374e 6e3e 6438 cd38 c6df b027 3926 a73a
000000f0: 57d4 9ebb 9104 1a3e c96f a03e 4296 933e

base.1.conv.4.bias f4 [64]
0.0035180151 0.0032157202 -0.005106598 0.018080095 -0.00701849 0.0012695026 -0.0037025006 -0.00521995
-0.0068001603 -0.006651096 7.592384e-05 -0.0049940804 0.0012268901 0.0020445017 0.0036195256 -0.0029514486
0.0060953377 -0.0028983285 0.0014827788 0.0017430448 0.004855572 0.0047872374 0.0031894504 0.010232543
-0.0029304381 0.0019646222 0.0004028993 0.0039872983 0.0074207424 0.006028474 0.0003410654 0.0060530924
0.0013175826 -0.0030639824 0.0051470096 0.005946143 0.0013005106 -0.0018150066 -2.3289998e-05 -0.0020557027
0.0068463506 -0.0066230567 0.0022217215 -0.001549843 0.00464072 -0.0024957394 0.0046539046 0.0016580981
-0.00056207285 0.0039222864 -0.00147607 -0.0060767774 -0.0026564049 -0.0010259638 -0.00037098912 0.00028810298
-0.001762344 0.0017622809 -0.00263551 -0.0015124796 0.000896264 -0.00031450158 -0.0015587463 -0.0045257146
00000000: 808e 663b d5be 523b 4055 a7bb b51c 943c
00000010: 5dfb e5bb 7065 a63a a7a5 72bb 1d0c abbb
00000020: e1d3 debb 70f1 d9bb 4d39 9f38 62a5 a3bb
00000030: 9acf a03a 0cfd 053b 9035 6d3b 176d 41bb
00000040: 66bb c73b e2f1 3dbb cd59 c23a e176 e43a
00000050: 7d1b 9f3b 42de 9c3b 1906 513b 65a6 273c
00000060: 980c 40bb e4c0 003b 3b3c d339 e2a7 823b
00000070: b329 f33b 818a c53b 06d1 b239 0559 c63b
00000080: bcb2 ac3a 18cd 48bb 3fa8 a83b ddd7 c23b
00000090: e575 aa3a 84e5 edba e45e c3b7 f8b8 06bb
000000a0: 5a57 e03b 3a06 d9bb 4d9a 113b 1a24 cbba
000000b0: 2e11 983b 8f8f 23bb c87f 983b 8a54 d93a
000000c0: 1258 13ba 8686 803b b178 c1ba b41f c7bb
000000d0: 1417 2ebb a279 86ba 5181 c2b9 870c 9739
000000e0: 74fe e6ba 56fc e63a 85b8 2cbb 653e c6ba
000000f0: 42f3 6a3a b0e3 a4b9 d94e ccba 724c 94bb

base.1.conv.4.running_mean f4 [64]
6e-45 6e-45 6e-45 -0.46095094 0.27418306 0.18642582 -6e-45 0.45608076
0.04683312 -0.20266137 0.0551539 0.60172206 0.17638083 0.0078812 -0.2747166 0.19483013
-0.048141155 -6e-45 -6e-45 6e-45 -6e-45 -6e-45 -0.35570478 -0.63469
-0.042171568 -0.14961076 0.30113715 0.2973115 0.0036143714 -0.08251266 -6e-45 0.70717305
0.28875533 0.32246447 0.433989 6e-45 0.42417485 0.06879977 0.14362378 -0.15978117
-0.39302146 0.1855724 0.37974688 0.071171865 -6e-45 0.115401864 -0.056884397 -6e-45
0.07686661 0.15718189 0.08062628 0.16067019 -6e-45 6e-45 -0.4507463 -0.527728
0.20707893 -6e-45 -6e-45 -6e-45 6e-45 -0.0746756 0.54792154 0.124144204
00000000: 0400 0000 0400 0000 0400 0000 c301 ecbe
00000010: b961 8c3e 69e6 3e3e 0400 0080 6b83 e93e
00000020: 16d4 3f3d 7686 4fbe 0ee9 613d 750a 1a3f
00000030: 2d9d 343e 2620 013c a7a7 8cbe 8d81 473e
00000040: a92f 45bd 0400 0080 0400 0080 0400 0000
00000050: 0400 0080 0400 0080 f01e b6be 0b7b 22bf
00000060: 18bc 2cbd 9033 19be a62e 9a3e 3739 983e
00000070: 17df 6c3b 66fc a8bd 0400 0080 4b09 353f
00000080: bdd7 933e 101a a53e ce33 de3e 0400 0000
00000090: 722d d93e e5e6 8c3d 1d12 133e ad9d 23be
000000a0: 1c3a c9be b106 3e3e 2f6e c23e 8ec2 913d
000000b0: 0400 0080 d057 ec3d 9dff 68bd 0400 0080
000000c0: 3e6c 9d3d 4af4 203e 641f a53d ba86 243e
000000d0: 0400 0080 0400 0000 38c8 e6be 2f19 07bf
000000e0: 800c 543e 0400 0080 0400 0080 0400 0080
000000f0: 0400 0000 85ef 98bd 9644 0c3f 513f fe3d

base.1.conv.4.running_var f4 [64]
6e-45 6e-45 6e-45 0.044594895 0.025821524 0.03547701 6e-45 0.09302181
0.026651273 0.034089 0.020708673 0.11122566 0.04925161 0.051494334 0.023088276 0.0048094923
0.07278412 6e-45 6e-45 6e-45 6e-45 6e-45 0.016456168 0.07238507
0.016014922 0.02221579 0.021084854 0.045777343 0.084452786 0.051195934 6e-45 0.04442766
0.048108775 0.015786795 0.047605686 6e-45 0.063994594 0.012988379 0.053478155 0.020294698
0.05928278 0.046184972 0.03242224 0.017686695 6e-45 0.05073823 0.029053196 6e-45
0.045505013 0.019017639 0.045189925 0.0664146 6e-45 6e-45 0.067208596 0.06363594
0.024712775 6e-45 6e-45 6e-45 6e-45 0.009115863 0.029598668 0.048403785
00000000: 0400 0000 0400 0000 0400 0000 23a9 363d
00000010: a987 d33c 5750 113d 0400 0000 3882 be3d
00000020: c553 da3c e8a0 0b3d 3ca5 a93c 47ca e33d
00000030: 0ebc 493d b9eb 523d a023 bd3c f298 9d3b
00000040: d70f 953d 0400 0000 0400 0000 0400 0000
00000050: 0400 0000 0400 0000 16cf 863c a03e 943d
00000060: ba31 833c e3fd b53c 25ba ac3c 0681 3b3d
00000070: 95f5 ac3d d4b2 513d 0400 0000 c7f9 353d
00000080: b50d 453d 4f53 813c 2efe 423d 0400 0000
00000090: 990f 833d 36cd 543c e90b 5b3d 1141 a63c
000000a0: 80d2 723d 742c 3d3d 2fcd 043d b0e3 903c
000000b0: 0400 0000 e4d2 4f3d f800 ee3c 0400 0000
000000c0: 7763 3a3d e1ca 9b3c 1219 393d 6104 883d
000000d0: 0400 0000 0400 0000 a9a4 893d 8f53 823d
000000e0: 7272 ca3c 0400 0000 0400 0000 0400 0000
000000f0: 0400 0000 b35a 153c e878 f23c 0c43 463d

base.2.conv.0.weight f4 [128, 64, 1, 1]
-0.019624153 -0.10062869 -0.26158315 -0.04426841 0.0112011945 0.017613925 0.024417775 0.09969662
-0.116618544 0.051252745 -0.08988904 -0.014135586 0.053783044 -0.030052688 0.061967764 0.062379207
0.057600904 -0.25471053 0.065694004 0.126575 -0.17264068 -0.0030872535 0.11694141 -0.058699228
0.018045664 -0.05685985 -0.07486937 -0.17434368 0.053355213 -0.013892176 0.008084373 0.09857202
-0.07095792 -0.037096523 -0.13344055 -0.003557779 -0.015655555 -0.08379856 0.028281637 0.0153856035
0.03873086 -0.096913084 0.09299791 -0.009540783 -0.08167869 -0.053731903 -0.015285784 0.016645074
0.12762377 0.0068141734 0.07557422 0.033017773 -0.0040764683 0.03274204 -0.077377245 0.23957556
-0.009424177 0.028266886 0.009650719 0.037772316 0.016895212 -0.026963785 0.011506472 -0.07288903
-0.0 0.0 -0.0 -0.0 -0.0 0.0 0.0 0.0
-0.0 -0.0 -0.0 -0.0 -0.0 -0.0 -0.0 -0.0
0.0 -0.0 -0.0 -0.0 0.0 0.0 0.0 0.0
0.0 -0.0 -0.0 -0.0 0.0 0.0 0.0 -0.0
-0.0 -0.0 -0.0 -0.0 0.0 -0.0 0.0 0.0
0.0 -0.0 -0.0 0.0 -0.0 0.0 0.0 -0.0
0.0 0.0 0.0 0.0 0.0 0.0 0.0 -0.0
0.0 -0.0 0.0 -0.0 -0.0 0.0 0.0 -0.0
-0.04514188 -0.025978208 0.0003325924 0.20858829 0.041701306 -0.014526783 -0.034113992 -0.12554026
-0.03410554 0.15075085 0.0063870256 -0.14466746 -0.11778189 0.15007277 -0.11121106 0.003414822
-0.17246395 0.1673624 0.0048574344 0.059399974 -0.25202093 -0.07373071 0.17493023 -0.08082306
0.016592592 0.17206298 -0.09213023 -0.09069773 -0.0269985 -0.078475006 -0.012950566 0.121464655
0.14913821 0.03339962 0.03824889 -0.06749254 -0.27137202 -0.014931131 -0.048238084 -0.049757984
-0.22956197 -0.020730754 -0.03481906 -0.017462669 -0.034740902 -0.08806355 0.03994722 -0.007050856
-0.10925661 -0.112524375 -0.07050305 -0.06292599 -0.06966707 0.19399282 -0.053409904 0.05483164
-0.10103934 -0.10371174 -0.057413172 -0.037016653 0.117591016 -0.055886105 -0.004871475 -0.04735027
-0.0 0.0 0.0 -0.0 -0.0 -0.0 0.0 0.0
-0.0 -0.0 0.0 0.0 0.0 0.0 0.0 0.0
-0.0 -0.0 0.0 -0.0 -0.0 0.0 0.0 0.0
0.0 0.0 -0.0 -0.0 0.0 -0.0 -0.0 -0.0
-0.0 0.0 0.0 0.0 -0.0 -0.0 0.0 0.0
-0.0 0.0 0.0 -0.0 -0.0 0.0 0.0 0.0
-0.0 -0.0 0.0 -0.0 -0.0 -0.0 -0.0 0.0
0.0 0.0 -0.0 0.0 0.0 0.0 0.0 -0.0
00000000: d5c2 a0bc 6a16 cebd 3aee 85be cb52 35bd
00000010: 3785 373c 144b 903c c907 c83c be2d cc3d
00000020: b4d5 eebd 66ee 513d bf17 b8bd f298 67bc
00000030: 9c4b 5c3d 0e31 f6bc e9d1 7d3d 5781 7f3d
00000040: edee 6b3d 6b69 82be 948a 863d e09c 013e
00000050: b8c8 30be 8553 4abb fa7e ef3d 9a6e 70bd
00000060: 80d4 933c e0e5 68bd 1d55 99bd 2687 32be
00000070: ff8a 5a3d 029c 63bc 5174 043c 21e0 c93d
00000080: 6352 91bd 86f2 17bd a4a4 08be a029 69bb
00000090: 1440 80bc 949e abbd e4ae e73c e613 7c3c
000000a0: 40a4 1e3d 5e7a c6bd b075 be3d f250 1cbc
000000b0: 2847 a7bd fc15 5cbd 3a71 7abc 405b 883c
000000c0: ceaf 023e 6e49 df3b a8c6 9a3d a53d 073d
000000d0: e593 85bb 841c 063d f677 9ebd 4c53 753e
000000e0: dd67 1abc f58f e73c 0d1e 1e3c 25b7 1a3d
000000f0: d467 8a3c 28e3 dcbc a485 3c3c d846 95bd
00000100: 0000 0080 0000 0000 0000 0080 0000 0080
00000110: 0000 0080 0000 0000 0000 0000 0000 0000
00000120: 0000 0080 0000 0080 0000 0080 0000 0080
00000130: 0000 0080 0000 0080 0000 0080 0000 0080
00000140: 0000 0000 0000 0080 0000 0080 0000 0080
00000150: 0000 0000 0000 0000 0000 0000 0000 0000
00000160: 0000 0000 0000 0080 0000 0080 0000 0080
00000170: 0000 0000 0000 0000 0000 0000 0000 0080
00000180: 0000 0080 0000 0080 0000 0080 0000 0080
00000190: 0000 0000 0000 0080 0000 0000 0000 0000
000001a0: 0000 0000 0000 0080 0000 0080 0000 0000
000001b0: 0000 0080 0000 0000 0000 0000 0000 0080
000001c0: 0000 0000 0000 0000 0000 0000 0000 0000
000001d0: 0000 0000 0000 0000 0000 0000 0000 0080
000001e0: 0000 0000 0000 0080 0000 0000 0000 0080
000001f0: 0000 0080 0000 0000 0000 0000 0000 0080
00000200: b1e6 38bd 40d0 d4bc cc5f ae39 2b98 553e
00000210: fdce 2a3d be01 6ebc 1dbb 0bbd a08d 00be
00000220: 40b2 0bbd 6e5e 1a3e 414a d13b b523 14be
00000230: a237 f1bd adac 193e a0c2 e3bd 35cb 5f3b
00000240: 649a 30be 0d61 2b3e 1d2b 9f3b 634d 733d
00000250: e308 81be 2000 97bd e920 333e 8f86 a5bd
00000260: 30ed 873c 4731 303e c6ae bcbd bbbf b9bd
00000270: f52b ddbc 81b7 a0bd 9c2e 54bc 76c2 f83d
00000280: b0b7 183e 0ace 083d deaa 1c3d 8739 8abd
00000290: 46f1 8abe b4a1 74bc 4c95 45bd 07cf 4bbd
000002a0: 4b12 6bbe 8bd3 a9bc 6e9e 0ebd df0d 8fbc
000002b0: 7a4c 0ebd aa5a b4bd b29f 233d de0a e7bb
000002c0: eec1 dfbd 2e73 e6bd e763 90bd 57df 80bd
000002d0: 9cad 8ebd 0ea6 463e 58c4 5abd 2497 603d
000002e0: b7ed cebd d266 d4bd 132a 6bbd c69e 17bd
000002f0: 8fd3 f03d d4e8 64bd e5a0 9fbb 5bf2 41bd
00000300: 0000 0080 0000 0000 0000 0000 0000 0080
00000310: 0000 0080 0000 0080 0000 0000 0000 0000
00000320: 0000 0080 0000 0080 0000 0000 0000 0000
00000330: 0000 0000 0000 0000 0000 0000 0000 0000
00000340: 0000 0080 0000 0080 0000 0000 0000 0080
00000350: 0000 0080 0000 0000 0000 0000 0000 0000
00000360: 0000 0000 0000 0000 0000 0080 0000 0080
00000370: 0000 0000 0000 0080 0000 0080 0000 0080
00000380: 0000 0080 0000 0000 0000 0000 0000 0000
00000390: 0000 0080 0000 0080 0000 0000 0000 0000
000003a0: 0000 0080 0000 0000 0000 0000 0000 0080
000003b0: 0000 0080 0000 0000 0000 0000 0000 0000
000003c0: 0000 0080 0000 0080 0000 0000 0000 0080
000003d0: 0000 0080 0000 0080 0000 0080 0000 0000
000003e0: 0000 0000 0000 0000 0000 0080 0000 0000
000003f0: 0000 0000 0000 0000 0000 0000 0000 0080

base.2.conv.1.weight f4 [128]
0.119504996 0.011833776 0.1875597 0.012114417 0.21521503 0.011481419 0.16951899 0.013956895
0.18586862 0.014122355 0.010763205 0.15188962 0.10913593 0.18699521 0.013248247 0.017639257
0.19271533 0.15404472 0.1370674 0.0117562 0.15462422 0.015186161 0.13581285 0.013331141
0.19509917 0.011219352 0.16447364 0.15335467 0.21797986 0.021246245 0.13541032 0.1603101
0.16070916 0.186677 0.18721262 0.096116394 0.11816237 0.011512831 0.012656806 0.12127552
0.1874892 0.19828975 0.22181217 0.14637838 0.21328054 0.11526032 0.20690277 0.13863757
0.014879401 0.015255321 0.011191031 0.010920385 0.01993809 0.1765295 0.21222973 0.10453173
0.123890616 0.15985827 0.13561471 0.13465974 0.16850969 0.17342049 0.14150472 0.12999555
0.10151745 0.010180342 0.094371684 0.014424488 0.11188657 0.1852331 0.18511373 0.11848666
0.13918984 0.12516044 0.01366468 0.16780883 0.11393384 0.011869339 0.013639469 0.1423144
0.17524582 0.011229466 0.1115823 0.19805644 0.0107930275 0.18415546 0.18283296 0.12219228
0.12889074 0.011642618 0.12602893 0.14385033 0.2783924 0.013580901 0.021112842 0.11607671
0.17329589 0.17981967 0.13547139 0.13402309 0.17503865 0.17647192 0.012373208 0.18462226
0.015787873 0.14450483 0.15422975 0.20361294 0.17767864 0.19166796 0.11920901 0.013879002
0.18545473 0.108515464 0.17119306 0.118777126 0.016833 0.10059683 0.20291719 0.14633422
0.12596525 0.020199897 0.1539962 0.19662122 0.011738819 0.17951861 0.011869339 0.010432438
00000000: 09bf f43d 74e2 413c a60f 403e 8c7b 463c
00000010: 5461 5c3e 901c 3c3c 6396 2d3e 76ab 643c
00000020: 5854 3e3e 7361 673c 2758 303c f488 1b3e
00000030: a982 df3d ac7b 3f3e 2d0f 593c 3480 903c
00000040: 2b57 453e e6bd 1d3e 665b 0c3e 149d 403c
00000050: d055 1e3e 60cf 783c 8612 0b3e dc6a 5a3c
00000060: 14c8 473e 5fd1 373c c76b 283e 0209 1d3e
00000070: 1d36 5f3e 9b0c ae3c 01a9 0a3e 5528 243e
00000080: f190 243e 4128 3f3e aab4 3f3e acd8 c43d
00000090: 1dff f13d 50a0 3c3c 7e5e 4f3c 4d5f f83d
000000a0: 2bfd 3f3e 780c 4b3e bb22 633e 37e4 153e
000000b0: 3766 5a3e 9a0d ec3d 52de 533e 02f7 0d3e
000000c0: bbc8 733c 74f1 793c 965a 373c 6aeb 323c
000000d0: 3555 a33c 26c4 343e c052 593e bb14 d63d
000000e0: 5dba fd3d e3b1 233e 95de 0a3e 3ee4 093e
000000f0: ce8d 2c3e 2495 313e 9de6 103e 8e1d 053e
00000100: 61e8 cf3d 73cb 263c f145 c13d b054 6c3c
00000110: c924 e53d bfad 3d3e 748e 3d3e 22a9 f23d
00000120: c887 0e3e 0f2a 003e d2e1 5f3c 14d6 2b3e
00000130: 2556 e93d 9e77 423c 1478 5f3c deba 113e
00000140: a473 333e cbfb 373c 4385 e43d 4fcf 4a3e
00000150: 3dd5 303c 4093 3c3e 9038 3b3e f23f fa3d
00000160: effb 033e aec0 3e3c ba0d 013e 804d 133e
00000170: 7389 8e3e 6d82 5e3c d7f4 ac3c a0b9 ed3d
00000180: 7a74 313e a622 383e 03b9 0a3e 593d 093e
00000190: 553d 333e 0eb5 343e ffb8 4a3c 9e0d 3d3e
000001a0: 9255 813c 13f9 133e 67ee 1d3e e97f 503e
000001b0: 64f1 353e 9b44 443e da23 f43d c164 633c
000001c0: d8e7 3d3e 5b3d de3d 3c4d 2f3e 6c41 f33d
000001d0: 5ce5 893c b605 ce3d 86c9 4f3e a3d8 153e
000001e0: 09fd 003e 417a a53c 2eb1 1d3e 1357 493e
000001f0: 2d54 403c bad3 373e 9e77 423c d1ec 2a3c

base.2.conv.1.bias f4 [128]
-0.009694384 0.0009092847 0.037674718 0.0015954489 -0.15114541 -0.0006585853 -0.048854355 0.0007562567
-0.009645726 0.0023514787 0.0021332544 -0.17461863 0.09993824 -0.1983143 0.004602381 0.0013037726
-0.04919294 0.22650896 0.013408703 0.0003848568 -0.17700914 0.003810236 -0.21861733 0.0020004958
0.033263244 -0.0003951133 -0.018789567 -0.029080195 0.15060526 -6.7861043e-07 -0.104897894 0.11760739
0.12558526 0.016085913 0.08509598 -0.13678178 0.015941838 0.00025608993 -0.00068186456 -0.027976623
-0.06889872 0.027946547 -0.2370159 -0.017671963 -0.32174787 -0.16398872 0.14745297 0.09135101
0.00085103686 0.00046311528 0.0011874338 0.0033243385 0.0014626037 -0.03491472 -0.32384178 -0.046955515
-0.04918395 -0.01603464 0.025332548 -0.05030958 0.05701732 0.0535074 0.17000599 0.08801572
-0.1934393 0.0008717019 0.112229936 0.0037303152 -0.0888888 0.059188876 0.005547186 -0.2968984
0.041506413 -0.42221463 0.0017032627 0.07344275 0.023269286 0.00090420316 0.00060203916 -0.069981195
0.13204233 0.004374087 -0.09253532 -0.114892334 0.0017593593 0.022104384 -0.14907855 -0.004794904
-0.08691361 0.00021258046 0.14732161 -0.27847475 0.4225416 0.0030513706 -0.0012148451 -0.08874704
-0.005223778 0.010794753 0.06451075 -0.105864115 0.09858894 0.31681737 0.0003769961 0.13193357
0.0005929297 -0.06832936 -0.034842726 -0.08364705 0.16639622 -0.21717446 0.16808128 0.0013548114
0.08511872 -0.081167206 0.09589361 -0.014454225 0.00052077253 -0.10216692 0.29064733 0.0975994
0.031322952 0.0009558482 -0.060277633 -0.08045262 0.0012123481 -0.13436033 0.0020783518 -0.00044663582
00000000: 32d5 1ebc 105d 6e3a ce50 1a3d 621e d13a
00000010: ddc5 1abe e9a4 2cba 811b 48bd 873f 463a
00000020: 1b09 1ebc 441b 1a3b 12ce 0b3b 3acf 32be
00000030: 6cac cc3d e712 4bbe 92cf 963b 59e3 aa3a
00000040: 897e 49bd f7f1 673e 2db0 5b3c 9bc6 c939
00000050: e241 35be 27b5 793b 39dd 5fbe c01a 033b
00000060: 0a3f 083d 3627 cfb9 94ec 99bc 9739 eebc
00000070: 4438 1a3e c129 36b5 b5d4 d6bd 25dc f03d
00000080: 6c99 003e 9bc6 833c cd46 ae3d 8610 0cbe
00000090: 7598 823c cf43 8639 28bf 32ba 3b2f e5bc
000000a0: c61a 8dbd 28f0 e43c 4cb4 72be cbc4 90bc
000000b0: 23bc a4be a9ec 27be e9fd 163e 3d16 bb3d
000000c0: 1e18 5f3a 48ce f239 aba3 9b3a 25dd 593b
000000d0: d6b4 bf3a bd02 0fbd 97ce a5be 6d54 40bd
000000e0: 1c75 49bd 145b 83bc 3486 cf3c 6b11 4ebd
000000f0: fe8a 693d 932a 5b3d 0d16 2e3e 9641 b43d
00000100: f414 46be ed82 643a cfd8 e53d 4e78 743b
00000110: 550b b6bd 0970 723d 2bc5 b53b 1103 98be
00000120: a102 2a3d 842c d8be 0340 df3a 2769 963d
00000130: 3b9f be3c 0c08 6d3a 2ad2 1d3a 4d52 8fbd
00000140: 1b36 073e 8054 8f3b 2883 bdbd ac4c ebbd
00000150: 4d9a e63a 4114 b53c 0ca8 18be 921e 9dbb
00000160: c3ff b1bd 22e8 5e39 7adb 163e 3e94 8ebe
00000170: 5f57 d83e 81f9 473b 703b 9fba 02c1 b5bd
00000180: 3a2c abbb 7adc 303c 361e 843d 49cf d8bd
00000190: 00e9 c93d e335 a23e 8fa7 c539 9819 073e
000001a0: d76e 1b3a 43f0 8bbd 3fb7 0ebd 254f abbd
000001b0: c563 2a3e fb62 5ebe 801d 2c3e ed93 b13a
000001c0: b952 ae3d fe3a a6bd de63 c43d 6ad1 6cbc
000001d0: 7484 083a e43c d1bd bacf 943e 32e2 c73d
000001e0: 7f4c 003d e391 7a3a aee5 76bd 58c4 a4bd
000001f0: a7e7 9e3a c195 09be f534 083b 722a eab9

base.2.conv.1.running_mean f4 [128]
-0.014445172 6e-45 0.17509818 6e-45 0.08591898 -6e-45 0.099111564 6e-45
0.055622846 -6e-45 -6e-45 0.03378714 -0.09154087 -0.053609043 6e-45 6e-45
0.13691698 -0.06607477 -0.016581831 6e-45 -0.024707058 6e-45 -0.103277564 6e-45
0.014628138 -6e-45 -0.01015504 0.29697567 0.25466195 -6e-45 0.009754538 -0.055081286
-0.063971624 0.003907799 -0.15841869 -0.037340347 0.06375756 6e-45 -6e-45 0.14732453
-0.09913457 -0.097965434 -0.26964107 -0.0751626 -0.042278975 -0.22417304 0.0381693 0.080099404
-6e-45 6e-45 6e-45 6e-45 6e-45 -0.041199382 -0.43716902 0.047476344
-0.07732408 0.19736962 -0.025303802 0.07092174 0.39975426 0.22286257 -0.06679062 -0.0022762318
0.048230536 6e-45 -0.07889713 6e-45 -0.0036654598 0.14181997 0.101407126 -0.028552411
-0.13745262 -0.12393178 6e-45 -0.017229797 0.10467744 6e-45 6e-45 -0.062149025
-0.049557183 6e-45 0.09683074 0.027272547 6e-45 -0.5181353 -0.17788449 -0.12492047
0.02470419 6e-45 0.13784945 0.011621834 0.36499774 6e-45 -6e-45 0.074074015
-0.28240395 -0.22300647 0.08128899 0.21310227 -0.3460141 -0.09147608 6e-45 -0.043891888
6e-45 0.045286555 -0.05368931 0.31162438 -0.07483359 -0.19771591 -0.066154115 -6e-45
0.10784979 -0.097352654 0.018756244 0.0231877 6e-45 -0.06021025 0.25438067 -0.07261418
-0.04677061 -6e-45 0.30526927 -0.050139613 6e-45 -0.056813315 6e-45 6e-45
00000000: 71ab 6cbc 0400 0000 f04c 333e 0400 0000
00000010: 4af6 af3d 0400 0080 01fb ca3d 0400 0000
00000020: c8d4 633d 0400 0080 0400 0080 6264 0a3d
00000030: c879 bbbd 2895 5bbd 0400 0000 0400 0000
00000040: f733 0c3e 3652 87bd 9fd6 87bc 0400 0000
00000050: 7566 cabc 0400 0000 3083 d3bd 0400 0000
00000060: dcaa 6f3c 0400 0080 5361 26bc 320d 983e
00000070: 0d63 823e 0400 0080 7fd1 1f3c ea9c 61bd
00000080: 8e03 83bd fe0c 803b 8238 22be 31f2 18bd
00000090: 5393 823d 0400 0000 0400 0080 3edc 163e
000000a0: 1107 cbbd 1aa2 c8bd 650e 8abe d9ee 99bd
000000b0: b82c 2dbd 9e8d 65be 6957 1c3d 280b a43d
000000c0: 0400 0080 0400 0000 0400 0000 0400 0000
000000d0: 0400 0000 afc0 28bd 9ed4 dfbe 8e76 423d
000000e0: 165c 9ebd 431b 4a3e eb49 cfbc 6b3f 913d
000000f0: 97ac cc3e 1636 643e 85c9 88bd d52c 15bb
00000100: 628d 453d 0400 0000 d294 a1bd 0400 0000
00000110: 3638 70bb 4139 113e 8aae cf3d bfe6 e9bc
00000120: 61c0 0cbe f2cf fdbd 0400 0000 8125 8dbc
00000130: 2061 d63d 0400 0000 0400 0000 fa8f 7ebd
00000140: 79fc 4abd 0400 0000 324f c63d ad6a df3c
00000150: 0400 0000 84a4 04bf 5a27 36be 4ed6 ffbd
00000160: 7160 ca3c 0400 0000 6828 0d3e 8169 3e3c
00000170: fce0 ba3e 0400 0000 0400 0080 1eb4 973d
00000180: 4097 90be cf5b 64be d87a a63d 7b37 5a3e
00000190: c328 b1be d057 bbbd 0400 0000 fbc7 33bd
000001a0: 0400 0000 657e 393d 52e9 5bbd 3b8d 9f3e
000001b0: 5a42 99bd 0a76 4abe cf7b 87bd 0400 0080
000001c0: 5ae0 dc3d d460 c7bd b2a6 993c 22f4 bd3c
000001d0: 0400 0000 069f 76bd 2f3e 823e beb6 94bd
000001e0: 8a92 3fbd 0400 0080 414c 9c3e 325f 4dbd
000001f0: 0400 0000 14b5 68bd 0400 0000 0400 0000
