Pruned_Models/EXTD/L1/EXTD20_L1.pth (torch, 713811 bytes, 134 tensors)

base.0.0.weight f4 [64, 3, 3, 3]
000000 00 00 00 00 00 00 00 00 00 00 00 00 00 00 00 00
       0.0 0.0 0.0 0.0
000010 00 00 00 00 00 00 00 00 00 00 00 80 00 00 00 80
       0.0 0.0 -0.0 -0.0
000020 00 00 00 80 00 00 00 00 00 00 00 00 00 00 00 00
       -0.0 0.0 0.0 0.0
000030 00 00 00 00 00 00 00 00 00 00 00 00 00 00 00 80
       0.0 0.0 0.0 -0.0
000040 00 00 00 80 00 00 00 80 00 00 00 80 00 00 00 80
       -0.0 -0.0 -0.0 -0.0
000050 00 00 00 80 00 00 00 80 00 00 00 80 00 00 00 80
       -0.0 -0.0 -0.0 -0.0
000060 00 00 00 80 00 00 00 80 00 00 00 80 00 00 00 80
       -0.0 -0.0 -0.0 -0.0
000070 00 00 00 80 00 00 00 80 00 00 00 00 00 00 00 00
       -0.0 -0.0 0.0 0.0
000080 00 00 00 00 00 00 00 00 00 00 00 00 00 00 00 00
       0.0 0.0 0.0 0.0
000090 00 00 00 80 00 00 00 80 00 00 00 80 00 00 00 00
       -0.0 -0.0 -0.0 0.0
0000a0 00 00 00 00 00 00 00 00 00 00 00 00 00 00 00 00
       0.0 0.0 0.0 0.0
0000b0 00 00 00 00 00 00 00 80 00 00 00 80 00 00 00 80
       0.0 -0.0 -0.0 -0.0
0000c0 00 00 00 80 00 00 00 80 00 00 00 80 00 00 00 00
       -0.0 -0.0 -0.0 0.0
0000d0 00 00 00 00 00 00 00 00 00 00 00 00 00 00 00 00
       0.0 0.0 0.0 0.0
0000e0 00 00 00 00 00 00 00 00 00 00 00 00 00 00 00 00
       0.0 0.0 0.0 0.0
0000f0 00 00 00 00 00 00 00 00 00 00 00 00 00 00 00 00
       0.0 0.0 0.0 0.0
000100 00 00 00 00 00 00 00 00 00 00 00 00 00 00 00 00
       0.0 0.0 0.0 0.0
000110 00 00 00 00 00 00 00 00 00 00 00 00 00 00 00 00
       0.0 0.0 0.0 0.0
000120 00 00 00 00 00 00 00 00 00 00 00 00 00 00 00 00
       0.0 0.0 0.0 0.0
000130 00 00 00 00 00 00 00 00 00 00 00 00 00 00 00 00
       0.0 0.0 0.0 0.0
000140 00 00 00 00 9e 27 41 c3 70 c5 65 c3 6e 98 93 c3
       0.0 -193.15475 -229.77124 -295.19086
000150 8e af 7d c3 9e 12 84 c3 27 cd a1 c3 04 0b 86 c3
       -253.68576 -264.14545 -323.60275 -268.08606
000160 7e 17 71 c3 aa f4 8a c3 62 26 f7 c2 a7 fb 13 c3
       -241.09177 -277.91144 -123.57497 -147.98302
000170 ed ae 5b c3 76 1e 37 c3 b8 2c 3b c3 e7 ca 6e c3
       -219.6833 -183.11899 -187.17468 -238.79259
000180 7a 9c 5c c3 a6 1a 34 c3 c8 91 52 c3 a7 24 07 c3
       -220.61124 -180.1041 -210.56946 -135.14317
000190 fa 33 2a c3 8c 70 64 c3 bf 45 22 c3 6d 51 2f c3
       -170.20303 -228.43964 -162.27245 -175.31807
0001a0 88 29 59 c3 68 ab 4e c3 5e 78 20 c3 76 92 3d c3
       -217.16223 -206.66956 -160.47018 -189.57211
0001b0 47 a7 76 bf 4a 87 f9 bf 90 0a 8e 3e 6a 91 7c 40
       -0.96348995 -1.9494412 0.27742434 3.9463754
0001c0 a0 b0 fc 3f 88 1c b0 40 7c d3 04 41 5d 08 cf 40
       1.9741402 5.503483 8.301632 6.469771
0001d0 47 0b 04 41 2d f1 db 41 07 f6 ce 41 27 68 d3 41
       8.252753 27.492762 25.87013 26.425856
0001e0 29 00 00 42 79 04 eb 41 5a db fd 41 75 61 0f 42
       32.000156 29.377184 31.732105 35.845173
0001f0 97 c2 05 42 2b 58 09 42 9e 88 03 42 9f 8b 01 42
       33.44003 34.3361 32.883415 32.38635
000200 76 c0 02 42 44 4d 12 42 d6 0c 0d 42 08 12 17 42
       32.68795 36.575455 35.262535 37.76761
000210 bb 1c 1f 42 03 d1 1b 42 f0 e9 20 42 b6 d3 86 43
       39.778057 38.954113 40.228455 269.654
000220 57 cd 97 43 ef a2 87 43 7e 64 a0 43 20 ba ac 43
       303.60422 271.27292 320.7851 345.4541
000230 72 78 a8 43 bf 16 83 43 73 24 95 43 a7 e5 9b 43
       336.94098 262.1777 298.28476 311.79416
000240 54 d5 45 43 ae 12 6a 43 63 8b 5d 43 9a fa 4e 43
       197.83331 234.07297 221.54448 206.97891
000250 08 5a 79 43 e0 2f 84 43 85 c6 2d 43 3f b8 67 43
       249.35168 264.37402 173.77547 231.71971
000260 3b c4 87 43 86 32 47 43 5c ee 65 43 11 1d 62 43
       271.53305 199.19736 229.93109 226.11354
000270 f5 b8 13 43 ca 5f 2d 43 22 b8 3f 43 12 ec a0 42
       147.72249 173.37418 191.71927 80.461075
000280 20 a6 be 42 da 55 f9 42 00 00 00 80 00 00 00 80
       95.32446 124.66768 -0.0 -0.0
000290 00 00 00 80 00 00 00 80 00 00 00 80 00 00 00 80
       -0.0 -0.0 -0.0 -0.0
0002a0 00 00 00 80 00 00 00 80 00 00 00 80 00 00 00 80
       -0.0 -0.0 -0.0 -0.0
0002b0 00 00 00 80 00 00 00 80 00 00 00 80 00 00 00 80
       -0.0 -0.0 -0.0 -0.0
0002c0 00 00 00 80 00 00 00 80 00 00 00 80 00 00 00 80
       -0.0 -0.0 -0.0 -0.0
0002d0 00 00 00 80 00 00 00 80 00 00 00 80 00 00 00 80
       -0.0 -0.0 -0.0 -0.0
0002e0 00 00 00 80 00 00 00 80 00 00 00 80 00 00 00 80
       -0.0 -0.0 -0.0 -0.0
0002f0 00 00 00 80 1e ba 73 c4 8c b7 9f c3 01 d9 ee 43
       -0.0 -974.9081 -319.43396 477.69534
000300 e6 de 08 44 86 c2 64 44 6d 33 d4 44 36 af e0 44
       547.4828 915.0394 1697.607 1797.4753
000310 a6 55 cd 44 d4 b5 f6 44 13 90 ba c4 8a 74 3f c4
       1642.6765 1973.6821 -1492.5023 -765.8209
000320 24 da d8 c2 7e aa 84 43 71 a4 23 44 7d c4 9f 44
       -108.426056 265.33197 654.5694 1278.1403
000330 00 5e d9 44 ff 39 b4 44 cf 52 cc 44 d7 ac 99 c4
       1738.9375 1441.8124 1634.5878 -1229.4012
000340 62 44 39 c4 bc d7 a1 c3 6c 56 5e 43 bd 96 e0 43
       -741.0685 -323.68542 222.33759 449.17764
000350 ff 64 56 44 ca 8a b8 44 31 3d 8b 44 70 e8 90 44
       857.57806 1476.3372 1113.9122 1159.2637
000360 00 00 00 80 00 00 00 80 00 00 00 80 00 00 00 80
       -0.0 -0.0 -0.0 -0.0
000370 00 00 00 80 00 00 00 80 00 00 00 80 00 00 00 80
       -0.0 -0.0 -0.0 -0.0
000380 00 00 00 80 00 00 00 00 00 00 00 00 00 00 00 00
       -0.0 0.0 0.0 0.0
000390 00 00 00 80 00 00 00 80 00 00 00 80 00 00 00 80
       -0.0 -0.0 -0.0 -0.0
0003a0 00 00 00 80 00 00 00 80 00 00 00 00 00 00 00 00
       -0.0 -0.0 0.0 0.0
0003b0 00 00 00 00 00 00 00 00 00 00 00 80 00 00 00 80
       0.0 0.0 -0.0 -0.0
0003c0 00 00 00 80 00 00 00 80 00 00 00 80 40 4e 8a 42
       -0.0 -0.0 -0.0 69.15283
0003d0 d4 fd 76 42 a2 5f 6c 42 e5 57 84 42 25 58 60 42
       61.74788 59.09339 66.17167 56.08608
0003e0 c2 58 4c 42 8a 2e 82 42 7d bf 59 42 a4 99 3c 42
       51.086678 65.0909 54.437 47.15004
0003f0 3d cf 03 42 7c 88 d9 41 8e 64 d2 41 00 49 e4 41
       32.95238 27.191643 26.299099 28.535645

base.0.1.weight f4 [64]
000000 45 45 d2 3c 30 27 a5 3b b4 87 bf 3c 05 59 aa 3c
       0.025667796 0.005040072 0.023380138 0.020794401
000010 ff 17 37 3e c5 ae ea 3c 6c 24 8b 3c 40 b9 a2 3e
       0.17880248 0.02864779 0.01698514 0.3178196
000020 98 47 88 3d 90 24 af 3d 58 f7 1c 3e a1 5e 1f 3f
       0.066542804 0.085518956 0.15328729 0.6225377
000030 61 33 b4 3e 24 c8 d1 3e 78 bd 83 3e a6 c3 65 3d
       0.3519545 0.40973008 0.2573049 0.056094788
000040 eb 50 e9 3e 5d 7c ad 3d 2b ac 01 3f 4c 23 7c 3d
       0.45569548 0.08470986 0.5065333 0.0615571
000050 a9 1b 8b 3c 56 ab 39 3e c9 93 15 3e bd 55 ee 3d
       0.016980963 0.18131766 0.14607157 0.11637447
000060 bd 88 15 3f eb 58 0f 3f 15 d4 82 3e 4d ee 3b 3f
       0.5841177 0.55995053 0.2555243 0.73410493
000070 b1 2b ca 3e 49 37 c8 3f 78 8c 5d 3d f7 e8 74 3f
       0.3948646 1.5641872 0.05408904 0.95667976
000080 f3 ee 01 3f 80 ef 3e 3d cc ea a8 3d e8 02 a8 3d
       0.5075523 0.046615124 0.08247909 0.08203679
000090 d8 24 aa 3e 71 2a 66 b9 77 c0 3e 3f aa f7 e8 3e
       0.33231235 -0.0002195032 0.7451243 0.45501453
0000a0 06 5a 1f 3f b7 6f 8d 3e c8 db 8d 3e 82 89 02 3f
       0.6224674 0.27624294 0.27706742 0.5099107
0000b0 37 27 f6 3e 39 f7 84 3e 91 a8 ae 3e 06 fb 32 3f
       0.48076794 0.25969866 0.3411298 0.6991428
0000c0 c7 e9 1d 3f f9 3f 6c 3e 6f f3 b0 3e 43 13 37 bc
       0.6168484 0.23071279 0.34560725 -0.011174026
0000d0 fc 28 d1 3e aa 7e 12 3f 19 34 d9 3e 2e 03 4f 3e
       0.4085158 0.57224524 0.4242256 0.20216057
0000e0 bb 40 27 3d 47 3c 3c 3b 73 8a 13 3f ce d4 99 3e
       0.040833216 0.0028722452 0.5763313 0.3004517
0000f0 40 84 97 3e 27 19 96 3e 1d 88 06 3f 9e 46 00 3f
       0.29593086 0.29316065 0.5255144 0.50107753

base.0.1.bias f4 [64]
000000 5d a1 f0 3d 64 f3 86 3c 32 9e 3f be 4b 5d 2f 3e
       0.117495276 0.01647348 -0.1871269 0.17125432
000010 8f 7f bd bd c4 62 23 be c2 81 a2 bd 16 26 05 3e
       -0.092528455 -0.15955645 -0.079349056 0.1300281
000020 b1 49 b9 bc fb 8b df bd 5b ab 42 3d 62 54 25 bd
       -0.022618147 -0.10915371 0.0475267 -0.040363677
000030 33 2a 3e 3e 75 7e 72 bc a3 7c 2f 3d 89 31 cc 3b
       0.18570785 -0.0148006575 0.042843472 0.006231491
000040 5d 04 5c 3d 72 9b c9 bd 38 42 27 be 52 a7 ba be
       0.0537151 -0.09844102 -0.16333854 -0.3645578
000050 39 77 ed 3c 7d d8 14 3d f3 ef 51 3d cf d6 33 3e
       0.028987514 0.03633927 0.051254224 0.17562412
000060 e7 51 37 bd f2 c5 df 3d 99 0e 22 be 51 17 4f bd
       -0.044755843 0.10926427 -0.15825881 -0.050559346
000070 26 c5 cc 3d 38 e8 91 3e c8 4f 02 bd cf 42 f1 3d
       0.099985406 0.2849748 -0.031814367 0.11780321
000080 93 4b 3a 3e fc 18 c0 bd f5 ff 59 3d e0 9f 10 3d
       0.18192892 -0.093797654 0.053222615 0.03530872
000090 59 99 b0 bd 43 ca e9 bd cf b3 c2 3d 99 39 ba be
       -0.08622999 -0.114155315 0.09506952 -0.3637207
0000a0 b6 34 01 3e 0f 03 90 be 05 d0 c4 3d 8d 70 66 be
       0.12617764 -0.28127334 0.09609989 -0.22503872
0000b0 06 b6 6a 3c 0e 11 8f be 31 3e 72 3e 78 b6 74 3c
       0.014325624 -0.279427 0.23656537 0.014936082
0000c0 73 a9 22 be 48 1b 33 be 9f e2 3f be a8 62 9e be
       -0.15884952 -0.17490876 -0.18738793 -0.30934644
0000d0 a5 06 1f be 7a 9e 84 be 9e c9 25 be 51 7f af 3d
       -0.15529878 -0.25902158 -0.16190192 0.085692056
0000e0 ae dc 4b 3e 88 ed 36 3d 3f ff a3 be 73 97 29 3e
       0.19908401 0.04466012 -0.32030675 0.1656168
0000f0 73 2f d7 bd ca 95 01 3e 06 d3 cf bd 83 2e fd bd
       -0.10507097 0.12654796 -0.101476714 -0.12362387

base.0.1.running_mean f4 [64]
000000 4e b0 4f 40 71 35 d0 3c 38 af 2f c0 d5 32 56 46
       3.2451358 0.025416108 -2.7450695 13708.708
000010 49 da 23 c5 d6 77 6f c6 aa 02 5a 40 74 b3 01 c7
       -2621.6428 -15325.959 3.4064126 -33203.453
000020 90 39 f7 3f 76 95 e1 c4 a1 b3 eb 44 28 7f 5b c7
       1.9314442 -1804.6707 1885.6134 -56191.156
000030 34 14 f5 44 e5 04 d3 47 04 9f 79 c4 55 b7 1b 41
       1960.6313 108041.79 -998.4846 9.732259
000040 f8 61 77 c7 0d a1 1e c6 d4 a8 23 46 17 39 e8 c4
       -63329.97 -10152.263 10474.207 -1857.784
000050 7f a6 99 bf 58 92 b8 45 5b 98 1d c5 86 de 23 45
       -1.2003936 5906.293 -2521.5222 2621.9077
000060 8d 8b 85 43 19 28 1d c7 26 8b bf c5 53 3c 4f 45
       267.09024 -40232.098 -6129.3936 3315.7703
000070 bf 16 ae c4 56 c7 a7 45 75 1e 64 40 00 7d af 45
       -1392.7108 5368.917 3.564359 5615.625
000080 03 91 95 c6 2b f2 42 40 bc 12 27 46 42 e8 0a c5
       -19144.506 3.0460308 10692.684 -2222.516
000090 40 af 94 c5 69 d4 c2 3d a7 7b 6a 47 eb 2e c6 44
       -4757.9062 0.0951317 60027.652 1585.4662
0000a0 95 ed 97 c9 e3 65 99 44 34 88 18 46 b3 be 0a c4
       -1.2445946e+06 1227.184 9762.051 -554.9797
0000b0 9a eb 2a c6 a1 af 97 45 e3 7f 02 45 3d 87 c2 c2
       -10938.9 4853.9536 2087.993 -97.26414
0000c0 af d4 e0 46 c9 52 fa 46 32 01 92 c5 d0 97 ca 3e
       28778.342 32041.393 -4672.1494 0.3956895
0000d0 3a 80 52 46 77 63 34 45 ad 74 b9 44 9d ad e2 45
       13472.057 2886.2166 1483.6461 7253.7017
0000e0 53 4e 54 c5 be 03 93 3e c6 40 2c 45 e5 37 37 c4
       -3396.8953 0.28713793 2756.0483 -732.87335
0000f0 be b3 b7 44 d0 8a d3 c4 c3 f8 67 c6 20 92 88 46
       1469.617 -1692.3379 -14846.19 17481.062

base.0.1.running_var f4 [64]
000000 98 d7 b7 44 e9 75 17 42 17 9b 7d 45 58 1b b4 51
       1470.7373 37.865147 4057.693 9.669411e+10
000010 e9 16 8a 4e b9 45 db 51 e8 74 45 45 c3 c8 2e 53
       1.1583786e+09 1.1772095e+11 3159.3066 7.506925e+11
000020 34 b2 2d 46 f0 04 4e 4f b9 7c 0e 4e 44 6e ff 53
       11116.551 3.45643e+09 5.976346e+08 2.1941332e+12
000030 a3 09 04 4f 6e 62 bb 53 42 5b 90 4d 72 5e 1e 47
       2.215224e+09 1.6096205e+12 3.0273747e+08 40542.445
000040 d1 6a c4 53 36 d5 b1 50 74 62 d1 50 19 a9 14 4f
       1.6872113e+12 2.3868322e+10 2.8103123e+10 2.49411e+09
000050 d5 f9 19 44 8c 99 c0 4f d1 33 d4 4e 73 6a 3f 4e
       615.9036 6.4625766e+09 1.7800828e+09 8.028561e+08
000060 5f 37 7a 4d 89 75 03 53 ef ee 48 50 68 00 00 4e
       2.623708e+08 5.646126e+11 1.3484408e+10 5.368776e+08
000070 04 51 07 4f 23 8a 33 4f 12 06 bd 45 02 b6 e1 4e
       2.2702336e+09 3.0121746e+09 6048.759 1.8934008e+09
000080 62 1b 32 53 b8 27 3a 44 db 84 a9 50 73 89 3a 4f
       7.649636e+11 744.6206 2.275245e+10 3.12957e+09
000090 7b 3a a4 4f f9 18 15 40 b3 bb 2d 53 bc eb af 4d
       5.510592e+09 2.3296492 7.461784e+11 3.6893274e+08
0000a0 95 73 b0 57 27 c1 f2 4d d4 0d ca 50 e0 f8 a1 4c
       3.8802094e+14 5.090931e+08 2.711923e+10 8.492006e+07
0000b0 71 73 28 50 82 23 ca 4f 87 f6 88 4f 3e a8 24 4e
       1.1304551e+10 6.7826493e+09 4.5957156e+09 6.9062234e+08
0000c0 84 70 49 52 0e 66 b2 53 ad ee c2 50 4a 46 05 45
       2.1629403e+11 1.5324327e+12 2.6163374e+10 2132.393
0000d0 9e 30 fc 50 44 8f 0e 50 9f 16 6a 4f d1 39 6c 50
       3.3848357e+10 9.567015e+09 3.927351e+09 1.5852848e+10
0000e0 b3 53 e5 4f 8e 82 2f 41 c0 6b fd 4e 7c 0b c2 4d
       7.6949356e+09 10.969374 2.1258486e+09 4.0694157e+08
0000f0 5b 46 cb 4d fe 5d 2c 4e fe 53 d3 51 94 15 dd 51
       4.262982e+08 7.2296026e+08 1.1345591e+11 1.18693724e+11

base.1.conv.0.weight f4 [64, 1, 3, 3]
000000 00 00 00 00 00 00 00 80 00 00 00 80 00 00 00 00
       0.0 -0.0 -0.0 0.0
000010 00 00 00 00 00 00 00 00 00 00 00 00 00 00 00 00
       0.0 0.0 0.0 0.0
000020 00 00 00 00 00 00 00 00 00 00 00 00 00 00 00 00
       0.0 0.0 0.0 0.0
000030 00 00 00 00 00 00 00 00 00 00 00 00 00 00 00 00
       0.0 0.0 0.0 0.0
000040 00 00 00 00 00 00 00 00 00 00 00 00 00 00 00 00
       0.0 0.0 0.0 0.0
000050 00 00 00 00 00 00 00 00 00 00 00 00 00 00 00 00
       0.0 0.0 0.0 0.0
000060 00 00 00 00 00 00 00 00 00 00 00 00 14 45 83 bd
       0.0 0.0 0.0 -0.0640966
000070 4c fa 3c 3e 4e 19 83 3d 1c c9 f6 3d fc f2 f5 bc
       0.18454856 0.06401311 0.12050077 -0.03002309
000080 5e 5d a9 3d b1 44 81 bc 79 c6 d3 be 77 38 2c 3d
       0.082697615 -0.015779825 -0.4136236 0.042046037
000090 14 63 ba bd 49 c9 c5 bd a7 8e cd bd 01 cf 25 bd
       -0.09100929 -0.09657533 -0.100369744 -0.040480617
0000a0 0d ea 9e bd f8 d4 a1 bd d0 a3 00 3c 7a 8b 8c bc
       -0.077594854 -0.07901949 0.007851556 -0.017156351
0000b0 17 14 d6 bc 75 ce 3d 3d ae d5 8b 3e 73 db 0a 3e
       -0.026132626 0.04633947 0.27311462 0.13560276
0000c0 cb 32 82 3c 7a ab fc 3b ff 09 1b 3e 79 b1 ac bd
       0.01589336 0.0077108713 0.15140532 -0.08432288
0000d0 5f 1c 43 be e7 13 93 3c 00 00 00 00 00 00 00 00
       -0.19053791 0.017953826 0.0 0.0
0000e0 00 00 00 00 00 00 00 00 00 00 00 00 00 00 00 00
       0.0 0.0 0.0 0.0
0000f0 00 00 00 00 00 00 00 80 00 00 00 80 52 8b 29 be
       0.0 -0.0 -0.0 -0.16557053
000100 f8 bb 6c be 69 11 46 be 6d 5c a2 3c 7c d8 ee bd
       -0.2311858 -0.19342579 0.019819463 -0.11662385
000110 93 fa db bc 94 fb 13 3e 4c c2 5e 3e 9f 44 15 3e
       -0.026852882 0.14451438 0.21753806 0.14576958
000120 00 00 00 00 00 00 00 00 00 00 00 00 00 00 00 80
       0.0 0.0 0.0 -0.0
000130 00 00 00 80 00 00 00 00 00 00 00 00 00 00 00 80
       -0.0 0.0 0.0 -0.0
000140 00 00 00 80 72 ae d5 ba 30 cf 5d bd d2 9b 99 bd
       -0.0 -0.0016302599 -0.054152668 -0.075004235
000150 e1 05 7d 3c 7e cf de bd 8a 5f 8c bd c6 74 2f 3d
       0.015443296 -0.1087942 -0.0685416 0.042835973
000160 ae 2a 49 bc 52 bc 91 bb a7 38 8c bd b9 b5 a7 bd
       -0.012278242 -0.0044474984 -0.06846743 -0.08188958
000170 62 7f 83 bd 5d 76 27 bd c3 39 fb bc d3 ee 71 bc
       -0.06420781 -0.040884364 -0.030667191 -0.014766413
000180 12 90 41 bc 1a 95 20 bc 1e a2 a7 3c 12 19 88 3d
       -0.011814134 -0.009801174 0.020463046 0.06645407
000190 4c b7 3b be f7 ad 30 3a bc 24 28 3d 11 3e a3 be
       -0.18331641 0.000673979 0.041050658 -0.3188329
0001a0 33 05 02 be 87 95 19 3d bc d1 70 be 54 e1 0a be
       -0.12697296 0.037496116 -0.23517507 -0.13562518
0001b0 d4 5a 33 bd 56 cb 87 bd 93 9d 89 bd 61 d3 42 bd
       -0.043787792 -0.0663058 -0.06719508 -0.047564868
0001c0 2e 27 ca bd 5b 2a 07 be 9f 86 1e bd 7f 15 e7 bd
       -0.09870754 -0.13199751 -0.038702603 -0.11283397
0001d0 e0 88 f6 bd d2 4a 98 3d 5a c0 7f 3d 8e 86 4a 3c
       -0.120378256 0.07436146 0.0624393 0.012361182
0001e0 b8 02 de 3d 22 e7 47 3e ea 52 b9 3d 9d 0d 2b 3d
       0.10840362 0.19521764 0.09049018 0.04176103
0001f0 8e f7 bf 3d 9e ec 15 3d a1 4d c6 3c 7f 82 0b bc
       0.09373389 0.03660261 0.024206938 -0.008514999
000200 45 bd 0c 3d 01 67 e0 3d 30 aa a5 3d f4 fe 3f 3d
       0.03436019 0.109571464 0.08089101 0.046874
000210 a9 f8 ab 3d 1b 37 a2 3d 97 3e a1 3c 00 00 00 80
       0.083970375 0.07920667 0.019683165 -0.0
000220 00 00 00 80 00 00 00 80 00 00 00 80 00 00 00 00
       -0.0 -0.0 -0.0 0.0
000230 00 00 00 00 00 00 00 00 00 00 00 00 00 00 00 00
       0.0 0.0 0.0 0.0
000240 e4 fb 8a 3d 2c 69 ea 3e 2f e5 f7 3d f9 88 b2 bd
       0.067863256 0.45783365 0.1210426 -0.08717532
000250 33 df 20 bf cb ff 13 bc 5d 51 01 3e 71 24 df bd
       -0.62840575 -0.009033154 0.12628694 -0.108956225
000260 28 e8 39 3d e1 87 20 3d 9e 16 4d 3d 00 ca 90 3d
       0.045387417 0.039192084 0.050070398 0.070697784
000270 86 ed a7 3c 32 f9 a2 3d 32 77 a6 3d b8 30 82 bd
       0.020499002 0.079576865 0.081282035 -0.063569486
000280 51 9f ee bc e1 2a 60 bb 33 3f bb 3d f9 ec dc 3d
       -0.029128702 -0.0034205245 0.09142914 0.107873864
000290 4a 6b e6 3d 3d 05 01 3e 7b 20 63 3e 7a af 10 3e
       0.112509325 0.12599654 0.22180359 0.14129439
0002a0 4b 88 d8 3d c2 41 11 3e 48 00 a2 3d cc a6 7c 3d
       0.10572871 0.14185241 0.0791021 0.061682507
0002b0 c1 70 ed 3d ae 10 d4 3d 15 8a a7 3d b8 64 60 3e
       0.11593772 0.10354744 0.08180634 0.21913421
0002c0 89 a5 4a 3e 77 e0 33 3d 40 bc 0f 3e 14 4c 17 3e
       0.19789709 0.04391524 0.14036655 0.14775115
0002d0 00 00 00 00 00 00 00 80 00 00 00 80 00 00 00 80
       0.0 -0.0 -0.0 -0.0
0002e0 00 00 00 80 00 00 00 80 00 00 00 80 00 00 00 80
       -0.0 -0.0 -0.0 -0.0
0002f0 00 00 00 80 f9 1e 86 bd 4a fc 43 bd 88 bc 0b 3d
       -0.0 -0.06548876 -0.047848023 0.034115344
000300 a8 9f ca bd c0 d9 f9 bd 83 d7 76 bd 46 20 95 bd
       -0.09893733 -0.12199736 -0.06026412 -0.07281546
000310 9d 38 8f bd 8c 9f ee bb e6 82 86 bc c7 64 35 bc
       -0.0699322 -0.007282203 -0.01641984 -0.0110713905
000320 42 5b be bc 69 1b df 3c f9 74 74 3d ba ce cf 3d
       -0.023236874 0.02723475 0.059681866 0.10146852
000330 8f 0a 63 bd b8 8e 6e bd d3 46 e3 bc 00 00 00 00
       -0.05542999 -0.058241576 -0.027743733 0.0
000340 00 00 00 00 00 00 00 00 00 00 00 80 00 00 00 80
       0.0 0.0 -0.0 -0.0
000350 00 00 00 80 00 00 00 80 00 00 00 80 00 00 00 80
       -0.0 -0.0 -0.0 -0.0
000360 79 e0 88 3d a8 12 45 3e bc e9 2c 3e be 23 fb 3d
       0.0668344 0.19245398 0.16886038 0.12262677
000370 37 5e 80 3e 29 4c 87 3e e3 f3 c3 3d 08 f1 62 3e
       0.2507188 0.26425293 0.09568002 0.22162259
000380 cc 66 17 3e 86 5f 8b 3d 46 3b ba 3d 04 29 2e 3e
       0.14785308 0.06805329 0.09093337 0.17007834
000390 72 4a 86 3d e8 ff 67 3d f2 0f 27 3e d5 fe c2 bb
       0.06557168 0.056640536 0.16314676 -0.0059507885
0003a0 66 10 97 3d 5d d3 a0 3c ad a1 d9 3d f6 2e 48 3e
       0.07376175 0.019632036 0.1062654 0.19549164
0003b0 c7 a1 24 3e cf c9 26 3d a6 44 c8 3d 9d c0 02 3e
       0.16077338 0.040719803 0.09778719 0.12768789
0003c0 91 c1 17 3d 07 a4 a7 3d 20 ea 73 3d 90 07 89 3e
       0.037049834 0.081855826 0.05954945 0.26763582
0003d0 e7 11 64 be 9b 40 23 3e 81 08 b6 3e 56 a7 ee 3e
       -0.22272454 0.15942614 0.35553363 0.46612042
0003e0 b2 ce 48 3e ba 26 91 3e b9 ac 58 3c 41 8f 96 3d
       0.19610098 0.2834986 0.013224774 0.07351542
0003f0 0e 71 34 bd df 17 cc bd dc 4f 17 bd f7 cd 85 bd
       -0.04405313 -0.099654905 -0.036941394 -0.06533425

base.1.conv.0.bias f4 [64]
000000 00 00 00 80 00 00 00 80 00 00 00 80 fc 0b 9b be
       -0.0 -0.0 -0.0 -0.3028258
000010 03 cc c5 b9 ae 34 1c 3e 00 00 00 00 d6 45 28 3e
       -0.0003772677 0.1525447 0.0 0.1643289
000020 00 00 00 00 e7 dc 43 be f6 dc 20 bd c9 e2 00 3e
       0.0 -0.19127236 -0.039273225 0.12586512
000030 c7 6f 4e be 5c 5e 39 bd 03 17 9d bc 00 00 00 80
       -0.20159827 -0.045256004 -0.019176012 -0.0
000040 d3 62 8f 3e 48 a9 45 be 49 4e b3 bd e3 fe a1 be
       0.28005084 -0.19302857 -0.08755166 -0.31639776
000050 00 00 00 80 3a d6 89 bc 52 c7 98 3c 00 00 00 00
       -0.0 -0.016825784 0.01864973 0.0
000060 56 9d 34 3d c9 94 e9 3d 59 b8 8a bd 38 94 87 3e
       0.04409536 0.11405332 -0.06773443 0.2648027
000070 19 16 b3 bb ee 95 10 3e 00 00 00 00 49 08 28 3d
       -0.0054652807 0.14119694 0.0 0.041023526
000080 0b ea 0c bd 00 00 00 80 3b 67 a3 3b 00 00 00 80
       -0.03440289 -0.0 0.0049866713 -0.0
000090 6d 83 07 bd 31 55 81 be d6 01 b8 3c 26 91 7d be
       -0.03308432 -0.25260308 0.022461813 -0.24762401
0000a0 c0 9b 4d 3d ee 5a f8 bd be 5b a9 3d a6 75 6a 3e
       0.050197363 -0.121267185 0.082694516 0.22896442
0000b0 e6 e2 a4 3d 59 7e 3a 3e 7c 3a f5 bd f5 e9 f5 3c
       0.0805109 0.1821226 -0.11974046 0.030018786
0000c0 48 e9 55 3f d1 90 8c 3e 2a 6c 99 3c a0 aa af bd
       0.83559084 0.27454236 0.018728334 -0.08577466
0000d0 6e f8 c0 3d b4 bd 22 3f a3 96 b1 3e 33 e5 54 bd
       0.09422384 0.63570714 0.3468524 -0.051976394
0000e0 0e d6 a2 be 00 00 00 80 52 02 5b be 23 b7 9d be
       -0.31803936 -0.0 -0.21387604 -0.30803785
0000f0 43 d5 07 be 40 31 d8 bd 98 27 2e bb 34 92 2c 3f
       -0.13264947 -0.10556269 -0.0026573893 0.6741059

base.1.conv.1.weight f4 [64]
000000 c4 ba 77 3d b6 fe 8e 3d 7c 3a 5b 3d 52 11 88 3e
       0.060480848 0.06982176 0.053522572 0.26575714
000010 25 24 54 3e fa 69 ec 3d 3c de b3 3d 42 6c 82 3e
       0.20716913 0.11543651 0.08782622 0.2547322
000020 d9 49 4f 3a 82 16 56 3e 4a 03 22 3e 2c fb ee 3e
       0.00079074275 0.20907024 0.15821567 0.46676004
000030 bf 8d 84 3e 39 a2 77 3e a1 af 58 3e 68 4c 75 3d
       0.25889394 0.24182977 0.21160747 0.05988732
000040 b1 fe b0 3e ac af 36 3e a1 ed 99 3e 12 05 7d 3e
       0.34569314 0.17840451 0.3006411 0.24708965
000050 62 4e 96 3d 7d 58 ab 3e 29 51 f1 3d 45 c0 01 3d
       0.07339169 0.3346595 0.11783058 0.031677503
000060 60 e7 16 3f 59 a2 6d 3e 4b 27 a2 3e bd 9d d7 3e
       0.589468 0.23206462 0.31670603 0.42112532
000070 17 ab 81 3e 40 7b 7a 3f 2f 26 82 3c 01 56 61 3f
       0.25325844 0.97844315 0.015887348 0.88021857
000080 5b 26 24 3f b8 63 9b 3d 43 58 48 3e f3 04 f8 3d
       0.64121026 0.07587379 0.19564919 0.12110319
000090 ea 07 50 3e 05 bd b5 3d fb ff b5 3e cb 34 e8 3e
       0.20315519 0.08873943 0.3554686 0.45352778
0000a0 6a b7 d5 3e ad 32 23 3e 98 50 c7 3d 89 8e 01 3f
       0.41741496 0.159373 0.09732169 0.50608116
0000b0 11 c6 92 3e 43 4c d2 3e 24 ef 9d 3e 99 c3 27 3f
       0.28666738 0.41073808 0.30846512 0.65532833
0000c0 35 31 f1 3e 24 8b fd 3c 9a eb 28 3e 1b a8 2e 3e
       0.47107854 0.030950136 0.16496125 0.17056315
0000d0 aa 3c 67 3e 17 d9 04 3f b6 33 b5 3e 85 68 35 3e
       0.22581735 0.5189375 0.35391015 0.17715652
0000e0 7c 90 6e 3e 73 2e 7a 3d 30 51 d3 3e 83 e7 a5 3e
       0.23297304 0.061079454 0.4127288 0.32403192
0000f0 3a 57 6c 3e 4d 28 66 3e 6a 8e ec 3e ae 06 d8 3e
       0.2308015 0.22476311 0.46202403 0.42192596

base.1.conv.1.bias f4 [64]
000000 78 bb 89 bb 82 96 7b bb 84 22 8b bb 5d f1 82 3d
       -0.004203256 -0.003838927 -0.004246058 0.06393693
000010 9b 22 2e bc 63 b8 d6 3d 5e 20 74 3c 5b 18 13 3e
       -0.010628368 0.10484388 0.014900295 0.1436476
000020 32 d7 5c 3d 7f ea 2f bd 4d 22 3a bd ba 34 ed 3d
       0.053916164 -0.042948242 -0.045442868 0.115823224
000030 c0 51 05 be 26 50 6b 3b e8 6e 8d bc e7 29 fc bc
       -0.13019466 0.0035905926 -0.017264798 -0.0307817
000040 a7 9c 90 3e d5 f3 d5 3b fe 7d 3c be 36 cb 3c be
       0.28244516 0.006529311 -0.18407437 -0.18436894
000050 67 41 95 bc 25 c7 09 3c 9e c2 55 bc b7 88 4e 3c
       -0.018219663 0.008409296 -0.013046889 0.012605838
000060 7e 43 30 3c 5a 2f 59 3e e2 d6 bd bc 9e d8 02 3e
       0.010758279 0.2120947 -0.023173753 0.12777945
000070 a0 df 6b 3c bc c8 ee 3e 29 c8 98 3c 02 e0 07 3e
       0.014396578 0.46637523 0.018650131 0.13269046
000080 c9 a7 17 bd 0c 63 3f 3c 9a 8f 39 3c a8 48 17 bd
       -0.037025247 0.011681329 0.011325741 -0.036934525
000090 c3 09 04 bd 88 fc 9e bc 0a 7b 37 3d 8b 50 bd be
       -0.032235872 -0.019407526 0.044795074 -0.36975512
0000a0 2e d5 3a 3e fb 6b 04 be db 0a ea 3c df cb b0 3d
       0.18245384 -0.12931816 0.02856963 0.08632635
0000b0 fd 72 56 3d f6 b9 77 3d 3a ff 46 bd fa da 9d 3d
       0.052355755 0.06048008 -0.048583247 0.07707782
0000c0 3d f4 ef 3e fc a4 cb 3e f7 4d 8e 3c c5 d3 68 3c
       0.46866027 0.3977431 0.01737116 0.014210646
0000d0 76 b8 a1 3d b8 bb ee 3e 65 f7 51 3e cb 61 fe 3c
       0.07896511 0.46627593 0.2050453 0.03105249
0000e0 64 90 47 be 7e b3 ab bc 6d da 52 be a7 2d 39 be
       -0.19488674 -0.020959612 -0.20591135 -0.18083821
0000f0 83 9c 39 3b 16 13 21 be 39 9f 6c 3d bf 33 bc 3e
       0.0028322048 -0.15729937 0.057769034 0.3675823

base.1.conv.1.running_mean f4 [64]
000000 92 af 0a 3a 26 63 6b b6 d4 eb 50 bb 7c 19 8c be
       0.0005290444 -3.507544e-06 -0.0031878846 -0.27363193
000010 3a 8b 3a 3d 07 75 8c 3d ea d8 ea b9 39 38 16 3e
       0.045542933 0.06858259 -0.00044793572 0.14669885
000020 ad 16 c3 b6 3c 51 1e be a0 ef 5f bd 39 55 3a 3e
       -5.8140927e-06 -0.15460676 -0.054671884 0.18196572
000030 a0 ab a8 be dc 6d 67 bd a3 cd 78 ba 89 b9 b2 b7
       -0.3294344 -0.056501254 -0.00094910915 -2.130565e-05
000040 86 0f 8c 3e 65 95 61 be 9c 4d 92 be 44 6c 33 bf
       0.27355593 -0.22029646 -0.28574836 -0.70087075
000050 48 7f f0 b6 65 1e ed bc 56 0c b3 3c b6 67 41 ba
       -7.167375e-06 -0.028945157 0.021856468 -0.000737782
000060 a8 a8 1e bd 6e 1a 3d 3e c4 0f 6f be e4 04 35 3e
       -0.038735062 0.18467113 -0.23345858 0.17677647
000070 5f 16 7c bd 69 7b 8a 3f e9 b5 29 39 55 6b 75 3e
       -0.061544772 1.0818912 0.00016184863 0.23966725
000080 36 eb a9 be 45 f3 25 3a 2b 01 7e bc ed f2 99 ba
       -0.33187264 0.00063305005 -0.015503208 -0.0011745371
000090 b3 0f c0 3c e3 8b 82 be da d0 83 bc f7 db 53 bf
       0.023444986 -0.2549735 -0.0160908 -0.82757515
0000a0 cd 6d 13 3e e3 79 93 be c8 09 0c 3e 9b 34 af 3e
       0.14397354 -0.2880393 0.13675606 0.34219822
0000b0 34 f3 95 3d 4c 87 23 3e 08 16 b0 be bf 24 23 3c
       0.07321778 0.1596958 -0.34391809 0.009957491
0000c0 41 f2 4b 3f ff 4b db 3e b2 68 08 3e e3 ff 0d be
       0.79666525 0.42831418 0.13321188 -0.13867144
0000d0 7d 66 3e 3e b1 70 37 3f 81 f6 a5 3e 2e 51 d8 bc
       0.18593784 0.7165633 0.3241463 -0.026405897
0000e0 bf 4b 03 bf 82 0c 0f b8 62 d8 f2 be 57 74 bb be
       -0.51287454 -3.4105506e-05 -0.47430712 -0.36612198
0000f0 62 0b f6 bd 9d f9 55 be d2 dc 1b be b4 ac 25 3f
       -0.1201389 -0.20896001 -0.15220955 0.6471665

base.1.conv.1.running_var f4 [64]
000000 44 af fb 32 2b a8 66 2d 21 3c 07 34 78 62 7c 38
       2.9299947e-08 1.3111327e-11 1.259473e-07 6.0173188e-05
000010 17 b9 04 3c 10 ed 6b 39 f2 18 66 32 39 0b 1f 3c
       0.0081007695 0.00022499659 1.3393434e-08 0.0097072655
000020 4f 18 72 2f 32 59 1f 3a b7 a9 21 3b 79 9e 9e 3e
       2.2018408e-10 0.000607866 0.0024667808 0.3098028
000030 a8 d2 88 3d 31 f8 be 3d 84 6a 70 3c 3d 10 c7 33
       0.066808045 0.093246825 0.014673833 9.269613e-08
000040 99 99 7d 3b b6 aa ec 39 f1 e3 af 3e 5c ef f6 3a
       0.0038696288 0.00045140617 0.34353593 0.0018839645
000050 50 aa 34 2d e0 b4 29 3c f3 3e 37 37 5f f3 a4 34
       1.0269632e-11 0.010358065 1.09223065e-05 3.0724456e-07
000060 b3 2d 41 3f b8 75 1d 3e 6a 29 6c 3d e6 b7 90 3f
       0.75460356 0.15376937 0.057656683 1.1306121
000070 32 83 83 3d 7d 68 f5 41 66 92 8d 33 6a b8 86 40
       0.06421508 30.67602 6.592454e-08 4.2100115
000080 1c f5 4a 3f b2 be d2 33 1a 39 25 3a d5 58 47 37
       0.7928026 9.813574e-08 0.0006302759 1.1882007e-05
000090 c9 a9 27 3d db 1c 5c 36 86 45 19 3e 44 6b 02 3f
       0.040933404 3.279935e-06 0.14967927 0.50944924
0000a0 bc 62 65 3e ab 85 e7 3c c2 6c c9 3c 21 6d c8 3d
       0.22400945 0.02826198 0.024587993 0.0978644
0000b0 d1 8d ec 3d cc 3e 63 3b 14 1c d9 3d 07 56 c6 3f
       0.11550487 0.003467488 0.106010586 1.5495003
0000c0 eb 08 d5 3b 20 ff 11 3d ff e6 2a 3d cd d0 01 38
       0.0065013072 0.035643697 0.0417242 3.0950458e-05
0000d0 a8 64 57 3d 3f 46 8d 3d cf 28 a1 3b 92 89 dd 38
       0.052586228 0.06898164 0.004918195 0.00010563726
0000e0 e6 a5 a1 3a f3 bf a2 2d df 6b 61 3e 2c 47 cc 3c
       0.0012332767 1.850251e-11 0.22013806 0.024936281
0000f0 6d 67 06 3a 95 79 8b 3d 11 b0 02 3f 22 15 13 3c
       0.0005127106 0.06810299 0.51049906 0.008977206

base.1.conv.3.weight f4 [64, 64, 1, 1]
000000 00 00 00 80 00 00 00 80 00 00 00 00 00 00 00 00
       -0.0 -0.0 0.0 0.0
000010 00 00 00 80 00 00 00 00 00 00 00 80 00 00 00 80
       -0.0 0.0 -0.0 -0.0
000020 00 00 00 00 00 00 00 80 00 00 00 00 00 00 00 80
       0.0 -0.0 0.0 -0.0
000030 00 00 00 00 00 00 00 80 00 00 00 00 00 00 00 80
       0.0 -0.0 0.0 -0.0
000040 00 00 00 00 00 00 00 00 00 00 00 80 00 00 00 00
       0.0 0.0 -0.0 0.0
000050 00 00 00 80 00 00 00 00 00 00 00 00 00 00 00 00
       -0.0 0.0 0.0 0.0
000060 00 00 00 80 00 00 00 00 00 00 00 00 00 00 00 00
       -0.0 0.0 0.0 0.0
000070 00 00 00 80 00 00 00 80 00 00 00 00 00 00 00 00
       -0.0 -0.0 0.0 0.0
000080 00 00 00 80 00 00 00 80 00 00 00 80 00 00 00 80
       -0.0 -0.0 -0.0 -0.0
000090 00 00 00 80 00 00 00 00 00 00 00 00 00 00 00 80
       -0.0 0.0 0.0 -0.0
0000a0 00 00 00 00 00 00 00 80 00 00 00 00 00 00 00 80
       0.0 -0.0 0.0 -0.0
0000b0 00 00 00 80 00 00 00 80 00 00 00 00 00 00 00 00
       -0.0 -0.0 0.0 0.0
0000c0 00 00 00 80 00 00 00 00 00 00 00 00 00 00 00 00
       -0.0 0.0 0.0 0.0
0000d0 00 00 00 00 00 00 00 80 00 00 00 00 00 00 00 80
       0.0 -0.0 0.0 -0.0
0000e0 00 00 00 80 00 00 00 00 00 00 00 80 00 00 00 80
       -0.0 0.0 -0.0 -0.0
0000f0 00 00 00 00 00 00 00 80 00 00 00 00 00 00 00 00
       0.0 -0.0 0.0 0.0
000100 00 00 00 80 00 00 00 80 00 00 00 00 00 00 00 80
       -0.0 -0.0 0.0 -0.0
000110 00 00 00 00 00 00 00 00 00 00 00 00 00 00 00 00
       0.0 0.0 0.0 0.0
000120 00 00 00 00 00 00 00 00 00 00 00 80 00 00 00 00
       0.0 0.0 -0.0 0.0
000130 00 00 00 80 00 00 00 00 00 00 00 80 00 00 00 80
       -0.0 0.0 -0.0 -0.0
000140 00 00 00 80 00 00 00 80 00 00 00 00 00 00 00 80
       -0.0 -0.0 0.0 -0.0
000150 00 00 00 00 00 00 00 80 00 00 00 80 00 00 00 00
       0.0 -0.0 -0.0 0.0
000160 00 00 00 00 00 00 00 80 00 00 00 80 00 00 00 00
       0.0 -0.0 -0.0 0.0
000170 00 00 00 00 00 00 00 00 00 00 00 00 00 00 00 00
       0.0 0.0 0.0 0.0
000180 00 00 00 00 00 00 00 80 00 00 00 80 00 00 00 80
       0.0 -0.0 -0.0 -0.0
000190 00 00 00 00 00 00 00 00 00 00 00 80 00 00 00 00
       0.0 0.0 -0.0 0.0
0001a0 00 00 00 80 00 00 00 00 00 00 00 00 00 00 00 00
       -0.0 0.0 0.0 0.0
0001b0 00 00 00 00 00 00 00 80 00 00 00 80 00 00 00 00
       0.0 -0.0 -0.0 0.0
0001c0 00 00 00 80 00 00 00 00 00 00 00 00 00 00 00 80
       -0.0 0.0 0.0 -0.0
0001d0 00 00 00 80 00 00 00 80 00 00 00 80 00 00 00 00
       -0.0 -0.0 -0.0 0.0
0001e0 00 00 00 00 00 00 00 80 00 00 00 00 00 00 00 00
       0.0 -0.0 0.0 0.0
0001f0 00 00 00 80 00 00 00 00 00 00 00 80 00 00 00 00
       -0.0 0.0 -0.0 0.0
000200 21 e8 94 3b 95 d2 0a bc 2a 08 f4 3c 54 40 60 3d
       0.0045442735 -0.008473058 0.02978905 0.054748848
000210 65 9b a7 3c 71 6f 51 bc 5e d3 81 bc 3c 8e 6c bd
       0.02045984 -0.012782917 -0.015847858 -0.057752833
000220 d0 4c 0d bd 93 5b 2f bc 44 7a de bc f7 8b 9f bd
       -0.034497082 -0.010702985 -0.02715791 -0.07790368
000230 10 b3 6a 3c dc 49 55 bd b4 f5 34 bd 5a 07 4f 3c
       0.014324918 -0.05207239 -0.044179633 0.01263603
000240 d9 0e 81 bc ba d5 dc ba 49 7b 43 bd b4 57 e5 bc
       -0.01575415 -0.0016848363 -0.047724996 -0.027995922
000250 70 ae 96 b9 7e 64 a9 bd 9f a3 fa 3b 83 be 76 bc
       -0.00028740196 -0.082711205 0.0076488997 -0.01506007
000260 bf 69 47 bd 72 92 68 bd 3d e4 8d bd 76 0c 1e be
       -0.04868483 -0.056780286 -0.069282986 -0.15434441
000270 6b 31 dc 3b a2 22 af 3d 37 42 2c bd 89 7e 40 bd
       0.0067197583 0.085515276 -0.042055335 -0.046995673
000280 82 d9 c0 bd 9e 00 92 bc 72 d2 19 bd ad 48 a7 bc
       -0.09416486 -0.01782256 -0.037554212 -0.020420397
000290 e0 68 bf bc 24 92 4e 3b a6 71 81 bd 66 b7 75 3d
       -0.023365438 0.0031520212 -0.06320505 0.059989356
0002a0 ab 68 49 be 3d 2e 74 bd d4 58 f0 3c 5f 1b 96 bd
       -0.19668834 -0.05961441 0.029339232 -0.07329439
0002b0 94 f0 82 bd ed 99 b5 3d c6 ca 76 3c 8d a3 6d bd
       -0.06393543 0.0886725 0.015062993 -0.058017302
0002c0 3a 2a fb bc 7a 09 03 be 4c 4b 09 bd 5c e4 89 3d
       -0.030659784 -0.12796584 -0.033519074 0.06733009
0002d0 6e 54 5b bd 07 2d 16 bd db 35 88 bd 2c 18 16 3c
       -0.053547315 -0.036664035 -0.06650897 0.009161036
0002e0 5d 40 4e 3b 55 56 31 3b ce 0d 01 3d 39 9b 19 bb
       0.003147147 0.0027059515 0.031507306 -0.0023438467
0002f0 d0 4d 77 bc 02 4d 1d bc 61 54 94 bd 5a d7 75 bd
       -0.015094236 -0.00960088 -0.072426565 -0.06001983
000300 0e 9a b3 bc f2 68 bb bb 93 79 4b 3a bc 97 d3 bc
       -0.021924045 -0.0057192976 0.00077619514 -0.025829189
000310 b9 2a e3 bd d9 a9 26 3b 25 d0 25 bc 92 f6 eb bd
       -0.11092133 0.0025430827 -0.010120426 -0.11521639
000320 b8 b5 b2 3d ce 45 17 bd e5 46 57 bd 1e cb d2 bc
       0.08726066 -0.036931805 -0.052557845 -0.02573162
000330 4b f4 4d bd 3d dd c7 bd ed e6 8c bc 29 eb e0 3b
       -0.050281804 -0.09758995 -0.017199958 0.006863971
000340 f6 17 a2 bd 85 79 8d 3d 81 3c 6a be e4 c2 41 be
       -0.079147264 0.06907944 -0.22874643 -0.18922001
000350 26 e9 fa 3c 9c 26 03 be f5 47 b3 3c fd 03 c2 bb
       0.030628752 -0.12807697 0.021884898 -0.0059208856
000360 80 8a 1f 3d 26 3e 10 be 56 0f 08 bd c1 ec 4a be
       0.038950443 -0.14086208 -0.03321775 -0.19816877
000370 31 5b a2 bd 13 70 03 be 60 64 1f bb a2 4f 57 be
       -0.0792755 -0.12835722 -0.0024321303 -0.21026471
000380 9a 3e 6e be 7c e9 44 bc ba 56 9a bd bd 41 0e 3c
       -0.23266068 -0.012018558 -0.07536073 0.008682665
000390 73 2b bd bd 59 63 35 bd 3c d2 2b be 2a d0 c3 be
       -0.09236803 -0.0442842 -0.16779417 -0.38244754
0003a0 3d b6 a1 bd 96 9b e5 bd 58 b6 1b be 15 12 ad be
       -0.07896087 -0.11211316 -0.15206277 -0.33802858
0003b0 35 ea eb bc f0 f9 97 bd 61 5b 6b bd 89 92 ca bd
       -0.028798202 -0.07420719 -0.057460193 -0.098912306
0003c0 69 41 75 3e 23 34 60 3e c8 95 09 bd a1 c4 bc bc
       0.23950733 0.21894889 -0.03359011 -0.023042979
0003d0 56 b4 cc bd fe 6b 24 be 95 4c d5 bc bf 8b 0c bc
       -0.09995334 -0.16056821 -0.026037494 -0.00857824
0003e0 01 d7 3f be a9 c5 26 bd 6d 2b 37 be b5 49 2b be
       -0.18734361 -0.040715847 -0.1788766 -0.16727336
0003f0 27 c7 b5 bc 01 8b 06 be 2b 16 b5 bd 24 fb 0d be
       -0.02218969 -0.13138963 -0.08842119 -0.13865334

base.1.conv.4.weight f4 [64]
000000 5e 1b 1f b8 f4 8b c4 39 58 a0 71 3e c8 e1 67 3f
       -3.793404e-05 0.00037488306 0.23596323 0.9057889
000010 6b c1 c0 3e 06 03 f8 3e 83 de f7 36 bb 21 5e 3f
       0.37647566 0.48439807 7.3870774e-06 0.8677022
000020 cd 8a a4 3e f4 60 01 3f 33 05 a9 3e cb 62 09 3f
       0.32137147 0.50538564 0.3301178 0.5366637
000030 60 fc 16 3f 88 6f 38 3f 07 2f ad 3e 5e 3d df 3e
       0.58978844 0.72045183 0.33824942 0.43601507
000040 bc c0 0b 3f a2 43 92 3e 53 25 1e 3f 76 21 ca 3e
       0.54590964 0.28567225 0.617757 0.39478654
000050 2d 79 f6 ba e5 d4 63 3e 92 66 c9 3e 44 19 96 3e
       -0.0018804424 0.22249182 0.39336067 0.2931615
000060 63 b8 8d 3e c0 bc e5 3e cc 61 fd 3d 5a 3d ab 3e
       0.27679738 0.44870567 0.12372169 0.33445245
000070 f6 46 b6 3e e9 0b b4 3e fc ad 4a 3e b9 e7 13 3f
       0.35601014 0.35165337 0.19792932 0.57775456
000080 d3 73 e0 3e 6b 48 b5 3e 27 98 99 3e f1 4e f9 3c
       0.43838367 0.35406813 0.29998896 0.03043315
000090 75 f3 e7 3d cc 0a 50 3e f0 55 b2 3e 3d 08 fb 3e
       0.113257326 0.20316619 0.3483119 0.49029723
0000a0 3e 6a 5f 3f c1 6a f3 3e e6 d5 77 3e 24 db d4 3e
       0.8727149 0.47542384 0.2420269 0.4157344
0000b0 19 c1 4f b9 40 63 15 3f b3 2d 83 3e 87 a4 8c 3b
       -0.00019812993 0.5835457 0.25620803 0.004292074
0000c0 8a f9 86 3e 06 ee e4 3e 41 af b7 3e 58 51 81 3e
       0.26362258 0.44712847 0.35875896 0.25257373
0000d0 f9 e4 49 b7 e8 a3 97 3e 9c 68 ef 3e 2a b9 ac 3e
       -1.2033845e-05 0.29617238 0.46759498 0.3373502
0000e0 98 5e 9d 3e c4 e9 16 31 71 03 cb 2f ef 34 cd 3e
       0.30736232 2.1960753e-09 3.692793e-10 0.40079448
0000f0 fe 53 f4 b5 68 09 6d b9 64 b9 cf 3e b8 08 1b 3f
       -1.8203862e-06 -0.00022605585 0.4057113 0.6056018

base.1.conv.4.bias f4 [64]
000000 b7 10 e7 3d 7c 7a b4 3a d0 6b 36 be af 30 b7 3e
       0.11282485 0.0013769413 -0.17814565 0.3577933
000010 09 39 d3 bd eb 31 a6 bd 4c b8 b4 bd b5 24 89 3d
       -0.10313613 -0.0811499 -0.08824214 0.066964544
000020 c5 24 0f bd 1f d4 2a be dd 25 a6 3c b6 d7 15 bd
       -0.034947176 -0.1668248 0.020281726 -0.03658267
000030 28 5a 78 3d aa b7 c9 3c 25 50 8d 3d 3e b4 99 bb
       0.060632855 0.02462371 0.06900052 -0.004690676
000040 78 e4 29 3d 2f d7 6d bd cb 0b 1d bd f4 5a 9f ba
       0.04147765 -0.058066543 -0.038341325 -0.0012157843
000050 1c 44 1b 3d ef 6b 84 3d d4 09 9e 3d 79 76 4e 3e
       0.03790675 0.06465899 0.07716718 0.20162381
000060 b6 28 65 bd 6b 15 08 3d 2c 97 31 bc 42 43 b9 bd
       -0.055947028 0.03322355 -0.010839265 -0.090460315
000070 cb 8d cb 3d 18 5b 6f 3d 74 33 02 bd 60 78 b9 3d
       0.09939154 0.058436483 -0.03178735 0.09056163
000080 ac 6b 70 3d 73 95 b1 bd 53 ec 0c 3d b2 18 b6 3c
       0.058696434 -0.08671083 0.034405064 0.022228573
000090 f2 0d d3 bd a2 c6 09 bd 82 59 7b 3d 98 c6 c4 bc
       -0.10305394 -0.033636697 0.06136466 -0.024020478
0000a0 dc 5a 8c 3d 1d aa 6a be a0 b1 37 3d 1e d2 f2 bc
       0.068532676 -0.22916456 0.04484713 -0.029641207
0000b0 4c bf 2c 3d 52 43 8a bd 44 f9 ab 3d 7d a9 87 3d
       0.042174622 -0.067511216 0.08397153 0.06624124
0000c0 68 f9 d8 bd 0b 6f c9 3d a1 4c 22 be 33 aa 2c be
       -0.105944455 0.09835633 -0.15849544 -0.16861801
0000d0 8c 49 cf bd 61 d9 46 3d 4a 3b a4 bd 57 53 04 3d
       -0.1012145 0.048547152 -0.08019121 0.03230604
0000e0 51 ed 25 be e5 4d 05 3d 69 79 df bd 7e 8d b2 3c
       -0.1620381 0.03254499 -0.10911829 0.021795984
0000f0 f4 ef e9 bc f3 ae ec bc 2c 12 16 bd 7a fb 0a be
       -0.028556801 -0.028892016 -0.036638424 -0.13572493

base.1.conv.4.running_mean f4 [64]
000000 38 e7 2b ba a0 66 2d b7 37 d2 84 be 7b ec 27 be
       -0.00065575866 -1.0335498e-05 -0.2594163 -0.16398804
000010 ba 64 0b be 80 ab 8a bd f4 6e 99 b5 af 22 e6 bd
       -0.13612643 -0.06770992 -1.143168e-06 -0.11237084
000020 66 65 31 3e ba 76 a3 bb 88 c6 ba 3d c0 b1 92 3e
       0.17323837 -0.0049885185 0.09119898 0.28651237
000030 e9 cd 83 3e e1 37 45 be 53 0c 2f be 09 59 bb 3e
       0.25743034 -0.19259597 -0.17094545 0.36591366
000040 92 23 b9 be b4 fc 6e 3e 95 35 99 3d 39 9f a4 bd
       -0.3615995 0.23338586 0.07480923 -0.08038182
000050 79 d3 25 3b c2 e0 d3 3d f9 77 9c bd 47 79 8e 3d
       0.002530305 0.103456035 -0.076400705 0.069567256
000060 1c 5e d0 3d 8e 20 5f bd 15 fb 82 3d 39 62 b9 3c
       0.101742 -0.054474406 0.06395546 0.022629844
000070 f0 11 4d 3d dd cb ca 3d 50 36 fa bd f8 70 08 3e
       0.050065935 0.09902165 -0.122173905 0.13324344
000080 ed d9 9d 3d 88 8c 8f bb f3 da 37 3e 83 1d 1e bb
       0.07707582 -0.0043807663 0.17954616 -0.0024126477
000090 09 0b 13 be eb e5 a4 3d 7a 51 07 3e cc 3f 63 be
       -0.14359678 0.08051666 0.13214675 -0.22192305
0000a0 69 43 8b be ff 16 7c be 37 e3 e5 bd 6c 74 65 be
       -0.27199867 -0.24618147 -0.112249784 -0.22407693
0000b0 f7 27 21 39 28 73 86 3e 3f 17 65 bd f4 84 13 bb
       0.00015369045 0.26259732 -0.055930372 -0.0022509666
0000c0 14 93 57 3e f9 f7 bc 3d b5 29 4e bd a7 fe 7f be
       0.210522 0.092269845 -0.050332744 -0.24999486
0000d0 1f e6 75 b7 c6 29 11 3e d9 c2 2b be 6a 50 23 be
       -1.4656717e-05 0.14176092 -0.16773547 -0.15948644
0000e0 f5 28 7c be b7 89 87 32 33 11 58 af 0f 10 ee 3d
       -0.24624999 1.5778694e-08 -1.9651196e-10 0.11624157
0000f0 d2 3f 37 b7 fc dc 0b 38 16 2a 48 3e 1c c4 49 be
       -1.0922509e-05 3.334599e-05 0.19547305 -0.19703716

base.1.conv.4.running_var f4 [64]
000000 66 c0 be 35 18 6b 60 34 6a 5a e3 3c f4 7b c0 3d
       1.4212098e-06 2.0900586e-07 0.027753074 0.09398642
000010 f8 97 10 3d 3d 6e 91 3d 80 f3 a9 2d 8d e7 09 3f
       0.03530118 0.071011044 1.9321211e-11 0.53868943
000020 55 51 3c 3c 9f 4f 63 3e a2 43 6b 3d 6a 83 4f 3e
       0.011494 0.22198342 0.057437547 0.20264974
000030 c3 8f 11 3d 97 b3 04 3f fb 82 b7 3c 2a 0a 90 3c
       0.035537492 0.5183653 0.022401324 0.017582972
000040 bb aa b0 3d 55 01 15 3d 1d 3b 6e 3d 42 89 47 3e
       0.08626314 0.036378223 0.058161844 0.19485953
000050 10 3d 3a 38 b0 0f 34 3c c7 f8 a2 3d 91 2d a0 3b
       4.4402725e-05 0.010990068 0.07957607 0.0048882444
000060 82 1e 51 3c b8 d2 5e 3e 37 a4 b0 3b b2 23 d4 3c
       0.012763621 0.2176007 0.0053906697 0.025895927
000070 73 51 ad 3c 3e 92 f5 3c 6c c2 d4 3c 12 64 01 3f
       0.021157002 0.02997696 0.025971614 0.5054332
000080 8a 79 bc 3d e0 bf e6 3c 85 12 4e 3c 7c 58 aa 3a
       0.09202869 0.028167665 0.012577658 0.0012996341
000090 23 01 5e 3c dd ca b3 3c 59 73 70 3d 93 87 85 3d
       0.013550076 0.021947319 0.058703754 0.06519999
0000a0 93 53 26 3f 08 92 db 3d eb 23 2a 3d 90 9f 9b 3c
       0.64971274 0.107212126 0.04153816 0.018996984
0000b0 48 23 bd 34 d6 d0 99 3e 6c 97 02 3d b6 91 9b 39
       3.5229664e-07 0.30042142 0.03188269 0.00029672467
0000c0 fc da 66 3c a0 88 95 3d 6d 8c bd 3d 45 22 76 3c
       0.014090296 0.0730145 0.092553 0.015022819
0000d0 44 1f 3c 30 b8 70 aa 3d ba 51 84 3e e2 a8 a2 3d
       6.843843e-10 0.08322281 0.25843602 0.07942368
0000e0 5b e6 ef 3c b3 b9 b9 28 b8 7a 62 27 61 8a ab 3e
       0.029284647 2.061966e-14 3.1430326e-15 0.33504012
0000f0 a1 f8 8b 2f c7 5a 81 34 51 07 29 3e c8 77 b3 3e
       2.5460614e-10 2.4094172e-07 0.16506697 0.35052323

base.2.conv.0.weight f4 [128, 64, 1, 1]
000000 2d aa 8e bd 3d 91 5f be c5 99 58 be 62 eb 2e 3d
       -0.06966052 -0.21832748 -0.21152408 0.042704947
000010 65 05 58 3d ce 8e 10 bb bd 1e 48 bd 53 7c 12 3e
       0.05273952 -0.0022057774 -0.04885744 0.14305238
000020 35 33 77 3d 4e b0 5c bc c1 05 a9 bd 15 c5 4f bd
       0.06035157 -0.013469769 -0.082530506 -0.05072506
000030 ba 0b dc bd eb a1 b6 bc a3 dc c6 3d 58 4f 0b bd
       -0.10744424 -0.022294005 0.09710052 -0.034011215
000040 9a 9c 0c bc 0d 1a 49 be 71 37 7a 3d da 85 00 3e
       -0.008582259 -0.19638844 0.06108803 0.1255106
000050 b4 05 72 bd 5e 5a 97 bc 9c ee d7 3d 79 a0 09 3d
       -0.05908747 -0.018475708 0.10543558 0.033600304
000060 69 e7 fd bd 3f b7 cd 3b e7 2f 8c bd 24 0e 09 be
       -0.123976536 0.006277948 -0.06845074 -0.133843
000070 f0 08 c8 bd b8 3c 67 bc 7d 56 63 3d bb 8c bd 3c
       -0.0976733 -0.014113598 0.055502404 0.023138395
000080 db 5e e3 3d e0 3b 29 3d 74 cb 77 bd b3 20 f3 bd
       0.111020766 0.041316867 -0.060496762 -0.11871471
000090 17 f3 11 bd 0c d9 8b bd 9f 78 df bd 57 3a f7 3d
       -0.03563222 -0.06828508 -0.109116785 0.12071674
0000a0 88 52 bb bd 64 ad 47 bd a2 55 b7 bc bb 00 15 3d
       -0.09146601 -0.048749343 -0.0223797 0.03637765
0000b0 81 f6 74 3c 15 64 06 be 90 57 96 bd 15 68 1e 3d
       0.014951349 -0.13124116 -0.0734092 0.03867348
0000c0 cc 3b 92 bb 1e 7a 7d bd 6d aa b0 bd 71 c9 9b bd
       -0.0044626947 -0.06188404 -0.08626256 -0.07606781
0000d0 7f 88 d2 3d 60 d0 06 be c9 de df 3b b8 0d 83 3e
       0.10279941 -0.13165426 0.006831978 0.25596404
0000e0 1c 16 c0 bd ec fa 75 bd 46 2a b0 bd c3 2a 85 3d
       -0.09379217 -0.06005375 -0.08601813 0.06502297
0000f0 f4 16 29 3d b1 d1 76 bd 75 d3 42 3d 47 b5 0b 3d
       0.041281655 -0.06025857 0.047564942 0.034108426
000100 00 00 00 80 00 00 00 80 00 00 00 80 00 00 00 00
       -0.0 -0.0 -0.0 0.0
000110 00 00 00 00 00 00 00 00 00 00 00 80 00 00 00 00
       0.0 0.0 -0.0 0.0
000120 00 00 00 80 00 00 00 80 00 00 00 80 00 00 00 00
       -0.0 -0.0 -0.0 0.0
000130 00 00 00 80 00 00 00 00 00 00 00 80 00 00 00 00
       -0.0 0.0 -0.0 0.0
000140 00 00 00 80 00 00 00 80 00 00 00 00 00 00 00 00
       -0.0 -0.0 0.0 0.0
000150 00 00 00 80 00 00 00 00 00 00 00 00 00 00 00 00
       -0.0 0.0 0.0 0.0
000160 00 00 00 80 00 00 00 00 00 00 00 80 00 00 00 00
       -0.0 0.0 -0.0 0.0
000170 00 00 00 80 00 00 00 80 00 00 00 80 00 00 00 00
       -0.0 -0.0 -0.0 0.0
000180 00 00 00 80 00 00 00 00 00 00 00 80 00 00 00 80
       -0.0 0.0 -0.0 -0.0
000190 00 00 00 80 00 00 00 80 00 00 00 80 00 00 00 00
       -0.0 -0.0 -0.0 0.0
0001a0 00 00 00 80 00 00 00 80 00 00 00 80 00 00 00 00
       -0.0 -0.0 -0.0 0.0
0001b0 00 00 00 80 00 00 00 80 00 00 00 00 00 00 00 00
       -0.0 -0.0 0.0 0.0
0001c0 00 00 00 80 00 00 00 00 00 00 00 00 00 00 00 80
       -0.0 0.0 0.0 -0.0
0001d0 00 00 00 00 00 00 00 00 00 00 00 00 00 00 00 00
       0.0 0.0 0.0 0.0
0001e0 00 00 00 00 00 00 00 80 00 00 00 00 00 00 00 80
       0.0 -0.0 0.0 -0.0
0001f0 00 00 00 00 00 00 00 80 00 00 00 00 00 00 00 00
       0.0 -0.0 0.0 0.0
000200 9a 2e 2c 3d 81 ba f9 bd b0 0e 93 bc bc 1f 1e bc
       0.04203663 -0.12193776 -0.01795134 -0.009651121
000210 97 cf 62 3e aa f7 1c be 4f 17 43 bc 01 dd 49 bd
       0.22149502 -0.15328851 -0.011907413 -0.04928303
000220 e6 18 5a bc e6 5c 4c 3e 83 7d 43 3e f3 0f 83 3d
       -0.0133116 0.19957313 0.19090848 0.063995264
000230 82 de 1b 3d 56 38 be 3a 0c db e7 bd a4 d2 00 3d
       0.038053997 0.0014512639 -0.11321077 0.031450883
000240 bf 5a 06 be 6e bc 1c 3e da ed 04 3a 8c 18 59 bd
       -0.13120554 0.15306255 0.0005070843 -0.053001925
000250 70 8a a7 be 9b bf 8c bd d5 dd ba 3d 23 a0 f3 3d
       -0.32722807 -0.06872483 0.09124342 0.11895778
000260 61 d5 7f be 83 6d 1a 3e 1b f9 56 bd ed 1d be bd
       -0.24983741 0.15080838 -0.05248366 -0.09283052
000270 01 5c 8d bd eb de 6d bd 50 5a 13 be ef 63 96 3d
       -0.06902314 -0.05807392 -0.1438992 0.073432796
000280 44 41 99 3d e1 16 3c 3e 68 68 0d bd 9c e8 3a bd
       0.074831516 0.18368103 -0.034523398 -0.04563199
000290 fa d6 ef bd 6f 66 7a 3e 41 f8 31 be 46 39 5e be
       -0.117109254 0.24453138 -0.17379858 -0.21701536
0002a0 02 96 25 bd 9e c9 6b 3c f6 08 7b 3d cd 3b d1 bc
       -0.04042626 0.014391331 0.061287843 -0.02554121
0002b0 10 a1 55 bc 34 bf 01 3e a1 1c a1 bc 48 ad 83 3d
       -0.013038889 0.12670594 -0.019666972 0.06429535
0002c0 91 af 22 be cb 55 87 3d 5c fd d3 bd 0d 70 e3 3c
       -0.15887286 0.066081606 -0.10351059 0.02776339
0002d0 48 85 6c bd e4 28 f7 3d fb ee 2e 3e e4 d3 46 bd
       -0.057744294 0.12068346 0.17083351 -0.04854192
0002e0 cc 7d 74 be ae 9a 21 bd 5a e7 13 bd 19 2a ad bd
       -0.23876113 -0.039454155 -0.036109306 -0.08455295
0002f0 3d d0 28 3e 22 fc 15 bd 3e fb 72 3d 3d a8 e6 bd
       0.16485687 -0.036617406 0.059321634 -0.11262558
000300 00 00 00 80 00 00 00 80 00 00 00 80 00 00 00 00
       -0.0 -0.0 -0.0 0.0
000310 00 00 00 80 00 00 00 80 00 00 00 00 00 00 00 00
       -0.0 -0.0 0.0 0.0
000320 00 00 00 80 00 00 00 00 00 00 00 00 00 00 00 80
       -0.0 0.0 0.0 -0.0
000330 00 00 00 80 00 00 00 80 00 00 00 80 00 00 00 80
       -0.0 -0.0 -0.0 -0.0
000340 00 00 00 00 00 00 00 00 00 00 00 00 00 00 00 00
       0.0 0.0 0.0 0.0
000350 00 00 00 80 00 00 00 80 00 00 00 00 00 00 00 00
       -0.0 -0.0 0.0 0.0
000360 00 00 00 80 00 00 00 00 00 00 00 00 00 00 00 80
       -0.0 0.0 0.0 -0.0
000370 00 00 00 00 00 00 00 00 00 00 00 80 00 00 00 80
       0.0 0.0 -0.0 -0.0
000380 00 00 00 00 00 00 00 80 00 00 00 80 00 00 00 00
       0.0 -0.0 -0.0 0.0
000390 00 00 00 80 00 00 00 00 00 00 00 80 00 00 00 00
       -0.0 0.0 -0.0 0.0
0003a0 00 00 00 80 00 00 00 00 00 00 00 00 00 00 00 80
       -0.0 0.0 0.0 -0.0
0003b0 00 00 00 00 00 00 00 80 00 00 00 80 00 00 00 00
       0.0 -0.0 -0.0 0.0
0003c0 00 00 00 00 00 00 00 00 00 00 00 80 00 00 00 00
       0.0 0.0 -0.0 0.0
0003d0 00 00 00 00 00 00 00 80 00 00 00 80 00 00 00 00
       0.0 -0.0 -0.0 0.0
0003e0 00 00 00 00 00 00 00 00 00 00 00 80 00 00 00 00
       0.0 0.0 -0.0 0.0
0003f0 00 00 00 80 00 00 00 00 00 00 00 80 00 00 00 00
       -0.0 0.0 -0.0 0.0
