Pruned Models/ERESFD/L1/ERES30_L1.pth (torch, 542876 bytes, 400 tensors)

base.conv1.0.weight f4 [8, 3, 5, 5]
0.0 0.0 0.0 0.0 0.0 0.0 0.0 0.0
0.0 0.0 0.0 0.0 0.0 0.0 0.0 0.0
0.0 0.0 0.0 0.0 0.0 0.0 0.0 0.0
0.0 0.0 0.0 0.0 0.0 0.0 0.0 0.0
0.0 0.0 0.0 0.0 0.0 0.0 0.0 0.0
-0.0 0.0 0.0 0.0 0.0 -0.0 -0.0 0.0
0.0 0.0 -0.0 -0.0 0.0 0.0 -0.0 -0.0
-0.0 -0.0 -0.0 -0.0 -0.0 -0.0 -0.0 -0.0
-0.0 -0.0 -0.0 -0.0 -0.0 -0.0 -0.0 -0.0
-0.0 -0.0 -0.0 0.0 0.0 -0.0 0.0 0.0
0.0 0.0 -0.0 0.0 0.0 0.0 0.0 -0.0
-0.0 0.0 0.0 0.0 0.0 0.0 0.0 0.0
0.0 0.0 0.0 0.0 0.0 0.0 0.0 0.0
0.0 0.0 0.0 0.0 0.0 0.0 0.0 0.0
0.0 0.0 0.0 0.0 0.0 0.0 0.0 0.0
0.0 0.0 0.0 0.0 0.0 0.0 0.0 0.0
0.0 0.0 0.0 0.0 0.0 0.0 0.0 0.0
0.0 0.0 0.0 0.0 0.0 0.0 0.0 0.0
0.0 0.0 0.0 0.0 0.0 0.0 -0.106365725 -0.22482076
-0.225811 -0.16456859 -0.026163626 -0.22166453 -0.3774083 -0.38145962 -0.29943925 -0.07219091
-0.18159673 -0.37708864 -0.40295026 -0.35397702 -0.20155002 -0.047060423 -0.28961584 -0.3639814
-0.3374153 -0.25155577 -0.023786044 -0.2094891 -0.31254852 -0.3024634 -0.16172113 0.1344015
0.19855691 0.20360541 0.14756632 0.059398975 0.13417183 0.21747337 0.26526612 0.2583787
0.27047235 0.18564413 0.27278024 0.356345 0.36354098 0.338031 0.20674463 0.2637707
0.33906576 0.38377675 0.34893152 0.033677235 0.16170797 0.23218891 0.30344936 0.36781645
0.056855302 0.07910521 0.012724445 -0.13182212 -0.30144855 0.03996225 0.091763735 0.07527374
-0.01020988 -0.081519395 0.06318659 0.13177723 0.15000592 0.09380449 -0.006504755 0.010939715
0.062346824 0.08472352 0.0680138 -0.02049792 -0.2251188 -0.09737984 -0.08068397 -0.0485529
-0.022718165 -0.22875546 -0.11255188 0.07047506 0.11467819 0.14671454 -0.2488102 0.03094531
0.19936386 0.096460156 -0.0822805 -0.28850874 0.011693146 0.12866879 -0.024682807 -0.3270042
-0.25000924 0.04895628 0.112107605 -0.059095718 -0.403407 -0.17881842 0.17861158 0.28017035
0.121106274 -0.17151797 -0.034451686 0.09526458 0.18874563 0.16660525 0.08615574 -0.009651725
00000000: 0000 0000 0000 0000 0000 0000 0000 0000
00000010: 0000 0000 0000 0000 0000 0000 0000 0000
00000020: 0000 0000 0000 0000 0000 0000 0000 0000
00000030: 0000 0000 0000 0000 0000 0000 0000 0000
00000040: 0000 0000 0000 0000 0000 0000 0000 0000
00000050: 0000 0000 0000 0000 0000 0000 0000 0000
00000060: 0000 0000 0000 0000 0000 0000 0000 0000
00000070: 0000 0000 0000 0000 0000 0000 0000 0000
00000080: 0000 0000 0000 0000 0000 0000 0000 0000
00000090: 0000 0000 0000 0000 0000 0000 0000 0000
000000a0: 0000 0080 0000 0000 0000 0000 0000 0000
000000b0: 0000 0000 0000 0080 0000 0080 0000 0000
000000c0: 0000 0000 0000 0000 0000 0080 0000 0080
000000d0: 0000 0000 0000 0000 0000 0080 0000 0080
000000e0: 0000 0080 0000 0080 0000 0080 0000 0080
000000f0: 0000 0080 0000 0080 0000 0080 0000 0080
00000100: 0000 0080 0000 0080 0000 0080 0000 0080
00000110: 0000 0080 0000 0080 0000 0080 0000 0080
00000120: 0000 0080 0000 0080 0000 0080 0000 0000
00000130: 0000 0000 0000 0080 0000 0000 0000 0000
00000140: 0000 0000 0000 0000 0000 0080 0000 0000
00000150: 0000 0000 0000 0000 0000 0000 0000 0080
00000160: 0000 0080 0000 0000 0000 0000 0000 0000
00000170: 0000 0000 0000 0000 0000 0000 0000 0000
00000180: 0000 0000 0000 0000 0000 0000 0000 0000
00000190: 0000 0000 0000 0000 0000 0000 0000 0000
000001a0: 0000 0000 0000 0000 0000 0000 0000 0000
000001b0: 0000 0000 0000 0000 0000 0000 0000 0000
000001c0: 0000 0000 0000 0000 0000 0000 0000 0000
000001d0: 0000 0000 0000 0000 0000 0000 0000 0000
000001e0: 0000 0000 0000 0000 0000 0000 0000 0000
000001f0: 0000 0000 0000 0000 0000 0000 0000 0000
00000200: 0000 0000 0000 0000 0000 0000 0000 0000
00000210: 0000 0000 0000 0000 0000 0000 0000 0000
00000220: 0000 0000 0000 0000 0000 0000 0000 0000
00000230: 0000 0000 0000 0000 0000 0000 0000 0000
00000240: 0000 0000 0000 0000 0000 0000 0000 0000
00000250: 0000 0000 0000 0000 46d6 d9bd 6a37 66be
00000260: 003b 67be ab84 28be 1a55 d6bc 07fc 62be
00000270: a93b c1be ad4e c3be 1a50 99be d4d8 93bd
00000280: 7ef4 39be c311 c1be 7f4f cebe 7a3c b5be
00000290: 2163 4ebe 6ec2 40bd 8748 94be c55b babe
000002a0: b3c1 acbe ebcb 80be f3da c2bc 5084 56be
000002b0: 5c06 a0be 7cdc 9abe 399a 25be 8ca0 093e
000002c0: 8152 4b3e f07d 503e a01b 173e 574c 733d
000002d0: 5764 093e 57b1 5e3e f6d0 873e 374a 843e
000002e0: 5a7b 8a3e 7f19 3e3e daa9 8b3e da72 b63e
000002f0: 0b22 ba3e 6612 ad3e ddb4 533e f40c 873e
00000300: 079a ad3e 637e c43e 27a7 b23e 24f1 093d
00000310: c696 253e eec2 6d3e b75d 9b3e 7052 bc3e
00000320: 1be1 683d ea01 a23d 317a 503c 61fc 06be
00000330: 7757 9abe 75af 233d a0ee bb3d 1e29 9a3d
00000340: 5747 27bc a4f3 a6bd f967 813d 9cf0 063e
00000350: 279b 193e 921c c03d d725 d5bb 7e3c 333c
00000360: 625f 7f3d 8683 ad3d d24a 8b3d 41eb a7bc
00000370: 8b85 66be 156f c7bd a33d a5bd 68df 46bd
00000380: 721b babc df3e 6abe 9a81 e6bd 3a55 903d
00000390: 66dc ea3d 563c 163e 1ac8 7ebe 0581 fd3c
000003a0: 0a26 4c3e e78c c53d ae82 a8bd 6bb7 93be
000003b0: 9c94 3f3c c0c1 033e 9933 cabc 186d a7be
000003c0: 3601 80be 6186 483d ac98 e53d 5a0e 72bd
000003d0: 5d8b cebe 2d1c 37be f4e5 363e 7d72 8f3e
000003e0: 9106 f83d 68a2 2fbe 361d 0dbd 131a c33d
000003f0: 8946 413e 919a 2a3e 6c72 b03d 4522 1ebc

base.conv1.1.weight f4 [8]
-5.611682e-15 7.5066e-41 0.84619397 0.21343927 0.1417963 0.30580375 0.38837838 0.344236
00000000: a12e caa7 41d1 0000 2ba0 583f d38f 5a3e
00000010: 0d33 113e 4f92 9c3e 88d9 c63e b33f b03e

base.conv1.1.bias f4 [8]
-0.2503366 -0.3444731 -0.09291724 -0.6045411 -0.12667732 -0.14165893 -0.06324772 -0.04734637
00000000: 1e2c 80be c75e b0be 654b bebd 35c3 1abf
00000010: b3b7 01be 0a0f 11be 0588 81bd 44ee 41bd

base.conv1.1.running_mean f4 [8]
-6e-45 -6e-45 17.01223 5.9178724 0.56008184 -12.079119 7.8439274 -4.5072794
00000000: 0400 0080 0400 0080 0c19 8841 365f bd40
00000010: 8661 0f3f 1244 41c1 7401 fb40 a23b 90c0

base.conv1.1.running_var f4 [8]
6e-45 6e-45 29932.367 3205.0613 795.44275 9417.253 10231.67 9029.641
00000000: 0400 0000 0400 0000 bcd8 e946 fb50 4845
00000010: 56dc 4644 0325 1346 aede 1f46 9016 0d46

base.conv2.0.weight f4 [8, 8, 3, 3]
0.0 0.0 0.0 0.0 -0.0 0.0 -0.0 -0.0
-0.0 0.0 0.0 0.0 0.0 0.0 0.0 -0.0
0.0 0.0 -0.0 -0.0 -0.0 0.0 -0.0 -0.0
0.0 0.0 -0.0 0.0 -0.0 -0.0 -0.0 0.0
-0.0 0.0 0.0 0.0 0.0 0.0 -0.0 -0.0
-0.0 -0.0 -0.0 -0.0 -0.0 -0.0 -0.0 0.0
0.0 0.0 0.0 -0.0 0.0 0.0 -0.0 -0.0
-0.0 0.0 0.0 0.0 0.0 0.0 0.0 -0.0
-0.0 0.0 0.0 0.0 -0.0 -0.0 0.0 0.0
-0.0 0.0 0.0 -0.0 0.0 0.0 -0.0 -0.0
-0.0 -0.0 -0.0 0.0 -0.0 -0.0 0.0 -0.0
-0.0 -0.0 -0.0 -0.0 -0.0 0.0 0.0 0.0
0.0 0.0 0.0 -0.0 0.0 0.0 0.0 0.0
0.0 0.0 0.0 -0.0 -0.0 -0.0 0.0 -0.0
-0.0 0.0 -0.0 0.0 0.0 -0.0 -0.0 0.0
0.0 0.0 0.0 0.0 0.0 -0.0 -0.0 0.0
0.0 0.0 0.0 0.0 0.0 0.0 0.0 0.0
-0.0 -0.0 0.0 0.0 -0.0 -0.0 0.0 0.0
-0.028516306 -0.016154986 0.009710217 -0.016071247 -0.0042654634 0.019183666 0.0029247531 0.017585764
0.031046502 -0.13444966 0.22782555 0.0072731217 -0.24989593 0.19368838 -0.0040142536 -0.15549107
0.07614658 0.006077531 0.057247985 0.031438295 -0.021218902 -0.014911689 0.005405926 -0.07495527
-0.06354111 0.06508287 0.0011435144 -0.016742436 -0.23525783 0.09251827 -0.42860582 0.15572815
0.4271709 0.078876376 -0.06325877 0.073551066 -0.010246136 -0.014069676 -0.0030896747 0.075237155
-0.04617861 -0.04803415 -0.0073403213 0.026989171 -0.013904746 0.016913934 -0.051312193 -0.21559368
-0.028596146 0.36754003 0.15572399 0.014108063 0.045845468 -0.16442442 -0.058265187 0.09144424
-0.19443242 0.088667445 0.6422266 -0.42084464 0.054560587 -0.05407558 -0.03592242 0.053041726
0.24456827 0.06788036 0.27720684 -1.3381777 0.33438864 -0.026552891 -0.123693116 0.18906188
0.007906529 -0.0065191025 0.025684366 0.012298775 0.001189529 0.030841239 0.0043733725 -0.013028938
0.021220056 -0.11514041 -0.21453136 -0.22853638 0.51579815 0.3528639 -0.285473 0.3291423
0.1155186 -0.2760816 -0.0087725455 0.021311466 0.0025177347 -0.10863681 0.06490651 -0.13352835
-0.03824098 0.10620944 0.0074759047 -0.08755037 0.025374854 0.040948834 0.4276273 -0.5492159
0.099972874 0.082141355 -0.04289688 0.042908337 0.007774666 0.05037548 -0.06682282 -0.035016138
00000000: 0000 0000 0000 0000 0000 0000 0000 0000
00000010: 0000 0080 0000 0000 0000 0080 0000 0080
00000020: 0000 0080 0000 0000 0000 0000 0000 0000
00000030: 0000 0000 0000 0000 0000 0000 0000 0080
00000040: 0000 0000 0000 0000 0000 0080 0000 0080
00000050: 0000 0080 0000 0000 0000 0080 0000 0080
00000060: 0000 0000 0000 0000 0000 0080 0000 0000
00000070: 0000 0080 0000 0080 0000 0080 0000 0000
00000080: 0000 0080 0000 0000 0000 0000 0000 0000
00000090: 0000 0000 0000 0000 0000 0080 0000 0080
000000a0: 0000 0080 0000 0080 0000 0080 0000 0080
000000b0: 0000 0080 0000 0080 0000 0080 0000 0000
000000c0: 0000 0000 0000 0000 0000 0000 0000 0080
000000d0: 0000 0000 0000 0000 0000 0080 0000 0080
000000e0: 0000 0080 0000 0000 0000 0000 0000 0000
000000f0: 0000 0000 0000 0000 0000 0000 0000 0080
00000100: 0000 0080 0000 0000 0000 0000 0000 0000
00000110: 0000 0080 0000 0080 0000 0000 0000 0000
00000120: 0000 0080 0000 0000 0000 0000 0000 0080
00000130: 0000 0000 0000 0000 0000 0080 0000 0080
00000140: 0000 0080 0000 0080 0000 0080 0000 0000
00000150: 0000 0080 0000 0080 0000 0000 0000 0080
00000160: 0000 0080 0000 0080 0000 0080 0000 0080
00000170: 0000 0080 0000 0000 0000 0000 0000 0000
00000180: 0000 0000 0000 0000 0000 0000 0000 0080
00000190: 0000 0000 0000 0000 0000 0000 0000 0000
000001a0: 0000 0000 0000 0000 0000 0000 0000 0080
000001b0: 0000 0080 0000 0080 0000 0000 0000 0080
000001c0: 0000 0080 0000 0000 0000 0080 0000 0000
000001d0: 0000 0000 0000 0080 0000 0080 0000 0000
000001e0: 0000 0000 0000 0000 0000 0000 0000 0000
000001f0: 0000 0000 0000 0080 0000 0080 0000 0000
00000200: 0000 0000 0000 0000 0000 0000 0000 0000
00000210: 0000 0000 0000 0000 0000 0000 0000 0000
00000220: 0000 0080 0000 0080 0000 0000 0000 0000
00000230: 0000 0080 0000 0080 0000 0000 0000 0000
00000240: 079b e9bc 7657 84bc 9a17 1f3c d9a7 83bc
00000250: 4dc5 8bbb 1027 9d3c 37ad 3f3b 0510 903c
00000260: 3c55 fe3c 2cad 09be 1a4b 693e 5e53 ee3b
00000270: b8e4 7fbe 3f56 463e 008a 83bb 0d39 1fbe
00000280: bdf2 9b3d 0626 c73b dd7c 6a3d 71c5 003d
00000290: 43d3 adbc 2850 74bc 3224 b13b 2682 99bd
000002a0: d721 82bd 2b4a 853d fae1 953a 6f27 89bc
000002b0: 6ee7 70be 387a bd3d 3972 dbbe 3377 1f3e
000002c0: 25b6 da3e f089 a13d d08d 81bd f1a1 963d
000002d0: 69df 27bc 8084 66bc 247c 4abb f015 9a3d
000002e0: c825 3dbd 75bf 44bd 1487 f0bb 6518 dd3c
000002f0: bbd0 63bc 178f 8a3c bc2c 52bd 97c4 5cbe
00000300: 7742 eabc 352e bc3e 1c76 1f3e 8125 673c
00000310: 75c8 3b3d e05e 28be 7aa7 6ebd 1e47 bb3d
00000320: 4b19 47be 4797 b53d f668 243f f378 d7be
00000330: ec7a 5f3d 5b7e 5dbd 6323 13bd 4842 593d
00000340: 1b70 7a3e dc04 8b3d 0eee 8d3e 6849 abbf
00000350: fd34 ab3e 7385 d9bc d152 fdbd 7099 413e
00000360: 638a 013c 329e d5bb 0568 d23c cd80 493c
00000370: f8e9 9b3a c4a6 fc3c 824e 8f3b 5477 55bc
00000380: afd5 ad3c bcce ebbd 1cae 5bbe 7105 6abe
00000390: 590b 043f 94aa b43e 8429 92be 5785 a83e
000003a0: 0495 ec3d 915a 8dbe b9ba 0fbc 6295 ae3c
000003b0: 9400 253b fa7c debd b4ed 843d a8bb 08be
000003c0: 93a2 1cbd 5684 d93d 6ff8 f43b 9c4d b3bd
000003d0: edde cf3c f7b9 273d f7f1 da3e 6a99 0cbf
000003e0: 94be cc3d ba39 a83d a4b4 2fbd a7c0 2f3d
000003f0: a0c2 fe3b 8556 4e3d 67da 88bd 156d 0fbd

base.conv2.1.weight f4 [8]
1.37205e-40 6.722e-41 0.3603172 0.30066463 0.27993545 0.26970747 0.3031431 0.27267548
00000000: 797e 0100 62bb 0000 7f7b b83e b7f0 993e
00000010: b353 8f3e 1917 8a3e 9335 9b3e 1f9c 8b3e

base.conv2.1.bias f4 [8]
0.33624277 0.34286308 0.02604338 0.20146018 0.5237641 0.16817616 0.28717414 0.1790864
00000000: 0328 ac3e c08b af3e ed58 d53c 944b 4e3e
00000010: 6715 063f 5f36 2c3e 7d08 933e 6d62 373e

base.conv2.1.running_mean f4 [8]
-6e-45 6e-45 -0.049779862 -0.038608786 -0.12523437 -0.2416645 -0.055346254 0.38067937
00000000: 0400 0080 0400 0000 f8e5 4bbd 3f24 1ebd
00000010: 703d 00be e676 77be c1b2 62bd 68e8 c23e

base.conv2.1.running_var f4 [8]
6e-45 6e-45 0.2313605 0.16622882 0.12527105 0.1295431 0.21569307 0.29283676
00000000: 0400 0000 0400 0000 c4e9 6c3e e337 2a3e
00000010: 0e47 003e f2a6 043e a5de 5c3e b3ee 953e

base.conv3.0.weight f4 [16, 8, 3, 3]
-0.0045594154 -0.005451852 0.041798204 -0.004892955 -0.05698912 0.055098657 0.07240503 -0.011863175
-0.0615945 0.07141361 -0.11354035 -0.045522574 -0.00034708786 -0.05259526 -0.01068497 -0.06637863
-0.07797777 0.080062196 -0.09239864 -0.46220317 -0.11941277 0.13016637 -0.67670584 -0.06820943
0.096671775 -0.1474254 -0.037595112 -0.0082669435 -0.008510394 0.18327557 0.2229826 -0.11656203
-0.024149016 0.037340295 -0.045583904 0.012845555 0.0072874916 0.09628946 -0.029049428 -0.18557395
0.10465008 0.045050357 -0.0072483714 -0.20760128 -0.10340466 -0.17952462 -0.2919398 -0.058997452
-0.47815672 -0.52643174 0.10615441 -0.033824913 -0.296404 -0.10091776 0.114439785 -0.15049335
-0.053212143 -0.113799505 -0.23003326 0.022783488 -0.0727568 -0.00014920077 0.08452984 -0.17834647
0.20330864 0.14127366 -0.18649147 -0.25223395 0.081628434 0.03622394 0.043681785 0.07481756
0.06536624 0.05933392 -0.060201176 0.029362207 0.031189388 -0.08672582 -0.023493562 0.057108145
0.032795332 -0.08929739 -0.17279543 -0.11437137 -0.02940894 -0.086913675 -0.01595661 0.15970783
0.09880822 -0.045577884 0.011379689 -0.045907486 0.037083354 0.11167823 -0.24680386 0.14305264
0.0015633885 0.07244897 0.0034392222 0.042900704 -0.033158887 0.041130487 0.05110434 -0.11255323
0.2743278 -0.039802235 -0.0070151165 0.18135911 0.04707167 -0.011670935 0.038990565 -0.26446393
-0.46055493 -0.021482551 -0.16172157 -0.7093503 0.019147651 -0.1779251 0.0010800591 0.05063869
-0.023608303 -0.1395218 0.13492866 0.1685489 -0.16188985 0.09308146 0.038670596 0.03515891
0.055215903 -0.04880491 -0.076148 -0.010166318 0.03843505 0.07851444 -0.10929283 0.055772237
0.08938498 0.02959788 -0.18582875 -0.88352853 -0.2563611 -0.04061322 -0.17114925 -0.05003153
0.028752746 0.08620964 -0.06441095 -0.04710091 0.08970588 0.16705124 -0.025450924 -0.11525172
0.00773297 0.03523398 -0.020362023 -0.10167141 -0.14855832 -0.034748804 0.04895428 0.067399025
-0.008982932 0.07734628 -0.009991522 0.008091677 -0.017217256 0.0060581877 -0.30035964 -0.003141168
-0.0015533341 0.15061764 -0.052945375 0.018269325 0.086438835 0.06752838 0.07211322 -0.06227045
-0.046910252 -0.04572458 -0.032030217 0.03675926 0.015005692 0.03210153 -0.031540286 0.14427786
0.7439669 -0.084559835 -0.034391325 0.2969656 -0.13451141 -0.0066690207 0.01437405 0.013417323
-0.29466927 -0.26642728 0.06353887 0.1619645 0.15667026 -0.034361128 -0.0080628125 -0.09395892
-0.13057566 0.27114743 0.81120884 0.005293115 -0.22775216 -0.40267086 -0.13218097 0.030474007
-0.050271634 -0.03648059 -0.19865125 -1.1499377 -0.27670318 -0.023810385 0.29719582 0.084786765
0.0 0.0 0.0 -0.0 -0.0 0.0 -0.0 -0.0
-0.0 0.0 0.0 0.0 0.0 0.0 0.0 -0.0
0.0 0.0 0.0 0.0 0.0 0.0 0.0 0.0
0.0 0.0 0.0 0.0 0.0 0.0 -0.0 0.0
0.0 0.0 -0.0 0.0 -0.0 -0.0 0.0 0.0
00000000: 2667 95bb 73a5 b2bb 9834 2b3d 1555 a0bb
00000010: 6c6d 69bd 21af 613d 1749 943d c35d 42bc
00000020: 844a 7cbd 4c41 923d d887 e8bd e175 3abd
00000030: 58f9 b5b9 216e 57bd 0310 2fbc 85f1 87bd
00000040: cfb2 9fbd a6f7 a33d 803b bdbd e5a5 ecbe
00000050: af8e f4bd 554a 053e 983c 2dbf 63b1 8bbd
00000060: dafb c53d aff6 16be 55fd 19bd 1372 07bc
00000070: 2e6f 0bbc 97ac 3b3e 8d55 643e 13b8 eebd
00000080: 28d4 c5bc 23f2 183d 30b6 3abd 2a76 523c
00000090: e9cb ee3b 6933 c53d 11f9 edbc 1907 3ebe
000000a0: c852 d63d b986 383d bf83 edbb 6e95 54be
000000b0: d3c5 d3bd 4dd5 37be 2279 95be 50a7 71bd
000000c0: f5d0 f4be 3bc4 06bf 7c67 d93d fe8b 0abd
000000d0: 44c2 97be f8ad cebd 685f ea3d ee1a 1abe
000000e0: faf4 59bd b70f e9bd d78d 6bbe 70a4 ba3c
000000f0: 8401 95bd c772 1cb9 fb1d ad3d 75a0 36be
00000100: 2430 503e 0baa 103e 9ff7 3ebe cf24 81be
00000110: cf2c a73d 8e5f 143d aceb 323d f339 993d
00000120: bcde 853d 2008 733d 8295 76bd 0389 f03c
00000130: e380 ff3c 4f9d b1bd 9275 c0bc 3bea 693d
00000140: 6654 063d 8de1 b6bd 49f1 30be 893b eabd
00000150: 04eb f0bc ccff b1bd 70b7 82bc 738a 233e
00000160: f75b ca3d e0af 3abd e071 3a3c 7d09 3cbd
00000170: b7e4 173d 8eb7 e43d 27ba 7cbe 647c 123e
00000180: 9dea cc3a 2060 943d 9364 613b a6b8 2f3d
00000190: 9dd1 07bd 7178 283d c952 513d 4f82 e6bd
000001a0: b274 8c3e ab07 23bd 10df e5bb 34b6 393e
000001b0: 39ce 403d 7337 3fbc 92b4 1f3d d167 87be
000001c0: dbcd ebbe 2dfc afbc 579a 25be fb97 35bf
000001d0: 89db 9c3c ff31 36be c590 8d3a 846a 4f3d
000001e0: 3366 c1bc cede 0ebe bd2a 0a3e 1598 2c3e
000001f0: 74c6 25be 7ea1 be3d 0f65 1e3d ca02 103d
00000200: 122a 623d a8e7 47bd 7cf3 9bbd a190 26bc
00000210: 126e 1d3d 2ecc a03d ebd4 dfbd 6e71 643d
00000220: 790f b73d 4177 f23c e449 3ebe ed2e 62bf
00000230: c341 83be 0c5a 26bd c041 2fbe dded 4cbd
00000240: e18a eb3c ae8e b03d e3e9 83bd e2ec 40bd
00000250: b7b7 b73d 7b0f 2b3e 757e d0bc 1809 ecbd
00000260: db64 fd3b 8151 103d 42ce a6bc 1a39 d0bd
00000270: ac1f 18be c354 0ebd 4884 483d 8008 8a3d
00000280: 262d 13bc ba67 9e3d 7bb3 23bc f492 043c
00000290: 340b 8dbc c383 c63b bdc8 99be 0edc 4dbb
000002a0: 3e99 cbba 833b 1a3e 40dd 58bd 8da9 953c
000002b0: d806 b13d 524c 8a3d 19b0 933d 4d0f 7fbd
000002c0: f724 40bd b249 3bbd 1e32 03bd e190 163d
000002d0: 6fda 753c e57c 033d 6330 01bd 93bd 133e
000002e0: 9d74 3e3f b52d adbd ebdd 0cbd e00b 983e
000002f0: 5cbd 09be cd87 dabb 2381 6b3c 55d4 5b3c
00000300: e4de 96be 2869 88be ab20 823d 06da 253e
00000310: 2b6e 203e 41be 0cbd e319 04bc 896d c0bd
00000320: a0b5 05be d6d3 8a3e 62ab 4f3f de71 ad3b
00000330: dd37 69be e02a cebe 735a 07be a0a4 f93c
00000340: a1e9 4dbd ac6c 15bd 3c6b 4bbe 2931 93bf
00000350: 0aac 8dbe ff0d c3bc 0d2a 983e afa4 ad3d
00000360: 0000 0000 0000 0000 0000 0000 0000 0080
00000370: 0000 0080 0000 0000 0000 0080 0000 0080
00000380: 0000 0080 0000 0000 0000 0000 0000 0000
00000390: 0000 0000 0000 0000 0000 0000 0000 0080
000003a0: 0000 0000 0000 0000 0000 0000 0000 0000
000003b0: 0000 0000 0000 0000 0000 0000 0000 0000
000003c0: 0000 0000 0000 0000 0000 0000 0000 0000
000003d0: 0000 0000 0000 0000 0000 0080 0000 0000
000003e0: 0000 0000 0000 0000 0000 0080 0000 0000
000003f0: 0000 0080 0000 0080 0000 0000 0000 0000

base.conv3.1.weight f4 [16]
0.43352628 0.36748204 0.49473557 5.9159e-41 0.42648804 0.38159758 0.25710577 3.922886e-08
-2.5989678e-08 0.34254864 0.2881942 0.29012403 0.14702372 0.35710666 -1.5184e-40 0.3822424
00000000: 28f7 dd3e 9b26 bc3e fb4d fd3e e9a4 0000
00000010: a45c da3e c260 c33e 5ea3 833e 967c 2833
00000020: e83f dfb2 8962 af3e 318e 933e 238b 943e
00000030: 638d 163e afd6 b63e 45a7 0180 47b5 c33e

base.conv3.1.bias f4 [16]
0.064717434 0.34275967 -0.030908708 0.22449002 0.050342005 -0.010677555 -0.3974134 0.3540861
-2.2303136e-07 0.043999445 0.043732632 -0.01671556 0.03214284 0.1491327 0.17407584 -0.0050447197
00000000: 938a 843d 327e af3e 4234 fdbc b6e0 653e
00000010: 6b33 4e3d e9f0 2ebc c579 cbbe c64a b53e
00000020: 657a 6fb4 c338 343d fd20 333d 12ef 88bc
00000030: 36a8 033d 3eb6 183e f040 323e 2d4e a5bb

base.conv3.1.running_mean f4 [16]
-0.784704 -1.0742825 0.23945464 6e-45 0.03789799 -0.96115535 0.33560812 -6e-45
6e-45 -0.40448672 0.2623383 0.02403725 0.005714601 -0.12677136 6e-45 -0.25126478
00000000: 5de2 48bf 1782 89bf 9933 753e 0400 0000
00000010: ec3a 1b3d 470e 76bf d4d4 ab3e 0400 0080
00000020: 0400 0000 e218 cfbe 3551 863e c4e9 c43c
00000030: 8c41 bb3b 5ad0 01be 0400 0000 c7a5 80be

base.conv3.1.running_var f4 [16]
0.20645787 0.16882987 0.25218028 6e-45 0.127343 0.22238243 0.09622076 6e-45
6e-45 0.18264319 0.1773348 0.21632226 0.016961785 0.15333658 6e-45 0.17312638
00000000: b169 533e bde1 2c3e c61d 813e 0400 0000
00000010: 3466 023e 38b8 633e 640f c53d 0400 0000
00000020: 0400 0000 d106 3b3e 4197 353e 9583 5d3e
00000030: 71f3 8a3c 4404 1d3e 0400 0000 0b48 313e

base.conv4.res_layer.0.weight f4 [16, 16, 3, 3]
-0.0017719234 -0.08174239 -0.06800226 0.18917838 -0.26966533 -0.080321886 0.13240744 0.10912188
-0.024035472 -0.036326442 -0.022068597 -0.14513947 -0.07329061 -0.19366367 -0.049447037 0.0163311
0.033413634 -0.05197585 0.11412728 0.21666722 0.13069555 -0.009524638 0.1905353 0.046483543
-0.07294119 0.15657775 -0.019131595 -0.31661698 -0.13477547 0.08463056 -0.25075555 -0.13487175
-0.03239048 0.09037666 -0.08398351 0.10614557 0.046089534 -0.027472815 -0.1256733 -0.33839065
-0.16193368 -0.05002903 -0.036313348 0.010122235 0.030539906 0.09656238 0.06516909 0.010177622
0.0697006 0.309782 0.1658038 -0.056779 0.15544996 0.051899344 -0.21232595 -0.07780165
-0.14351366 -0.21716516 -0.23367302 -0.16310807 0.035167888 0.035690647 0.20770954 -0.0015089697
-0.022424174 0.07186307 0.035434652 -0.014639106 0.07528297 0.028930128 -0.012476238 0.10399389
0.0076961927 0.00019711322 -0.014811121 0.016234135 0.007920619 -0.010709925 0.0078131035 -0.0025474445
-0.019109316 0.0517054 0.031109065 0.043884538 0.0496219 0.0045728977 0.005482758 -0.026226733
-0.23244436 0.05579763 -0.02741983 -0.021151312 0.030686917 0.018515134 -0.14247924 0.0073652044
0.15296946 -0.28652754 -0.19007337 0.1796772 0.13014373 0.07762159 -0.13711852 -0.0044969153
0.12628318 -0.3283512 0.019890435 0.09781857 -0.016610863 -0.28990275 -0.35315216 -0.0032315694
-0.14986272 -0.1074553 0.02200059 -0.21208626 0.22979937 0.12073 -0.029059028 -0.18670423
0.12201216 0.06042659 0.053878188 -0.15559687 0.022293765 -0.14343579 0.031382546 -0.15289198
-0.114367135 0.061498724 -0.21623512 -0.28066406 0.2166623 0.018127616 -0.18582517 -0.029833207
0.11313439 0.07960165 0.17358418 -0.02476523 -0.24218762 0.18894766 -0.097579956 -0.13984151
-0.04160207 -0.047238734 -0.21109536 0.08009372 -0.27211046 0.039230675 -0.17669423 -0.03619736
0.42932162 -0.088676915 0.24778531 0.05642979 0.10027579 0.2057228 -0.2595898 0.10985369
-0.3622339 0.03299302 0.028294057 -0.26335886 0.035898544 -0.074650824 0.33177274 -0.1670749
0.08823657 -0.37933636 -0.009727219 0.1388851 -0.020140156 0.03442667 -0.0018152037 -0.18968695
-0.11347064 0.105323434 -0.12945268 0.13796791 0.07245538 -0.04501569 0.064641505 -0.031276323
-0.057068847 0.061872628 -0.17874305 0.28066123 -0.07496768 0.008882326 0.01718817 -0.047351137
-0.19932929 -0.069931954 0.16916451 0.31398764 -0.46516913 -0.22001438 -0.027074084 -0.09301087
-0.03923662 0.063386135 -0.04224078 -0.07325493 0.040299237 -0.047785297 -0.010718727 0.018913737
-0.016280567 -0.013291745 -0.046799324 -0.041544937 -0.03258801 -0.07017883 -0.07212737 -0.056382414
0.001460784 0.007921999 0.00949556 -0.0021370545 0.0019226887 0.008395709 -0.0025705425 0.0055016237
0.009736753 0.07097073 -0.097962156 0.033560198 -0.18560188 0.131767 -0.22590354 0.12821388
-0.13326581 -0.009623916 -0.074971184 -0.21020165 -0.040348615 0.042023927 -0.37373236 -0.117108524
-0.114214815 -0.12501787 -0.13454688 0.10409407 0.109063 0.021167997 0.035147898 0.49780065
0.07077829 0.10565377 -0.040172603 0.0323829 0.018016042 0.066700965 -0.07001268 -0.12287231
00000000: e23f e8ba 8e68 a7bd c544 8bbd fab7 413e
00000010: 9311 8abe cd7f a4bd d195 073e 4b7b df3d
00000020: 0ae6 c4bc 09cb 14bd 34c9 b4bc 719f 14be
00000030: 6319 96bd c54f 46be fa88 4abd cdc8 853c
00000040: bcdc 083d a1e4 54bd 90bb e93d 03de 5d3e
00000050: 0ed5 053e 3a0d 1cbc b01b 433e 8765 3e3d
00000060: 3162 95bd eb55 203e ddb9 9cbc 9f1b a2be
00000070: 9502 0abe c952 ad3d 0863 80be d21b 0abe
00000080: e1ab 04bd 6617 b93d 8cff abbd d962 d93d
00000090: 61c8 3c3d ab0e e1bc 80b0 00be 8a41 adbe
000000a0: f1d1 25be 3deb 4cbd 4ebd 14bd bbd7 253c
000000b0: d32e fa3c 7fc2 c53d 5f77 853d 0ac0 263c
000000c0: 30bf 8e3d bf9b 9e3e 79c8 293e 1991 68bd
000000d0: 462e 1f3e 6894 543d f96b 59be 7956 9fbd
000000e0: 3ff5 12be 8b60 5ebe fb47 6fbe cd05 27be
000000f0: 340c 103d 5b30 123d cfb1 543e 9fc8 c5ba
00000100: e7b2 b7bc f22c 933d ed23 113d dcd8 6fbc
00000110: f52d 9a3d e0fe ec3c 2369 4cbc c0fa d43d
00000120: 5830 fc3b 2db0 4e39 58aa 72bc 73fd 843c
00000130: 7cc5 013c ae78 2fbc 8802 003c 07f3 26bb
00000140: 248b 9cbc 0bc9 533d 70d8 fe3c 46c0 333d
00000150: 5540 4b3d 3fd8 953b b5a8 b33b 72d9 d6bc
00000160: e505 6ebe 0e8c 643d 8d9f e0bc 8445 adbc
00000170: 2163 fb3c 0dad 973c 14e6 11be d057 f13b
00000180: 07a4 1c3e bdb3 92be 98a2 42be 4dfd 373e
00000190: 6644 053e 11f8 9e3d cc68 0cbe dc5a 93bb
000001a0: 6150 013e a61d a8be 44f1 a23c 1a55 c83d
000001b0: 8113 88bc 226e 94be 5cd0 b4be bdc8 53bb
000001c0: 9d75 19be 8611 dcbd 953a b43c 242d 59be
000001d0: 8750 6b3e 4a41 f73d 330d eebc 652f 3fbe
000001e0: 83e1 f93d df81 773d 60af 5c3d c954 1fbe
000001f0: 6aa1 b63c d5e0 12be fc8a 003d b78f 1cbe
00000200: 5139 eabd 16e6 7b3d bd6c 5dbe 33b3 8fbe
00000210: b9dc 5d3e 5e80 943c f448 3ebe c564 f4bc
00000220: 01b3 e73d 3106 a33d 0dc0 313e 74e0 cabc
00000230: 0800 78be 7f7b 413e 00d8 c7bd 9d32 0fbe
00000240: ef66 2abd 677d 41bd 6229 58be 2d08 a43d
00000250: 1052 8bbe 58b0 203d 55ef 34be af43 14bd
00000260: 0bd0 db3e 3e9c b5bd 6fbb 7d3e ec22 673d
00000270: 655d cd3d ffa8 523e f4e8 84be f9fa e03d
00000280: b976 b9be b023 073d f0c8 e73c f9d6 86be
00000290: 5a0a 133d 88e2 98bd 1ede a93e af15 2bbe
000002a0: 60b5 b43d 6038 c2be ea5e 1fbc e537 0e3e
000002b0: f8fc a4bc fb02 0d3d 21ec edba 4c3d 42be
000002c0: 4b63 e8bd d0b3 d73d 3e8f 04be 7647 0d3e
000002d0: 7c63 943d 5f62 38bd c462 843d 9a1b 00bd
000002e0: 06c1 69bd 276e 7d3d 6b08 37be d4b2 8f3e
000002f0: a888 99bd 2d87 113c 35ce 8c3c 44f3 41bd
00000300: fa1c 4cbe 7c38 8fbd 7639 2d3e fdc2 a03e
00000310: a62a eebe 734b 61be 78ca ddbc 7c7c bebd
00000320: 94b6 20bd 97d0 813d ab04 2dbd ae06 96bd
00000330: d010 253d 84ba 43bd 999d 2fbc fbf0 9a3c
00000340: d35e 85bc 9fc5 59bc a6b0 3fbd 062b 2abd
00000350: 017b 05bd ebb9 8fbd 84b7 93bd 3ff1 66bd
00000360: c777 bf3a 46cb 013c 4493 1b3c d30d 0cbb
00000370: ba02 fc3a 288e 093c 8c76 28bb f746 b43b
00000380: e786 1f3c 1a59 913d 62a0 c8bd 6b76 093d
00000390: 6b0e 3ebe eeed 063e 4253 67be 804a 033e
000003a0: d576 08be a1ad 1dbc 7e8a 99bd 1a3f 57be
000003b0: 9744 25bd 4821 2c3d d959 bfbe 98d6 efbd
000003c0: 75e9 e9bd af04 00be a8c6 09be 462f d53d
000003d0: 6c5c df3d 8268 ad3c 3ef7 0f3d badf fe3e
000003e0: 35f4 903d 0161 d83d 078c 24bd efa3 043d
000003f0: 6196 933c 849a 883d cf62 8fbd 7aa4 fbbd

base.conv4.res_layer.1.weight f4 [16]
0.1906384 0.6030203 0.33679524 4.635e-42 0.41679266 0.368878 0.44764772 -1.1509e-41
0.32994524 -5.3978665e-25 0.6191542 0.59651864 -4.841e-42 0.5271306 0.23601641 0.36630914
00000000: b636 433e 8a5f 1a3f 6d70 ac3e ec0c 0000
00000010: d965 d53e 94dd bc3e 1532 e53e 1520 0080
00000020: 95ee a83e 4e0e 2797 e480 1e3f 72b5 183f
00000030: 7f0d 0080 08f2 063f 49ae 713e df8c bb3e

base.conv4.res_layer.1.bias f4 [16]
0.10689083 -0.11091745 0.07297044 -3.2730782e-13 -0.011798207 -0.13497865 0.39049158 -6.1209116e-06
0.13963681 0.010427949 0.004985939 0.27133295 0.0005447786 -0.096943825 0.28155681 0.013473896
00000000: 94e9 da3d b028 e3bd 8771 953d 0742 b8aa
00000010: 444d 41bc d837 0abe 83ee c73e 3b62 cdb6
00000020: f4fc 0e3e fdd9 2a3c 1661 a33b 27ec 8a3e
00000030: 79cf 0e3a 7c8a c6bd 3728 903e 9ec1 5c3c

base.conv4.res_layer.1.running_mean f4 [16]
-0.44835085 -0.43405682 -0.45268637 6e-45 -0.17719813 -0.36978206 -0.15564914 6e-45
-0.5397879 -6e-45 -0.006050736 -0.051742915 -6e-45 -0.3877204 -1.0075232 -0.73105973
00000000: 3e8e e5be b23c debe 82c6 e7be 0400 0000
00000010: 6d73 35be 1354 bdbe 7d62 1fbe 0400 0000
00000020: 8a2f 0abf 0400 0080 4145 c6bb 61f0 53bd
00000030: 0400 0080 4a83 c6be 85f6 80bf bb26 3bbf

base.conv4.res_layer.1.running_var f4 [16]
0.063105464 0.23199251 0.08097256 6e-45 0.08814442 0.07019993 0.26337543 6e-45
0.13118668 6e-45 0.14379565 0.37219658 6e-45 0.22736782 0.08861959 0.19143988
00000000: 703d 813d 728f 6d3e f1d4 a53d 0400 0000
00000010: 1085 b43d fbc4 8f3d 25d9 863e 0400 0000
00000020: cd55 063e 0400 0000 2b3f 133e 8d90 be3e
00000030: 0400 0000 1cd3 683e 307e b53d d108 443e

base.conv4.res_layer.3.weight f4 [16, 16, 3, 3]
0.0067146197 0.15414612 0.2273941 -0.073018655 0.06651014 0.020053249 -0.002703953 0.03229471
0.18867064 -0.048851606 0.051399354 -0.05225365 0.067637414 -0.034713484 -0.07090844 0.062499296
-0.01752389 0.022053327 0.117614575 0.22640856 0.11081401 -0.23257093 -0.04479103 0.10082866
-0.00485853 0.08803708 0.096172966 -4.019e-42 6.349e-42 -1.408e-41 1.443e-41 -6.826e-41
2.1794e-41 -1.8613e-41 -9.417e-42 2.845e-42 0.06283222 0.10208217 0.10255657 -0.008360273
-0.11996256 -0.17019331 -0.07005964 -0.11578033 -0.03975373 0.026712185 0.06912713 0.0027961826
-0.10156112 -0.081567705 -0.045278538 -0.08839433 -0.14595492 -0.051496062 0.19532643 0.16509639
-0.07466872 0.32665607 0.26961103 0.031964906 0.091006935 0.110164955 -0.07308721 -3.3011167e-15
-5.4215225e-15 -8.807949e-15 5.205382e-16 -3.6251166e-18 -8.5434886e-15 -1.5644133e-15 3.1813856e-16 -1.1982834e-15
-0.062771745 -0.2803609 -0.23357435 -0.06120606 -0.14671312 -0.019094305 -0.036890194 0.15798403
0.10925639 0.0049093296 0.0057845633 0.007304063 0.0042265975 0.0067318976 0.0069284285 -0.00063928886
0.0028611487 0.0049803914 -0.0802791 -0.087930605 -0.04667947 -0.093864776 0.0035350574 0.015552206
0.037274912 0.23671977 0.34242505 -0.20186615 -0.32367206 -0.0976967 -0.14572904 -0.07068595
0.13840705 -0.02561956 0.20285188 0.17634226 -1.7635067e-07 -1.6100202e-07 -4.279624e-07 -9.181646e-14
2.7461301e-36 2.1658465e-14 -2.1310086e-11 -2.3283503e-25 7.52959e-12 0.007693779 0.07846881 0.13891102
0.023964977 0.2445022 0.22772509 0.10538488 0.2565488 0.18362059 -0.09654049 0.11400598
0.14799309 -0.07859067 0.044423565 -0.019085363 -0.16276444 -0.19880046 -0.14593963 -0.057327125
0.032220304 0.25144547 -0.1727559 0.09905118 -0.025567397 -0.112776056 0.011679934 -0.09447202
-0.0 -0.0 -0.0 -0.0 -0.0 -0.0 -0.0 -0.0
-0.0 -0.0 0.0 -0.0 0.0 -0.0 0.0 -0.0
-0.0 0.0 -0.0 -0.0 -0.0 -0.0 -0.0 -0.0
-0.0 -0.0 -0.0 0.0 0.0 -0.0 -0.0 -0.0
-0.0 0.0 0.0 0.0 -0.0 -0.0 -0.0 -0.0
0.0 -0.0 -0.0 0.0 -0.0 -0.0 -0.0 -0.0
-0.0 -0.0 -0.0 0.0 0.0 0.0 -0.0 0.0
-0.0 -0.0 -0.0 -0.0 -0.0 -0.0 -0.0 0.0
0.0 0.0 0.0 -0.0 0.0 0.0 -0.0 -0.0
0.0 -0.0 0.0 0.0 0.0 0.0 0.0 0.0
0.0 0.0 0.0 0.0 0.0 0.0 0.0 0.0
0.0 0.0 0.0 0.0 0.0 0.0 0.0 0.0
0.0 0.0 0.0 -0.0 -0.0 -0.0 -0.0 -0.0
-0.0 -0.0 -0.0 -0.0 -0.0 -0.0 -0.0 0.0
00000000: 5006 dc3b 7bd8 1d3e 00da 683e ce8a 95bd
00000010: 7836 883d b646 a43c ce34 31bb 7547 043d
00000020: e032 413e 9f18 48bd 2188 523d ec07 56bd
00000030: 7c85 8a3d ba2f 0ebd 7238 91bd 43ff 7f3d
00000040: 438e 8fbc 2ea9 b43c e9df f03d a5d7 673e
00000050: 75f2 e23d 1327 6ebe cd76 37bd 427f ce3d
00000060: 4e34 9fbb c94c b43d 55f6 c43d 340b 0080
00000070: b311 0000 4027 0080 3a28 0000 48be 0080
00000080: c13c 0000 e333 0080 401a 0080 ee07 0000
00000090: 2eae 803d 7510 d13d 2e09 d23d 87f9 08bc
000000a0: eeae f5bd 2847 2ebe 6e7b 8fbd 3d1e edbd
000000b0: cfd4 22bd 83d3 da3c 8692 8d3d 2940 373b
000000c0: 47ff cfbd f80c a7bd fd75 39bd 1608 b5bd
000000d0: 3575 15be 89ed 52bd a703 483e 070f 293e
000000e0: eaeb 98bd 773f a73e 750a 8a3e a2ed 023d
000000f0: d861 ba3d 2a9e e13d bfae 95bd dbde 6da7
00000100: b854 c3a7 7fab 1ea8 f108 1626 42be 85a2
00000110: e3e7 19a8 aa74 e1a6 f764 b725 dbb0 aca6
00000120: 798e 80bd 778b 8fbe 1d2e 6fbe 35b3 7abd
00000130: f73b 16be a96b 9cbc 2c1a 17bd 91c6 213e
00000140: d0c1 df3d 71de a03b 6f8c bd3b ec56 ef3b
00000150: 457f 8a3b 4097 dc3b df07 e33b f395 27ba
00000160: 1c82 3b3b 8d32 a33b 5e69 a4bd f614 b4bd
00000170: f932 3fbd 2d3c c0bd 6cac 673b aece 7e3c
00000180: 94ad 183d ab66 723e 5652 af3e 00b6 4ebe
00000190: 58b8 a5be 3515 c8bd fe39 15be ccc3 90bd
000001a0: 94ba 0d3e 1de0 d1bc 67b8 4f3e 1193 343e
000001b0: e75a 3db4 e6df 2cb4 b4c2 e5b4 96c0 cea9
000001c0: 6b9d 6904 0515 c328 0c72 bbad 2f1e 9096
000001d0: 4276 042d 191c fc3b 41b4 a03d b13e 0e3e
000001e0: 3352 c43c c95e 7a3e c430 693e 07d4 d73d
000001f0: 5d5a 833e 0907 3c3e 05b7 c5bd f87b e93d
00000200: 808b 173e 25f4 a0bd 7cf5 353d e858 9cbc
00000210: b9ab 26be 5992 4bbe 3371 15be d9cf 6abd
00000220: 70f9 033d 76bd 803e ece6 30be 58db ca3d
00000230: b872 d1bc 22f7 e6bd 325d 3f3c 8c7a c1bd
00000240: 0000 0080 0000 0080 0000 0080 0000 0080
00000250: 0000 0080 0000 0080 0000 0080 0000 0080
00000260: 0000 0080 0000 0080 0000 0000 0000 0080
00000270: 0000 0000 0000 0080 0000 0000 0000 0080
00000280: 0000 0080 0000 0000 0000 0080 0000 0080
00000290: 0000 0080 0000 0080 0000 0080 0000 0080
000002a0: 0000 0080 0000 0080 0000 0080 0000 0000
000002b0: 0000 0000 0000 0080 0000 0080 0000 0080
000002c0: 0000 0080 0000 0000 0000 0000 0000 0000
000002d0: 0000 0080 0000 0080 0000 0080 0000 0080
000002e0: 0000 0000 0000 0080 0000 0080 0000 0000
000002f0: 0000 0080 0000 0080 0000 0080 0000 0080
00000300: 0000 0080 0000 0080 0000 0080 0000 0000
00000310: 0000 0000 0000 0000 0000 0080 0000 0000
00000320: 0000 0080 0000 0080 0000 0080 0000 0080
00000330: 0000 0080 0000 0080 0000 0080 0000 0000
00000340: 0000 0000 0000 0000 0000 0000 0000 0080
00000350: 0000 0000 0000 0000 0000 0080 0000 0080
00000360: 0000 0000 0000 0080 0000 0000 0000 0000
00000370: 0000 0000 0000 0000 0000 0000 0000 0000
00000380: 0000 0000 0000 0000 0000 0000 0000 0000
00000390: 0000 0000 0000 0000 0000 0000 0000 0000
000003a0: 0000 0000 0000 0000 0000 0000 0000 0000
000003b0: 0000 0000 0000 0000 0000 0000 0000 0000
000003c0: 0000 0000 0000 0000 0000 0000 0000 0080
000003d0: 0000 0080 0000 0080 0000 0080 0000 0080
000003e0: 0000 0080 0000 0080 0000 0080 0000 0080
000003f0: 0000 0080 0000 0080 0000 0080 0000 0000

base.conv4.res_layer.4.weight f4 [16]
0.50303304 8.242556e-15 2.4110874e-05 0.16319826 0.4552275 0.60186917 0.45050198 0.37688383
0.47281718 1.1822746e-06 2.094623e-12 0.561934 0.6203001 0.4271556 0.41912457 0.31093755
00000000: c6c6 003f 157c 1428 b541 ca37 721d 273e
00000010: 9413 e93e 1914 1a3f 32a8 e63e ebf6 c03e
00000020: 1815 f23e a5ae 9e35 6065 132c e8da 0f3f
00000030: fdcb 1e3f 24b4 da3e 7f97 d63e 3533 9f3e

base.conv4.res_layer.4.bias f4 [16]
0.15017438 0.12853399 0.036755558 -0.104581945 0.039755072 -0.36574686 0.24378443 0.13680546
0.06852453 -0.03232653 -0.14869618 0.100880906 -0.17462929 -0.00797358 0.018428376 0.08339332
00000000: 50c7 193e 6a9e 033e ff8c 163d 0f2f d6bd
00000010: 37d6 223d 2c43 bbbe a0a2 793e bb16 0c3e
00000020: 9756 8c3d d368 04bd d043 18be a69a ce3d
00000030: 05d2 32be 9ea3 02bc 1bf7 963c 1eca aa3d

base.conv4.res_layer.4.running_mean f4 [16]
0.39827374 -6e-45 -6e-45 -0.55299795 0.30590823 -0.8527801 0.9406181 -0.05251635
-0.137463 -6e-45 -6e-45 -0.4339519 0.14645784 0.43271017 0.6567269 -0.07615232
00000000: 89ea cb3e 0400 0080 0400 0080 4691 0dbf
00000010: 01a0 9c3e cc4f 5abf 59cc 703f 621b 57bd
00000020: 1ac3 0cbe 0400 0080 0400 0080 f22e debe
00000030: 0bf9 153e 308c dd3e 411f 283f bff5 9bbd

base.conv4.res_layer.4.running_var f4 [16]
0.09932491 6e-45 6e-45 0.06662499 0.15721434 0.18831821 0.15541136 0.09825054
0.11528315 6e-45 6e-45 0.14131294 0.2721949 0.11080633 0.1404471 0.075294115
00000000: dc6a cb3d 0400 0000 0400 0000 af72 883d
00000010: ccfc 203e 7dd6 403e 2824 1f3e 9437 c93d
00000020: 9219 ec3d 0400 0000 0400 0000 57b4 103e
00000030: 215d 8b3e 6eee e23d 5dd1 0f3e cd33 9a3d

base.m0.b2_1.0.shortcut_layer.0.weight f4 [16, 16, 1, 1]
0.18123332 0.21243003 -0.03852559 0.23432611 -0.34369957 -0.15839583 0.016090903 -0.20590629
-0.09509527 0.06545604 0.152118 -0.11845341 0.22379217 -0.18019538 0.15269695 0.20475577
0.0050166245 -0.016589746 -0.011673902 -0.262943 -0.19749132 -0.3451447 -0.12693557 -0.09444186
0.036544494 0.02691571 -0.087099314 -0.01924157 -0.17245215 -0.32676527 -0.17789361 -0.19134253
-0.0384535 0.27430433 -0.024600143 0.49829164 -0.1299224 -0.078460164 0.24948299 -0.13973789
0.010695643 -0.0074982704 -0.0030716232 -0.043282356 -0.42367122 0.15182015 0.054732442 0.06399993
0.06735241 0.0623881 -0.026207143 0.21203317 0.14395642 0.042667333 -0.1388463 -0.37117898
-0.07451954 0.04666653 0.031995494 0.13531204 0.1891165 -0.043410935 -0.34167916 -0.26782385
0.18743207 -0.23747541 -0.062522896 -0.08100532 0.13529415 -0.20011158 -0.051798183 0.35018522
-0.12645894 -0.12371196 -0.073064156 -0.028216645 -0.07050842 -0.2413433 -0.06479863 0.14323348
0.091930375 0.08502151 -0.013320328 -0.10089834 -0.22299701 -0.01685621 -0.15772468 0.16232857
0.40528923 -0.0684162 -0.10990995 0.043881614 -0.22405067 -0.06937318 0.20835401 -0.13110709
-0.0 0.0 0.0 0.0 0.0 0.0 0.0 -0.0
-0.0 0.0 0.0 0.0 -0.0 -0.0 0.0 0.0
0.0 0.0 -0.0 0.0 -0.0 -0.0 -0.0 0.0
0.0 0.0 0.0 -0.0 -0.0 -0.0 -0.0 -0.0
-0.0 0.0 0.0 -0.0 -0.0 0.0 0.0 -0.0
-0.0 -0.0 -0.0 -0.0 -0.0 0.0 0.0 0.0
-0.38971114 -0.06729614 -0.015668944 -0.07512679 -0.04161823 -0.06884165 -0.22373568 -0.27729398
-0.18158466 -0.00046424865 -0.07277487 0.09317569 -0.01212179 0.1804942 0.27425042 0.12412201
-0.21339777 0.13431497 -0.015478094 -0.044332106 0.13415127 -0.17642285 0.07197965 -0.08593263
0.27583882 0.064987555 0.11011111 -0.05059614 0.2474892 0.023480248 -0.09652059 0.4042991
-0.09300753 0.14447898 -0.0866723 -0.03903478 -0.04338784 -0.21673286 0.007088859 0.27483976
-0.116048925 -0.14154479 -0.1337776 -0.047680903 0.07240615 0.1420462 -0.18344109 -0.15320323
0.0 -0.0 0.0 0.0 -0.0 -0.0 -0.0 -0.0
-0.0 0.0 -0.0 -0.0 0.0 -0.0 -0.0 -0.0
-0.04111549 0.011784685 0.022873329 -0.28487808 -0.052066922 0.22285473 0.16533226 0.12182065
-0.22000408 -0.03997815 0.0269276 0.23117322 -0.2327664 -0.10728181 0.2739116 0.08626045
-0.12393376 -0.15397632 0.23332892 0.34845075 0.07355524 0.20582321 0.052761354 0.3781004
0.15861732 0.007031727 0.08785786 -0.14086832 0.0324153 -0.18932894 -0.076061115 0.20026937
0.049295634 0.13620728 0.079758026 0.22678381 -0.041484058 0.020259451 0.04401204 -0.07408507
0.06425525 0.1664567 0.20527868 0.1500861 -0.081482105 0.29857832 0.12849219 0.06671109
00000000: 3a95 393e 4287 593e 02cd 1dbd 2ff3 6f3e
00000010: 64f9 afbe 8432 22be 12d1 833c 19d9 52be
00000020: 4fc1 c2bd d10d 863d d2c4 1b3e b497 f2bd
00000030: c629 653e 2385 38be 975c 1c3e 7fab 513e
00000040: 7f62 a43b 38e7 87bc e543 3fbc 77a0 86be
00000050: 2a3b 4abe ceb6 b0be 66fb 01be bc6a c1bd
00000060: aeaf 153d 567e dc3c 2061 b2bd 7fa0 9dbc
00000070: 4c97 30be c74d a7be be29 36be 4cef 43be
00000080: 6b81 1dbd 9e71 8c3e 3d86 c9bc 1520 ff3e
00000090: 610a 05be b9af a0bd 7878 7f3e 7317 0fbe
000000a0: c73c 2f3c 0db4 f5bb 494d 49bb d748 31bd
000000b0: 6feb d8be be76 1b3e 202f 603d 6512 833d
000000c0: 0ff0 893d aa8a 7f3d 5db0 d6bc 391f 593e
000000d0: 5069 133e f1c3 2e3d b92d 0ebe 2c0b bebe
000000e0: b39d 98bd 6725 3f3d b50d 033d 3d8f 0a3e
000000f0: c1a7 413e aacf 31bd 92f0 aebe 3520 89be
00000100: 31ee 3f3e c12c 73be 010c 80bd 1ee6 a5bd
00000110: 8d8a 0a3e 0dea 4cbe 552a 54bd 7a4b b33e
00000120: 747e 01be b25c fdbd a9a2 95bd 9826 e7bc
00000130: b866 90bd b322 77be 25b5 84bd ccab 123e
00000140: fe45 bc3d c21f ae3d 813d 5abc caa3 cebd
00000150: 5459 64be 0916 8abc 9482 21be 7639 263e
00000160: 1282 cf3e cb1d 8cbd 7818 e1bd 35bd 333d
00000170: 8a6d 65be 8713 8ebd c15a 553e f040 06be
00000180: 0000 0080 0000 0000 0000 0000 0000 0000
00000190: 0000 0000 0000 0000 0000 0000 0000 0080
000001a0: 0000 0080 0000 0000 0000 0000 0000 0000
000001b0: 0000 0080 0000 0080 0000 0000 0000 0000
000001c0: 0000 0000 0000 0000 0000 0080 0000 0000
000001d0: 0000 0080 0000 0080 0000 0080 0000 0000
000001e0: 0000 0000 0000 0000 0000 0000 0000 0080
000001f0: 0000 0080 0000 0080 0000 0080 0000 0080
00000200: 0000 0080 0000 0000 0000 0000 0000 0080
00000210: 0000 0080 0000 0000 0000 0000 0000 0080
00000220: 0000 0080 0000 0080 0000 0080 0000 0080
00000230: 0000 0080 0000 0000 0000 0000 0000 0000
00000240: 3888 c7be 8fd2 89bd 285c 80bc 13dc 99bd
00000250: e177 2abd dafc 8cbd f71a 65be 7af9 8dbe
00000260: 54f1 39be 6666 f3b9 fe0a 95bd e5d2 be3d
00000270: 799a 46bc 79d3 383e 8d6a 8c3e ae33 fe3d
00000280: f284 5abe dd89 093e d597 7dbc 9595 35bd
00000290: f35e 093e 31a8 34be 116a 933d 72fd afbd
000002a0: bf3a 8d3e 3218 853d ef81 e13d e63d 4fbd
000002b0: cf6d 7d3e a659 c03c 96ac c5bd 4b00 cf3e
000002c0: bb7a bebd 4cf2 133e 3f81 b1bd efe2 1fbd
000002d0: 73b7 31bd 38ef 5dbe a949 e83b ccb7 8c3e
000002e0: 0fab edbd 1ef1 10be fffc 08be 0d4d 43bd
000002f0: ad49 943d 8f74 113e fbd7 3bbe 4fe1 1cbe
00000300: 0000 0000 0000 0080 0000 0000 0000 0000
00000310: 0000 0080 0000 0080 0000 0080 0000 0080
00000320: 0000 0080 0000 0000 0000 0080 0000 0080
00000330: 0000 0000 0000 0080 0000 0080 0000 0080
00000340: b768 28bd 8d14 413c d960 bb3c 8adb 91be
00000350: 2044 55bd 0834 643e dc4c 293e 1b7d f93d
00000360: c048 61be 21c0 23bd 4597 dc3c acb8 6c3e
00000370: 515a 6ebe 91b6 dbbd 243e 8c3e 52a9 b03d
00000380: fcd0 fdbd f8ab 1dbe c7ed 6e3e 2368 b23e
00000390: 21a4 963d 52c3 523e 4a1c 583d 6096 c13e
000003a0: 946c 223e 676a e63b d2ee b33d c93f 10be
000003b0: e8c5 043d 72df 41be eec5 9bbd 6a13 4d3e
000003c0: 38ea 493d ec79 0b3e 2d58 a33d 043a 683e
000003d0: 30eb 29bd 26f7 a53c f845 343d eab9 97bd
000003e0: 4298 833d a073 2a3e 9334 523e 2cb0 193e
000003f0: 17e0 a6bd 42df 983e 7593 033e d39f 883d

base.m0.b2_1.0.shortcut_layer.1.weight f4 [16]
0.4566507 0.30414322 0.5090193 0.36966738 0.2531096 0.18311544 -1.1970176e-12 -6.5355463e-09
1.9918767e-13 0.24607633 0.2560931 0.15411367 -1.6470962e-14 0.25453937 0.35110685 0.12113318
00000000: 1fce e93e a9b8 9b3e 174f 023f 0b45 bd3e
00000010: 9597 813e 9d82 3b3e 1b77 a8ab 468f e0b1
00000020: f043 602a 6ffb 7b3e a31e 833e f9cf 1d3e
00000030: 745b 94a8 fc52 823e 47c4 b33e ac14 f83d

base.m0.b2_1.0.shortcut_layer.1.bias f4 [16]
-0.0014751964 -0.07426788 0.2728283 0.041566778 0.14361952 0.12013767 -0.04749923 0.17264517
0.08494746 9.4050134e-05 0.0041131773 -0.10755371 0.06476116 -0.122205876 0.062256213 0.090061136
00000000: 615b c1ba c219 98bd 27b0 8b3e ed41 2a3d
00000010: ff10 133e bd0a f63d 8d8e 42bd e5c9 303e
00000020: eff8 ad3d c83c c538 d5c7 863b 1f45 dcbd
00000030: 80a1 843d 1347 fabd 5f00 7f3d f971 b83d

base.m0.b2_1.0.shortcut_layer.1.running_mean f4 [16]
0.046848234 -0.18080403 0.2697837 -0.25294232 0.11726227 0.11959458 6e-45 -6e-45
-6e-45 -0.24209815 0.09117607 0.14744541 -6e-45 0.08396917 0.0828482 0.22675912
00000000: efe3 3f3d b124 39be 1721 8a3e a881 81be
00000010: 3327 f03d 01ee f43d 0400 0000 0400 0080
00000020: 0400 0080 94e8 77be 85ba ba3d eefb 163e
00000030: 0400 0080 07f8 ab3d 51ac a93d 8b33 683e

base.m0.b2_1.0.shortcut_layer.1.running_var f4 [16]
0.18489808 0.12943299 0.16430837 0.12856686 0.08341696 0.07912979 6e-45 6e-45
6e-45 0.09727422 0.08238586 0.08530079 6e-45 0.14696419 0.12667555 0.054060385
00000000: ec55 3d3e 158a 043e 7440 283e 08a7 033e
00000010: 83d6 aa3d cd0e a23d 0400 0000 0400 0000
00000020: 0400 0000 b537 c73d ebb9 a83d 2eb2 ae3d
00000030: 0400 0000 c87d 163e 3cb7 013e 6c6e 5d3d

base.m0.b2_1.0.res_layer.0.weight f4 [16, 16, 3, 3]
0.10152362 0.042605005 0.04103409 0.064713225 0.111011766 -0.04519918 -0.075744174 -0.2375659
-0.30880186 -0.049646903 -0.1424568 -0.1060053 0.003416423 0.11547642 0.013202943 0.046250425
0.13789599 0.07755467 -0.0431442 -0.07355552 -0.045873 -0.06622083 0.0096060075 0.043219678
0.038865607 0.18007405 0.15023081 0.07985304 0.052995697 0.03895384 0.10766129 -0.016705003
-0.08956599 0.06644382 -0.07363324 -0.105411015 0.015843349 -0.042621057 -0.081329174 -0.1283199
-0.11173563 -0.15653005 0.10919701 0.15537563 0.15670183 -0.009679779 -0.008274955 0.037263058
-0.2308663 -0.23603517 -0.19975519 0.04015871 0.26558167 0.23994057 -0.046061814 0.020810807
0.028068768 -0.006173622 0.05939488 0.15848114 -0.073801406 -0.1268918 -0.13862276 0.03363503
0.0773767 0.016035898 0.042028956 0.054011807 -0.020951547 0.0417743 0.008416914 0.07283637
-0.13108426 -0.051913865 -0.0015224649 0.010342065 0.12293413 0.14471123 -0.2799039 -0.2656126
-0.10328343 -0.014876212 0.020065367 0.07720735 0.0111371 0.03174481 -0.047567133 0.013701139
-0.033827577 -0.085476495 -0.015091813 0.008366947 0.042563647 -0.063954294 -0.04685045 -0.04209893
-0.12803692 -0.04053204 -0.023887394 -0.007159152 -0.061159335 -0.070964485 -0.04504133 -0.04731311
-0.05924907 -0.1318008 -0.10165279 -0.09728118 -0.02174438 -0.031966273 -0.011911443 0.016434228
-0.035452284 -0.044388864 0.14769772 0.03192559 0.08674672 0.049720924 0.06287039 0.054107856
0.14772873 0.2582674 0.15977347 -0.24068388 -0.29992345 -0.13548766 -0.0036755935 0.008343555
0.06473005 -0.122628875 -0.077709354 0.0018339296 -0.057919875 0.008290367 0.05303891 -0.01470762
-0.068801045 -0.058012646 0.0057218433 -0.021286648 -0.06250615 -0.098579705 -0.12680969 -0.051971376
0.17091504 0.17081733 0.009596349 -0.15955172 -0.25381827 -0.30056563 0.05478138 0.029449504
0.00832047 0.051543143 0.1182854 0.12396709 0.121264935 0.17336375 0.14605264 -0.09470601
-0.07535821 -0.100258626 -0.023288034 0.0026228079 -0.0096044615 0.01612376 0.10987908 0.13094477
-0.012698183 0.04198751 0.011062706 0.0624586 -0.099833034 -0.08960892 0.05412505 -0.056236602
-0.0884244 0.031582676 0.04381862 0.0068058902 -0.11243358 -0.16216455 -0.22249801 0.12497769
0.1102826 0.09529156 -0.01629751 0.052590765 0.06972354 -0.19893572 -0.24299766 -0.1942115
0.08665062 0.29240772 0.15016037 -0.08541526 0.024352783 0.038244933 -0.04160177 0.08193896
0.09950877 -0.044505667 -0.104172155 -0.10818249 -0.06617167 -0.039940625 -0.06917891 0.08712095
0.079219885 0.039471556 -0.07172983 -0.1297106 -0.09962961 0.04151673 0.042950526 0.092469625
-0.052653495 0.03042746 0.119028874 -0.25982496 -0.3293327 -0.2216606 0.0842469 0.107205845
0.11556646 0.032047953 -0.05374893 -0.027163351 0.0021250555 -0.004960187 -0.036269158 -0.012330921
-0.024883 -0.0052343123 -0.07942723 -0.08894947 -0.030717604 -0.08417037 0.025833469 -0.026591465
-0.035714366 -0.0012742992 -0.02202922 -0.06903073 -0.1809285 -0.101440094 -0.09865772 0.022247389
-0.10149601 -0.088248715 0.0019496855 -0.037625547 -0.011223291 -0.088305324 -0.079238124 0.051314447
00000000: 9eeb cf3d 9682 2e3d 5d13 283d 5e88 843d
00000010: 235a e33d c622 39bd c31f 9bbd 7a44 73be
00000020: 471b 9ebe 8d5a 4bbd 32e0 11be 4f19 d9bd
00000030: 11e6 5f3b e77e ec3d 2851 583c 1671 3d3d
00000040: 9b34 0d3e fcd4 9e3d f9b7 30bd 47a4 96bd
00000050: 54e5 3bbd c99e 87bd 8462 1d3c 1e07 313d
00000060: 8b31 1f3d 5565 383e 1bd6 193e fe89 a33d
00000070: 0412 593d 108e 1f3d 867d dc3d eed8 88bc
00000080: 606e b7bd b313 883d 06cd 96bd bbe1 d7bd
00000090: e9c9 813c 6b93 2ebd e98f a6bd 4b66 03be
000000a0: a6d5 e4bd 6a49 20be afa2 df3d ca1a 1f3e
000000b0: 7276 203e f097 1ebc ad93 07bc 26a1 183d
000000c0: 3768 6cbe 34b3 71be a08c 4cbe 767d 243d
000000d0: 52fa 873e fbb2 753e 50ab 3cbd 6d7b aa3c
000000e0: 79f0 e53c 184c cabb 0c48 733d e148 223e
000000f0: 3125 97bd edef 01be 20f3 0dbe e3c4 093d
00000100: ad77 9e3d b75d 833c 8e26 2c3d 7c3b 5d3d
00000110: 94a2 abbc 871b 2b3d 19e7 093c 3c2b 953d
00000120: f43a 06be a2a3 54bd 728d c7ba c471 293c
00000130: e4c4 fb3d 2e2f 143e 904f 8fbe 60fe 87be
00000140: 4386 d3bd 5bbb 73bc 2060 a43c e31e 9e3d
00000150: 6278 363c d906 023d c1d5 42bd be7a 603c
00000160: c98e 0abd 4d0e afbd a743 77bc 8515 093c
00000170: 3857 2e3d 78fa 82bd 42e6 3fbd ed6f 2cbd
00000180: 1c1c 03be ed04 26bd 7faf c3bc 5297 eabb
00000190: 3682 7abd d455 91bd 427d 38bd 64cb 41bd
000001a0: 27af 72bd caf6 06be 572f d0bd 5b3b c7bd
000001b0: 4521 b2bc 11ef 02bd 3728 43bc 13a1 863c
000001c0: 6a36 11bd 19d1 35bd 123e 173e 68c4 023d
000001d0: 44a8 b13d 2ba8 4b3d 31c2 803d 33a0 5d3d
000001e0: 3346 173e a03b 843e a89b 233e d675 76be
000001f0: 918f 99be 47bd 0abe 3ae2 70bb 68b3 083c
00000200: 3091 843d d924 fbbd 1526 9fbd 7760 f03a
00000210: 643d 6dbd 52d4 073c 543f 593d 3bf8 70bc
00000220: 90e7 8cbd ab9e 6dbd 4d7e bb3b 5661 aebc
00000230: 3903 80bd 28e4 c9bd 66da 01be f0df 54bd
00000240: 5a04 2f3e bdea 2e3e 013a 1d3c 8761 23be
00000250: 78f4 81be bde3 99be 7162 603d 1640 f13c
00000260: 9552 083c e71e 533d 9e3f f23d 75e2 fd3d
00000270: c059 f83d 4486 313e d38e 153e 39f5 c1bd
00000280: 6855 9abd 6554 cdbd 8cc6 bebc 6ae3 2b3b
00000290: 085c 1dbc fa15 843c 4808 e13d 6316 063e
000002a0: 0a0c 50bc 18fb 2b3d 5a40 353c 97d4 7f3d
000002b0: 4375 ccbd e284 b7bd 3ab2 5d3d 5a58 66bd
000002c0: da17 b5bd d65c 013d 277b 333d f203 df3b
000002d0: 9443 e6bd 770e 26be 85d6 63be 4ef4 ff3d
000002e0: d8db e13d 3928 c33d 5b82 85bc 6a69 573d
000002f0: 37cb 8e3d ceb5 4bbe 61d4 78be 61df 46be
00000300: e175 b13d 77b6 953e a4c3 193e 32ee aebd
00000310: 7d7f c73c b8a6 1c3d 9e66 2abd 9dcf a73d
00000320: 41cb cb3d 934b 36bd 3658 d5bd c88e ddbd
00000330: 0385 87bd c898 23bd acad 8dbd 786c b23d
00000340: 093e a23d edac 213d 17e7 92bd dbd2 04be
00000350: 9c0a ccbd 720d 2a3d e4ec 2f3d b760 bd3d
00000360: 31ab 57bd 0243 f93c 69c5 f33d c707 85be
00000370: 4c9e a8be fffa 62be a489 ac3d bd8e db3d
00000380: 1cae ec3d b744 033d d727 5cbd ad85 debc
00000390: 8444 0b3b 1089 a2bb f88e 14bd a207 4abc
000003a0: 6fd7 cbbc 9884 abbb beaa a2bd 242b b6bd
000003b0: 7ca3 fbbc 8461 acbd b6a0 d33c 58d6 d9bc
000003c0: 3a49 12bd 6306 a7ba 9f76 b4bc fc5f 8dbd
000003d0: 5245 39be d3bf cfbd 0f0d cabd 2840 b63c
000003e0: 24dd cfbd bebb b4bd 978c ff3a 3f1d 1abd
000003f0: e5e1 37bc 6cd9 b4bd 9947 a2bd 192f 523d

base.m0.b2_1.0.res_layer.1.weight f4 [16]
0.36618188 0.4010307 0.40580133 0.44949535 0.33471212 0.40269572 0.35796142 1.62858e-40
6.952e-42 4.588e-42 0.3628399 0.37042776 0.22138408 0.45709902 5.076252e-09 0.42140922
00000000: 317c bb3e e553 cd3e 31c5 cf3e 4124 e63e
00000010: 635f ab3e 222e ce3e b846 b73e fbc5 0100
00000020: 6113 0000 ca0c 0000 27c6 b93e b5a8 bd3e
00000030: 82b2 623e e208 ea3e 2f6b ae31 f3c2 d73e

base.m0.b2_1.0.res_layer.1.bias f4 [16]
-0.05913501 0.02081563 0.5077245 0.30479658 0.25491998 -0.093254365 0.08556848 -0.004984203
-1.6048401e-06 -2.572071e-07 0.07287709 0.15708277 0.008414593 -0.027448587 0.0023904836 0.05227821
00000000: 8d37 72bd 8a85 aa3c 3cfa 013f 4c0e 9c3e
00000010: df84 823e 25fc bebd 873e af3d 8652 a3bb
00000020: e365 d7b5 4616 8ab4 9540 953d 4eda 203e
00000030: 5cdd 093c dcdb e0bc a9a9 1c3b ad21 563d

base.m0.b2_1.0.res_layer.1.running_mean f4 [16]
-0.11552758 -0.096391544 -0.8359056 0.45823228 -0.15146177 -0.41837317 -0.31764686 -6e-45
-6e-45 6e-45 0.03611013 -0.4138576 -0.08182269 -0.42694312 6e-45 -0.3669671
00000000: b999 ecbd ee68 c5bd e9fd 55bf 6c9d ea3e
00000010: cb18 1bbe 0235 d6be 9ca2 a2be 0400 0080
00000020: 0400 0080 0400 0000 37e8 133d 25e5 d3be
00000030: a892 a7bd 4a98 dabe 0400 0000 1de3 bbbe

base.m0.b2_1.0.res_layer.1.running_var f4 [16]
0.84478736 1.0567272 2.2975602 2.5792305 0.95236903 0.9991145 0.93950856 6e-45
6e-45 6e-45 0.5633732 0.6996353 0.6801267 0.7833018 6e-45 0.6545184
00000000: fc43 583f d642 873f 3a0b 1340 1d12 2540
00000010: 75ce 733f f8c5 7f3f a283 703f 0400 0000
00000020: 0400 0000 0400 0000 3a39 103f 4d1b 333f
00000030: c91c 2e3f 7786 483f 0400 0000 858e 273f
