Pruned Models/ERESFD/L1/ERES10_L1.pth (torch, 541922 bytes, 400 tensors)

base.conv1.0.weight f4 [8, 3, 5, 5]
00000000: 26a9 21be 1a96 923d b201 fc3b e5fd 1dbe
00000010: 5e2f acbd 62bd ebbc 3e1b 133e 4a3c 2c3e
00000020: 9464 b13d 89d2 853d ccc2 b6bd f37f a4bb
00000030: 8860 9d3d a994 b23d c232 503d f706 24be
00000040: a574 18be 0fff 4fbd 5f75 c5bb cc6a e0bc
00000050: 9658 e33c d8a5 0f3d f53e 273e d374 3e3e
00000060: 6d41 a53d 3b29 54be 1d7c d0bb 7eb8 d5bd
00000070: d3a5 8fbe 5c49 60be 6b5e 63bd 1895 803d
00000080: 0749 1f3d 9729 9cbd 09c4 f6bd c668 cbbd
00000090: 3f86 a1bd e5ac 86bd 02e5 d0bd bc0c 2cbe
000000a0: 3163 2dbe 5364 68be b351 58be 8ed7 58be
000000b0: 04a0 87be 1ffb 07bc ef80 91bd 0f31 b4bc
000000c0: 320c 31bd 1116 29be 229d 0a3d eb1c 723e
000000d0: 1798 1c3e 1500 cdbc 6c72 af3b 70a9 383e
000000e0: 0528 983e 9558 973e c691 3d3e ebf3 e53d
000000f0: c199 ff3d 8406 223e 3641 423e 92b5 1f3e
00000100: 73c0 823d f74a f83a eb42 10bd 5dcb 86ba
00000110: f8ff 55bc 991c 9fbd b8d2 953d 1e12 f83c
00000120: d44c c73d 65f8 853d 7871 69bd 58e6 cf3d
00000130: 0a7e 9c3d 4a33 9e3d d16a 303b 1ef7 e9bd
00000140: f154 1c3d 50f7 cbbd 7b35 80bd 41d6 76bd
00000150: 291f 09be 1fe0 8d3c f5ad 21be a3b7 ccbd
00000160: 31c1 9bbd e73e 04be 7c96 563d e244 25be
00000170: 3e55 e4bd 0f1b a7bd ac9d 58be 3d58 143e
00000180: f9de 23be b89b 8fbd ba94 d13c 8fba e8bd
00000190: c922 823c e10c 1fbd 157d 4dbd c34f d4bd
000001a0: 53ec 67be 1cbe 7a3b 067b 26be 803a 01be
000001b0: 95a2 c9bd a28c 33be a1ab 1f3d e820 1cbe
000001c0: 5717 e9bd a967 b5bd 7db4 0cbe c7f5 993d
000001d0: a9af 0abe a478 05be 3eb8 d8bd f96c 55be
000001e0: 58c8 803e fc2e 77bd 5dc2 eebb 615c b03d
000001f0: 74f5 eebc e648 113d 88b5 bc3c 3ab7 293d
00000200: ad3c f03b 8fb3 17be 945e 1bbc 2c7b 04be
00000210: 38d1 b7bd 8bde 71bd 9cc3 28be f86d d83d
00000220: 7af8 81bd 2fd1 f5bc d6f6 50bb 6343 9abd
00000230: 5a48 783d a1e3 13be 2594 07be 02f1 c2bd
00000240: 57b9 54be 658a c83d 5a67 49be 04b1 27be
00000250: fdc0 8bbd d824 49be b224 21be 04ae 72be
00000260: 3c78 8cbe f6d7 77be 7b53 23be 9bf6 7abe
00000270: f624 b1be b3b1 bcbe a719 aabe c208 1bbe
00000280: 2330 64be e3b5 afbe 00ef cfbe 73e3 c7be
00000290: f89e 8bbe 1a31 2ebe b1fc a0be df19 c6be
000002a0: 4ae9 c1be 6235 adbe 92e2 27be 7f57 8bbe
000002b0: 7fa4 a2be 574d 9cbe a7c3 76be a3ba 2a3e
000002c0: 2b96 773e 05eb 673e 4393 253e 1e16 bf3d
000002d0: d0cf 323e c1fe 8f3e 2e1b 9e3e b352 8a3e
000002e0: bec2 933e 1d74 503e eaf8 a53e 24b8 b83e
000002f0: f815 ab3e 088b 9d3e ad7e 4b3e f19a 973e
00000300: afbf ae3e 6cb0 b33e 5a61 8e3e 6045 e63d
00000310: bd15 683e 6cb9 953e 8769 aa3e 2086 aa3e
00000320: db6f 153d 8380 903d 26ec 843c 6868 38bd
00000330: 84ce 18be 1e11 053d 7a08 d53d 449a bd3d
00000340: 5c6a 443d b838 153d 5b18 873c 42b2 e53d
00000350: 6a96 f23d a757 b53d fabf bf3c 12bb b3bb
00000360: 6238 953d c95d b83d 246c ba3d 0028 fbbb
00000370: 9b10 07be 9a4e 16bd f03d b63a c6b3 273d
00000380: 09bf b13c 4969 04be 0ecf 18be 4884 873d
00000390: 2ec5 413e 6d35 033e 3329 40be e21d 46bd
000003a0: 85b1 333e 87f0 213e 6a57 fbbd 95ed 62be
000003b0: 5c29 de3c f8af 1b3e 7ba7 403c a07c b8be
000003c0: 4f07 4ebe c09c eb3d 2c84 303e 708d 2fbd
000003d0: 0320 dabe 26b6 2ebe a89c 593e 90b2 8c3e
000003e0: 95c1 ba3d 7307 7bbe 5306 bbbb 3da8 413c
000003f0: a802 223e e4a5 953e d22c 653e 30df 44bd
-0.15787181 0.07157536 0.007690632 -0.15428884 -0.08407472 -0.028776828 0.14365861 0.16819873
0.08661762 0.06534297 -0.08923873 -0.0050201355 0.076844275 0.08719761 0.050829656 -0.16018282
-0.14888246 -0.050780352 -0.0060259546 -0.027394675 0.027752202 0.03507027 0.1633261 0.18599252
0.080691196 -0.20718853 -0.0063624517 -0.1043558 -0.280562 -0.21902984 -0.055509966 0.062784374
0.038888004 -0.0762512 -0.120491095 -0.09932093 -0.078869335 -0.06575946 -0.1019993 -0.16801733
-0.1693237 -0.2269452 -0.21124916 -0.21175978 -0.2648927 -0.008299618 -0.0710467 -0.02199605
-0.04322452 -0.16512324 0.03384126 0.23643844 0.15292393 -0.025024453 0.0053542163 0.18033385
0.29718032 0.2955977 0.1851264 0.11228164 0.12480498 0.15822798 0.18970188 0.15596607
0.06384363 0.001894324 -0.035220068 -0.0010283996 -0.013061516 -0.077691264 0.07315582 0.030282076
0.09731451 0.06541518 -0.056992978 0.101513565 0.076412275 0.07724626 0.0026919136 -0.11424087
0.038166944 -0.099592805 -0.062602006 -0.060262922 -0.13390793 0.017318783 -0.15789016 -0.099959634
-0.07605208 -0.1291462 0.052389607 -0.16139558 -0.11149071 -0.08159458 -0.21153897 0.14486785
-0.16003026 -0.07012123 0.025583614 -0.11363708 0.015885727 -0.03883064 -0.050168116 -0.10366776
-0.22648744 0.0038260287 -0.16257867 -0.12619972 -0.09845463 -0.17534116 0.038982037 -0.15246928
-0.11381405 -0.08857662 -0.13740726 0.075175814 -0.13543572 -0.13034302 -0.105820164 -0.20842351
0.2515285 -0.060347542 -0.0072863535 0.0861137 -0.029169776 0.035469912 0.02303578 0.041434504
0.007331452 -0.1481459 -0.009482998 -0.12937611 -0.08975452 -0.059050124 -0.16480869 0.1056785
-0.06346221 -0.030006973 -0.0031885407 -0.07532384 0.060615875 -0.14442302 -0.13240106 -0.09518625
-0.20773827 0.09792022 -0.19668332 -0.1637612 -0.06823919 -0.19642961 -0.15736654 -0.23699194
-0.27435482 -0.24203476 -0.15949814 -0.24508135 -0.3459851 -0.36854324 -0.33222696 -0.1514006
-0.22283988 -0.34318456 -0.4061203 -0.39040717 -0.2726972 -0.17010918 -0.31442788 -0.38691613
-0.37873298 -0.3382979 -0.16395023 -0.27215192 -0.31766126 -0.30527756 -0.24098073 0.16672759
0.24178378 0.22648247 0.16169457 0.093303904 0.17462087 0.2812405 0.3088011 0.2701622
0.28859514 0.20356794 0.3241647 0.36077988 0.33415198 0.30770135 0.19872542 0.29610398
0.34130618 0.35095537 0.27808648 0.11243701 0.22664542 0.29243028 0.33283636 0.33305454
0.036483627 0.07055762 0.016225886 -0.045021445 -0.1492253 0.032487027 0.104020074 0.092579395
0.047952995 0.036431044 0.016491106 0.112156406 0.118450955 0.08854609 0.023406971 -0.005484947
0.07286145 0.09002263 0.091026574 -0.0076646805 -0.13189928 -0.036696054 0.0013903957 0.04094293
0.021697538 -0.12930788 -0.14922735 0.066170275 0.18922874 0.12813349 -0.18765716 -0.048368342
0.17548187 0.1581441 -0.12272532 -0.22160943 0.027119331 0.15203846 0.01175868 -0.3603258
-0.20119976 0.11504507 0.1723792 -0.042859495 -0.42602548 -0.17061672 0.21251166 0.27479982
0.09118954 -0.2451456 -0.005707541 0.011819896 0.15821326 0.29228127 0.22380379 -0.04806441

base.conv1.1.weight f4 [8]
00000000: 0999 263e f7fe d83e 12bc b03e 8645 723e
00000010: 33fa c73d 57a6 aa3e 2cd7 ae3e 350f a93e
0.16269316 0.42382023 0.34518486 0.23659334 0.097645186 0.33330032 0.34148538 0.33019415

base.conv1.1.bias f4 [8]
00000000: 8719 86be 264c dabe 84c7 28be 7ade 7bbe
00000010: 87b3 2e3e e85a 7ebd 7105 3cbd ece7 fd3d
-0.2619135 -0.42636222 -0.16482359 -0.24596587 0.17060672 -0.062098414 -0.045903627 0.12397751

base.conv1.1.running_mean f4 [8]
00000000: a36a 7341 9fd6 fd41 b807 bfc0 1573 313f
00000010: e715 6e3e caee 18c1 232e dc40 0f96 d3c0
15.213534 31.729795 -5.969692 0.69316226 0.23250543 -9.558298 6.880632 -6.6120677

base.conv1.1.running_var f4 [8]
00000000: e44b a545 038b a947 48dc 5c47 cbbe 2045
00000010: a504 0d44 158f f945 ae7c d945 dbea b245
5289.4863 86806.02 56540.28 2571.9246 564.0726 7985.8853 6959.585 5725.357

base.conv2.0.weight f4 [8, 8, 3, 3]
00000000: 5ab0 d6bd 030a e73d 3b73 49bc b613 e33d
00000010: 1534 363e 3e72 2fbe ce5e 7dbc dd33 4cbe
00000020: 4baf 813d 5780 1fbc 4361 71bd b1eb 283d
00000030: 97d9 da3d 3f5c adbd 685d 1d3d 3960 1fbc
00000040: 0b43 53bd 7a9c 533d bff1 f93d 9b4d 22bc
00000050: 8af5 8c3e f65d 753e 5697 f2bf bed8 a9be
00000060: 2941 c73e a0b3 1dbf 8948 5bbc cb33 72b9
00000070: 6c0b 003c cf03 623c d434 ba3c 909d 52bd
00000080: 1cbf 94bc 4d3c dcb8 848b 773c 9422 bfbc
00000090: 0a60 e4bd 9ace 143d bd61 093d 2f76 363d
000000a0: c84d 8d3e cb2a 7dbe a7d4 ccbb 3de1 10be
000000b0: 541c 2bbd fbef da39 b077 61ba 0d84 1b3b
000000c0: dde3 9cbb 06dc d93b 76e0 c2bb 003f f63b
000000d0: 1691 91bb 0228 dd3c 9d06 dd3b f061 39bc
000000e0: afa6 9f3b 30ad 9e3c d9fb 72bc 5799 05bd
000000f0: 8520 41bd acc8 e23c b301 0b3b 6b97 863c
00000100: ef1d 97bc b94f 813c d76d cbbb 1fd2 9cbd
00000110: 2c7f 5e3d 8d76 a03c 40d7 a13d 6660 30bd
00000120: 3f87 223e eddf 803d e49e 9b3d 55d3 e43d
00000130: 13a4 103d 5543 a7bc 75a6 80be e9ac e2be
00000140: 3710 82be 5c8f ca3d bc63 963d 040d 76bd
00000150: 4842 fe3d 459c 4b3e 8fff cdbb 1396 81bd
00000160: af3c 99be b5b1 18be b6a0 92bd 5725 b3bd
00000170: e29a 4a3c 152a 63be 4595 543e b7f1 553e
00000180: cb10 febc 3df1 433e 49f4 3dbd 4379 743d
00000190: 0d22 873d 4cf9 193d 0d69 2a3e c93a 48bf
000001a0: c5d5 60bd 6bb8 b8bc 2c1b 3c3f 8a81 99bd
000001b0: aa25 0abc 4ea5 c93c df38 a8ba 7fdc fb3d
000001c0: 5297 09be 6e6b e03d ea89 c9bd 191d 153e
000001d0: 6964 00bd 8eaf 3c3a 273b 983c 757a c43c
000001e0: 5450 993c 7d01 c6bd 5b24 8dbd b456 0e3d
000001f0: 70e5 67bd 8471 4c3d 8e16 b23c f1d9 39bd
00000200: 2016 d23c 0f48 debd 017a 013f 1130 ec3a
00000210: 157b adbd a234 c0be 22dd 4f3d 0bd1 783b
00000220: 4c32 8f3c e5af 3abd 2a3b f7bd cb82 363b
00000230: a5f3 49bd ea31 623d f6d3 193f 06fa 3abe
00000240: c782 c8bd 90f5 8bbd b88f 763d 3758 55be
00000250: f6e4 08be 62e6 213e 6648 81bd 1ec8 793e
00000260: 72e4 0a3e 03a5 11bd d5c4 873e 6b91 84bd
00000270: 7cfb 88be 331b 5c3e 79b0 8cbd 3493 4abe
00000280: 6b98 0f3e 6a47 583d b65c 7c3d 2e4d a2bd
00000290: 0703 983c 2815 1b3c 057a aabd 579c 38bd
000002a0: 57ed 963c 6e91 da3c 3e13 d03c 5eab fdbc
000002b0: d36f 85be 2ae4 8b3d 5248 a8be 53c8 943e
000002c0: b6dc 893e 4fb7 dabb 2b98 dfbd 3d11 323c
000002d0: 9fed 41bc dde5 503d 70aa 2ebd 0afa 213e
000002e0: b12e 75bd e6b0 26be b39a 4ebd 61e3 f9bc
000002f0: 5e44 15ba 5686 e93c ce4b a0bd b17c 3cbe
00000300: 97d0 38be 7121 ea3e 92f6 243e 998d d33b
00000310: 25a3 253d e861 f5bd 1ae1 3cbd 14ac ee3c
00000320: 46f9 25be bbed c93d e81f f73e e092 93be
00000330: 711c 313d 8514 dbbd a599 24bd 43ab 4a3d
00000340: ee8b 883e 8f0e 1e3d 407e 923e 36e7 9ebf
00000350: 14b8 5f3e b7d2 9bbc 7e7c 0eb9 41b7 1c3e
00000360: 4d84 10bd 672e 3fbe 71a5 98bd e14f b23d
00000370: c666 25bd 6400 2d3c 5ac5 863d 6e14 843e
00000380: d75b 0b3e b94a a3bd f73a 6dbe 2728 9cbe
00000390: 10c6 243f 3143 b43e d7fc e8be 98d6 c33e
000003a0: d1a6 093e 82c6 babe 5e94 3fbc b292 d4bd
000003b0: 75a2 67bc b3cb 383d e1d0 dfbc 2183 91bd
000003c0: 6a75 be3d 99fb 36bd 5231 0b3d 5708 67bc
000003d0: 8573 0c3d 01e6 a43d dc7a 913e 24f3 d5be
000003e0: 653b b73d ac3f e23d 8753 0dbe b240 3c3d
000003f0: ae9e 893c 033c fd3d 4eb7 cabd f4ee 55bd
-0.10482855 0.112812065 -0.0122955395 0.11087744 0.17793305 -0.17133424 -0.015464498 -0.1994166
0.063322626 -0.009735188 -0.058930647 0.041240398 0.10686033 -0.0846486 0.038419157 -0.009727531
-0.05157761 0.0516629 0.122043125 -0.009906198 0.2753108 0.23961625 -1.8952434 -0.33173174
0.389169 -0.6160221 -0.013383993 -0.00023098213 0.007815223 0.013794853 0.022730269 -0.051419795
-0.018157534 -0.000105016494 0.015108947 -0.023331918 -0.111511305 0.036329843 0.033540476 0.044546302
0.27598405 -0.24723355 -0.006250936 -0.14148422 -0.041775063 0.00041759 -0.00086009037 0.0023729831
-0.0047879056 0.0066485433 -0.005947168 0.0075148344 -0.0044423444 0.026996616 0.006745173 -0.011314854
0.004872165 0.019369692 -0.014830553 -0.03261694 -0.047150154 0.027683578 0.002121073 0.016429624
-0.01844689 0.015785085 -0.0062081623 -0.07657265 0.0543205 0.01958778 0.07902384 -0.043060683
0.15871905 0.062927105 0.07598665 0.11173121 0.035312723 -0.020417849 -0.25126997 -0.44272545
-0.25402996 0.09890625 0.073432416 -0.060071006 0.12414986 0.19883831 -0.0062865685 -0.063274525
-0.2992911 -0.1491154 -0.071595594 -0.087473564 0.0123660285 -0.22184022 0.20760067 0.20892988
-0.031013867 0.19134994 -0.046375547 0.059685957 0.065982915 0.037591264 0.16641636 -0.782147
-0.054891367 -0.022548875 0.7347896 -0.07495411 -0.008431831 0.024614956 -0.0012834332 0.12297916
-0.1343663 0.109579906 -0.09840758 0.14561881 -0.03134576 0.00071977905 0.018582894 0.023984173
0.018715061 -0.096682526 -0.068917 0.034750655 -0.056615293 0.049912944 0.02173927 -0.04537386
0.025645316 -0.10853588 0.5057679 0.0018019696 -0.08470742 -0.37540156 0.050747998 0.0037966396
0.017480038 -0.045577902 -0.120718315 0.0027848955 -0.049304623 0.055223383 0.6008905 -0.18259439
-0.09790569 -0.06833947 0.060195655 -0.20834433 -0.13368592 0.1581054 -0.06312637 0.24392745
0.13563707 -0.035557758 0.26517358 -0.06473049 -0.26754367 0.2149475 -0.06869597 -0.19782716
0.14022987 0.05280248 0.061611854 -0.07924877 0.018556131 0.009465493 -0.08324055 -0.045070972
0.01842372 0.026680674 0.0253998 -0.030965503 -0.26061878 0.06830628 -0.32867676 0.29059085
0.26926202 -0.006674684 -0.109176956 0.010868368 -0.011836438 0.051000465 -0.04264301 0.15818039
-0.05985898 -0.16278419 -0.0504405 -0.03050393 -0.00056940864 0.02850644 -0.078269586 -0.18406941
-0.1804832 0.4572864 0.16109684 0.0064560887 0.04043879 -0.11981565 -0.04611311 0.029134788
-0.16208372 0.098597966 0.4826653 -0.28822994 0.043240014 -0.10697273 -0.04018559 0.049479734
0.26669258 0.038588103 0.28611946 -1.241431 0.21847564 -0.019021375 -0.00013588552 0.15304281
-0.03528242 -0.18670045 -0.074534304 0.08706642 -0.040381216 0.010559175 0.065806106 0.25796837
0.13609253 -0.079732366 -0.23167025 -0.30499384 0.6436472 0.35207513 -0.45505401 0.3824966
0.13442542 -0.36479574 -0.011693088 -0.103795424 -0.014137854 0.045116138 -0.02732128 -0.07105089
0.09299739 -0.044673536 0.033982582 -0.0141011095 0.034289856 0.08051682 0.28414047 -0.41787064
0.089468755 0.11047301 -0.13801394 0.045960136 0.016799297 0.12364962 -0.09898244 -0.052229837

base.conv2.1.weight f4 [8]
00000000: a9a1 053f d5b4 893e 7c18 ac3e 3828 9b3e
00000010: b7dc ac3e 0e8e ad3e a30c a53e 0ee6 b43e
0.521998 0.26895776 0.3361243 0.30304122 0.33762142 0.33897442 0.32236204 0.35331768

base.conv2.1.bias f4 [8]
00000000: 4b4d b23e ff9e 883d 1665 adbb b225 eb3d
00000010: fc43 e43e a325 153e 8d1b 4a3e 836c 293e
0.34824595 0.06670951 -0.0052915914 0.11481799 0.44583118 0.14565139 0.19737072 0.165453

base.conv2.1.running_mean f4 [8]
00000000: 2924 953e e7ae 313e 0e6d 6ebd 99f2 aabd
00000010: df58 2ebe 02bd 30bd acd8 b2bd 8390 8d3d
0.2912915 0.17351876 -0.05820947 -0.08347053 -0.17026089 -0.043149002 -0.08732733 0.06912329

base.conv2.1.running_var f4 [8]
00000000: e0ed d93e d3ac d93d 8c2e 593e 25f2 663e
00000010: 4421 543e c0d1 4a3e e553 6a3e 5d22 983e
0.42564297 0.10628667 0.21209162 0.22553308 0.20715815 0.19806576 0.22883566 0.29713717

base.conv3.0.weight f4 [16, 8, 3, 3]
00000000: e527 86bd 6787 003e 4ac8 833d 77fb 8d3c
00000010: e22f b03a ce96 8dbd 9868 da3d 6355 b3bc
00000020: 4579 3bbd aa7a f63c 7a2d 49be 08d3 8bbd
00000030: 97bc 94bd e210 49be 037c ecbb e4a7 ccbc
00000040: 0ed4 623d 689a 2a3d 795e 0abe 708f 00bf
00000050: ddbe 2ebd e71d ecbb 2161 1dbf 3f38 8dbd
00000060: 8061 c53d 6e34 1fbe 592c 88bd b51c 45bc
00000070: ed6a 4f3e 6a43 113e 8052 4e3e 960a 88bb
00000080: 603c 9a3d bae3 473c 20b8 a0bd 4778 023e
00000090: a556 893b 1b05 e03d e215 08bd 9d4c f0bd
000000a0: 58d7 153e d9ef 7a3d 72cf 3ebd 93f9 bbbd
000000b0: c583 553b d984 acbe cde5 4abe ed37 84bc
000000c0: 88b6 0ebf 3f29 02bf 9690 c53d a8b3 dcbc
000000d0: 0eac 89be 00a6 5cbd 076a 9a3d f0db 32be
000000e0: 18af cbbd fff1 5abe 4b86 afbd 613e 173e
000000f0: 655b 57be a84f 90ba 5ff9 df3d 16ec e0bd
00000100: b325 643e d6ab be3d 7542 41be 0bb7 dcbc
00000110: fe15 063d 0401 9a3c 8652 34bc 320d f13d
00000120: 8261 923d 8d06 293e 374c cfbd bb7d 1c3d
00000130: 562c e93d 4cb7 ccbd d87e 8ebd 1f94 68bd
00000140: 8837 10bc 5c42 45bd be1b cfbe 9c7b f03d
00000150: 9b3c 48be 6b4b 95be 89fd 073e af96 f5bc
00000160: a80b 9b3b 5967 123b 710e 3a3d 936f 6bbc
00000170: feea cb3d 3689 0b3e 2a13 45be c5f1 213e
00000180: 8fd5 f73c 66d1 bd3c 0a3b 67bc ee01 d03d
00000190: c754 bc3d aa9a 2ebd 6283 403e a5ff ecbd
000001a0: 8a64 263d fac8 343d 5590 47bd fe91 553e
000001b0: 70ee 3e3d 52b8 a1bd 2d55 743d 6719 8ebe
000001c0: c889 97be 29bc b43b 3d45 0bbe f02e 31bf
000001d0: b594 8d3d 8cff 0abe d503 903d 071d 803d
000001e0: 0a4d 9c3d c130 0fbd 42ba 033e b8e2 0f3e
000001f0: 6c58 d7bd 39ee 403d 62ec bb3d 36c1 adbd
00000200: 133f 863c 609f d43b e5de 8f3b 3131 d8bb
00000210: de4e 173e ef39 093e 469a 22bd 2fcf 993d
00000220: 402b 5fbb 039a 9cbc b037 88be f520 72bf
00000230: 5559 67be a41d a6bc 5ec3 f5bd b70f 85bd
00000240: ce40 9cbc a679 cb3d 74cf 6a3c 14c1 b93b
00000250: be6e 5bbd b449 743c bec3 c4bc f7b3 d5bd
00000260: e3f8 71bc 8928 3b3c e199 b43a 413d 2bbe
00000270: 20cc 15bd 56d7 5c3b 8ae6 073e f9d0 8bbd
00000280: ee89 11be b51e f43c 6519 b53b b0c4 003c
00000290: 27cf 8b3c e3db 2c3d 12b9 a5be d7ab b63c
000002a0: 50ba 8dbc afd8 193d dfd3 8d3b 770d ea3c
000002b0: 0677 473d 0226 273d 8883 913d 6377 adbd
000002c0: 6c5c 3fbd 9467 c33c 0b47 f1bc 7ca1 843c
000002d0: 29ce c3ba e8e1 673d 620b a3bc c16b 9a3d
000002e0: 0ae7 423f d4b9 c739 252c f63d aea5 d63e
000002f0: 08aa cdbd f846 1f3b 267f a73a b0cd 343c
00000300: f229 67be 4efe a4be e108 343d 1cc0 8b3d
00000310: 2983 443e 522b ccbc f864 4dbd 5a1d a1bd
00000320: 4a60 76bd 10ee 873e 4d5f 7e3f c48e bd3d
00000330: 0917 27be 3a8a a9be 8881 06be a2ec 0f3c
00000340: 9a9e a43a 8127 d7bb e013 72be 730b 7bbf
00000350: 7828 b3be 0823 0ebd 2e27 823e 36cc fc3d
00000360: 0000 0000 0000 0080 0000 0080 0000 0080
00000370: 0000 0080 0000 0080 0000 0080 0000 0080
00000380: 0000 0080 0000 0000 0000 0000 0000 0000
00000390: 0000 0000 0000 0000 0000 0080 0000 0000
000003a0: 0000 0000 0000 0000 0000 0000 0000 0000
000003b0: 0000 0000 0000 0080 0000 0000 0000 0080
000003c0: 0000 0000 0000 0000 0000 0000 0000 0080
000003d0: 0000 0000 0000 0080 0000 0000 0000 0080
000003e0: 0000 0080 0000 0000 0000 0000 0000 0000
000003f0: 0000 0000 0000 0080 0000 0080 0000 0000
-0.06550578 0.12551652 0.064346865 0.017331822 0.0013442005 -0.06913529 0.10664481 -0.021891301
-0.04576995 0.030087788 -0.19646254 -0.068273604 -0.07262533 -0.19635347 -0.007216932 -0.0249824
0.055378012 0.04165116 -0.13512601 -0.5021887 -0.04266249 -0.007205713 -0.6147633 -0.06895494
0.09637737 -0.15547344 -0.06649084 -0.01203077 0.20255633 0.14185873 0.20148659 -0.0041516526
0.07531047 0.01220029 -0.07847619 0.12741195 0.004191237 0.10938474 -0.033223994 -0.11733363
0.14632928 0.061263893 -0.046584554 -0.09178462 0.0032579761 -0.33695105 -0.19814225 -0.016139949
-0.5574727 -0.50844187 0.09646718 -0.026941136 -0.2688908 -0.053869247 0.07539754 -0.17466712
-0.09945506 -0.21381377 -0.08570536 0.1476989 -0.21030958 -0.0011010068 0.10936236 -0.1098253
0.22280006 0.09310119 -0.18873008 -0.02694275 0.032735817 0.018799312 -0.011006003 0.11770095
0.071475044 0.16506405 -0.10121959 0.038205843 0.113854095 -0.099958986 -0.06957787 -0.056781884
-0.008802302 -0.04815899 -0.40450853 0.117423266 -0.19554369 -0.29159102 0.1328031 -0.029979078
0.004731614 0.0022339432 0.04542393 -0.014369863 0.099569306 0.1362656 -0.19245592 0.15814884
0.0302532 0.023171138 -0.014113197 0.10156618 0.091958575 -0.042627968 0.18800119 -0.11572198
0.040623225 0.04413698 -0.04872163 0.20856473 0.04661411 -0.078964844 0.059651542 -0.27753755
-0.29597306 0.0055155945 -0.13600631 -0.69212246 0.06913129 -0.13574046 0.07031981 0.062555365
0.076318815 -0.034958605 0.1286402 0.1405133 -0.10514912 0.047102187 0.09175946 -0.08484118
0.016387498 0.0064887255 0.004390585 -0.006597661 0.14776179 0.13401006 -0.039697908 0.0751022
-0.0034052879 -0.019116407 -0.26604986 -0.9458154 -0.22592671 -0.020277806 -0.12000154 -0.06497138
-0.01907387 0.09935312 0.014331687 0.0056687687 -0.05357241 0.01491015 -0.024019118 -0.10434716
-0.014768812 0.011423239 0.001377877 -0.16722585 -0.036571622 0.0033697686 0.13271537 -0.06826968
-0.14212772 0.029799799 0.005526709 0.007859394 0.017066551 0.042201888 -0.3236776 0.022298736
-0.017300755 0.03756016 0.0043282355 0.028570874 0.048697494 0.04080773 0.07105166 -0.08470037
-0.046719 0.0238531 -0.029452821 0.016190283 -0.001493876 0.056611925 -0.019902889 0.07540084
0.7613379 0.0003809469 0.12020139 0.4192328 -0.100421965 0.0024303775 0.0012778982 0.011035368
-0.22574595 -0.3222527 0.04395378 0.06823751 0.19190659 -0.024923 -0.05014512 -0.078669265
-0.060150422 0.26548815 0.9936417 0.09255746 -0.16317381 -0.3311327 -0.1313535 0.008784445
0.0012559474 -0.0065659885 -0.23640394 -0.98064345 -0.34991813 -0.034701377 0.25420517 0.12343638
0.0 -0.0 -0.0 -0.0 -0.0 -0.0 -0.0 -0.0
-0.0 0.0 0.0 0.0 0.0 0.0 -0.0 0.0
0.0 0.0 0.0 0.0 0.0 -0.0 0.0 -0.0
0.0 0.0 0.0 -0.0 0.0 -0.0 0.0 -0.0
-0.0 0.0 0.0 0.0 0.0 -0.0 -0.0 0.0

base.conv3.1.weight f4 [16]
00000000: 9903 fb3e f631 f13e 2500 ee3e fb81 d63e
00000010: 4a41 aa3e d3ce e53e 26ec ae3e cd67 813e
00000020: 55b0 d13e a39f b83e a926 b53e 1978 b63e
00000030: 1642 9a3e c84c b53e f3d9 7b3e c136 af3e
0.49026182 0.4710843 0.46484485 0.41896042 0.33252937 0.44884357 0.34164542 0.25274506
0.40954843 0.36059293 0.35381058 0.35638502 0.30128545 0.35410142 0.2459486 0.3422146

base.conv3.1.bias f4 [16]
00000000: 04c2 e03b 9af0 993d de68 b5bc 84dc 2c3e
00000010: e6cc 443d 6212 39bd 51a5 0cbe ceda 85bc
00000020: 846a 243e 54da 82bc b6ca d73b d138 3cbd
00000030: 1c6f 193e 59c3 133e c945 cd3d cb7c fb3b
0.006859066 0.07516594 -0.022144731 0.16880995 0.04804697 -0.045183547 -0.13734938 -0.016339686
0.16056257 -0.015973248 0.0065854443 -0.04595262 0.14983791 0.14429988 0.10023076 0.0076747886

base.conv3.1.running_mean f4 [16]
00000000: 223c d7be 4cd4 49bf 4c23 bb3e 0be7 dbbc
00000010: 428a 3d3e 5472 58bf ee58 a8be acff 54be
00000020: 65e9 13bf 9528 7cbe e9a3 e5bd 890a 58bc
00000030: 8494 e9bc fd2f 8fbe a86d 333d 1df4 1c3e
-0.42038065 -0.78839564 0.36550367 -0.026843568 0.18509772 -0.8454945 -0.32880348 -0.20800656
-0.57778007 -0.24624856 -0.11212904 -0.0131861055 -0.0285132 -0.279663 0.04380575 0.15327497

base.conv3.1.running_var f4 [16]
00000000: 4426 863e bb97 ab3e 6c1f 623e 2801 2a3b
00000010: d5d9 6b3e a498 763e a883 f43d 5981 263e
00000020: 0ef9 3b3e 9237 493e c057 313e b706 6d3e
00000030: ff20 383e 1a4a 5f3e 50c9 263e bc95 933e
0.2620107 0.335142 0.22082299 0.002594063 0.23032315 0.24081665 0.11939174 0.1626028
0.18356726 0.19650105 0.1731863 0.23147093 0.17981337 0.21805611 0.16287732 0.28825176

base.conv4.res_layer.0.weight f4 [16, 16, 3, 3]
00000000: 9844 bbbd 4bff 5ebe ee83 1bbe 02e2 b23e
00000010: cbce 5cbe beaf 00be 68ff b73d 0839 eebc
00000020: b0c6 25be f966 4b3c 9a67 733d 70e4 85bd
00000030: 8246 943d 816f 72bd d502 cc3d 3410 1fbc
00000040: 38e3 70bd 8535 75be ed58 f13d 493b ba3d
00000050: be35 cf3d c116 26bc 8cc2 1b3d daae bb3d
00000060: 8e5f 7abc 2002 a43d aac8 52bd 2116 253e
00000070: 2281 2dbc 2847 08be be2a d43d d81f 8c3d
00000080: 702e ddbd 48e5 4c3e baf2 e43d 99da a5bd
00000090: 82da 513d 75ce 6abc 7e04 1f3c 63d5 82be
000000a0: 4fed 60bd 576d 2e3b dde9 e73c ab2b 693e
000000b0: 1e70 3d3d 28ad 493e ae04 9c3c c2c6 693d
000000c0: ade9 1c3e 1544 1f3e 4dcd 243e 73e7 3abb
000000d0: 8620 63bc 1364 a53d e1ce ccbd de89 34bd
000000e0: 919f c63c aeb8 b5bd 3f6e d7bd 6c59 62bd
000000f0: 6938 9f3d 1eaa 413e cd16 813d 54e6 393d
00000100: dda4 8a3d 01bc cbbd 550a b0bc 977a a6bd
00000110: 2b6f 3bbe 93a7 11bb 534c 7abd 7034 a1bd
00000120: 6219 2e3c 2f78 41bd ff5f 8b3b 11b6 293e
00000130: 7ba0 363d efe5 88bd 1b3b e73d 9250 c63d
00000140: 8bc8 59be c10d 033c 3d72 c2bd 0e4d 993d
00000150: aad0 703c 7b82 5a3d 7c16 833d cb37 aebd
00000160: 89fd 63be e3d4 5e3d 994c 18be d153 bebb
00000170: 07ad 713c 3046 02be aa69 2abe 1652 7b3d
00000180: 0ced 843b ba0f ddbe 74e5 0dbe 6c8d 063e
00000190: dced 0e3e a167 843d 555d 24be 062c 943d
000001a0: fe8a 8b3d 90f7 9cbe dca6 093b aee8 46bd
000001b0: c46d f1bc bf27 f2bd 4df3 85bd 8745 6abe
000001c0: 298d f4be c410 4cbe 0d1b 273d ba08 a1be
000001d0: c5f3 0b3d a156 373e 4da6 e2ba b2ab 3bbd
000001e0: dc7f 093e a70f dcbc 9484 363e 0d1e cebc
000001f0: 20aa b2bd a188 113d 28ae d83c d346 38be
00000200: e900 63bd 04d9 acbc 5845 97bd 52a9 6ebd
00000210: 4850 8ebd a832 7ebc 5eaa 14bd bb98 f63c
00000220: d637 aaba 2203 f13d 9bf0 cb3d f246 52bd
00000230: 9fd8 ccbd ab5b 3e3e d69e 17bd c380 87ba
00000240: f80d 1dbe 8190 08bd c0e4 80be d7e7 e93d
00000250: 2bed 16be 0817 5d3d 9f5a 1bbe a785 693b
00000260: 83e7 103f 7cdc 83bd b469 953e ce36 c33d
00000270: 789c 313e 0c39 f73d a489 67be 436a 623d
00000280: da1a cfbe 9cf8 5abd 216b 373d 60bb 8fbe
00000290: 4381 0a3e 06a7 ce3c d2fc 563e f418 1abe
000002a0: 95ec 933c bcef afbe 2bb7 f63d 8f78 05bd
000002b0: 54f5 24bc 1e0e 4d3d 00ff 973c 53e0 98bd
000002c0: a1e5 cebd d8b0 0e3e 29c0 043c bf4a 0a3e
000002d0: 0b0a 65bd a1f3 14bd f8e8 cfbc 24a8 efbd
000002e0: 78c3 b33c 0054 45bc ea25 82bd d4b9 a03e
000002f0: 8728 f1bd 7bc7 503d 4578 d03d f504 2cbd
00000300: 298d 3ebe be9f 69bc 3842 163e 98aa 8b3e
00000310: 2d77 a7be 736c 1bbe 9a45 25be 18b0 d4bd
00000320: bd60 39ba fae2 243c 1b1c c9bd a341 87bd
00000330: 42be e4bb 9fbf 383d f1f8 2d3e cb24 8ebc
00000340: 09af b0bd 16d7 1cbd f6ac d0bd c140 afbc
00000350: 54e8 6abd e1ab c83c 3fb7 d6bc 98e7 213d
00000360: 5e01 c23e 019c 51bc f999 d7bd 3299 ffbd
00000370: 672a e9be 3a19 af3b bffa 88bc 7b1d 833e
00000380: 2e05 a8bb 8272 6e3d 7d18 f2bd 1dc4 0abd
00000390: 12f5 f5bd 54c7 b33d d17b 53be 33d4 eb3d
000003a0: 8323 2ebe f265 013e 93f5 b3bd 43cf 1abe
000003b0: a5da 0cbd 21df f3bc 488f d1be 54e4 4cbe
000003c0: dbfa 6fbd 4aa6 d9bd 25ff 10be 34f0 173e
000003d0: 98ae 68be 5fdf 20bd 13e1 353d 02a5 af3e
000003e0: 3e28 10bd 88da c23d 6cfd d9bc 592a e4bb
000003f0: 5757 3f3d c8fa 0abc aea7 afbd 7f34 7bbd
-0.091439426 -0.21777074 -0.15187046 0.34938055 -0.2156326 -0.1256704 0.08984262 -0.029079929
-0.16189075 0.012414687 0.059424974 -0.065377116 0.07240011 -0.05918837 0.09961478 -0.009708453
-0.058810443 -0.23946197 0.11784539 0.09093339 0.101176724 -0.010137261 0.03802733 0.0916421
-0.015281571 0.08008218 -0.0514609 0.16121723 -0.01058987 -0.13308394 0.10359715 0.06842011
-0.10799873 0.20009339 0.11179109 -0.08098335 0.051233776 -0.01433145 0.009705661 -0.25553426
-0.054913815 0.0026615465 0.028309757 0.22770564 0.0462495 0.1969496 0.0190452 0.057074316
0.15323515 0.15553315 0.16093941 -0.0028519302 -0.013862735 0.08075728 -0.100003965 -0.044076793
0.024246009 -0.088731155 -0.10519075 -0.05526106 0.07774431 0.18912551 0.06303177 0.045385674
0.067697264 -0.09947968 -0.021489302 -0.08128851 -0.18304126 -0.0022225126 -0.061107945 -0.0787133
0.010626169 -0.047233757 0.004253387 0.16573359 0.04458664 -0.06684481 0.1129057 0.09683336
-0.21267907 0.007998885 -0.094944455 0.074854 0.014698187 0.053347092 0.06400773 -0.085067354
-0.22264685 0.054402243 -0.1487297 -0.0058083315 0.014750726 -0.12722087 -0.1664187 0.06135758
0.0040565785 -0.4317606 -0.1385706 0.13139886 0.13957924 0.06465078 -0.16051228 0.07234959
0.0681362 -0.30657625 0.0021003997 -0.048561744 -0.029471286 -0.11823987 -0.065405466 -0.22878085
-0.47763947 -0.1992827 0.040797282 -0.3145197 0.034168024 0.1790414 -0.0017291993 -0.04581804
0.1342768 -0.026862932 0.17824012 -0.025160814 -0.08723855 0.03553069 0.026450232 -0.17995767
-0.05542079 -0.021099575 -0.07386273 -0.058266945 -0.06948906 -0.015515007 -0.036295287 0.030102124
-0.0012986611 0.11768176 0.09958001 -0.05133719 -0.10002255 0.18589656 -0.037016712 -0.0010338057
-0.1533736 -0.033340935 -0.25174522 0.11421173 -0.1473891 0.053977042 -0.15171288 0.0035632642
0.5660326 -0.064385384 0.29182208 0.095319375 0.17344844 0.12071428 -0.226111 0.05527712
-0.40450174 -0.05345975 0.0447799 -0.28072643 0.13525872 0.025226127 0.20994881 -0.15048581
0.018057147 -0.3436259 0.12046655 -0.032585677 -0.010068256 0.05006229 0.01855421 -0.074646614
-0.10102392 0.13934648 0.008102455 0.13505076 -0.05591778 -0.036365155 -0.025379643 -0.11701992
0.021943793 -0.012043953 -0.06354888 0.31391776 -0.11775308 0.05097149 0.101791896 -0.041996915
-0.18608536 -0.014259277 0.14673698 0.2727859 -0.3270811 -0.15178089 -0.16139832 -0.1038515
-0.0007071605 0.010063881 -0.09819814 -0.06604316 -0.0069806883 0.04510462 0.16989495 -0.017351529
-0.08627135 -0.03829106 -0.1018924 -0.021393182 -0.05735047 0.02449602 -0.026210425 0.039527506
0.37891668 -0.012793542 -0.10527415 -0.124803916 -0.45540163 0.0053435834 -0.016721128 0.2560843
-0.0051275706 0.058214672 -0.11821077 -0.033878434 -0.12009634 0.08778253 -0.20652701 0.11515083
-0.17005734 0.12636545 -0.08787074 -0.15118127 -0.034388203 -0.029769482 -0.40929627 -0.20008975
-0.058588844 -0.1062742 -0.1415983 0.14837724 -0.22722852 -0.039275523 0.0444041 0.34305578
-0.035194628 0.09514338 -0.026610099 -0.006963056 0.046714153 -0.0084826425 -0.08576904 -0.06132936

base.conv4.res_layer.1.weight f4 [16]
00000000: 0420 9a3e 7f9b fa3e ec57 013f 47ee 9e3e
00000010: d8ec dd3e c34d bc3e 9d10 d33e bcd0 9a3e
00000020: 0b7c 073f d042 9f3e 2fc9 bd3e 7a63 f13e
00000030: 7a1b 0080 12cb f13e 81fc de3e bbd8 c03e
0.3010255 0.4894676 0.50524783 0.31041166 0.4334476 0.36778077 0.41223612 0.30237377
0.5292365 0.3110566 0.37067553 0.47146207 -9.857e-42 0.47225243 0.4355202 0.37665352

base.conv4.res_layer.1.bias f4 [16]
00000000: a89d 9f3d da95 37be 3326 e1bd 7747 d9bd
00000010: 847e 7fbd 1597 3cbe f3e9 993e 2205 ddbc
00000020: 4ed0 57be bbb2 99bd a44c 1bbc a447 563e
00000030: b99e 80a6 cb4e 04be 2b96 e8bd 0a4a 983d
0.077937424 -0.17928258 -0.10993614 -0.10609334 -0.062376514 -0.18417008 0.30061302 -0.026979987
-0.21075556 -0.07504793 -0.009478722 0.20925766 -8.924806e-16 -0.12920682 -0.11356767 0.07435997

base.conv4.res_layer.1.running_mean f4 [16]
00000000: 817e 81be d086 aebe a405 01bf f6a3 03be
00000010: a4ff a7be 21e1 c9be d9a0 9fbe 99f6 19bf
00000020: 2fd7 b1be 1ddc 93be 0856 3dbe 2357 32be
00000030: 0400 0080 d426 9dbe 4ecd 1cbf 2c9d 05bf
-0.25291827 -0.3408723 -0.5039923 -0.12855515 -0.32812226 -0.39429572 -0.31177405 -0.60141903
-0.34734485 -0.2887887 -0.1848985 -0.17416053 -6e-45 -0.30693686 -0.6125077 -0.5219295

base.conv4.res_layer.1.running_var f4 [16]
00000000: 3af6 033e 5b33 553e 808f 313e 5e08 dc3d
00000010: 7155 f33d 4ea4 163e c6ee 933e 227a b23d
00000020: b9ca 3a3e bffe cb3d 1d66 123e d5df ca3e
00000030: 0400 0000 4085 3f3e b588 7c3e 9f1d 9b3e
0.12886897 0.20820372 0.17339897 0.107437834 0.11881531 0.14711115 0.28893107 0.08714701
0.18241395 0.09960698 0.14296766 0.39623895 6e-45 0.18703175 0.24661525 0.30296037

base.conv4.res_layer.3.weight f4 [16, 16, 3, 3]
00000000: 69c0 3a3d 8b31 563e 0c02 783e a549 0abe
00000010: 62dc a23d 11c9 f43d fd5a a9bd 95c5 cebd
00000020: d3d0 0c3e f1ce a9bd 39b2 933d f398 99bc
00000030: c3ae b9bd e1bb 32bd 25e8 85bc 2286 44bd
00000040: 7308 efbc 6a2a a8bc 237b fb3d e153 713e
00000050: 29b7 aa3d 5026 48be 03dc a53d 8da2 803d
00000060: f626 06be 594e 293d a998 103d 1b8f 80bd
00000070: b59e 1f3c baba 71bb 277e 0abe a6b9 c6bd
00000080: f014 6b3c 9ec9 383d 2d64 1a3d b981 343d
00000090: c28f c33c c54b 9f3d 4ca7 333e 20f7 debd
000000a0: 03e1 33be c918 33be dd86 c8bc 7b8e c2bd
000000b0: e32b 30be a25b fb3c 8036 0c3e e115 e63d
000000c0: ae38 21bd 7256 2dbd 6957 50bc 8e74 29bd
000000d0: 49ec 2fbe 487d 06be 68e5 3b3e ddc9 413e
000000e0: 2e5c febc 31bc 9c3e f572 723e a528 d83c
000000f0: 9c36 073e 5fda 653d ad4d 4ebe c6da 383d
00000100: 5724 ba3d 4bbf e13d e50c b2bd a733 603d
00000110: ab89 67bd 7582 913b 24f6 ed3d fd11 32be
00000120: d6c6 44bd 4069 3bbe b134 47be d993 a4bd
00000130: 82b7 283c a5c4 503d 58ce adbd 88ba 973d
00000140: cf9e 983d aa54 1e3e 9a98 05bc 4233 8bbd
00000150: 2436 983d 24a3 423c df31 c93c c941 72bd
00000160: 9e55 20be ab48 a1bd cf5d 473b 712c c1bd
00000170: bd28 8abd 5785 f23d eead cb3d b0b8 8d3c
00000180: be07 013e 0002 823e 3c61 873e af97 41be
00000190: 0a91 84be f3e3 c5bc 8a38 52be e644 06bb
000001a0: 31ef 2e3e b8e0 2ebd 7dfe 813e bce4 5f3e
000001b0: 3d25 0000 8626 0000 8210 0000 b21a 0080
000001c0: 3437 0080 6e20 0000 4322 0080 7428 0080
000001d0: 0a02 0000 08bb cabb 7750 403d 1140 9b3d
000001e0: bd3a b43d 2c29 6b3e 75c0 043e 6898 1f3e
000001f0: 8695 8a3e 12dc d73d ccc4 abbd b552 563d
00000200: 9e60 82bc bc53 3f3c d803 153e ebc1 e9bd
00000210: 4909 ccbd ae31 21bd a4b9 4ebd aca1 75bd
00000220: 175f 8b3d 85d3 933e 49cc dabd 60f2 163d
00000230: 6d61 273b 5bcf 9ebd a72f 9dbd 30c9 a4bd
00000240: 224e f33b 1e65 27bc 57ab b3bc 7afb 20bb
00000250: a731 053c a107 2abc 365e 1abd 76bb b9bc
00000260: 75e4 f9bc f431 59bd 3dea 1ebd 5581 903c
00000270: 78e0 9cbd 1927 26bd 82f7 24bb 7d96 b0bd
00000280: 19b7 90bd aaf2 f6ba 2e44 2abd 129d f3bc
00000290: 578d 05bc 6926 02bd c511 f6bc e5da 74bc
000002a0: c591 92bc ffc5 2fbd 0044 99bd f9c2 643c
000002b0: 464e 503c ff9a 95ba fbc1 7e3c 64d9 143c
000002c0: ad4a 4bbc 86c0 273d 6c00 9c3c cf1d 37bb
000002d0: 1270 91bb 3ef9 01bb 28a6 ee3c 3250 bbbc
000002e0: 6dd4 643b 109b c33c 4c24 c0bc fe48 11bc
000002f0: 15a4 d13c 71a3 7fbc 1fb3 3bbc 2cef e7bc
00000300: 5d61 0fbc ecfc 5b3b 873f afbc 73a4 0e3c
00000310: 145e afbb cfc9 63bd ff8d baba 4ca1 2e3c
00000320: 9338 f639 d6d6 0a3b 2da2 d5bb c074 c5b9
00000330: 83bf 973c 5a5e 013c dc1f bbbb b6d0 d8bb
00000340: 9515 0b3d 3820 e03c b0d9 a53b ae87 1c3d
00000350: 5d79 333d b182 cd3b 8f77 0a3d a24a 443d
00000360: 6b69 aebc 16d4 873c 37ec 0a3d e7e0 12bd
00000370: 13c7 453b cd31 073d ea77 cfbc bd9b 763b
00000380: c393 92bb b539 463d 2d47 053d 0214 683c
00000390: 818c 2b3d aece 8c3c ec4f 973b a311 693d
000003a0: db4b 87bb e0e1 18bd da81 203c ab3e 313d
000003b0: 1ab2 7f3c bd8c b93b 167b 493c f5e6 03bd
000003c0: b9de c0b9 13b4 e33c d312 a1bc b6e3 11bd
000003d0: 9d2b d8bc a80b f1bb a4a5 90bc 9706 7eb9
000003e0: 6e8f a23c 994b 36bc f084 e33c c0c6 d83c
000003f0: 5f08 0000 fc2a 0080 a51e 0080 9309 0080
0.045593653 0.20917337 0.24219531 -0.13504656 0.07952191 0.11952413 -0.08269308 -0.100962795
0.13751535 -0.08291424 0.07211728 -0.01874969 -0.09066536 -0.043636207 -0.016346047 -0.04797948
-0.029178834 -0.020528037 0.12279346 0.23567154 0.08335716 -0.19545865 0.080986045 0.06281004
-0.131008 0.041334484 0.035301838 -0.06277295 0.009742429 -0.003688498 -0.13524686 -0.097033784
0.014348254 0.045114152 0.03769319 0.044069026 0.02387226 0.07778124 0.17544287 -0.10886979
-0.17566304 -0.17489924 -0.02447837 -0.09499832 -0.17204241 0.030683342 0.13692665 0.11234642
-0.039360695 -0.04231877 -0.012716153 -0.04137092 -0.1717998 -0.13133729 0.1834923 0.18924661
-0.031049814 0.3061233 0.23676665 0.026386568 0.13204426 0.056116458 -0.20146818 0.045130514
0.090889625 0.11022814 -0.08693866 0.05473676 -0.056527775 0.0044406005 0.11619213 -0.17389674
-0.048041187 -0.18301868 -0.19453694 -0.08036012 0.010297658 0.050968785 -0.084866226 0.07408625
0.07452165 0.15461984 -0.008154059 -0.06796886 0.074322015 0.011879716 0.024559913 -0.05914477
-0.1565766 -0.078751884 0.0030420905 -0.09432305 -0.067460515 0.11841839 0.09945284 0.01729998
0.1260061 0.2539215 0.2644137 -0.18905519 -0.25891906 -0.024156546 -0.2052938 -0.0020487844
0.17083432 -0.042694777 0.25389472 0.21864599 1.3359e-41 1.382e-41 5.922e-42 -9.576e-42
-1.9803e-41 1.1634e-41 -1.2291e-41 -1.4512e-41 7.31e-43 -0.0061868466 0.046951737 0.07580579
0.08800266 0.22964925 0.12964042 0.15585482 0.27067202 0.10540022 -0.083871454 0.05232497
-0.015915211 0.011677679 0.14552248 -0.1141394 -0.099627085 -0.03935402 -0.05047001 -0.059968635
0.06805246 0.28872314 -0.106834956 0.03685224 0.0025540248 -0.07754394 -0.076751046 -0.08046186
0.0074250856 -0.010216979 -0.021932287 -0.0024563954 0.008129514 -0.010377795 -0.037687503 -0.022672396
-0.030504445 -0.053026155 -0.038797606 0.017639795 -0.076600015 -0.04056463 -0.002517194 -0.08622453
-0.07066173 -0.001884063 -0.041568927 -0.029737983 -0.008151374 -0.031774912 -0.03003777 -0.014944767
-0.017891774 -0.042913433 -0.07483673 0.013962501 0.012713974 -0.001141399 0.015549178 0.009085033
-0.012407941 0.04095509 0.01904317 -0.0027941351 -0.0044384087 -0.0019832398 0.029131964 -0.022865389
0.0034916655 0.02387765 -0.023454808 -0.0088675 0.025590936 -0.015602932 -0.01145628 -0.028312288
-0.008751241 0.0033567501 -0.021392597 0.0087062 -0.005351791 -0.05561238 -0.0014232992 0.010658573
0.00046962927 0.002118518 -0.006519577 -0.00037661754 0.018523937 0.00789603 -0.005710585 -0.006616677
0.03395613 0.027359113 0.0050613508 0.03821533 0.043816913 0.006271683 0.033805426 0.047922738
-0.021290502 0.016580623 0.03391668 -0.035859015 0.0030178472 0.033006478 -0.025325734 0.0037629448
-0.004473181 0.048394877 0.03253858 0.0141649265 0.04188204 0.017188396 0.0046176817 0.056901585
-0.0041289157 -0.037324786 0.009796584 0.043272655 0.015606428 0.0056625293 0.012297412 -0.03220268
-0.00036787035 0.027795827 -0.019662296 -0.035617553 -0.026387984 -0.007356126 -0.017657109 -0.00024225783
0.019843783 -0.011126422 0.02777335 0.026461959 3.003e-42 -1.542e-41 -1.0993e-41 -3.435e-42

base.conv4.res_layer.4.weight f4 [16]
00000000: 0562 e73e b6d5 9d3d 1b02 e6bc 4697 8a3e
00000010: 8e4d f53e 42dc 043f 6940 c73e e2f9 f93e
00000020: ab1c d93e 1fe9 263a 831d 6dbd 2452 ca3e
00000030: d9ca 023f 22d4 b93e d525 de3e e20e b43e
0.4519197 0.07706778 -0.028077176 0.27068537 0.47910732 0.51898587 0.3891633 0.48823458
0.42404684 0.0006367135 -0.057889473 0.39515793 0.5109077 0.36294657 0.4338824 0.35167605

base.conv4.res_layer.4.bias f4 [16]
00000000: 03b6 943d 22da 33bd 5170 0dbc 2784 043e
00000010: 6e1b a43b 8be5 7a3c 1468 f93c 0f16 4cbe
00000020: 9f6b 13be a676 59bc 7e4c 01bd d9fb 573d
00000030: 94a3 2fbe b506 b7bd 3abf c4bc 44f1 1e3d
0.072612785 -0.0439092 -0.008632735 0.12941037 0.0050081527 0.015313516 0.030445136 -0.1993029
-0.14396523 -0.013272917 -0.03156709 0.052730415 -0.17152244 -0.08936826 -0.024016965 0.038804308

base.conv4.res_layer.4.running_mean f4 [16]
00000000: f677 f13e 66e8 b4bd 89e6 91bd 8386 a23b
00000010: 5397 ab3e e02e 30bf 925f 0b3f 53d5 01bd
00000020: 3164 1f3d ad97 933c 1cad 57bd ba33 7ebe
00000030: 5f5d 0e3e 874a b33e e729 083f 0a96 3c3d
0.47161835 -0.08833389 -0.07124049 0.0049598827 0.3351389 -0.68821526 0.54442704 -0.031697582
0.03891391 0.01801666 -0.052655324 -0.2482442 0.13902806 0.35017797 0.5318894 0.046041526

base.conv4.res_layer.4.running_var f4 [16]
00000000: ce81 983d e959 ac3b 8457 6f3b 4bfc c53d
00000010: 7971 023e 423d 163e a34c d33d 344e b53d
00000020: 5144 963d 2920 143a 1c46 753b 8194 d93d
00000030: 623a 333e aa3e 823d 2093 d03d edd5 963d
0.07446633 0.0052597416 0.003652067 0.09667262 0.12738599 0.14671806 0.10317352 0.08852807
0.07337249 0.0005650544 0.0037425822 0.10624028 0.1750274 0.063596085 0.10184312 0.07365022

base.m0.b2_1.0.shortcut_layer.0.weight f4 [16, 16, 1, 1]
00000000: b3d6 683e fc5c 3f3e 1852 19bd f32a ca3b
00000010: 170b a4be e544 5ebd 8d0d 4e3d 8aba a5be
00000020: d93b f63c 9870 d83d bbdb 533e e303 dc3b
00000030: de41 d03e 9497 74bd 15d1 d93d bff1 323e
00000040: 557f 51bd d3a4 3ebd 5640 dd3c 0620 12be
00000050: 1ef5 44be 390e 85be 6edf 81bc f75b ecbd
00000060: f30a c8bd 49c5 bf3d 4559 21bd 2d3d cabd
00000070: 546b 77be c4ea 27be 9e60 87be a8c2 27be
00000080: 85cb 5a3d 8b8e 173e 54f9 873d c224 2a3f
00000090: 5e2a 12be c941 a93c b275 363e 0487 18bd
000000a0: 6d75 76bd 6e34 113b fb72 cfbd 104a bbbd
000000b0: 4eb6 aebe 23db 623d 3418 743d ab98 8fbb
000000c0: a5eb 813d e322 253e 864a a9bc 069f 803e
000000d0: 957b 8a3d 5ab9 d53c 6506 babd a14f 8dbe
000000e0: a52c cdbd 0b7b 2b3d cf82 2d3d a328 2a3e
000000f0: 01f4 243e cd5d 08be f00d 63be be47 68be
00000100: 815f 093e 65ce bbbd 2d8d 36be d377 9dbe
00000110: 8f71 083e 0127 8cbe ad6c e3bd 186b 353e
00000120: 2c04 82bd a184 b9bd 6e87 82bd 70d0 13be
00000130: e1ba 1d3c 9c44 90be 2be3 e43d 90c0 a93d
00000140: d156 583d 8d99 023d 1b5b ad3c 4f7f 49be
00000150: 854f 9ebe 748e 343c 8177 13be c750 e8bc
00000160: 5252 713e ab09 96bd 8853 d4bd 16a6 fdbc
00000170: a848 9dbe 5d7a 57bd 22ac ce3d b5ec cabc
00000180: 0d29 1c3e dd06 efbd fac4 0cbe 08bf 813d
00000190: 89cf ea3d f582 54be 2214 0fbd d4fc 293d
000001a0: 9fe0 f03d e234 e7bd 73df 01bd e0ad 113d
000001b0: e600 073e 5e61 9e3d eef9 f4bd 00b4 5abe
000001c0: 0000 0080 0000 0000 0000 0080 0000 0080
000001d0: 0000 0080 0000 0080 0000 0080 0000 0000
000001e0: 0000 0000 0000 0000 0000 0000 0000 0080
000001f0: 0000 0000 0000 0080 0000 0080 0000 0080
00000200: b3c1 2abe 9693 24be 5b1b 9f3c b2ef 63be
00000210: 1f5d 763e 106a d3bc 96d8 efbc a0cc 5dbe
00000220: 9520 3d3e 06c1 6dba 0d7d 48bd 675f 14bc
00000230: 8622 e2bc 9e54 58be 5c0f 023e adb4 3a3d
00000240: fd90 c9be 03e4 363c 589b 96bd 4b03 473c
00000250: e622 b5bd ef6f 40be 6edc 39be a15d 2fbe
00000260: 4510 1fbe 2cf1 1f3d f8e9 a0bc f22a 373d
00000270: 80b9 70bc d74e 3c3e 65b8 4f3e 9cd5 823d
00000280: 469a 83be 383a 363e d919 02bd b1b2 fc3d
00000290: d1ac 2f3e f170 fbbd 0166 603d 2c46 b73c
000002a0: cd5e 313e 9534 3c3d a8e1 1e3e 0eb5 05bd
000002b0: 9a59 233d c099 d73d 6f64 d7bd a6fc c53e
000002c0: d726 0fbd 3882 163c 3ce2 0bbe 9878 3ebe
000002d0: 80f3 ccba 4e15 2fbe 3c71 033d 4615 213e
000002e0: f49e 19be dcab 18be 32b6 41be 7b53 cebd
000002f0: 36c9 83bd fc89 683e 7971 8fbe 0dfa a9bd
00000300: 06f5 823d a972 033e c4e7 0e3e 032f cbbe
00000310: b5ee dd3d 12bb 8b3e 3e5b 713e e187 2b3e
00000320: d3d5 a7bc 680d a7bc 8f80 0c3d 490d 93bc
00000330: 86ef 07be c35f 3b3a 0564 453e 1918 36bd
00000340: 27e9 8a3b f25c b8bd 1677 573d fcc2 97be
00000350: 31ad adbd a66f 383e 337d e53d 5e18 833e
00000360: d804 24be 7698 64bd 6794 6f3c bd9a 703e
00000370: e735 3abe f208 b9bc c502 4d3e 5882 a33d
00000380: 96fe 5abe eaae f7bd 4493 623e 3af7 9e3e
00000390: 2857 cd3d 5d13 4c3e b94b bd3d abb4 993e
000003a0: d54f 27bd 6251 59bd f256 a03d 1532 1cbe
000003b0: 774e 273e edac 02be f27e 1abb b064 4f3e
000003c0: 0c89 043d 869b 513e 1f3e 973d e13c b83e
000003d0: f4e3 19bc d77d 6dbb 0f1a 10be 9443 a5bc
000003e0: 4d06 93bc ba05 3e3e 564b 273e 4579 5e3e
000003f0: 1af5 65bc f989 503e 667f a23e c8b2 8c3d
0.22738151 0.18687814 -0.037431806 0.0061696707 -0.3203971 -0.05426492 0.05030589 -0.3236888
0.030057834 0.105683506 0.2068929 0.0067143305 0.40675253 -0.05971487 0.10635582 0.17475031
-0.051146824 -0.046543907 0.027008217 -0.14270028 -0.1923413 -0.25987414 -0.01585361 -0.115409784
-0.097677134 0.09363801 -0.039391775 -0.098749496 -0.24162036 -0.1639815 -0.264409 -0.16382849
0.053416748 0.1480047 0.066393524 0.6646234 -0.14273974 0.020661252 0.17818335 -0.037238136
-0.06017058 0.0022156495 -0.10129353 -0.09144986 -0.34123462 0.055384766 0.059593394 -0.004382213
0.06343774 0.1612659 -0.020665418 0.25121325 0.06761853 0.02608936 -0.09083251 -0.27599815
-0.10018281 0.04186539 0.042361077 0.16617064 0.16108705 -0.13317032 -0.22173285 -0.22683617
0.13415338 -0.09170226 -0.17827292 -0.3075548 0.13324569 -0.27373508 -0.11104713 0.17716634
-0.06348452 -0.090585 -0.063734874 -0.14434981 0.009627075 -0.28177345 0.11176141 0.082886815
0.05281717 0.03188472 0.021161607 -0.1967747 -0.30920044 0.011020292 -0.14401056 -0.02835883
0.23566559 -0.07326063 -0.10367495 -0.030962985 -0.30719495 -0.05260693 0.100914255 -0.024771074
0.15250035 -0.11671231 -0.13747016 0.063352644 0.114653654 -0.20753081 -0.03493131 0.04150088
0.11761593 -0.112893835 -0.03170724 0.03556621 0.13183936 0.07733415 -0.11961733 -0.21357727
-0.0 0.0 -0.0 -0.0 -0.0 -0.0 -0.0 0.0
0.0 0.0 0.0 -0.0 0.0 -0.0 -0.0 -0.0
-0.16675453 -0.16071925 0.019422224 -0.22259405 0.2405896 -0.02580741 -0.02927808 -0.2166009
0.1846946 -0.0009069595 -0.048947383 -0.009055949 -0.027604353 -0.21126029 0.12701172 0.045582462
-0.3936843 0.011162761 -0.07353848 0.012146781 -0.08844547 -0.187927 -0.18150494 -0.1712556
-0.1553355 0.03904836 -0.019642815 0.04471869 -0.014692664 0.1838945 0.20285185 0.06388399
-0.2570364 0.17795646 -0.03176293 0.1233877 0.17155768 -0.12277401 0.05478478 0.022372328
0.1732132 0.045948584 0.15515769 -0.03264337 0.039880373 0.10527372 -0.10517203 0.38669318
-0.03494915 0.00918632 -0.1366052 -0.1860069 -0.0015636533 -0.17097971 0.03209041 0.15730771
-0.15002042 -0.14909309 -0.18917158 -0.100745164 -0.06434862 0.22708887 -0.2801626 -0.082996465
0.06394391 0.12836708 0.13955599 -0.39684305 0.108365454 0.2729116 0.23569962 0.16751052
-0.020487702 -0.020392135 0.03430229 -0.01795067 -0.13274965 0.00071477535 0.19276436 -0.044456575
0.0042392197 -0.09002103 0.052603804 -0.2964095 -0.08480299 0.1801134 0.112055205 0.25604528
-0.16017473 -0.05580946 0.014622784 0.23496528 -0.18184625 -0.022587273 0.20020588 0.079838455
-0.2138618 -0.12093909 0.2212649 0.31047994 0.10026389 0.19929262 0.092429586 0.3002065
-0.040847618 -0.05305613 0.078290835 -0.1525348 0.16338526 -0.12761278 -0.00235742 0.20253253
0.03235726 0.20469484 0.073848955 0.35983947 -0.009392727 -0.0036238336 -0.1407244 -0.020173825
-0.01794734 0.18556872 0.16337332 0.21725948 -0.014035488 0.20365132 0.31737822 0.06870037

base.m0.b2_1.0.shortcut_layer.1.weight f4 [16]
00000000: aa95 003f b3f9 433e fa44 d43e e18e 883e
00000010: eca2 843e 52bb 193e 53ba 093e 6120 d839
00000020: 9208 293e 9862 7f3e d7c3 533e dc21 413e
00000030: 0d2b 593e 969b 743e aab4 b53e 75a7 1f3e
0.5022837 0.19138221 0.41458875 0.26671508 0.2590555 0.15012863 0.13449983 0.00041222855
0.16507176 0.24939954 0.20680176 0.18860573 0.21207829 0.23887476 0.35489398 0.15591224

base.m0.b2_1.0.shortcut_layer.1.bias f4 [16]
00000000: 1334 043e 5225 71bc cab5 11be b067 bd3d
00000010: 11f4 243d 29f0 e43d 4041 283c caba aabd
00000020: 49e6 163d 26a3 2c3d d754 4e3d c8bd c6bb
00000030: d603 e53d 992c 3fbe b915 153e bb65 5e3e
0.1291049 -0.0147183705 -0.14229503 0.092482924 0.040271822 0.111786194 0.010269463 -0.083364084
0.03684071 0.042147778 0.05037388 -0.006065104 0.11182372 -0.18669356 0.14559068 0.21718495

base.m0.b2_1.0.shortcut_layer.1.running_mean f4 [16]
00000000: d922 103e 3993 53be 6fd1 8f3e 2542 003e
00000010: 799f 55be f90c ddbd e19a 8bbb ff81 c4bb
00000020: a5fb a1bd 48ab 8fbd 1ad7 e63d a9bf 48be
00000030: f2a4 8cbd df7a e7bd 8f46 9e3d a5f5 933e
0.14075793 -0.2066163 0.28089473 0.12525232 -0.20861615 -0.1079349 -0.0042604064 -0.005996942
-0.079093255 -0.07015091 0.11271496 -0.19604363 -0.06867398 -0.11302733 0.07728302 0.2889835

base.m0.b2_1.0.shortcut_layer.1.running_var f4 [16]
00000000: e017 563e 8bb7 d63d 6826 203e 3347 c03d
00000010: 4271 b83d f969 a43d 2d4f 753d 8068 7f39
00000020: 4967 8b3d f1ed c13d b9ba 7f3d 305c 923d
00000030: af22 053e ad39 bc3d 8ed5 0a3e 6502 9c3d
0.20907545 0.10484227 0.15639651 0.0938858 0.09005977 0.08028025 0.05988996 0.00024357624
0.068068095 0.09469212 0.062433932 0.071464896 0.13001512 0.09190688 0.13558027 0.07617644
