EXTD_Pytorch-master/weights/sfd_face.pth (torch, 721183 bytes, 134 tensors)

base.0.0.weight f4 [64, 3, 3, 3]
00000000: d6f4 afbd f1a0 7abd 869a 43bd 078c d2bd
00000010: 91e6 3dbd c771 91bc cfb9 83bd aa80 1bbd
00000020: 9b06 a73a 8ec5 723c 51cd 8e3d 66f1 6e3c
00000030: 041c ba3c f709 b43d d500 873d 430e f63c
00000040: 6080 c23d 2cb8 b93d 4609 253d d1ad 9e3c
00000050: b5b3 a03c 17b6 253d 10f3 b03d c2f8 8f3d
00000060: 18aa 6d3d 23e0 b03d 7385 f43d 306c 39bd
00000070: 09e0 14bd f6db 3bbd ef78 803c a1ac c1bc
00000080: 6123 94bc 41e8 afbc 5c95 0aba a661 cdbb
00000090: 1deb 533d 062c 893d 2d9f 743c da95 293d
000000a0: da6a 6d3d 0f92 f33c 121a 453c 63d0 8d3c
000000b0: 7998 8e3c 74a9 0ebd b937 dcbc 20df abbd
000000c0: 9b87 853b 4006 f63a aca7 8cbd bf95 04bd
000000d0: 60b2 8dbd 7aa1 86bd 5e0f de3c b002 843c
000000e0: 6374 473c d61b bbbc a116 a23c dfc8 b2bb
000000f0: 4566 ef3b cd6f d83b e69e 8e3a 1f55 273d
00000100: bcf2 583c da18 1b3c 1402 3dba 78e8 7abc
00000110: f71a 9fbc 183c 593b 523a b0bb d1cf e1bb
00000120: 8824 9ebb 4100 52bc b676 f7bc 7ee6 43bc
00000130: fce2 b5bc 73aa 63bd 2186 72bc 0624 7ebd
00000140: 07b3 52bd 2d6a 05bd 2322 343e b98e 003e
00000150: 3f11 9ebb b99d 883e 82f8 123e c7e8 e1bd
00000160: e232 763d aa3c 70bd 480a 2cbd 7db4 253e
00000170: b73d 1d3e 904b 0cbd 7486 913e 3c6c 5b3e
00000180: fd18 31bd 7729 183e f07e 513d 6857 e63b
00000190: 131e b93d 286e af3d edd1 a0bc 930b 203e
000001a0: 1e0e d63d f5fa c3bc b15d c43d f430 e3bc
000001b0: 3beb 42bd c0ba c4bc 75b4 3abd c30a f8bd
000001c0: 9e74 c1bd 5b4a 9bbd 57fb b5bd 51d4 03bd
000001d0: 7f4f febc 6f44 123d a365 893c 2e7d 6a3c
000001e0: 77d1 8fbd c2be 89bd c6f9 27bd d5f9 89bd
000001f0: bd2c 97bb cada fcbc 2eb8 68bc f3e3 dfbc
00000200: 5724 ddbc 498b 2fbd a7ab 66bd 9a3a 7ebd
00000210: f640 57bd d0bf a9bc e6d2 1abd 381f 35bd
00000220: bc2a 71bd c3e4 4bbd d32c 66be 426b 65be
00000230: d91d 67be db20 3cbe 9f23 64be 9e26 73be
00000240: 9457 ad3d 888f d23d c1ee 433d 2cc9 33bd
00000250: e43c 54bd 43c0 9abd 6758 85bd b7f0 c7bd
00000260: 6d04 16be 972c 923d 8913 fa3d c277 d93d
00000270: 0cb2 c4bc 5abc 043d 4544 03bb 4416 21bd
00000280: fc95 2fbc 9b72 58bd 9908 dfbc 1e95 2c3c
00000290: 97f1 8a3c 1ee9 64bc 4397 1fbd 58f9 a23a
000002a0: dcaf 04bd af16 9bbc 9896 aabc e533 3ebd
000002b0: af3f 69bd b14f 86bc bfd1 0ebd 69a4 86bd
000002c0: 6f69 45bd b85e 4dbd a200 9dbd 3dd7 30bd
000002d0: 00d6 02bd 6c50 7abc 468a 9c3c 3e56 ccbc
000002e0: 1d5e ff3a 84c0 db3c 34be a5bc ce61 babc
000002f0: 6b88 c3bc b0d3 f9bd c7dc a6be f624 a8be
00000300: 7b0a 4abe fc82 bebe dfd9 a7be 0bb3 cfbd
00000310: a01b 55be 196e 25be 5194 073e c582 223c
00000320: ede2 31bd 4d2c 083d f609 4cbd 2590 f0bc
00000330: 3c4c 923d 6b55 e93d 733a a43d a827 5b3e
00000340: 0cbf 013e 2741 cd3d 9711 133e f8dc 013e
00000350: 8650 183e 99e7 2d3e dcfe 8e3e 11dc 893e
00000360: 80aa 203c dfea c03c 2261 ecba 493c adbc
00000370: 0408 233d dc68 8c3c 6a91 fcbc 7bd9 40bd
00000380: b583 15bc 9d11 bebb 7830 9a3c fdae 2ebb
00000390: 6d7c 1bbd 9312 833b db89 033d 1948 3ebd
000003a0: f65d 3fbd f022 9bbb 261e 45bc 6059 bfbb
000003b0: 1e58 17bc dd8e 0bbd 4c65 91bb cddd 29bc
000003c0: d475 a9bd 5a00 35bd 68f9 6bbc c7b6 c23a
000003d0: 82e4 673a c063 10bd 5941 9dbd 513b bebd
000003e0: 53fe b0bd 04c0 1d3b 738e f9bc 42cc 42bd
000003f0: f1de 473d 9e43 c13c f268 f53b 38b0 0dbd
-0.085916206 -0.061188642 -0.047754787 -0.10280614 -0.046362463 -0.017754449 -0.064319246 -0.0379645
0.0012743057 0.0148176085 0.06972755 0.014583921 0.022718437 0.08790963 0.065919556 0.030036097
0.09497142 0.09068331 0.040292047 0.019369991 0.019616941 0.040456858 0.086401105 0.07029869
0.058023542 0.08636501 0.11939516 -0.04526919 -0.03634647 -0.045864068 0.015682666 -0.023641886
-0.018083276 -0.021473052 -0.00052865385 -0.006267744 0.051737893 0.0669785 0.014930529 0.041402675
0.05796323 0.029732732 0.012030141 0.01731128 0.017406689 -0.03482957 -0.02688204 -0.08392167
0.0040750033 0.0018770173 -0.06867918 -0.03236937 -0.06918788 -0.06573768 0.027106937 0.016114563
0.012173745 -0.022840422 0.01978618 -0.0054560746 0.0073058927 0.0066051246 0.0010881096 0.040852662
0.013241466 0.009466374 -0.00072100875 -0.015314214 -0.019422038 0.003314739 -0.005378046 -0.0068912287
-0.004826132 -0.012817443 -0.030207973 -0.011956809 -0.022202961 -0.055582475 -0.014802487 -0.062046073
-0.051440265 -0.03257196 0.17591147 0.12554444 -0.0048238332 0.26682833 0.1435261 -0.11030727
0.06010712 -0.058651604 -0.042001992 0.16182132 0.15355574 -0.03425175 0.28422892 0.21428007
-0.04323672 0.14859568 0.051146448 0.0070294626 0.09038939 0.085659325 -0.01963135 0.15629415
0.104519114 -0.023923377 0.09588183 -0.027733304 -0.047587615 -0.02401483 -0.045582253 -0.12111428
-0.09446071 -0.075825416 -0.0888583 -0.032184903 -0.031043766 0.035709795 0.016772097 0.014312072
-0.07022374 -0.06725837 -0.041009687 -0.06737105 -0.0046134875 -0.030866046 -0.014204068 -0.027330374
-0.026994867 -0.042857442 -0.056316044 -0.062067606 -0.052552186 -0.020721346 -0.037798785 -0.044219226
-0.058878645 -0.04977871 -0.22478037 -0.22404197 -0.2256998 -0.18371908 -0.22279213 -0.237452
0.0846397 0.10281283 0.047835115 -0.043893024 -0.051815882 -0.07556202 -0.06511002 -0.097627096
-0.14650126 0.07137411 0.12210757 0.10618545 -0.02401068 0.03240619 -0.0020029705 -0.039327875
-0.010716911 -0.05284367 -0.02722578 0.010533599 0.016960902 -0.013971595 -0.038962614 0.0012433929
-0.032394275 -0.018931715 -0.020823762 -0.04643621 -0.0569455 -0.016395422 -0.034868 -0.065743275
-0.048196252 -0.05013916 -0.07666136 -0.043174017 -0.031942368 -0.015277963 0.019108903 -0.024943467
0.0019483004 0.026825197 -0.020232297 -0.022751715 -0.02386876 -0.12198579 -0.32590315 -0.328407
-0.1973056 -0.37209308 -0.3278341 -0.101415716 -0.2081132 -0.1615528 0.13240172 0.009918873
-0.043429304 0.033245374 -0.049814187 -0.029365608 0.07143447 0.11393245 0.08018961 0.21401846
0.12670535 0.100221924 0.14362179 0.12681949 0.14874467 0.16982879 0.27928817 0.2692571
0.009806275 0.023549495 -0.0018034319 -0.02114691 0.039802566 0.017139845 -0.030831058 -0.047082406
-0.00912564 -0.0058004395 0.01882194 -0.0026654594 -0.03796046 0.004000017 0.03211389 -0.046455476
-0.046720468 -0.0047343895 -0.012031114 -0.0058395118 -0.009237317 -0.034071792 -0.0044371244 -0.010367823
-0.08274427 -0.04418979 -0.014402725 0.0014855497 0.0008846001 -0.03525138 -0.0767848 -0.092886575
-0.086422585 0.002407075 -0.030463433 -0.047558077 0.048796598 0.023591813 0.007489317 -0.034591883

base.0.1.weight f4 [64]
00000000: 2395 a23e ecf2 4e3e 8408 523e 8ae6 173f
00000010: 90f9 a23e 929d 183f bc7b 723e 230c 1d3f
00000020: 1b72 453e 995e ac3e af07 a93e 2054 273f
00000030: aa9c 8e3e 9ac1 053f 34c7 b13e 3802 863e
00000040: 503d 4b3f 5edb 4e3e 41a8 df3e 2177 e53e
00000050: 115c c33e 8fcf 9e3e 216d c83e f16f 993e
00000060: 9f81 603e 7f04 083f 0526 673e 604f 313f
00000070: fa89 ab3e 17b0 0d3f e435 8a3e 9bfc fa3e
00000080: e25f 023f ae07 683e 422b b93e 9f46 bb3e
00000090: fd02 ad3e f363 6e3e 69b6 4d3f c0bc fe3e
000000a0: d270 1e3f 2109 b33e c15d 283f 4a1b de3e
000000b0: 5b25 993e b8c4 193f f470 943e 43e9 a63e
000000c0: 505e 593f 0aca d33e 9211 f23e 9c69 3c3e
000000d0: b68e f33e 72ff 433f 69da 103f 47bc a83e
000000e0: 9d14 153f 15b6 573e 5420 fb3e c0fb c33e
000000f0: 52bf ad3e e911 c33e dfe0 ce3e 4ec0 4f3f
0.31754407 0.20209855 0.20511061 0.5933615 0.31831026 0.59615433 0.23680013 0.61346644
0.19281809 0.33665922 0.33013675 0.6536274 0.278539 0.5224854 0.34722292 0.26173568
0.7939043 0.2020087 0.43683055 0.4481745 0.3815618 0.3101773 0.3914576 0.29968217
0.21924447 0.5313186 0.22573097 0.6926174 0.33503705 0.55346817 0.2699424 0.49020848
0.50927556 0.2265918 0.36165816 0.36577317 0.33791342 0.23280315 0.8035646 0.4975338
0.618909 0.34967902 0.6576806 0.43380195 0.29911312 0.60065794 0.28992426 0.3259984
0.84909534 0.4136508 0.4727903 0.18399662 0.47569817 0.76561654 0.5658327 0.32956144
0.5823458 0.21065553 0.49048102 0.38278008 0.33935028 0.38099602 0.40405938 0.8115281

base.0.1.bias f4 [64]
00000000: ac8a aa3d 3111 753d 57d3 e4bd 1516 a43e
00000010: 6030 02be 04e9 90bd d2f1 92bd 4491 92bc
00000020: 9be1 20be 757c 26be fee2 153d d5d9 0abe
00000030: 02ef 2b3d e327 693d 2fbd a63d 769f 94bd
00000040: d3d4 b53d 8ce3 b3bc 1239 7dbd fcd8 babd
00000050: 8f6d b73d 35b7 ae3d 5e6b e93c 07da 333e
00000060: c9e3 9abd 813c b73d b4c1 d8bc deff fa3d
00000070: 9c2f 1b3e 180a 673e 9be1 03bc f0d9 203e
00000080: 78e7 9b3d 7b34 87bd 83a7 dd3d 9166 ec3d
00000090: 086a 123d d05d 20bd 71cb ec3a bf83 80be
000000a0: f851 c23d 3a9a fcbd 64af 913d c2b3 3abd
000000b0: 49e2 7d3d 4e42 0ebd 1a81 ce3d 6fe7 8d3c
000000c0: 5309 243e 733f eebd 2a01 13bd 3fda f7bd
000000d0: 8d93 d9bd 8cf5 8ebd 8edb 263d 5a7d 8c3d
000000e0: aecd 8c3e cdb7 003d a516 21be 4ba8 bdbc
000000f0: 58a8 cbba 9e17 563d 0bab 91bd 352e 08bd
0.08327231 0.059830848 -0.111731224 0.32048097 -0.12713766 -0.07075694 -0.0717503 -0.017891534
-0.15711062 -0.16258414 0.03659343 -0.13559659 0.041975982 0.056922805 0.08141553 -0.07256977
0.088784836 -0.021959089 -0.061822005 -0.09123418 0.089564435 0.08531038 0.02849358 0.1756364
-0.07562978 0.08947087 -0.026459552 0.12255834 0.1515488 0.22562444 -0.008049394 0.15708137
0.076125085 -0.06601807 0.10822966 0.115430005 0.03574565 -0.039151967 0.0018066001 -0.25100514
0.094882905 -0.12334104 0.07113531 -0.045581587 0.06198338 -0.0347312 0.10083218 0.01732227
0.16019182 -0.11633196 -0.035889782 -0.12102174 -0.10623846 -0.06980428 0.040736727 0.068598464
0.2750067 0.031425286 -0.15731294 -0.023151537 -0.0015537841 0.052268617 -0.07112702 -0.03324719

base.0.1.running_mean f4 [64]
00000000: ed86 dcc0 e86b 1dc1 b6b1 6f41 8932 22c1
00000010: f42b 3341 1c3b fa40 54cd 7941 ff24 8bbe
00000020: 58fb 33c1 157c 1b41 29b0 19c1 4c1e 4a41
00000030: 0d8a 4f41 7f73 66c0 a9b8 be40 c1f6 3442
00000040: c6b1 e73f 48a8 a9c0 733d 0041 e826 8941
00000050: 7f12 47c1 623c fdc0 44d2 8741 231f 47c1
00000060: a743 53c1 8c69 61c1 2b0c d6c0 b78f 04c1
00000070: e5f9 0ec1 d58c f740 2dce 92c1 0a5e c540
00000080: c175 22c1 80a0 8cc1 462c 18c1 027e 8d41
00000090: 42fd 81c1 c0ea f3c0 89cf 5840 2c90 c140
000000a0: 9e3f c9bf e3ee bbc0 a4cb aac1 9adf 0d41
000000b0: d633 2ec1 52e5 d6c0 4021 1c41 8da7 c2c1
000000c0: 7f1d 5240 38c5 2d41 4e6e 4a40 64a5 9fc1
000000d0: a75f 3241 018d c441 8f50 63c1 39fa cf40
000000e0: 8509 ce41 0ddd d541 8720 6241 b6ca fa40
000000f0: 398e 8c40 af98 1541 631d 41c1 5236 31c0
-6.8914704 -9.838844 14.980886 -10.137338 11.198231 7.8197155 15.612629 -0.27176663
-11.248863 9.717793 -9.605508 12.632397 12.971204 -3.6007993 5.9600415 45.24097
1.8101127 -5.301792 8.015002 17.143997 -12.442016 -7.913621 16.977669 -12.445102
-13.204017 -14.088268 -6.6889853 -8.285087 -8.936009 7.7359414 -18.350672 6.1677294
-10.1537485 -17.57837 -9.510809 17.686527 -16.248661 -7.622406 3.387667 6.048849
-1.572254 -5.872911 -21.349434 8.86709 -10.887655 -6.715493 9.758118 -24.331812
3.2830503 10.860649 3.1629825 -19.955757 11.148353 24.56885 -14.207168 6.4992948
25.754648 26.732935 14.132941 7.837245 4.392361 9.349776 -12.0696745 -2.7689404

base.0.1.running_var f4 [64]
00000000: a456 8645 5749 7745 cfdf 8e46 3bb9 d945
00000010: 7807 1c46 17a8 0746 b5f0 5546 93d3 2f45
00000020: 4131 1f46 3c63 ea45 cd35 0a46 521d 0245
00000030: 9891 4446 5fc6 3245 46ff 0846 34c9 ee47
00000040: 1b64 4445 1831 b545 2b44 4345 e918 ac46
00000050: 16d1 0446 5d62 6045 c12c 6946 9f1b 1f46
00000060: 91e4 4846 92aa ef45 52db 0546 5e46 6d44
00000070: 0e59 b745 aad9 3346 a018 b246 0639 cf44
00000080: de31 4445 3f4b a246 ea71 e445 f4a8 4946
00000090: 06ab 7446 8de3 eb44 4334 7845 15d3 e845
000000a0: bed8 a845 287e f244 c94e 0247 013e a045
000000b0: 5a2c c145 fbd1 8345 a90a d545 bd51 2347
000000c0: 9cc8 0645 bdaf 1045 5002 5545 3780 c846
000000d0: b4ef 0846 576c 4a47 38f3 4846 74b1 6c45
000000e0: 10cf 5c47 7c5a 3747 bcd1 7446 4f5a d144
000000f0: 4158 b945 6512 ae44 a521 6346 17d7 3e45
4298.83 3956.5837 18287.904 6967.154 9985.867 8682.022 13692.177 2813.2234
10188.313 7500.4043 8845.45 2081.8325 12580.398 2860.3982 8767.818 122258.41
3142.2566 5798.1367 3124.2605 22028.455 8500.271 3590.1477 14923.188 10182.905
12857.142 7669.3213 8566.83 949.0995 5867.132 11510.416 22796.312 1657.782
3139.1167 20773.623 7310.2393 12906.238 15658.756 1887.111 3971.2664 7450.3853
5403.093 1939.9424 33358.785 5127.7505 6181.544 4218.2476 6817.3325 41809.74
2156.538 2314.9836 3408.1445 25664.107 8763.926 51820.34 12860.805 3787.0908
56527.062 46938.484 15668.434 1674.8221 5931.0317 1392.5748 14536.411 3053.443

base.1.conv.0.weight f4 [64, 1, 3, 3]
00000000: 6f4b 743b b746 363c c8a6 6b3d 1c3e 3d3c
00000010: 258f 1d3c 81cd 133d d956 3c3c a5ec 883d
00000020: a130 0d3d 7f53 0b3b 1951 28bc a067 babb
00000030: e2cb dabc 23ea 1e3c 9006 8e3c 3d7f f3bb
00000040: ab52 b1bc 3472 9b3b d394 42bc e64b 2fbd
00000050: ff7a 01bd 8106 263c 9dc7 00bd ac54 9b3c
00000060: f3de a0bc 6d71 3ebd 9ff0 4fbd 6105 673e
00000070: 9f4e b63e b101 fb3d 8303 6f3e 014a 69be
00000080: a71d 193d 1c11 84bc b696 38bf 5a0c 0dbd
00000090: 13f9 a4bd f110 ecbd e5b2 0cbe ea28 01bd
000000a0: 1d9f 94bd 0c2a 9fbd b771 863c 6926 7dbc
000000b0: 6d68 adbc 2c3b c13d 782d b13e e6f0 2c3e
000000c0: 667b 883c bf0e 27bd 2201 9c3d 08fd 54be
000000d0: 38ee c7be cb4c e7bd 258a 0b3d c51c 823d
000000e0: f9ea 893d c225 ac3c 658a 893d 8e26 b03c
000000f0: 1b79 0d3d 4ec5 833c 019c 2f3d 63ea 7bbe
00000100: 3dc4 a5be 06ed a7be 0c87 fdbb 145e c3bd
00000110: a211 f53b db2c 253e f33a a43e 56ba 483e
00000120: c87b 853b 3bee 423d f31e 373d 3652 a23c
00000130: 0be1 6bbd eeb6 a7bc 0dd2 0b3d 50c8 02bd
00000140: 26cb 853c 527f 8ebd 89b2 89bd 2af0 83bd
00000150: 7aea f4bc 1556 86bd 01ff 07bd ae7d 15bd
00000160: 2c0e d7bc ddd7 2dbd 0028 b6bd 38be e0bd
00000170: 57f1 eebd 66c5 6bbd fe34 55bd bec2 85bd
00000180: 9b88 49bc b507 c4bc 7cab 87bc 72e3 8338
00000190: 4f73 1cbe afe6 a23c 3c20 85bd 90fb a9be
000001a0: c7bd d5bd 4810 9bbd 4000 86be 0910 04be
000001b0: 0086 15bd 0af5 12bd 3ded bdbc 347b afbc
000001c0: c110 28bd 921a 62bd 5bf5 81bc 3a2c 92bd
000001d0: c4ed a0bd 6156 043e 3352 df3d a801 b03c
000001e0: 3bda 523e 5c03 833e 8000 fd3d 7cd4 1e3e
000001f0: 21d2 1b3e a2a3 a93d 6df6 53bd 9a2d 5cbd
00000200: 608f a7bc 4939 a3bc 2d98 71bd 1de0 e8bc
00000210: ac4e 993c c19c bebc bf4a 13bc 2f90 9ebc
00000220: 18ea 2fbd b1ad fcbc 1cda 143c ce49 a9bc
00000230: f88e 093b 9e49 303a ab6c 89bc 371b 903c
00000240: b91d d93d 01e0 bfbc c6f7 f53d 3598 2a3d
00000250: edd2 24bf 6bd8 043d d959 2abe 156f bd3e
00000260: 4d33 dfbd bda3 ab3d 4629 a53d 2ffa b53c
00000270: f2da 243d bb0c 8e3d dcc7 3b3d 690e 17bc
00000280: 3c01 5eba 224c 5c3c 3a8b c73d 6636 b63d
00000290: 0b96 e93d e7cd 0a3e 5dba 403e c65a 083e
000002a0: e337 253e 0121 193e 78a2 c23d 4886 853d
000002b0: 63ed d03d b67c 993d 63d7 a63d 6dcb 813e
000002c0: e12c 443e fcc9 76bc 2b97 d43d 0a31 e43d
000002d0: 6ac8 5dbc e441 a4bb 2ed3 643c 29ef c2bb
000002e0: a95b 013d 23eb 38bc 5f43 8f3d 6fef c53a
000002f0: 27b9 1ebd d600 38bd a54f 4cbd 0d8a 03bd
00000300: e1c2 3fbd 8152 e2bd 702b 10be 44c7 80bd
00000310: 3edc 95bd 3f4d aabd ed7a d83c 690b 1fbc
00000320: 7fa4 8fba 723c 393c c565 a0bc 39ed 0f3c
00000330: e787 213d c329 203b 0fd2 183c 70be a9bd
00000340: 634e 18bd f5f4 2fbd 0daf a0bd b177 3ebc
00000350: 9887 59bc 4d38 e1bc b835 fa3b d7c5 8fbc
00000360: 6abc 3f3d 3a08 5e3d 0e61 823d 7957 873d
00000370: 5ee5 073d e994 633d a871 333d 8d66 8c3d
00000380: fbb3 00ba afa9 053e 9c43 243e df9f 863e
00000390: f272 e43d c468 f83d 246d 513e beb2 0a3d
000003a0: 35de fe3d dbd9 1d3d e142 c33d 00c5 443e
000003b0: 419f 0d3e b5fa b4bc a925 173d 76ab 173d
000003c0: 4cd8 043c 909e 0a3d 3d64 70bc 05ad 033e
000003d0: 0e48 31bf fe79 593e 785b e63c 5b6e b53e
000003e0: da9e 073d 6acb 42bc 64ff 403d 90fe 78bd
000003f0: af76 45bd c16d d7bd 43ff eebc 7c0a 7abd
0.0037276407 0.011125258 0.057532102 0.011550453 0.009616648 0.036084656 0.0114953155 0.06685761
0.034470204 0.0021259484 -0.010273241 -0.0056886226 -0.026708547 0.009699377 0.017337114 -0.0074309395
-0.021645864 0.0047438387 -0.011876303 -0.04279699 -0.03161144 0.010133387 -0.031440366 0.018961273
-0.01963756 -0.04649489 -0.050766584 0.22560646 0.35606858 0.12256182 0.23341183 -0.22782136
0.037381794 -0.01612144 -0.72104967 -0.034435607 -0.0805532 -0.11526669 -0.13740118 -0.03153316
-0.07256911 -0.07771692 0.016411645 -0.015451052 -0.021167958 0.09435114 0.34605002 0.1688877
0.016660403 -0.040785547 0.076174036 -0.20799649 -0.39048934 -0.11293944 0.03406729 0.063531436
0.067342706 0.021014098 0.0671585 0.02150276 0.034539323 0.016085293 0.042873386 -0.2460113
-0.3237628 -0.32798022 -0.007737046 -0.09539428 0.0074789086 0.16130392 0.32076225 0.19602332
0.0040735938 0.047590476 0.04470725 0.019814592 -0.057587665 -0.02047297 0.034135867 -0.031929314
0.01633222 -0.06957878 -0.06723506 -0.06442292 -0.029896963 -0.065593876 -0.033202175 -0.03649681
-0.026251875 -0.04244219 -0.08894348 -0.10973781 -0.11667126 -0.0575613 -0.05205249 -0.06531285
-0.012300636 -0.023929456 -0.016561262 6.288932e-05 -0.15278362 0.01988539 -0.06500289 -0.3319974
-0.10436588 -0.07571465 -0.26172066 -0.12896742 -0.036504745 -0.03587822 -0.023184413 -0.021421053
-0.041031603 -0.05520112 -0.015864065 -0.07137342 -0.0785785 0.12923576 0.1090435 0.021485165
0.20591061 0.255885 0.12353611 0.15510744 0.15216877 0.082831636 -0.05174868 -0.053754427
-0.020454109 -0.019924777 -0.058983017 -0.028427178 0.018714271 -0.023268105 -0.008989989 -0.019355861
-0.04294786 -0.030844541 0.009085204 -0.020665076 0.0020989757 0.0006724837 -0.01677545 0.017591102
0.10601372 -0.023422243 0.1201015 0.041649062 -0.6438435 0.032432955 -0.16635837 0.3699881
-0.10898457 0.0838084 0.08064513 0.022214023 0.040247865 0.06936022 0.045844898 -0.009219744
-0.0008468812 0.013445886 0.09743352 0.088970944 0.114055716 0.13555108 0.18821092 0.13315877
0.161346 0.14953996 0.09503645 0.06519753 0.10201528 0.0749449 0.081465505 0.25350514
0.19157745 -0.015062805 0.103803955 0.11142166 -0.013536552 -0.0050127376 0.013966365 -0.0059489203
0.031581555 -0.01128653 0.06995272 0.0015101264 -0.038750794 -0.044922672 -0.049880642 -0.032114077
-0.04681671 -0.110508926 -0.1407907 -0.06288007 -0.073173985 -0.08315515 0.026425803 -0.00970731
-0.0010959058 0.011305915 -0.019579777 0.008784586 0.039436247 0.0024438954 0.009327426 -0.08288276
-0.03718413 -0.04295822 -0.07845888 -0.011625216 -0.013276957 -0.027492667 0.0076357983 -0.017550392
0.046810545 0.054207064 0.06366168 0.06608481 0.033177726 0.055561934 0.043809563 0.068554975
-0.00049096317 0.1305301 0.16041416 0.26293847 0.111547366 0.121293575 0.2045179 0.033861868
0.124447264 0.03853784 0.095342405 0.19215775 0.13830282 -0.022092203 0.03690115 0.037028752
0.00810821 0.033842623 -0.014672336 0.1285897 -0.6925057 0.21237943 0.028119788 0.35435757
0.033110477 -0.011889318 0.04711856 -0.060789645 -0.04820889 -0.10518981 -0.029174453 -0.061045155

base.1.conv.0.bias f4 [64]
00000000: 3152 98ba 092b 0cbc af3e 24ba 8844 293d
00000010: ef73 2abd 03b9 273e b043 073c fca9 f93d
00000020: c1cb 4abd 7a25 963b 8e26 c2bc 91dc 383e
00000030: 0a5f 34bd 6489 b83c 06f6 58bc 6873 a1bc
00000040: e28d c13e c20c 5e3d 128a 46bd 430b b6bd
00000050: 0470 12bd 547c b6bc e9b9 3dbd 7c4e a73c
00000060: 3c87 d13b d5f0 c53d faca 073c 22de 433e
00000070: 59bc bdbb 4867 15ba 96cd 0fbc 2227 a13b
00000080: e227 3d3c c8d1 ad3b 0d26 15bc 120f 15bc
00000090: ee9c 2cbc 545b 01bc ede2 743d a7d5 10be
000000a0: ffcf 613c 14d2 723c 8de0 ed3d 54b2 643d
000000b0: 84a7 f33c fa23 b3bb 9c03 af3c 236b a9bc
000000c0: a04e 7e3e 776c 913e c9a4 16bd 5730 7cbc
000000d0: 4194 b53d f534 0f3e bd91 38be 1c5a 68bc
000000e0: f4ce a2be 9897 c33a 59ba 95bd 7543 2dba
000000f0: d5b4 83bc d224 863a cae4 18bd 03f4 d73d
-0.0011621175 -0.008555182 -0.0006265444 0.041325122 -0.04161447 0.1637917 0.008255884 0.12190625
-0.04951072 0.0045821043 -0.023700025 0.1805289 -0.04403595 0.02252645 -0.01324225 -0.01970835
0.3780356 0.054211386 -0.048471518 -0.08888867 -0.035751358 -0.022276081 -0.046319876 0.020423166
0.006394295 0.09665076 0.0082881395 0.19127706 -0.005790275 -0.0005699289 -0.008777043 0.004917995
0.011545153 0.005304549 -0.00910331 -0.009097831 -0.010535462 -0.0078953095 0.059786726 -0.14144002
0.0137825 0.014820594 0.11615095 0.05583413 0.029742964 -0.005466935 0.021364026 -0.02068097
0.2483468 0.28403065 -0.036778245 -0.0153923845 0.08866168 0.13985045 -0.18024345 -0.01418164
-0.31798518 0.0014922498 -0.073109336 -0.0006609478 -0.016077438 0.0010234362 -0.037327565 0.105445884

base.1.conv.1.weight f4 [64]
00000000: 1f10 553e eb18 6e3e 97ce 6f3e 4aa5 113f
00000010: 1c09 9d3e 0fbe 113f 85ac 683e d52d 0c3f
00000020: 4cb5 6d3e a341 7a3e 0f21 903e 9ed1 023f
00000030: 1ff8 883e 3b05 003f f59d 7c3e e1de 653e
00000040: ab75 233f 3840 8e3e d160 df3e 5134 dc3e
00000050: 5177 663e 0314 a13e f674 5f3e ea50 7a3e
00000060: bfba 803e 6209 ec3e ec56 aa3e 7a12 283f
00000070: e9b8 833e c9f7 a23e 3efd 653e b234 af3e
00000080: 1ede 013f 6c63 6d3e 3440 a73e b636 753e
00000090: 6216 953e 5220 813e 921e eb3e a643 fc3e
000000a0: f4bf 1c3f 8498 953e cbc2 163f e937 db3e
000000b0: 3837 963e 5798 033f 5403 903e 45d8 923e
000000c0: 7821 163f ff68 163f 3294 943e 496b 743e
000000d0: 2a1f d03e e3b4 303f e9b9 ef3e a490 743e
000000e0: d945 253f 226a 6c3e 7279 ff3e 952a 973e
000000f0: df10 8c3e dd5e cd3e 6c14 d43e d054 f63e
0.20806931 0.23251693 0.23418652 0.56892836 0.30671012 0.5693063 0.22722061 0.54757434
0.2321369 0.24439101 0.28150222 0.511011 0.267518 0.5000798 0.24669631 0.22448303
0.6385142 0.2778337 0.43628553 0.43008664 0.22506453 0.3146058 0.21821961 0.24444929
0.25142476 0.4610091 0.3326944 0.65653193 0.25727013 0.3182967 0.22459885 0.3421989
0.5072955 0.23182458 0.3266617 0.23946652 0.2911864 0.2521997 0.4592176 0.49270362
0.612304 0.29217923 0.5889098 0.42816094 0.29339004 0.5140433 0.2812754 0.28680626
0.5864482 0.5875396 0.29019314 0.23869051 0.40648776 0.6902601 0.46821526 0.23883301
0.64559704 0.23087361 0.49897343 0.29524675 0.27356622 0.40111437 0.4142183 0.48111582

base.1.conv.1.bias f4 [64]
00000000: d417 b63c b4e2 143c 5bf6 99bb 4bbe 043d
00000010: 3ec1 0bbd f0d3 e03d db85 313c f183 d53d
00000020: 4ea2 83bc afb2 113c ecbd 63bc 6a86 083e
00000030: 620c a8bc 94ec 653c 889d a1bc 5421 55bd
00000040: ea3e 213e 0963 5b3d 6913 e3bd e14a d7bd
00000050: f0fa 3dbd 1ba8 1ebd c9a4 0ebd 9af4 9e3c
00000060: 2244 da3b a428 b03d 8e7e 693c 6e81 003e
00000070: ff98 433b 03d0 873c f2af 9e3b 35bf 3fbc
00000080: 7730 e63c f8dc 6a3c 2dea f2ba 9642 14bd
00000090: c6aa 98bc 73ed 1abb 85fd f73d ca16 43be
000000a0: 0745 b53c 8502 3e3c 284c 883d 6e3d e03c
000000b0: 759f 883c e825 9abb d0a4 bc3c b28a 3d3c
000000c0: e881 323e de26 533e f770 8dbc 8d14 b13a
000000d0: 6cfd b13d 8b2e 763d c5d6 16bd 1ee0 fabb
000000e0: debe 00be d3a4 0abc f484 91bd eada 87bc
000000f0: 0f36 fdbc 8edb 073c 36d0 8d3c bfde a13d
0.022228159 0.009087253 -0.0046985573 0.03240804 -0.034119837 0.10977924 0.010835136 0.104255565
-0.016068604 0.008892699 -0.013900261 0.13332525 -0.020513717 0.014033455 -0.019728437 -0.052033737
0.15746656 0.053561244 -0.110876866 -0.10512329 -0.04638189 -0.038734537 -0.03482512 0.019403744
0.006660954 0.086015016 0.014251364 0.12549374 0.0029845831 0.01657868 0.0048427517 -0.011703302
0.028099282 0.01433491 -0.0018532925 -0.036196314 -0.018636119 -0.0023640066 0.12108902 -0.19051662
0.022127641 0.01159728 0.06655151 0.027373042 0.016677598 -0.004704226 0.023027807 0.011568712
0.17432368 0.20620295 -0.01726578 0.0013510153 0.086909145 0.06010298 -0.036825914 -0.0076561114
-0.1257281 -0.008462149 -0.07105437 -0.016583879 -0.030909566 0.008292092 0.017311197 0.079038136

base.1.conv.1.running_mean f4 [64]
00000000: 13c8 843d 7bb5 fb3c 04d0 1abc cf71 1dbc
00000010: db08 053c 2e40 4a3c 8a47 9b3c 3268 72bd
00000020: 549e a03a b74a 97bc d683 e0bd d246 6abd
00000030: 4511 98bc 0354 b7bb 1e17 80bc ef38 863d
00000040: 700f 28bb cb21 d0bc 6c8d ab3c 590b a93c
00000050: 6ff5 cf3d 278d 36bb e3c3 07bc ea29 45bb
00000060: d4c4 a8bc 49aa 9a3c 97c6 1cbc 97e9 1fbc
00000070: b2e1 cebc e77b 0d3e 562b c83c 9c3f b139
00000080: 9f2d 73bd 6537 e73c da02 733b f35c 043b
00000090: 3dc5 783b 983f 58bc b3b1 49bd c219 8a3a
000000a0: 45b3 a63d f1ba 7c3c 98c4 163c f9d3 0e3c
000000b0: 7c95 28bd 77b0 0bbb 5ce6 37bc 3808 453d
000000c0: 5a9d 9cbc e605 aabc db59 863b be84 5c3c
000000d0: e503 2abc c315 8a3b c447 2cba 54aa a3bc
000000e0: d78e 083c 8d3c 87bc 3d36 923c 1104 c53b
000000f0: f563 90bb ab34 d4bd c810 fa3c 7b8f bf39
0.06483474 0.030726185 -0.009449009 -0.009609654 0.008119787 0.012344403 0.01895501 -0.0591814
0.0012254217 -0.018468244 -0.10962646 -0.057196446 -0.018562922 -0.005594732 -0.015636023 0.06553828
-0.0025643967 -0.025406739 0.020941459 0.020635294 0.101542346 -0.002785513 -0.008286449 -0.0030084797
-0.020601667 0.018880026 -0.009568832 -0.009760282 -0.025254104 0.13816796 0.024434727 0.00033807463
-0.05936968 0.028224656 0.0037080557 0.0020197004 0.003795936 -0.013198756 -0.049241733 0.0010536241
0.08139662 0.01542543 0.009202145 0.00871753 -0.041158184 -0.0021314898 -0.011224356 0.04810354
-0.019118 -0.020754766 0.004100067 0.013459383 -0.010376905 0.00421402 -0.0006571973 -0.01997868
0.008334837 -0.016508365 0.017848128 0.0060124476 -0.004406447 -0.10361608 0.03052558 0.0003653726

base.1.conv.1.running_var f4 [64]
00000000: d119 913f 04e3 503e 8178 793f be4e 433d
00000010: c82d b83e 318d 333e db89 8b3f 039b 453e
00000020: b682 9b3c bb88 dd3f 2528 1640 3727 2a3e
00000030: 4c74 353e 084c 843f a466 703e 4d6d 783f
00000040: 7cfe 753d 57dc c33e 164b 0a40 3f1e ee3e
00000050: 6529 5a3f 90e8 973f d5e2 d83d 5f52 9f3d
00000060: af5d f83f 25d5 583e 9ca5 7a3e 1a9b 123e
00000070: 15f4 7640 38bc a63f d86c a63e e64d 493e
00000080: 5e2d 983f f72c 423f 5ce7 1c3e 571e 833f
00000090: 971c ee40 192b 673e e1e8 ca3f c195 393f
000000a0: ec58 943e c586 103f 773a 503d 7d8c 6d3d
000000b0: 92dc 353e 4a0a c13d bb7e 6c3e 4dd2 a83e
000000c0: d174 403e 3b45 303e 47ae 383e 55df 4d3e
000000d0: f481 743e e012 ed3c b6ab 273c d325 993e
000000e0: deab 883d 5207 703f 4315 f83e 1fb2 ad3f
000000f0: de29 a33e 92a4 0741 94e3 7e3e 1663 0e3c
1.1336004 0.203991 0.974495 0.047682516 0.35972428 0.17534329 1.0901445 0.19297414
0.018983226 1.7307352 2.3462002 0.16616522 0.17720145 1.0335703 0.23476654 0.9704178
0.06005715 0.38254043 2.160833 0.4650745 0.85219413 1.1867847 0.1059014 0.07779383
1.940359 0.21175058 0.24477237 0.14316979 3.8586476 1.302619 0.32504916 0.19658622
1.1888845 0.7584986 0.15322632 1.0243634 7.44099 0.22575034 1.5852319 0.7249413
0.28974092 0.5645564 0.050837006 0.05799531 0.17759922 0.094257906 0.23095219 0.32972947
0.18794562 0.1721391 0.18035232 0.20104726 0.23877698 0.028939664 0.01023381 0.2991167
0.06673406 0.9376117 0.4845372 1.3569983 0.3186788 8.477678 0.24891502 0.008690616

base.1.conv.3.weight f4 [64, 64, 1, 1]
00000000: b405 1fbd 9a28 fbbc 5728 9a3b 15d2 9abc
00000010: 9c32 923c f038 263d f375 0e3a 295c 7abd
00000020: 4ab8 42bd 7f76 06bb 932b 813c 35f3 aa3c
00000030: 88dd a43c 2bdd a4bc 738b afbc ceb0 f33c
00000040: 7df7 fdbc 5937 e3bc 540b 103b 89ef cd3b
00000050: d0a2 6b3d a828 02ba 7599 d43c ef5e 0c3c
00000060: 3461 8439 206c 923d dfef b739 b745 ef3c
00000070: c5bf ecbc 204b fcbc 4b61 3c3c e128 893c
00000080: f3a8 87bd 5995 043d d90e 113b 061c 12bd
00000090: 5a2d babc 5c61 2c3d 9309 5a3b 2f07 e0bc
000000a0: 1393 353d 6fef 033d 69f8 babb 9325 a13c
000000b0: ef85 283a 64d6 dd3c 8c1f 853b 618e a63a
000000c0: 41d5 213d f4eb 693d 0f5c 3fbb cac4 333d
000000d0: 0713 423d a119 f63c 12ae 5dbc beef 613d
000000e0: 57ea 41bd 6ad9 ed3c 1eda acbc 98ba 34bd
000000f0: 59a8 c5bc 364d 263d 6cc2 0a3d c3b3 a5bc
00000100: 67a3 90bb e1f4 373d 99e7 cfbb f486 8ebd
00000110: 4f8a 51bd 8216 a03d b860 05bd 15a8 bdbd
00000120: de50 8fbc 7c02 1e39 dcfb 373d ccb4 9fbb
00000130: 163a db3c d0d3 9bba 6929 8dbc 4210 3fbd
00000140: 01e6 e2bc f87e 14bc dd41 26bd e943 20bc
00000150: 765f 393d 40ee 63bd c9cf 2abb baf6 553d
00000160: fe2f 693c e9f3 293d b243 35bb 48c3 75bd
00000170: e3dd 1bbc 5e04 673d 1956 2b3d 00a2 9bbc
00000180: 5192 f8bb 490b 833c 0559 223d b9a1 72bc
00000190: 676c b3bb ee06 63bb eda9 8d3c e763 2cbd
000001a0: e159 2cbd b5b6 463d 52d8 be3c b6ee 2bbc
000001b0: f877 c33c 838f 9dbd e92f d3bc 2e90 db3c
000001c0: 80e6 e03b 28be 293c 71d6 32bd 199f b93c
000001d0: 585b bc3c 0ac8 0e3d 3a98 02bd c4ee 2f3c
000001e0: 780b c7bd 426d 44bd 6457 64bb 1280 bfbb
000001f0: 53a4 2e3d 0ae2 ae3c 2627 6bbd 446d d1bd
00000200: 1fc7 c6bb 5f10 3d3c 444f 753d d767 9fbc
00000210: 4229 0f3d 2b29 d83c f04b c9bc 4036 82bd
00000220: e220 09bc 84ad 1ebc b5f2 183b c0d0 8dbd
00000230: bbc0 993c 6359 90bd bcf8 0dbd a48c de3c
00000240: fd73 373e aea8 d03c 4d3c eebc c974 15bd
00000250: 42ee b33c a67a 5abd 28a5 0b3c d7b4 fa3c
00000260: 47cc 54bc c47c caba 4c7c 1bbd 834b 9ebd
00000270: c705 2a3d 9848 763d ed82 a83a d7fa 79bd
00000280: 7ac2 73bd 3d64 2f3c dcdd a8bc 8997 ddbc
00000290: d786 abbb b979 d9bb b65c 7bbd e769 123d
000002a0: 1e69 01be d406 97bd e786 163d 7f5c 83bd
000002b0: 9f45 92bd a662 cc3d 3123 393d df9c f7bc
000002c0: 6203 b1bc 66ce adbd 9f9a e43a f73b a03c
000002d0: ba75 7f3c bda9 ad3d ba5c e8bc 4fd6 f93c
000002e0: 2d07 8a3c f13c 083c 4e2d c93d 78d5 243d
000002f0: 5d46 053c 4613 d9bb 779a 97bc 3752 77bd
00000300: 7eb5 64bc 452a e7bb 6b17 a73b 762c 73bd
00000310: d6c0 f2bd 2353 713d 1040 7dbd 7307 3dbd
00000320: 5a0a b43d 7462 6dbd a733 ddbd a1ea 56bd
00000330: 92b8 f4bc 33c8 adbd 41c7 95bc 1888 1d3d
00000340: dccc 98bc 5221 883d 5a25 8dbe 0575 8cbe
00000350: 317d 8e3d 1030 1fbe 62f5 573d 9d60 88bd
00000360: fe7e c4bc 6e46 40be 9cac b0bd c061 0bbe
00000370: ae70 d4bd 0cd6 9dbd c5ae 04bd 6c90 1ebe
00000380: e6a7 a2be de18 b6bc 82d7 eebd fbfd aebc
00000390: d4cb 0cbe 9079 8fbd 88cf 3abe de8c babe
000003a0: b467 0dbe 6b4f 06be 4307 14be f953 8fbe
000003b0: e5ec 993c 351d 8dbd 273d 77bd 4cc5 14bd
000003c0: 2382 ba3d f377 4d3e 4fdf 8cbd ab54 52bc
000003d0: 6842 65be 45e5 993d d6b6 163b 4521 323c
000003e0: 5b1c 5bbe f1ef 1ebd ad4a 72be e223 1abe
000003f0: 8546 f6bd e1ab 0bbe 4d32 25be a83c 2abe
-0.0388238 -0.030659009 0.004704516 -0.018899003 0.017846398 0.040581644 0.0005434446 -0.061123047
-0.047539033 -0.0020517407 0.015767848 0.020867923 0.020125166 -0.020124992 -0.0214288 0.029747393
-0.0310018 -0.027736353 0.0021979408 0.0062846583 0.057528317 -0.00049651647 0.02595208 0.008567556
0.00025249424 0.071495295 0.00035083198 0.029208047 -0.028900037 -0.030797541 0.011497806 0.016743125
-0.066240214 0.03236899 0.0022134094 -0.035671256 -0.022726703 0.042085037 0.0033269867 -0.027347175
0.044329714 0.032210764 -0.0057058823 0.019671237 0.0006428649 0.027079768 0.0040625986 0.0012707227
0.039510015 0.057109788 -0.0029199158 0.043888845 0.047381427 0.030041518 -0.013530271 0.055160277
-0.047342625 0.029034335 -0.0211001 -0.044123262 -0.024128126 0.040600978 0.03387682 -0.020227319
-0.0044140103 0.04491127 -0.0063447473 -0.06959334 -0.051157292 0.07816793 -0.03256294 -0.09260575
-0.017494615 0.0001506898 0.044917926 -0.0048738476 0.026761096 -0.0011888687 -0.01723166 -0.046646364
-0.027697565 -0.009063475 -0.040590156 -0.009781816 0.045257054 -0.055647135 -0.002606379 0.05223725
0.014232634 0.041492376 -0.0027658758 -0.060000688 -0.009513351 0.05640065 0.041830156 -0.018998146
-0.0075858016 0.015996592 0.039635677 -0.0148090655 -0.005475569 -0.0034641582 0.017292941 -0.04208746
-0.042077903 0.048514087 0.023296509 -0.010493925 0.023860916 -0.07693388 -0.025779681 0.026802149
0.0068634152 0.010360278 -0.04366154 0.022658871 0.022992775 0.03485874 -0.031883456 0.0107380785
-0.09718984 -0.04795576 -0.0034842128 -0.0058441246 0.04263718 0.021348018 -0.05741038 -0.10225919
-0.0060662176 0.011539548 0.059890047 -0.019458694 0.034951456 0.026386818 -0.024572343 -0.063580036
-0.008369656 -0.009684924 0.0023338024 -0.069245815 0.018768659 -0.07048299 -0.03466104 0.027166672
0.1791534 0.025471058 -0.029081488 -0.036488328 0.021964196 -0.053339623 0.008523263 0.03060381
-0.012988157 -0.001544856 -0.037960336 -0.077292465 0.041509416 0.060127825 0.0012856402 -0.061030235
-0.05951164 0.010705051 -0.020613603 -0.027049797 -0.00523458 -0.006636825 -0.061367713 0.035745528
-0.12637755 -0.07374349 0.036749747 -0.064141266 -0.071421854 0.09979753 0.045199577 -0.03022617
-0.021608058 -0.08486633 0.00174411 0.019559843 0.015592033 0.08479641 -0.028364528 0.030497698
0.016849125 0.008315311 0.09823094 0.040242642 0.008134452 -0.006624612 -0.018506272 -0.06038114
-0.013959287 -0.0070545995 0.005099227 -0.059368573 -0.11853187 0.058917176 -0.061828673 -0.046149682
0.08791037 -0.05795522 -0.108008675 -0.052469853 -0.029873166 -0.084854506 -0.018283488 0.038459867
-0.018652372 0.0664698 -0.2756756 -0.2743303 0.06957472 -0.15545678 0.05272425 -0.066590525
-0.023986336 -0.18776867 -0.086266726 -0.13611507 -0.103730544 -0.07706842 -0.032393236 -0.1548478
-0.3176872 -0.022228654 -0.116621986 -0.021361342 -0.1374963 -0.07005608 -0.1824323 -0.36435598
-0.13809091 -0.13116233 -0.14455895 -0.27993754 0.018789718 -0.068903364 -0.060361054 -0.03632097
0.09106853 0.20065288 -0.0687853 -0.012837569 -0.22388613 0.07514433 0.0022997162 0.01087219
-0.21397536 -0.038803045 -0.23661299 -0.1505275 -0.12025169 -0.13639785 -0.1613247 -0.16624701

base.1.conv.4.weight f4 [64]
00000000: ec82 833e d1a1 803e ba2e bf3e d1f5 6e3f
00000010: 207d c63e 2149 b43e e69f 853e eb79 bd3e
00000020: 0414 ce3e d28f a33e 765e b33e eb1a 1e3f
00000030: d3e5 173f 050d f93e e281 df3e 89f7 cf3e
00000040: 192c 093f 9ef8 b73e 41de aa3e 8dc4 bb3e
00000050: 19f8 6b3e 2fbb a83e 1856 a73e 1283 1b3f
00000060: 5257 ce3e 66d1 ce3e 23e9 e83e 6d38 a53e
00000070: 0029 e73e 3331 163f 077c b03e eed2 a63e
00000080: 43b2 de3e 6c13 bc3e a371 bb3e a04e 7a3e
00000090: 24ea a53e 4b73 973e 8aeb ee3e cb3e fe3e
000000a0: b1b9 fc3e 3d73 e53e 56e7 e33e fd49 fa3e
000000b0: b02c 9e3e 8afb 003f 7c67 af3e 4b5a 923e
000000c0: 689d a23e 5d7f e23e baef f23e 55dc be3e
000000d0: ea13 7c3e e319 8e3e 81d9 c23e a614 f43e
000000e0: 8fe3 d13e 7680 b83e 1f86 823e 425f 9b3e
000000f0: 0244 7d3e 4182 823e 193a 023f aa46 ea3e
0.25685823 0.25123456 0.37340337 0.93343836 0.38767338 0.35212043 0.26098555 0.3700708
0.40249646 0.31945664 0.35033005 0.61759824 0.5933506 0.48642746 0.4365378 0.40618542
0.5358291 0.35931867 0.3337269 0.36673394 0.2304386 0.3295531 0.32682872 0.6074687
0.40300995 0.40394133 0.4549037 0.32269612 0.45148468 0.5866882 0.34469625 0.32582802
0.43495378 0.36733568 0.36610135 0.24444056 0.32405198 0.2958015 0.46664077 0.49657282
0.4936042 0.44814482 0.44512433 0.48884574 0.3089347 0.5038382 0.3425864 0.28584513
0.31760716 0.44237795 0.47448522 0.37277475 0.24616972 0.27754125 0.38056567 0.47672004
0.40993926 0.36035508 0.2549295 0.30346113 0.24732974 0.2549 0.508699 0.45757037

base.1.conv.4.bias f4 [64]
00000000: 222e 983d e8eb 8b3d 9792 dabd 2f32 c33e
00000010: 94d1 17be 8c56 eb3c 7886 9fbd 3403 e0bd
00000020: e86a 17be 39a3 0fbe fd0d 013b 3bab d8bd
00000030: cb5e c33c 8a0d 323d db76 a23d 91a7 7fbd
00000040: 0ca6 083e 9354 7ebd 2470 053d aacf 1d3d
00000050: 1341 cd3d c03a d13d a56c 883d 836c 5b3e
00000060: 19e6 80bd 94e0 2d3d 3dae f23b 006f a23d
00000070: d6ac 1d3e c60d 033e 8ffd e83b ad7f 023e
00000080: a6e1 d83c 98c8 81bd 7973 da3d 2bac 003e
00000090: 3ff8 b83c 0928 23bd 7198 dbba 3302 36bd
000000a0: aafe 173e a5dc 10be 43d0 393d f36e 0abd
000000b0: 9072 bb3d e320 50bd 72c3 ca3d 832b 173d
000000c0: cfbd 41bc c1bd ad3d 0048 08bd d5f0 06be
000000d0: 1894 63bd ac82 92bc 8b83 8ebb 1085 053c
000000e0: 2fc0 21bd 4358 0b3d f3d3 64bd 88f5 10bd
000000f0: ad5c b33c 2676 0abc 1df9 06bd db3b c4bd
0.07430674 0.06832105 -0.10672491 0.38124225 -0.14826041 0.028727792 -0.0778932 -0.10938111
-0.14786875 -0.14027108 0.0019692176 -0.105795346 0.023848912 0.043469943 0.07932826 -0.062415663
0.13344592 -0.062092375 0.03257765 0.038528122 0.100221775 0.10216284 0.06661347 0.21428113
-0.06293888 0.042450503 0.0074060247 0.07931328 0.15397963 0.12798223 0.0071103047 0.12744017
0.026474785 -0.06337088 0.10666556 0.12565677 0.02257931 -0.039833102 -0.0016753805 -0.04443569
0.1484324 -0.14146669 0.04536463 -0.033797216 0.091527104 -0.050812613 0.099005595 0.03690673
-0.011825039 0.08483458 -0.03327179 -0.13177808 -0.055561155 -0.017884575 -0.0043491772 0.0081494
-0.03948992 0.03401972 -0.055866193 -0.035390407 0.021894777 -0.00845102 -0.032952417 -0.09581729

base.1.conv.4.running_mean f4 [64]
00000000: db61 93bd bd77 4b3e b818 b23e 641f 42bf
00000010: d815 313e 7b23 8f3d 245c 013d 9112 d6bc
00000020: 9b8b 0e3d b2fb 6b3e d6e1 293d 0b23 e63e
00000030: 703a 39bd 15ac 38be 4a24 bcbc 76f6 0b3e
00000040: bd7c 153d 4897 843d 211e 25bd eff5 ed3d
00000050: 10e7 af3e cd80 003e 907d 0cbe d920 0fbf
00000060: e6e0 333e cc19 2b3d 3aff 4e3e a19b dcbe
00000070: d031 98bc a7c8 b4be 5578 8dbe 734d e6bd
00000080: 662b 16be a4f0 bb3e db57 073d 6125 4fbe
00000090: deb5 b53e 2a33 643d 53e0 70bd b880 0dbf
000000a0: 89fd 763e 33f0 b93e c5a7 a3bd a66e 19bf
000000b0: 480a 35be b7c3 353e d40d 58bd 5222 08be
000000c0: 9fa6 9d3e ef62 50be c230 083e 7915 d23e
000000d0: 63e2 0abe c742 55be 97d7 043e 81b0 bcbe
000000e0: 641a b73e 0e2f ffbd 461b f73e c51c 8dbe
000000f0: d414 363e 281b 83be 3f67 083f a8ec 4a3e
-0.07196399 0.19869895 0.34784484 -0.7582915 0.17293489 0.06989189 0.031582013 -0.0261319
0.034801107 0.23045233 0.04147514 0.4494861 -0.045221746 -0.18034394 -0.022966523 0.13668236
0.036495913 0.06474167 -0.040311936 0.11619174 0.34355974 0.12549134 -0.13719773 -0.55909497
0.1756626 0.04177265 0.20214549 -0.43087485 -0.01857844 -0.35309336 -0.2763087 -0.11245241
-0.14664993 0.36707032 0.03304277 -0.20229103 0.35490316 0.055712856 -0.058807682 -0.55274534
0.24120153 0.3631607 -0.07990984 -0.5993446 -0.17679703 0.1775044 -0.052747563 -0.13294342
0.30791184 -0.2035024 0.1329985 0.41032007 -0.13562922 -0.20826255 0.12972866 -0.36853412
0.35762322 -0.12460147 0.48262995 -0.27561012 0.17781383 -0.25606656 0.5328254 0.1981684

base.1.conv.4.running_var f4 [64]
00000000: 1b97 3140 997b 663f b205 6c3f d662 773e
00000010: e0da 903e efc9 e43e 4fbb 3640 08a1 0c3f
00000020: 176e a03e 87ee 743f a8d0 913f 14dc 883f
00000030: 57f1 0a3f e242 9a3f 8352 313f 5332 d83e
00000040: 4b28 2b3f 7e46 eb3f 3533 0740 77bf 0740
00000050: 1909 f73f 8394 8b3f 93b3 7c3f 8b75 9b3f
00000060: e05e 3b3f 3427 e83f f020 893f a179 7a3f
00000070: c712 173f 8100 383f 8473 ee3f a127 2540
00000080: 4bf5 643f 3c3e 3a3f fc7c 253f 417e 4240
00000090: 5f43 c23f a0c4 7d3f 0aa9 1f40 7dc9 273f
000000a0: 2214 b63f b859 083e 93dc 913f 8190 be3e
000000b0: f231 cd3f abfe bc3e c177 6d3f fb06 d43f
000000c0: cf7e 4b3f dfd3 003f c06d 0d3f 156d e33e
000000d0: 99aa c93f 5a33 623f ffa2 8f3f e542 ea3e
000000e0: a4a2 9b3f 9d4f 0840 26fd 523f 68f6 fc3f
000000f0: 4cf6 2d40 cf97 a63f 352c 603f 979f a83f
2.7748477 0.90032345 0.9219619 0.24158797 0.28291988 0.44685313 2.8551824 0.54933214
0.31333992 0.95676464 1.1391802 1.0692163 0.54274505 1.2051661 0.6926653 0.42225894
0.6685836 1.8380888 2.1125004 2.121061 1.9299651 1.0904697 0.9871151 1.2145246
0.7319164 1.8136964 1.0713177 0.9784184 0.59013027 0.7187577 1.8629003 2.5805438
0.8943679 0.7275121 0.64643836 3.038956 1.517681 0.9912815 2.4946923 0.6554182
1.4224894 0.13315475 1.1395439 0.37219623 1.6030867 0.36913046 0.92760855 1.656463
0.7949037 0.5032329 0.5524559 0.4441916 1.5755187 0.88359606 1.1221617 0.4575416
1.2159009 2.1298592 0.82417524 1.9762697 2.7181578 1.3015078 0.87567455 1.3173703

base.2.conv.0.weight f4 [128, 64, 1, 1]
00000000: a397 26be bcde 4abe 98a5 4ebe f935 1c3d
00000010: d647 ee3c bb42 bb3b cfcc dabc 949c a13d
00000020: 2ac3 023d 50b1 cbbd fcad 4dbd 96eb 01be
00000030: e7c4 99bd fb9b 083d cc5d 54bc a93d 13bd
00000040: 764b 7e3c 2e6f 78be 2d12 953d c54a db3d
00000050: c69f 85bd e998 9f3b 9d75 003e ede4 983d
00000060: f471 19be 26cf 65bd 9137 19bd 81f9 01be
00000070: 9093 47bd 7ced 71bd 1794 0f3e a992 a33d
00000080: 37dd 093e a27c 8b3d bec6 80bc 9c7e d7bd
00000090: acdb cdbc ea10 93bd 2ec5 71bd f648 403e
000000a0: c920 afbd 4a59 f7bc c516 19bb 1c77 083b
000000b0: 1f27 c83d c6dd 28be cd1d 87bd d529 c0bb
000000c0: 6951 a7bc a49f 0ebd edf4 a2bc 2fea 34bd
000000d0: 8af2 de3d a34e 38be 951b 313d 2f39 933e
000000e0: d2bb 02be f562 e0bd 5a39 81bd d3f0 d83c
000000f0: dd3c 9f3d 0d8f 76bd c307 1d3d 645d b13d
00000100: 89e8 68bd b8f1 b1bc e49a c8bc 8055 b83c
00000110: 09e4 37bd c14a 37bc eca9 0c3d aba9 ab3c
00000120: 22e6 c9bc 018a 2f3c 767f 6fbd 5267 3cbc
00000130: ae13 5e3c 93c4 90bc 4621 5b3c 053e 343d
00000140: 5a90 acbc 80d4 67bd 1fc4 c5bc 99fb d03c
00000150: 1c87 71bd f73b 063c 5870 5d3d 3273 b43c
00000160: 36fd 34bc bf90 3a3d 4bf7 c93b 7626 193d
00000170: 1d13 613b 92e1 c73c 4ca2 3bbd 317b cd3c
00000180: 18c2 3a3c d5a3 3dbd 4233 51bd 5b26 473d
00000190: b56e 91bc a1fb abbc 8e83 0a3d a03c e33c
000001a0: 9f0d 4abd 5635 efbc c2bf 7ebc 5c0d 6ebd
000001b0: 447c 733c 876d 9e3c 132c a33c 38b5 1d3c
000001c0: 0fa8 b73b 8b42 4ebc c5af d4bc 5664 52bb
000001d0: aff6 cbbb daa5 a3bd bf16 bebc bacd 013d
000001e0: 8f75 a33b 2545 da3c a90e 8bbc 6504 2c3d
000001f0: e897 65bc 619b 3f3c a1a4 6ebc 35f1 6b3c
00000200: 2b59 033d f198 03be a71b a33c 02b6 97bd
00000210: dd0f 2b3e 8ac2 dfbd 1d43 5abb 88b2 da3b
00000220: cc45 203d c8ff 5d3e 8b6e 303e 771d 9c3c
00000230: a6f0 8d3d 0b37 153d fd87 dfbd 8421 3d3d
00000240: fc65 24be b96b ff3d 1085 93b8 5110 c2bd
00000250: 78f8 97be 2652 4bbd 92cc 333d 24f4 f33d
00000260: 060c 4dbe eddf c63d 9787 c8bd e25c 0abe
00000270: 0708 ccbc 2b07 4cbd 62f2 11be 130c d83d
00000280: 23ca 543c ec12 1d3e 7266 d5bd 3ca4 e5bc
00000290: 4f3f e6bd f6c6 843e c2f9 2fbe b9ad 12be
000002a0: 580b 803b 40c3 2e3c 868f 7c3d 4ed2 5abc
000002b0: 6398 2ebd 679b 083e 27ea 603c b91c 3e3d
000002c0: 4e3b c1bd 060e f13c da60 1bbd 953c bd3c
000002d0: 796d afbb 7116 373e e133 033e b35f 0cbc
000002e0: 5e64 5fbe 6269 0cbd fbef b23b 2cf7 e9bd
000002f0: 4b33 db3d 482a e9bc 5850 0c3d a505 0ebe
00000300: fde1 4cbc 86ec 143d f669 0e3d f950 ea3b
00000310: 2690 b0bc b5a9 d2bb e462 223d f3a7 573d
00000320: b780 c6bc 1867 533d 90af 83bc 84e6 663c
00000330: 25e3 203d eb86 233d 2947 f7bc 1cf6 57bc
00000340: 63eb 0e3d df6c 3abc cd98 f23c 68a0 b13d
00000350: 511e d5bc f60d 23bd 8c77 34bb fc69 783b
00000360: e815 0f3d c1fe 29bd 19d2 15bd 7b48 143d
00000370: cfd7 d23c d4a7 18bc 3de9 c5bc 098d 46bd
00000380: 927d 083d e842 d23b b16d 993c 4009 273d
00000390: b638 5cbc a54e 853d ad9e d6bb 6021 c6bb
000003a0: a943 f13c 2d94 813d 752c 18bd 7d18 933b
000003b0: 185e 11bd 7c4d 6abc ec36 3b3c 3da0 703c
000003c0: 28cf 3e3d e622 c23c afb3 653d c169 3dbc
000003d0: 1677 f6bc 53ca 5d3b 1bae 183d cd44 8039
000003e0: 6f37 9fbc 9f27 3b3d b04e b83c f70c e8ba
000003f0: ee63 a23c 372a f3bc 92f0 28bd aa31 b8bc
-0.16268782 -0.19811529 -0.20180357 0.03813741 0.029086988 0.005714742 -0.026708988 0.07891193
0.031924404 -0.09945929 -0.050214753 -0.12687525 -0.07508259 0.03335188 -0.012961816 -0.035947476
0.015520921 -0.24261162 0.072788574 0.107076205 -0.06524615 0.0048705232 0.12544866 0.07465539
-0.14984876 -0.056105755 -0.037406508 -0.12692834 -0.04872471 -0.059064373 0.14021336 0.079869576
0.13463293 0.06810881 -0.015719768 -0.10522196 -0.025129162 -0.071809605 -0.059025936 0.18777832
-0.08551175 -0.030193944 -0.002335952 0.0020822948 0.09773087 -0.1649085 -0.06597481 -0.0058643618
-0.020424562 -0.034820214 -0.01989218 -0.044168647 0.108861044 -0.17998748 0.043239195 0.28754565
-0.1276696 -0.109563746 -0.06309767 0.026482021 0.077752806 -0.060195018 0.03833748 0.08660391
-0.056862388 -0.021721706 -0.02448792 0.022501707 -0.044895206 -0.011187256 0.034341738 0.020954927
-0.024645869 0.010714055 -0.058471166 -0.011499243 0.013554497 -0.017671859 0.013374632 0.04400446
-0.021064926 -0.05659914 -0.02414137 0.025510596 -0.05896674 0.008193008 0.054062217 0.022027586
-0.011046698 0.045548197 0.006163513 0.037390195 0.0034343668 0.024399552 -0.045809075 0.025083156
0.011398815 -0.04629882 -0.051074274 0.048620563 -0.017752985 -0.02099401 0.033816867 0.02773887
-0.049329396 -0.029200237 -0.015548648 -0.05811821 0.01486117 0.019339336 0.019918477 0.009625725
0.005604751 -0.012589107 -0.02596272 -0.0032103262 -0.0062244753 -0.07990618 -0.023204206 0.031690337
0.0049883793 0.026644299 -0.016974764 0.04199638 -0.014013268 0.01169476 -0.014565618 0.01440077
0.03206746 -0.12851311 0.019910647 -0.07407762 0.1670527 -0.10925777 -0.0033304163 0.0066741146
0.039129063 0.21679604 0.17229669 0.019057019 0.06930666 0.036429446 -0.109146096 0.04617454
-0.16054529 0.12471718 -7.034291e-05 -0.09475768 -0.29681754 -0.04963889 0.043896265 0.119118005
-0.20024118 0.09710679 -0.09791487 -0.13511994 -0.024906171 -0.049811523 -0.14252618 0.10549178
0.012987646 0.1533925 -0.104199305 -0.028032415 -0.11242544 0.25933045 -0.17185119 -0.14324082
0.0039076023 0.010666668 0.061660312 -0.013355805 -0.042625796 0.13340531 0.013727701 0.04641411
-0.094351396 0.029425632 -0.03793416 0.023100177 -0.0053536263 0.17879654 0.12812759 -0.008567738
-0.21815631 -0.03428019 0.005460737 -0.114240974 0.10703143 -0.028462544 0.03425631 -0.1386934
-0.012505052 0.03635838 0.03476902 0.007150766 -0.02155311 -0.006428922 0.03964509 0.052650403
-0.024231298 0.05161199 -0.016074926 0.014093045 0.039279122 0.03992359 -0.030185299 -0.013181236
0.03489245 -0.011378496 0.029613877 0.08673173 -0.026015433 -0.039808236 -0.0027537076 0.0037904968
0.034933 -0.041502718 -0.036577318 0.036201935 0.025737671 -0.009317357 -0.024159068 -0.048474345
0.03332288 0.0064166673 0.018729063 0.040780306 -0.013441255 0.06509141 -0.0065496773 -0.006046459
0.029451208 0.063270904 -0.037151773 0.004489003 -0.035490125 -0.0143007 0.011426669 0.014686641
0.04658428 0.023698281 0.056079563 -0.011560858 -0.030086081 0.0033842518 0.037275415 0.00024465323
-0.019435612 0.045692082 0.022498459 -0.0017704059 0.01982304 -0.029683216 -0.04124505 -0.02248462

base.2.conv.1.weight f4 [128]
00000000: bbfb 3d3f 71d5 8a3e ec97 2c3f 396e 8c3e
00000010: 5f99 193f 5279 833e 8675 2c3f 2892 8c3e
00000020: e0da 483f 428b 9d3e a195 8c3e a785 3f3f
00000030: 5e39 333f 3964 603f 49bb 9e3e c0c0 c13e
00000040: 85fd 253f 9e23 3e3f baf7 fe3e 4db3 8b3e
00000050: 3f63 113f b211 b03e 2a1b 113f 14a9 953e
00000060: 2081 3a3f cbff 813e 06de 643f a141 363f
00000070: 3969 313f bbca eb3e 6028 1d3f eb43 2b3f
00000080: 6e4b 233f 7eba 2b3f 4881 1d3f c614 3f3f
00000090: 03e1 223f 5959 853e 68bf 913e 4904 233f
000000a0: d6b3 523f b12f 3b3f c97e 4e3f 53f3 333f
000000b0: 91b5 2c3f 852f 533f fffb 383f 52fa 183f
000000c0: 4aec a63e 8641 ad3e f654 853e 542d 8a3e
000000d0: 66e4 e13e ae47 1b3f 342c 3e3f 9575 273f
000000e0: 05e0 1f3f 0db8 143f 8b63 183f da5b 5d3f
000000f0: 851c 4a3f 452d 403f 235d 453f b35c 0a3f
00000100: 6b32 543f 5e95 803e 58f8 2b3f 9f06 ac3e
00000110: a64b 183f 1854 623f ccba 303f 8f23 1b3f
00000120: 90b8 343f ace1 2d3f 9f0c a93e f75e 293f
00000130: 26df 1d3f 52b4 833e 708c 993e cc2c 623f
00000140: 4837 563f 39b6 a83e 195c f43e 0020 353f
00000150: c679 823e 0e54 2e3f f701 643f a3e8 153f
00000160: 6c96 103f d9c7 813e cd9c 373f 5df9 453f
00000170: 8fd5 763f 2b4a 973e 29d1 ee3e ae2d 043f
00000180: fad2 503f 0fa0 103f 9dfe 063f 86ec 203f
00000190: 8d57 4f3f a918 163f 1284 883e 1593 133f
000001a0: f695 b03e d77f 243f de4b 2f3f 8ec0 073f
000001b0: 9d6e 3e3f 1263 3d3f 11f4 0c3f a37d a03e
000001c0: 03fc 183f 987c 173f 6b86 123f b257 053f
000001d0: d6cb be3e ce42 1b3f ce4a 193f 89db 383f
000001e0: a20f 0d3f b085 df3e 9516 2f3f 80d9 3c3f
000001f0: ce72 803e 6e13 253f d7f6 7c3e 7526 753e
0.74212235 0.27115968 0.67419314 0.27427843 0.5999965 0.25678498 0.67366827 0.27455258
0.78458977 0.30770308 0.27457908 0.7481331 0.7000941 0.8765293 0.31002262 0.3784237
0.64839965 0.742731 0.49798375 0.27285233 0.5679206 0.343885 0.56682074 0.2923056
0.7285328 0.25390467 0.8940128 0.7119389 0.6930118 0.4605311 0.6138973 0.6690051
0.6378697 0.6708144 0.6152539 0.7464107 0.6362459 0.2604473 0.28466344 0.63678414
0.8230566 0.73119646 0.8066221 0.7029316 0.6746455 0.82494384 0.72259516 0.5975696
0.3260215 0.33839053 0.26041383 0.26987708 0.44119567 0.6065625 0.742862 0.6541379
0.624512 0.5809334 0.5952689 0.8646828 0.7894977 0.75069076 0.7709524 0.540477
0.8288943 0.25113958 0.6717582 0.33598801 0.5949043 0.88409567 0.6903503 0.60601133
0.7059412 0.6792247 0.33017442 0.6616053 0.6166862 0.2572351 0.29989958 0.88349605
0.836781 0.32951525 0.47726515 0.70751953 0.2548353 0.6809701 0.890655 0.585581
0.56479526 0.25347784 0.71723634 0.77333623 0.96419615 0.29548773 0.46643952 0.516322
0.81571925 0.5649423 0.5273226 0.62860906 0.80992967 0.5863138 0.26663262 0.57646304
0.3448941 0.6425757 0.6847514 0.5302819 0.7438753 0.73979294 0.55059916 0.31345853
0.5975954 0.5917449 0.57236356 0.5208694 0.3726489 0.6064881 0.5987977 0.72209984
0.5510198 0.43656683 0.6839383 0.7376938 0.2508759 0.6448277 0.24703537 0.23940451
