Pruned_Models/ERESFD/FPGM/ERES40_FPGM.pth (torch, 541922 bytes, 400 tensors)

base.conv1.0.weight f4 [8, 3, 5, 5]
0	0x80000000	-0.0
1	0x80000000	-0.0
2	0x80000000	-0.0
3	0x80000000	-0.0
4	0x80000000	-0.0
5	0x80000000	-0.0
6	0x80000000	-0.0
7	0x80000000	-0.0
8	0x80000000	-0.0
9	0x80000000	-0.0
10	0x80000000	-0.0
11	0x80000000	-0.0
12	0x80000000	-0.0
13	0x80000000	-0.0
14	0x80000000	-0.0
15	0x80000000	-0.0
16	0x80000000	-0.0
17	0x80000000	-0.0
18	0x80000000	-0.0
19	0x80000000	-0.0
20	0x80000000	-0.0
21	0x80000000	-0.0
22	0x80000000	-0.0
23	0x80000000	-0.0
24	0x80000000	-0.0
25	0x80000000	-0.0
26	0x80000000	-0.0
27	0x80000000	-0.0
28	0x80000000	-0.0
29	0x80000000	-0.0
30	0x80000000	-0.0
31	0x80000000	-0.0
32	0x80000000	-0.0
33	0x80000000	-0.0
34	0x80000000	-0.0
35	0x80000000	-0.0
36	0x80000000	-0.0
37	0x80000000	-0.0
38	0x80000000	-0.0
39	0x80000000	-0.0
40	0x80000000	-0.0
41	0x80000000	-0.0
42	0x80000000	-0.0
43	0x80000000	-0.0
44	0x80000000	-0.0
45	0x80000000	-0.0
46	0x80000000	-0.0
47	0x80000000	-0.0
48	0x80000000	-0.0
49	0x80000000	-0.0
50	0x80000000	-0.0
51	0x80000000	-0.0
52	0x80000000	-0.0
53	0x80000000	-0.0
54	0x80000000	-0.0
55	0x80000000	-0.0
56	0x80000000	-0.0
57	0x80000000	-0.0
58	0x80000000	-0.0
59	0x80000000	-0.0
60	0x00000000	0.0
61	0x00000000	0.0
62	0x80000000	-0.0
63	0x80000000	-0.0
64	0x80000000	-0.0
65	0x00000000	0.0
66	0x00000000	0.0
67	0x00000000	0.0
68	0x80000000	-0.0
69	0x80000000	-0.0
70	0x00000000	0.0
71	0x00000000	0.0
72	0x00000000	0.0
73	0x80000000	-0.0
74	0x80000000	-0.0
75	0x80000000	-0.0
76	0x80000000	-0.0
77	0x00000000	0.0
78	0x80000000	-0.0
79	0x80000000	-0.0
80	0x00000000	0.0
81	0x00000000	0.0
82	0x00000000	0.0
83	0x00000000	0.0
84	0x00000000	0.0
85	0x00000000	0.0
86	0x00000000	0.0
87	0x00000000	0.0
88	0x00000000	0.0
89	0x00000000	0.0
90	0x00000000	0.0
91	0x80000000	-0.0
92	0x80000000	-0.0
93	0x00000000	0.0
94	0x00000000	0.0
95	0x00000000	0.0
96	0x80000000	-0.0
97	0x80000000	-0.0
98	0x00000000	0.0
99	0x00000000	0.0
100	0x80000000	-0.0
101	0x80000000	-0.0
102	0x80000000	-0.0
103	0x80000000	-0.0
104	0x80000000	-0.0
105	0x80000000	-0.0
106	0x80000000	-0.0
107	0x00000000	0.0
108	0x00000000	0.0
109	0x80000000	-0.0
110	0x00000000	0.0
111	0x00000000	0.0
112	0x00000000	0.0
113	0x00000000	0.0
114	0x00000000	0.0
115	0x00000000	0.0
116	0x80000000	-0.0
117	0x80000000	-0.0
118	0x00000000	0.0
119	0x00000000	0.0
120	0x00000000	0.0
121	0x80000000	-0.0
122	0x80000000	-0.0
123	0x00000000	0.0
124	0x00000000	0.0
125	0x80000000	-0.0
126	0x80000000	-0.0
127	0x80000000	-0.0
128	0x80000000	-0.0
129	0x80000000	-0.0
130	0x80000000	-0.0
131	0x80000000	-0.0
132	0x80000000	-0.0
133	0x80000000	-0.0
134	0x80000000	-0.0
135	0x80000000	-0.0
136	0x80000000	-0.0
137	0x80000000	-0.0
138	0x00000000	0.0
139	0x80000000	-0.0
140	0x80000000	-0.0
141	0x80000000	-0.0
142	0x80000000	-0.0
143	0x80000000	-0.0
144	0x80000000	-0.0
145	0x80000000	-0.0
146	0x80000000	-0.0
147	0x80000000	-0.0
148	0x80000000	-0.0
149	0x80000000	-0.0
150	0xbe04eecd	-0.1298172
151	0xbe43c2ce	-0.19117281
152	0xbe68ae32	-0.227227
153	0xbe86d574	-0.26334727
154	0xbe5fadad	-0.21843596
155	0xbe501345	-0.2031985
156	0xbe94e932	-0.29084164
157	0xbeaa4a93	-0.3326002
158	0xbeaf7702	-0.34270483
159	0xbe78f7a0	-0.24313211
160	0xbe513957	-0.2043203
161	0xbea355ed	-0.31901494
162	0xbeb8f608	-0.36125207
163	0xbec25d30	-0.3796172
164	0xbe8fd7a9	-0.28094223
165	0xbe58feb2	-0.21190909
166	0xbea7d4b7	-0.32779476
167	0xbec034ff	-0.37540433
168	0xbec8d32c	-0.3922361
169	0xbeb77381	-0.3583031
170	0xbe869771	-0.26287416
171	0xbeb19131	-0.34681085
172	0xbeb888cf	-0.36041877
173	0xbeb6bbae	-0.35690063
174	0xbeb8c31d	-0.3608636
175	0x3e5faa31	0.21842267
176	0x3e81a3d4	0.25320303
177	0x3e86ee17	0.26353523
178	0x3e71907b	0.23590271
179	0x3e656afe	0.22404096
180	0x3e4a679f	0.19766091
181	0x3e881558	0.26578784
182	0x3e9bb7f1	0.30413774
183	0x3e9c2708	0.30498528
184	0x3ea35927	0.31903955
185	0x3e5e25e7	0.21694146
186	0x3e9b384f	0.30316398
187	0x3ebc4083	0.3676797
188	0x3eb64a8c	0.3560375
189	0x3ebb0d13	0.36533412
190	0x3e6f685c	0.23379654
191	0x3e991fb0	0.29906988
192	0x3eb4db11	0.35323384
193	0x3eba750f	0.36417434
194	0x3eacfd07	0.33786795
195	0x3e1e2831	0.1544502
196	0x3e637660	0.22213125
197	0x3e95848c	0.29202688
198	0x3eada839	0.33917406
199	0x3e9d96c9	0.30779102
200	0xbd740fbc	-0.059585318
201	0xbd101390	-0.035174906
202	0xbd60040d	-0.054691363
203	0xbdccfedf	-0.1000955
204	0xbe1b35a4	-0.15157181
205	0xbd0280d8	-0.031861156
206	0x3cffeb5e	0.031240162
207	0x3d1e5416	0.03865441
208	0x3c1e350d	0.009656203
209	0xbc5eed99	-0.013606452
210	0xbd6edd94	-0.058316782
211	0x3d1a9121	0.037736062
212	0x3d96213e	0.07330559
213	0x3d3fc49c	0.04681836
214	0x3c4381ec	0.011932831
215	0xba9ee5d0	-0.0012122933
216	0x3dbc8eea	0.09206946
217	0x3ddbbc7e	0.107293114
218	0x3dbebff9	0.0931396
219	0x3d0acd70	0.033887327
220	0xbd23cc63	-0.03998984
221	0x3d6652b1	0.056231204
222	0x3dc5cdbd	0.09658382
223	0x3e0137ca	0.12618938
224	0x3d7217b4	0.059104636
225	0xbe14cdfa	-0.14531699
226	0xbb884e5a	-0.004159731
227	0x3e4e78f0	0.20163321
228	0x3e2f574e	0.17123148
229	0x3d10f528	0.03539005
230	0xbdf4bf7f	-0.119505875
231	0x3e135fb1	0.14391972
232	0x3e989a15	0.29805055
233	0x3dfae6f6	0.122510836
234	0xbe5a4b26	-0.2131773
235	0xbe5b1459	-0.21394481
236	0x3dba6358	0.091009796
237	0x3e2f4434	0.17115861
238	0xbd35c834	-0.04438038
239	0xbedd2941	-0.43195537
240	0xbe44ced7	-0.19219528
241	0x3df40125	0.11914281
242	0x3e1fc39d	0.15601964
243	0xbd8d1f9c	-0.06890795
244	0xbef71cac	-0.48264062
245	0xbd60e4d0	-0.054905713
246	0x3e81cef9	0.2535322
247	0x3e979c18	0.29611278
248	0x3dbe1f3e	0.09283303
249	0xbe898010	-0.26855516
250	0xbd854315	-0.065069355
251	0x3da0198b	0.07817372
252	0x3e580aa5	0.2109781
253	0x3e7b9b72	0.24571016
254	0x3dd43b3f	0.10362863
255	0xbce31d50	-0.027723938

base.conv1.1.weight f4 [8]
0	0x1bd6d650	3.5541826e-22
1	0x00004954	2.6305e-41
2	0x3ea99968	0.33124852
3	0x3ea1804b	0.31543192
4	0x15ae64fe	7.043738e-26
5	0x3ed75c33	0.4206253
6	0x3ef64989	0.48102978
7	0x3ee82a3d	0.45344725

base.conv1.1.bias f4 [8]
0	0xbf331c21	-0.69964796
1	0xbe8ac92c	-0.27106607
2	0x3e3da780	0.18520927
3	0xbe6ca362	-0.231092
4	0xbb7cd896	-0.0038581244
5	0x3d0ec7c8	0.034858495
6	0xbe773ba5	-0.24143846
7	0x3dfbe731	0.12299956

base.conv1.1.running_mean f4 [8]
0	0x00000004	6e-45
1	0x80000004	-6e-45
2	0x41142558	9.259117
3	0xc0ce161e	-6.4402
4	0x80000004	-6e-45
5	0xc10249c2	-8.143007
6	0x4192d723	18.355047
7	0xc179cfc4	-15.613224

base.conv1.1.running_var f4 [8]
0	0x00000004	6e-45
1	0x00000004	6e-45
2	0x4744fee3	50430.887
3	0x45307ae3	2823.6804
4	0x00000004	6e-45
5	0x46416517	12377.272
6	0x46947b99	19005.799
7	0x467fde7e	16375.623

base.conv2.0.weight f4 [8, 8, 3, 3]
0	0x3d309bfc	0.04311751
1	0x3dcd6ec0	0.100308895
2	0x3d9a81bb	0.075442754
3	0xbda88644	-0.08228734
4	0x3b3232e5	0.002719098
5	0xbcfda528	-0.030962542
6	0xbde60c1a	-0.11232777
7	0xbd27d67f	-0.040976044
8	0xbd5cd0e6	-0.05391016
9	0xbcd9901d	-0.026557976
10	0xbceea9c9	-0.029133694
11	0x3c6efccb	0.014586638
12	0x3d68a375	0.05679651
13	0x3c288c19	0.010287308
14	0x3ca44c97	0.020056052
15	0xbd0d9082	-0.03456164
16	0xbc7ed4dc	-0.015553679
17	0xbcb04c48	-0.021520749
18	0x3e20ee5d	0.15715928
19	0xbe2cc8d9	-0.16873492
20	0x3e3b57fc	0.18295282
21	0x3df6ce98	0.120511234
22	0xc00757c8	-2.1147327
23	0xbc5a5507	-0.013325936
24	0x3e80bb40	0.2514286
25	0xbe81fbc6	-0.253874
26	0x3e79d524	0.24397713
27	0xbb664b98	-0.0035140272
28	0x3c96d120	0.018410265
29	0xbcc867e8	-0.024463609
30	0x3c9c581e	0.019084986
31	0xbcaa49e9	-0.020787196
32	0xbb4ee9e3	-0.0031572513
33	0xbad8538e	-0.0016504393
34	0xbce0e3e4	-0.027452417
35	0x3b90681c	0.004406942
36	0xbb4b3724	-0.0031008208
37	0xbb53ac8e	-0.0032298896
38	0xbb85129d	-0.0040610568
39	0xbb28231d	-0.0025655695
40	0xba67fa82	-0.0008849279
41	0xbafc928c	-0.0019269749
42	0xbb2b29a9	-0.002611736
43	0xbb1288a8	-0.0022359286
44	0xbb0eb12b	-0.002177308
45	0x3c1485e6	0.009065127
46	0xbd09415d	-0.0335096
47	0x3d3464e3	0.044041526
48	0xbbea92a2	-0.0071585933
49	0x3ce0bb6b	0.027433118
50	0xbc15c3ef	-0.0091409525
51	0xbc9ebcb4	-0.01937709
52	0x39b2b39b	0.00034084622
53	0x3be89db2	0.007098877
54	0xbce528c4	-0.02797354
55	0xbbad4d2e	-0.0052887416
56	0x3cc265a1	0.023730101
57	0x3c4cff90	0.012512103
58	0xbc47a17a	-0.012184495
59	0x39a42303	0.00031306603
60	0xbd16fc61	-0.03686178
61	0xbca1d885	-0.019756565
62	0x3b8036d4	0.003912786
63	0x3d2f6558	0.04282126
64	0xbcf212a4	-0.029549904
65	0xb9d79814	-0.00041121303
66	0xbc9f9b7b	-0.019483319
67	0xbd84378b	-0.064559065
68	0x3ce5fb71	0.028073998
69	0x3ca8a80e	0.020587947
70	0x3d91dba5	0.07121972
71	0xbd3996b3	-0.045309734
72	0x80000000	-0.0
73	0x00000000	0.0
74	0x00000000	0.0
75	0x80000000	-0.0
76	0x80000000	-0.0
77	0x00000000	0.0
78	0x80000000	-0.0
79	0x00000000	0.0
80	0x00000000	0.0
81	0x00000000	0.0
82	0x80000000	-0.0
83	0x00000000	0.0
84	0x80000000	-0.0
85	0x80000000	-0.0
86	0x80000000	-0.0
87	0x80000000	-0.0
88	0x80000000	-0.0
89	0x80000000	-0.0
90	0x00000000	0.0
91	0x00000000	0.0
92	0x00000000	0.0
93	0x00000000	0.0
94	0x00000000	0.0
95	0x00000000	0.0
96	0x80000000	-0.0
97	0x80000000	-0.0
98	0x80000000	-0.0
99	0x80000000	-0.0
100	0x00000000	0.0
101	0x00000000	0.0
102	0x00000000	0.0
103	0x00000000	0.0
104	0x80000000	-0.0
105	0x00000000	0.0
106	0x00000000	0.0
107	0x80000000	-0.0
108	0x00000000	0.0
109	0x00000000	0.0
110	0x00000000	0.0
111	0x00000000	0.0
112	0x00000000	0.0
113	0x00000000	0.0
114	0x00000000	0.0
115	0x00000000	0.0
116	0x80000000	-0.0
117	0x80000000	-0.0
118	0x80000000	-0.0
119	0x00000000	0.0
120	0x00000000	0.0
121	0x80000000	-0.0
122	0x00000000	0.0
123	0x00000000	0.0
124	0x00000000	0.0
125	0x00000000	0.0
126	0x80000000	-0.0
127	0x80000000	-0.0
128	0x80000000	-0.0
129	0x80000000	-0.0
130	0x80000000	-0.0
131	0x00000000	0.0
132	0x00000000	0.0
133	0x80000000	-0.0
134	0x00000000	0.0
135	0x00000000	0.0
136	0x00000000	0.0
137	0x00000000	0.0
138	0x00000000	0.0
139	0x00000000	0.0
140	0x80000000	-0.0
141	0x00000000	0.0
142	0x00000000	0.0
143	0x00000000	0.0
144	0x80000000	-0.0
145	0x80000000	-0.0
146	0x00000000	0.0
147	0x00000000	0.0
148	0x80000000	-0.0
149	0x80000000	-0.0
150	0x00000000	0.0
151	0x00000000	0.0
152	0x00000000	0.0
153	0x00000000	0.0
154	0x00000000	0.0
155	0x80000000	-0.0
156	0x80000000	-0.0
157	0x00000000	0.0
158	0x00000000	0.0
159	0x00000000	0.0
160	0x00000000	0.0
161	0x00000000	0.0
162	0x00000000	0.0
163	0x00000000	0.0
164	0x80000000	-0.0
165	0x00000000	0.0
166	0x80000000	-0.0
167	0x80000000	-0.0
168	0x80000000	-0.0
169	0x00000000	0.0
170	0x00000000	0.0
171	0x00000000	0.0
172	0x80000000	-0.0
173	0x00000000	0.0
174	0x80000000	-0.0
175	0x80000000	-0.0
176	0x80000000	-0.0
177	0x80000000	-0.0
178	0x80000000	-0.0
179	0x00000000	0.0
180	0x80000000	-0.0
181	0x80000000	-0.0
182	0x80000000	-0.0
183	0x80000000	-0.0
184	0x80000000	-0.0
185	0x80000000	-0.0
186	0x80000000	-0.0
187	0x80000000	-0.0
188	0x80000000	-0.0
189	0x00000000	0.0
190	0x00000000	0.0
191	0x00000000	0.0
192	0x80000000	-0.0
193	0x00000000	0.0
194	0x00000000	0.0
195	0x80000000	-0.0
196	0x80000000	-0.0
197	0x00000000	0.0
198	0x80000000	-0.0
199	0x80000000	-0.0
200	0x80000000	-0.0
201	0x80000000	-0.0
202	0x00000000	0.0
203	0x80000000	-0.0
204	0x80000000	-0.0
205	0x00000000	0.0
206	0x00000000	0.0
207	0x80000000	-0.0
208	0x80000000	-0.0
209	0x00000000	0.0
210	0x80000000	-0.0
211	0x80000000	-0.0
212	0x00000000	0.0
213	0x80000000	-0.0
214	0x80000000	-0.0
215	0x80000000	-0.0
216	0x00000000	0.0
217	0x80000000	-0.0
218	0x80000000	-0.0
219	0x00000000	0.0
220	0x00000000	0.0
221	0x00000000	0.0
222	0x00000000	0.0
223	0x00000000	0.0
224	0x00000000	0.0
225	0x00000000	0.0
226	0x00000000	0.0
227	0x80000000	-0.0
228	0x00000000	0.0
229	0x00000000	0.0
230	0x80000000	-0.0
231	0x00000000	0.0
232	0x00000000	0.0
233	0x80000000	-0.0
234	0x80000000	-0.0
235	0x80000000	-0.0
236	0x00000000	0.0
237	0x80000000	-0.0
238	0x80000000	-0.0
239	0x00000000	0.0
240	0x80000000	-0.0
241	0x00000000	0.0
242	0x00000000	0.0
243	0x80000000	-0.0
244	0x80000000	-0.0
245	0x00000000	0.0
246	0x00000000	0.0
247	0x80000000	-0.0
248	0x00000000	0.0
249	0x00000000	0.0
250	0x00000000	0.0
251	0x80000000	-0.0
252	0x00000000	0.0
253	0x00000000	0.0
254	0x80000000	-0.0
255	0x80000000	-0.0

base.conv2.1.weight f4 [8]
0	0x3e9453a2	0.28970057
1	0x00001f5c	1.125e-41
2	0x00000349	1.178e-42
3	0x80001041	-5.831e-42
4	0x3ead595d	0.3385724
5	0x3eadb48f	0.33926818
6	0x3ecd28c5	0.40070167
7	0x3eabb2e3	0.33534917

base.conv2.1.bias f4 [8]
0	0x3e509a86	0.20371446
1	0x3e9c8549	0.30570439
2	0x3e83ff70	0.2578082
3	0x3e583271	0.21112992
4	0x3f23a60b	0.63925236
5	0x3ec0a40b	0.37625155
6	0x3d60a4fb	0.054844838
7	0x3e6ca435	0.23109515

base.conv2.1.running_mean f4 [8]
0	0xbe4ba8f7	-0.19888674
1	0x00000004	6e-45
2	0x80000004	-6e-45
3	0x80000004	-6e-45
4	0x3d8ed00c	0.069732755
5	0xbe454e54	-0.19268161
6	0x3ec68229	0.3877118
7	0x3dbb71d3	0.091525696

base.conv2.1.running_var f4 [8]
0	0x3e9936cd	0.29924622
1	0x00000004	6e-45
2	0x00000004	6e-45
3	0x00000004	6e-45
4	0x3e1f08b5	0.15530665
5	0x3e8b841e	0.27249235
6	0x3e8a9965	0.27070156
7	0x3eb1b2a7	0.34706613

base.conv3.0.weight f4 [16, 8, 3, 3]
0	0x00000000	0.0
1	0x00000000	0.0
2	0x00000000	0.0
3	0x00000000	0.0
4	0x00000000	0.0
5	0x00000000	0.0
6	0x00000000	0.0
7	0x00000000	0.0
8	0x00000000	0.0
9	0x80000000	-0.0
10	0x80000000	-0.0
11	0x00000000	0.0
12	0x80000000	-0.0
13	0x80000000	-0.0
14	0x00000000	0.0
15	0x80000000	-0.0
16	0x80000000	-0.0
17	0x80000000	-0.0
18	0x80000000	-0.0
19	0x80000000	-0.0
20	0x80000000	-0.0
21	0x80000000	-0.0
22	0x80000000	-0.0
23	0x00000000	0.0
24	0x80000000	-0.0
25	0x00000000	0.0
26	0x00000000	0.0
27	0x00000000	0.0
28	0x80000000	-0.0
29	0x80000000	-0.0
30	0x00000000	0.0
31	0x80000000	-0.0
32	0x00000000	0.0
33	0x80000000	-0.0
34	0x80000000	-0.0
35	0x80000000	-0.0
36	0x80000000	-0.0
37	0x00000000	0.0
38	0x80000000	-0.0
39	0x80000000	-0.0
40	0x00000000	0.0
41	0x00000000	0.0
42	0x00000000	0.0
43	0x80000000	-0.0
44	0x80000000	-0.0
45	0x80000000	-0.0
46	0x80000000	-0.0
47	0x80000000	-0.0
48	0x80000000	-0.0
49	0x80000000	-0.0
50	0x80000000	-0.0
51	0x80000000	-0.0
52	0x80000000	-0.0
53	0x80000000	-0.0
54	0x00000000	0.0
55	0x80000000	-0.0
56	0x80000000	-0.0
57	0x00000000	0.0
58	0x80000000	-0.0
59	0x80000000	-0.0
60	0x80000000	-0.0
61	0x80000000	-0.0
62	0x00000000	0.0
63	0x80000000	-0.0
64	0x00000000	0.0
65	0x00000000	0.0
66	0x80000000	-0.0
67	0x80000000	-0.0
68	0x00000000	0.0
69	0x00000000	0.0
70	0x00000000	0.0
71	0x00000000	0.0
72	0xbd47eefd	-0.0488119
73	0x3dc43fe3	0.09582498
74	0xbd636f6e	-0.05552619
75	0x3d92a814	0.071609646
76	0x3e64fe9f	0.22362755
77	0xbdaa6602	-0.08320238
78	0xbd8426aa	-0.06452687
79	0x3d92ac49	0.07161767
80	0xbd8e0466	-0.06934433
81	0x3d196d65	0.037457842
82	0x3d94e520	0.072702646
83	0xbab26bb0	-0.0013612416
84	0xbe5b48c5	-0.21414478
85	0xbdb1b898	-0.086777866
86	0xbd825371	-0.063635714
87	0x3dafb15c	0.085787505
88	0x3df88f6d	0.12136731
89	0x3d6c450e	0.057683043
90	0xba847266	-0.0010104894
91	0xbbdfca91	-0.0068295677
92	0xbc7e9afd	-0.015539882
93	0x3c03c9f6	0.008043757
94	0x3a1dd836	0.00060212926
95	0xbc430ee3	-0.011905405
96	0x3c22ba4b	0.009932111
97	0x3b777b8d	0.003776285
98	0xbc023558	-0.007947288
99	0x3e153889	0.14572348
100	0xbd9cda42	-0.07658817
101	0xbd49b8da	-0.049248554
102	0x3cf0bb45	0.029386172
103	0xbebb947e	-0.36636728
104	0x3e708f30	0.23492122
105	0xbdd77dda	-0.10522051
106	0xbd0c0fbb	-0.03419469
107	0x3e49c39a	0.19703522
108	0x3d42bc7a	0.047543027
109	0xbac683d8	-0.0015145494
110	0x3d5d1275	0.05397268
111	0xbe166b36	-0.14689335
112	0xbe9f15bf	-0.31071278
113	0xbc0c1c5c	-0.008551683
114	0xbd9c1082	-0.07620336
115	0xbf325346	-0.69658315
116	0x3d0f10d6	0.034928165
117	0xbe134648	-0.14382279
118	0x3d64048b	0.055668395
119	0x3cb1e5f4	0.021716096
120	0x3b254cc5	0.002522276
121	0xbe318a70	-0.17337966
122	0x3dd59fd6	0.10430877
123	0x3e0f3fb1	0.1398914
124	0xbe24feb9	-0.16112794
125	0x3b2aa3a3	0.0026037476
126	0x3df48418	0.119392574
127	0xbe27a19c	-0.16370243
128	0x3dbaebcd	0.09127007
129	0x3d6f2133	0.05838127
130	0x3cd633fe	0.026147839
131	0x3d8395eb	0.06425079
132	0x3e25c5c4	0.16188723
133	0x3dc87cbc	0.09789416
134	0x3d96c5bb	0.07361933
135	0x3d85bac9	0.06529767
136	0x3cfcfb8e	0.03088167
137	0xbce031ce	-0.027367499
138	0xbe12f67f	-0.14351843
139	0xbf86a9c4	-1.0520558
140	0xbe85d4b1	-0.26138833
141	0x3bf52a1f	0.007481828
142	0xbeb172bd	-0.3465785
143	0xbc9e9e9d	-0.019362742
144	0xbd2b4577	-0.041814294
145	0x3e48b92d	0.19601889
146	0x3d9af816	0.0756685
147	0xbb82b96e	-0.00398939
148	0x3b9e894b	0.004838144
149	0xbc6e742b	-0.014554064
150	0xbd24b7dc	-0.040214404
151	0xbe299806	-0.16561899
152	0xbd8a27d5	-0.067458786
153	0x3e21d444	0.15803629
154	0x3e8050f7	0.2506177
155	0x3d310ce8	0.0432252
156	0xbdbcc603	-0.09217455
157	0x3c7dcf5c	0.015491333
158	0xbc5b2559	-0.013375604
159	0xbdcaf304	-0.09909633
160	0xbe639f2b	-0.22228687
161	0xbdad83a3	-0.08472373
162	0x3c1771ff	0.009243487
163	0x3bc4a09e	0.0060005924
164	0x3c71077b	0.014711256
165	0x3bb7c5e6	0.005608308
166	0xb8543761	-5.0596314e-05
167	0x3c219fdd	0.0098647745
168	0x3ba24edf	0.00495325
169	0xbb73de35	-0.0037211303
170	0x3bef72be	0.0073073795
171	0x3e12cdd6	0.14336333
172	0x3dabdd91	0.0839187
173	0xbd581c15	-0.052761156
174	0xbcabf387	-0.020990146
175	0xbe0059cf	-0.1253426
176	0x3d02033d	0.03174137
177	0x3c55ae9d	0.013042119
178	0xbdbb510f	-0.0914632
179	0x3d8ab921	0.06773592
180	0x3c0b7c81	0.008513571
181	0xbbe48f58	-0.0069750957
182	0xbb939872	-0.004504257
183	0x3ce1e9c4	0.027577288
184	0x3f508495	0.81452304
185	0x3b3c3401	0.002871752
186	0x3d2b5949	0.041833196
187	0x3efd9d21	0.49533942
188	0xbdae28fa	-0.085039094
189	0xbdb2ea45	-0.087360896
190	0x3c59cca9	0.013293424
191	0x3d744b34	0.05964203
192	0xbe5d45d4	-0.21608669
193	0xbe9b519f	-0.3033571
194	0x3cf0420e	0.029328372
195	0x3dcbf332	0.09958495
196	0x3e02bd27	0.12767468
197	0xbd938ec3	-0.07204964
198	0x3bf895c3	0.0075862124
199	0xbe9c85ba	-0.30570775
200	0xbd96867e	-0.07349871
201	0x3e839d0e	0.2570576
202	0x3f374260	0.71585655
203	0x3d9e106c	0.07717976
204	0xbd9cf4a9	-0.07663853
205	0xbe0b8986	-0.1362668
206	0xbdce2eab	-0.10067495
207	0xbcdf78b2	-0.027279232
208	0x3dcb62ba	0.0993094
209	0xbd9af641	-0.075665005
210	0xbe61fe9b	-0.2206978
211	0xbf87b51f	-1.0602149
212	0xbea3e111	-0.3200765
213	0xbccb5bc8	-0.024824038
214	0x3ea79ab1	0.32735208
215	0x3e175179	0.14777173
216	0x3e5b7b93	0.21433859
217	0x3e4f7db1	0.20262791
218	0x3e78c902	0.24295428
219	0x3d4118dc	0.04714285
220	0xbfc0d736	-1.5065677
221	0xbeb38e35	-0.35069433
222	0x3e6e0cda	0.2324709
223	0xbec9da21	-0.39424232
224	0x3e0c2322	0.13685277
225	0x3dc1fb29	0.09471733
226	0x3e694eb4	0.22783929
227	0x3dabeb36	0.08394472
228	0x3d9949cc	0.07484779
229	0x3e591ca6	0.21202335
230	0xbcfba989	-0.03072049
231	0x3e682bed	0.22673006
232	0x3e327aaf	0.17429613
233	0x3d186a39	0.037210677
234	0x3b2f47d7	0.00267457
235	0xbb6ac0d9	-0.0035820513
236	0xbc09c07b	-0.008407707
237	0x3bba5c4d	0.0056872726
238	0x3957e390	0.00020588771
239	0xbbf4cbf2	-0.0074706012
240	0x3b21fa23	0.0024715743
241	0xbbc34180	-0.005958736
242	0xbc44972b	-0.011998932
243	0xbd8370ec	-0.064180225
244	0x3d7a71b2	0.061143585
245	0xbd12aed5	-0.035811264
246	0x3e0664b2	0.1312435
247	0x3dc84f19	0.09780712
248	0xbde61ddb	-0.11236163
249	0x3d52cd6b	0.051465433
250	0x3df7822a	0.12085374
251	0x3d8876f5	0.06663314
252	0xbc6f89bc	-0.014620241
253	0xbc061c41	-0.008185447
254	0x3a0e7362	0.00054340635
255	0x36cf261b	6.173517e-06

base.conv3.1.weight f4 [16]
0	0x00000953	3.345e-42
1	0x3f253803	0.6453859
2	0x3ee0db1e	0.43917173
3	0x3ed24f5e	0.41076177
4	0x80003626	-1.9425e-41
5	0x3ed55f53	0.4167429
6	0x80009bcf	-5.5894e-41
7	0x80000fb0	-5.628e-42
8	0x80000ac4	-3.862e-42
9	0x3ea14414	0.31497252
10	0x3efd5374	0.49477732
11	0x3eb0163c	0.34391963
12	0x3e7a3801	0.24435426
13	0x80002f21	-1.6907e-41
14	0x3ea98356	0.33108014
15	0x3e922f7e	0.2855186

base.conv3.1.bias f4 [16]
0	0x3cdd0449	0.026979582
1	0x3eb1d9a4	0.3473636
2	0x3c895ed4	0.01676885
3	0x3e1f7d7b	0.15575211
4	0x3d838a4c	0.064228624
5	0xbd0e4f17	-0.034743395
6	0xbb4a2a2c	-0.003084789
7	0xb86cce43	-5.645888e-05
8	0x3e5c303e	0.21502778
9	0x3a14a5fb	0.0005670485
10	0xbc944748	-0.018100396
11	0xbb9636ec	-0.004584184
12	0x3d98a359	0.07453031
13	0xbacefbcd	-0.0015791595
14	0x3debf8db	0.11522075
15	0x3d21c05c	0.03949009

base.conv3.1.running_mean f4 [16]
0	0x80000004	-6e-45
1	0xbf91adee	-1.1381204
2	0x3ee463f3	0.44607505
3	0x3ea25ce1	0.31711486
4	0x80000004	-6e-45
5	0xbf83d58e	-1.0299547
6	0x80000004	-6e-45
7	0x00000004	6e-45
8	0x80000004	-6e-45
9	0xbe7f50a0	-0.249331
10	0xbef5d6d7	-0.48015472
11	0xbb6bdca1	-0.003598966
12	0xbdbc4bfe	-0.09194182
13	0x80000004	-6e-45
14	0xbd902c45	-0.07039694
15	0x3ca8f64e	0.02062526

base.conv3.1.running_var f4 [16]
0	0x00000004	6e-45
1	0x3ea1d2cf	0.31606147
2	0x3e3933f9	0.18086232
3	0x3dcda0e6	0.100404546
4	0x00000004	6e-45
5	0x3e5cc084	0.21557814
6	0x00000004	6e-45
7	0x00000004	6e-45
8	0x00000004	6e-45
9	0x3e128f9f	0.143126
10	0x3e3f1d3f	0.186635
11	0x3e31dbe1	0.17369033
12	0x3d53e12d	0.051728416
13	0x00000004	6e-45
14	0x3d38dd61	0.045133
15	0x3de0d162	0.109774366

base.conv4.res_layer.0.weight f4 [16, 16, 3, 3]
0	0x80000000	-0.0
1	0x80000000	-0.0
2	0x80000000	-0.0
3	0x80000000	-0.0
4	0x80000000	-0.0
5	0x80000000	-0.0
6	0x80000000	-0.0
7	0x80000000	-0.0
8	0x80000000	-0.0
9	0x80000000	-0.0
10	0x80000000	-0.0
11	0x80000000	-0.0
12	0x80000000	-0.0
13	0x80000000	-0.0
14	0x80000000	-0.0
15	0x80000000	-0.0
16	0x80000000	-0.0
17	0x80000000	-0.0
18	0x80000000	-0.0
19	0x00000000	0.0
20	0x00000000	0.0
21	0x80000000	-0.0
22	0x80000000	-0.0
23	0x80000000	-0.0
24	0x80000000	-0.0
25	0x80000000	-0.0
26	0x80000000	-0.0
27	0x80000000	-0.0
28	0x80000000	-0.0
29	0x80000000	-0.0
30	0x80000000	-0.0
31	0x80000000	-0.0
32	0x80000000	-0.0
33	0x00000000	0.0
34	0x00000000	0.0
35	0x80000000	-0.0
36	0x00000000	0.0
37	0x00000000	0.0
38	0x00000000	0.0
39	0x00000000	0.0
40	0x00000000	0.0
41	0x80000000	-0.0
42	0x80000000	-0.0
43	0x80000000	-0.0
44	0x80000000	-0.0
45	0x00000000	0.0
46	0x00000000	0.0
47	0x00000000	0.0
48	0x80000000	-0.0
49	0x80000000	-0.0
50	0x80000000	-0.0
51	0x80000000	-0.0
52	0x80000000	-0.0
53	0x80000000	-0.0
54	0x00000000	0.0
55	0x00000000	0.0
56	0x00000000	0.0
57	0x80000000	-0.0
58	0x80000000	-0.0
59	0x80000000	-0.0
60	0x80000000	-0.0
61	0x80000000	-0.0
62	0x80000000	-0.0
63	0x80000000	-0.0
64	0x00000000	0.0
65	0x00000000	0.0
66	0x00000000	0.0
67	0x00000000	0.0
68	0x00000000	0.0
69	0x00000000	0.0
70	0x00000000	0.0
71	0x00000000	0.0
72	0x00000000	0.0
73	0x80000000	-0.0
74	0x80000000	-0.0
75	0x00000000	0.0
76	0x00000000	0.0
77	0x00000000	0.0
78	0x00000000	0.0
79	0x00000000	0.0
80	0x00000000	0.0
81	0x00000000	0.0
82	0x00000000	0.0
83	0x80000000	-0.0
84	0x00000000	0.0
85	0x80000000	-0.0
86	0x80000000	-0.0
87	0x80000000	-0.0
88	0x80000000	-0.0
89	0x00000000	0.0
90	0x80000000	-0.0
91	0x80000000	-0.0
92	0x00000000	0.0
93	0x00000000	0.0
94	0x80000000	-0.0
95	0x80000000	-0.0
96	0x00000000	0.0
97	0x80000000	-0.0
98	0x80000000	-0.0
99	0x80000000	-0.0
100	0x00000000	0.0
101	0x00000000	0.0
102	0x00000000	0.0
103	0x00000000	0.0
104	0x00000000	0.0
105	0x00000000	0.0
106	0x80000000	-0.0
107	0x00000000	0.0
108	0x00000000	0.0
109	0x80000000	-0.0
110	0x80000000	-0.0
111	0x00000000	0.0
112	0x80000000	-0.0
113	0x80000000	-0.0
114	0x00000000	0.0
115	0x00000000	0.0
116	0x00000000	0.0
117	0x00000000	0.0
118	0x00000000	0.0
119	0x80000000	-0.0
120	0x80000000	-0.0
121	0x80000000	-0.0
122	0x80000000	-0.0
123	0x80000000	-0.0
124	0x80000000	-0.0
125	0x80000000	-0.0
126	0x80000000	-0.0
127	0x00000000	0.0
128	0x00000000	0.0
129	0x00000000	0.0
130	0x00000000	0.0
131	0x00000000	0.0
132	0x00000000	0.0
133	0x00000000	0.0
134	0x00000000	0.0
135	0x80000000	-0.0
136	0x00000000	0.0
137	0x00000000	0.0
138	0x80000000	-0.0
139	0x00000000	0.0
140	0x00000000	0.0
141	0x80000000	-0.0
142	0x80000000	-0.0
143	0x80000000	-0.0
144	0xbd2757d5	-0.040855248
145	0xbe5e3255	-0.21698888
146	0xbe1a0037	-0.15039144
147	0xbe686055	-0.22692998
148	0xbc360bb2	-0.011111187
149	0x3e189351	0.14899947
150	0xbe1d4336	-0.1535767
151	0x3e13f805	0.1445008
152	0x3f00d834	0.503299
153	0xbd5e7570	-0.054311216
154	0x3e7a5c4b	0.2444927
155	0x3d82ee9e	0.06393169
156	0x3e53fe91	0.20702578
157	0x3eb11e4e	0.34593433
158	0xbe79ed29	-0.24406876
159	0x3d64d012	0.055862494
160	0xbee9467f	-0.45561597
161	0xbd2e2f53	-0.0425256
162	0xbc465fd4	-0.012107808
163	0xbe88512a	-0.26624423
164	0x3dd4765a	0.10374136
165	0xbd014407	-0.031559017
166	0x3e1e7f0b	0.1547815
167	0xbe3142db	-0.1731066
168	0x3d8394e7	0.06424885
169	0xbea5fdd2	-0.32420212
170	0x3da77b41	0.08177806
171	0xbddd3192	-0.108004704
172	0xbd0dfa7f	-0.03466272
173	0xbcceb48e	-0.02523258
174	0xbb9ceb0f	-0.0047887634
175	0xbd7e8510	-0.062138617
176	0xbcbda23d	-0.02314865
177	0x3e125ee3	0.14294009
178	0xbc92bc51	-0.017912062
179	0x3d23cb11	0.03998858
180	0x3a438e63	0.0007459877
181	0x39621923	0.00021562404
182	0xbaa438cd	-0.0012529135
183	0x3a43fc45	0.0007476251
184	0xba477a42	-0.00076094654
185	0xbaab9159	-0.0013089582
186	0x3b1e1ae2	0.002412491
187	0x3b153302	0.0022765999
188	0x3b0e5e68	0.002172375
189	0x3d6183d2	0.055057354
190	0xbbf3d58e	-0.007441229
191	0xbdb9d670	-0.09074104
192	0xbe920e7d	-0.2852668
193	0xbd86b0b7	-0.065766744
194	0x3df65e52	0.12029709
195	0x3e8ec17e	0.27881998
196	0xbedd6a6e	-0.43245262
197	0xbdf00111	-0.117189534
198	0x3916e52f	0.00014390492
199	0x3a7a53f2	0.0009549252
200	0x37b4bc10	2.1545246e-05
201	0xba105e8c	-0.00055072526
202	0xba1a059c	-0.00058754697
203	0xba35b676	-0.0006931791
204	0x3a7a4326	0.0009546749
205	0x3a6a342a	0.00089341647
206	0x3b13c21c	0.0022546118
207	0x00008294	4.6843e-41
208	0x8000c4a6	-7.0544e-41
209	0x00008767	4.8573e-41
210	0x80008ba3	-5.0092e-41
211	0x80008468	-4.7498e-41
212	0x000086f3	4.841e-41
213	0x80000a65	-3.729e-42
214	0x00006bc7	3.8663e-41
215	0x00007029	4.0235e-41
216	0x3e6cdfae	0.23132202
217	0x3b92bd4f	0.0044781337
218	0xbe8fc132	-0.28077084
219	0x3dd04dd3	0.10171094
220	0xbf117a6e	-0.5682744
221	0x3cd24125	0.025665829
222	0xbe470937	-0.19437109
223	0x3e0563d3	0.13026361
224	0xbdca1476	-0.09867184
225	0x3d0034bb	0.031300288
226	0xbe1d6ba1	-0.15373088
227	0x3dade7e1	0.08491493
228	0xbe05b899	-0.130587
229	0x3e67c000	0.22631836
230	0xbec0c43f	-0.37649724
231	0x3dd648f6	0.10463135
232	0xbe23ad81	-0.15984155
233	0xbddd69d2	-0.10811199
234	0xbddbbb33	-0.10729065
235	0xbe924227	-0.28566095
236	0x3d218379	0.039432023
237	0xbdbf628a	-0.09344967
238	0xbee8f414	-0.45498717
239	0xbdd6cce7	-0.10488301
240	0xbce4f8f7	-0.027950747
241	0xbd2eab2e	-0.04264372
242	0xbd91b236	-0.07114069
243	0x3dfb6702	0.122755066
244	0x3dc40a7e	0.09572314
245	0xbd4f3cb3	-0.050594997
246	0x3ba8577c	0.005137382
247	0x3f00dc8a	0.50336516
248	0x3d0768f2	0.033059068
249	0x3c4ade58	0.012382112
250	0x3d16f7a4	0.036857262
251	0xbdec5077	-0.11538785
252	0xbd140aaa	-0.036142983
253	0x3bbac1c6	0.005699369
254	0xbcb2dd27	-0.02183397
255	0x3dff00f5	0.124513544

base.conv4.res_layer.1.weight f4 [16]
0	0x0000089e	3.091e-42
1	0x3eef6b06	0.4676134
2	0x3eabc951	0.3355203
3	0x0000fa93	8.9889e-41
4	0x3ed3e60d	0.41386452
5	0x3ebbc5f6	0.3667447
6	0x3edebc0b	0.4350284
7	0x8000540a	-3.0148e-41
8	0x3f0ed5cc	0.5579498
9	0x8000503d	-2.8784e-41
10	0x3edfbfc7	0.43701002
11	0x3f04310a	0.5163733
12	0x000051dd	2.9367e-41
13	0x3ef6a20b	0.48170504
14	0x3eae2a68	0.34016728
15	0x00006cc2	3.9015e-41

base.conv4.res_layer.1.bias f4 [16]
0	0x3c941e08	0.018080726
1	0xbe7bd09a	-0.24591294
2	0x3e495ed9	0.19665088
3	0xa8eefb74	-2.6532358e-14
4	0xbc783225	-0.015148674
5	0xbe485fbc	-0.1956777
6	0x3e863a26	0.2621624
7	0xbb4455b5	-0.0029958312
8	0xbe096eed	-0.13421221
9	0xa83c2bb8	-1.04455764e-14
10	0xbdba993b	-0.09111258
11	0x3e416b12	0.188885
12	0x3e117612	0.14205196
13	0xbe81de32	-0.25364834
14	0x37ff14ef	3.0408117e-05
15	0xbac23fa3	-0.0014819991

base.conv4.res_layer.1.running_mean f4 [16]
0	0x80000004	-6e-45
1	0xbebfbf3f	-0.37450597
2	0xbf530248	-0.82425356
3	0x80000004	-6e-45
4	0xbf061f57	-0.5239157
5	0xbea4ab8c	-0.3216213
6	0xbe41aa88	-0.18912709
7	0x00000004	6e-45
8	0xbf1b10f3	-0.6057274
9	0x80000004	-6e-45
10	0xbe92b71e	-0.28655332
11	0xbe880563	-0.2656661
12	0x80000004	-6e-45
13	0xbe9753a7	-0.2955601
14	0xbf4ef159	-0.8083702
15	0x00000004	6e-45

base.conv4.res_layer.1.running_var f4 [16]
0	0x00000004	6e-45
1	0x3e1d6263	0.15369563
2	0x3e0730c7	0.13202201
3	0x00000004	6e-45
4	0x3e0744ba	0.13209811
5	0x3dc72818	0.09724444
6	0x3e7b6ab2	0.2455242
7	0x00000004	6e-45
8	0x3e32ebc7	0.17472754
9	0x00000004	6e-45
10	0x3e177708	0.147915
11	0x3ebd9d45	0.3703405
12	0x00000004	6e-45
13	0x3e3827ac	0.17983884
14	0x3e85230b	0.26003298
15	0x00000004	6e-45

base.conv4.res_layer.3.weight f4 [16, 16, 3, 3]
0	0x3cdbf6f1	0.02685115
1	0x3d8c14b3	0.068398856
2	0x3d5a3d93	0.053281378
3	0xbdebe2ca	-0.11517866
4	0x3bf50391	0.007477232
5	0xbd4d2e30	-0.050092876
6	0xbdeeee21	-0.11666513
7	0xbd45dce2	-0.048306353
8	0x3dcf15d2	0.10111584
9	0x3d485453	0.048908543
10	0x3dba712d	0.09103618
11	0x3d80393f	0.06260919
12	0x3e205bbf	0.15659998
13	0x3d9be188	0.07611376
14	0x3d16ae0d	0.03678708
15	0x3daff155	0.08590952
16	0xbb701e93	-0.0036639317
17	0x3d041093	0.03224237
18	0xbd157269	-0.036486063
19	0x3e32ae7d	0.17449374
20	0x3dddef5a	0.10836668
21	0xbe277b3c	-0.16355604
22	0x3d8705d6	0.0659291
23	0x3d131c3e	0.035915606
24	0x3a2a6767	0.00065003935
25	0x3d9a2020	0.075256586
26	0x3da90356	0.082525894
27	0xba853591	-0.0010163059
28	0xba8c2251	-0.001069138
29	0xba915986	-0.0011089302
30	0xb9ec49f9	-0.00045068542
31	0x37bdf42c	2.2644257e-05
32	0xba375ab5	-0.00069944124
33	0x398443ac	0.0002522742
34	0x39cba0de	0.00038839033
35	0x397d60cc	0.0002416402
36	0x3b8d9314	0.0043205116
37	0xbc9cbdc3	-0.019133454
38	0xbcff2be3	-0.031148857
39	0xbc948f24	-0.018134661
40	0xbe4ea537	-0.20180212
41	0xbe380629	-0.179711
42	0xbbd67122	-0.006544248
43	0xbe0504ee	-0.12990162
44	0xbdea9746	-0.11454634
45	0xbcaf276f	-0.021381108
46	0x3d3ff9bf	0.046869036
47	0x3dd6a6a7	0.10481005
48	0xbdf2711f	-0.118379824
49	0xbddd48bf	-0.10804891
50	0xbc100ceb	-0.008792142
51	0xbda16c45	-0.07881979
52	0xbe128324	-0.14307839
53	0xbd6e0864	-0.05811347
54	0x3e6c7117	0.23090015
55	0x3e94758c	0.2899593
56	0x3d4257e2	0.047447093
57	0x3eaf0027	0.34179804
58	0x3e690e4e	0.22759363
59	0x3e0e0ed6	0.13872847
60	0x3b0a4ee2	0.0021104147
61	0x3d09cff0	0.03364557
62	0xbdc81ca8	-0.09771091
63	0xbc81feb8	-0.01586853
64	0xbc962a97	-0.018330855
65	0xbc79399a	-0.015211487
66	0xbc92b4fc	-0.017908566
67	0xbc9b4b57	-0.018956823
68	0xbc714315	-0.014725466
69	0xbc246861	-0.0100346515
70	0xbc54f19d	-0.012997058
71	0xbc02f945	-0.007994001
72	0xbd7c6863	-0.06162299
73	0xbe65c147	-0.2243701
74	0xbe7ed037	-0.24884115
75	0xbdc6d02b	-0.09707674
76	0xbe86aded	-0.2630457
77	0xbe2fe059	-0.17175426
78	0xbddd2227	-0.1079753
79	0x3da4d936	0.08049242
80	0x3e127bfa	0.14305106
81	0xba4b9bd3	-0.0007767055
82	0xbb1a23ed	-0.0023519949
83	0xbb5e94a1	-0.0033963101
84	0x3ba58336	0.005051042
85	0x3b9051df	0.004404291
86	0x3b8479d0	0.0040428415
87	0x3b88fecb	0.0041807643
88	0x3ba56fdb	0.0050487346
89	0x3b9a876c	0.0047158506
90	0xbd97c9e6	-0.07411556
91	0xbca5af63	-0.020225232
92	0xbd54b7d2	-0.051933117
93	0xbd2935fb	-0.041311245
94	0x3d8ae377	0.06781667
95	0x3c9e08c4	0.01929129
96	0x3e0fc494	0.14039832
97	0x3e478bd0	0.19486928
98	0x3e0777a1	0.13229229
99	0xbe26be72	-0.16283587
100	0xbe85877f	-0.26079938
101	0xbdbcc21b	-0.0921671
102	0xbe4b2c5e	-0.19841143
103	0x3d896b96	0.067099735
104	0x3d9f06e1	0.07764984
105	0xbdef490c	-0.116838545
106	0x3e7aa5bf	0.2447729
107	0x3e619632	0.22029951
108	0xbca08618	-0.01959519
109	0xbc35d8e7	-0.011099077
110	0x3b2e524c	0.0026599346
111	0xbca7dbce	-0.020490553
112	0xbc4b086d	-0.012392146
113	0x3bd37244	0.0064528305
114	0xbc9f28d8	-0.019428656
115	0xbcb45fe0	-0.022018373
116	0xbaa0dcd3	-0.0012272842
117	0x3b528c6a	0.003212715
118	0x3db9d92f	0.090746276
119	0x3e359d64	0.17735821
120	0x3deadb80	0.114676476
121	0x3e9692a6	0.2940876
122	0x3e4f2c77	0.20231806
123	0x3e519b92	0.20469502
124	0x3e841437	0.25796673
125	0x3e10d370	0.14143157
126	0xbdee72e2	-0.11643006
127	0x3d67967e	0.056540005
128	0x3e2404b9	0.16017427
129	0xbe55211a	-0.20813408
130	0x3e2fe937	0.17178808
131	0x3c5e15c0	0.01355499
132	0xbe024892	-0.12722996
133	0xbcbdb72d	-0.023158634
134	0x3d5c66fb	0.053809147
135	0xbb021a0e	-0.0019851956
136	0xbaf22c19	-0.0018476277
137	0xba04499b	-0.00050463685
138	0x3a206ad0	0.0006119432
139	0x3b1ffd64	0.0024412507
140	0x3b91db68	0.004451204
141	0x3a949bf1	0.0011337978
142	0x3b42ee65	0.0029744145
143	0x3b65086f	0.0034947654
144	0x00000000	0.0
145	0x00000000	0.0
146	0x00000000	0.0
147	0x00000000	0.0
148	0x00000000	0.0
149	0x00000000	0.0
150	0x00000000	0.0
151	0x00000000	0.0
152	0x00000000	0.0
153	0x00000000	0.0
154	0x00000000	0.0
155	0x00000000	0.0
156	0x00000000	0.0
157	0x00000000	0.0
158	0x80000000	-0.0
159	0x00000000	0.0
160	0x00000000	0.0
161	0x00000000	0.0
162	0x00000000	0.0
163	0x00000000	0.0
164	0x00000000	0.0
165	0x00000000	0.0
166	0x00000000	0.0
167	0x00000000	0.0
168	0x00000000	0.0
169	0x00000000	0.0
170	0x00000000	0.0
171	0x00000000	0.0
172	0x00000000	0.0
173	0x00000000	0.0
174	0x80000000	-0.0
175	0x00000000	0.0
176	0x00000000	0.0
177	0x80000000	-0.0
178	0x80000000	-0.0
179	0x80000000	-0.0
180	0x80000000	-0.0
181	0x80000000	-0.0
182	0x00000000	0.0
183	0x80000000	-0.0
184	0x80000000	-0.0
185	0x80000000	-0.0
186	0x80000000	-0.0
187	0x80000000	-0.0
188	0x80000000	-0.0
189	0x00000000	0.0
190	0x00000000	0.0
191	0x80000000	-0.0
192	0x00000000	0.0
193	0x00000000	0.0
194	0x00000000	0.0
195	0x00000000	0.0
196	0x80000000	-0.0
197	0x80000000	-0.0
198	0x80000000	-0.0
199	0x80000000	-0.0
200	0x80000000	-0.0
201	0x00000000	0.0
202	0x80000000	-0.0
203	0x80000000	-0.0
204	0x00000000	0.0
205	0x00000000	0.0
206	0x00000000	0.0
207	0x80000000	-0.0
208	0x80000000	-0.0
209	0x00000000	0.0
210	0x00000000	0.0
211	0x00000000	0.0
212	0x00000000	0.0
213	0x00000000	0.0
214	0x00000000	0.0
215	0x00000000	0.0
216	0x00000000	0.0
217	0x00000000	0.0
218	0x00000000	0.0
219	0x00000000	0.0
220	0x00000000	0.0
221	0x00000000	0.0
222	0x00000000	0.0
223	0x00000000	0.0
224	0x00000000	0.0
225	0x80000000	-0.0
226	0x80000000	-0.0
227	0x00000000	0.0
228	0x80000000	-0.0
229	0x00000000	0.0
230	0x00000000	0.0
231	0x00000000	0.0
232	0x00000000	0.0
233	0x00000000	0.0
234	0x80000000	-0.0
235	0x80000000	-0.0
236	0x00000000	0.0
237	0x00000000	0.0
238	0x00000000	0.0
239	0x00000000	0.0
240	0x80000000	-0.0
241	0x80000000	-0.0
242	0x80000000	-0.0
243	0x80000000	-0.0
244	0x00000000	0.0
245	0x80000000	-0.0
246	0x80000000	-0.0
247	0x00000000	0.0
248	0x00000000	0.0
249	0x80000000	-0.0
250	0x00000000	0.0
251	0x00000000	0.0
252	0x00000000	0.0
253	0x00000000	0.0
254	0x00000000	0.0
255	0x00000000	0.0

base.conv4.res_layer.4.weight f4 [16]
0	0x3eb7382f	0.35785052
1	0x80010ac8	-9.5703e-41
2	0x000002b3	9.68e-43
3	0x3e9588ed	0.2920603
4	0x3f0e89cd	0.5567902
5	0x3f086445	0.53278
6	0x80000f37	-5.458e-42
7	0x3ec1c553	0.3784586
8	0x3ed33d7f	0.41257855
9	0x0001e7e6	1.75025e-40
10	0x1ab3ab2a	7.4309195e-23
11	0x3ee3f358	0.44521594
12	0x3f02ddbd	0.51119596
13	0x3ef6f618	0.4823463
14	0x8000311e	-1.762e-41
15	0x3ef32e9d	0.474965

base.conv4.res_layer.4.bias f4 [16]
0	0x3e3b3b34	0.18284303
1	0x3dd6e256	0.10492389
2	0x3d40503a	0.04695151
3	0x3e0441db	0.12915747
4	0x3e946b66	0.28988189
5	0xbda0c5e1	-0.078502424
6	0x3d421e60	0.04739225
7	0xbe877391	-0.26455358
8	0x3d8f6326	0.07001333
9	0x3d737911	0.05944163
10	0xbd417e32	-0.04723949
11	0xbe165349	-0.14680208
12	0xbd96f1da	-0.07370348
13	0x3d0cf4fb	0.03441332
14	0xbd17561f	-0.036947366
15	0x3e086da0	0.13323069

base.conv4.res_layer.4.running_mean f4 [16]
0	0x3eaeb312	0.34120995
1	0x00000004	6e-45
2	0x00000004	6e-45
3	0x3e902fd8	0.28161502
4	0x3e52af9c	0.20574802
5	0xbdfded9f	-0.12398838
6	0x80000004	-6e-45
7	0xbea715f3	-0.32633933
8	0x3e80e13e	0.25171846
9	0x00000004	6e-45
10	0x80000004	-6e-45
11	0xbe2053c6	-0.15656957
12	0xbb984082	-0.004646362
13	0x3ea13e47	0.31492826
14	0x00000004	6e-45
15	0xbd41842d	-0.047245193

base.conv4.res_layer.4.running_var f4 [16]
0	0x3d7ab920	0.061211705
1	0x00000004	6e-45
2	0x00000004	6e-45
3	0x3da51f40	0.08062601
4	0x3dd0716c	0.101778835
5	0x3daae377	0.08344167
6	0x00000004	6e-45
7	0x3d68c62f	0.056829628
8	0x3d9f6d6f	0.07784545
9	0x00000004	6e-45
10	0x00000004	6e-45
11	0x3db5a307	0.088689856
12	0x3dfe926c	0.124302715
13	0x3d9bb962	0.07603718
14	0x00000004	6e-45
15	0x3dbdbbe0	0.0926435

base.m0.b2_1.0.shortcut_layer.0.weight f4 [16, 16, 1, 1]
0	0x3df605b3	0.12012806
1	0x3e27991a	0.16366997
2	0x3d8678c9	0.06566007
3	0x3e50a178	0.20374095
4	0xbea50774	-0.3223225
5	0x3d97a3fe	0.07404326
6	0x3e06d9ee	0.13169071
7	0xbe915170	-0.28382444
8	0x3d01abbe	0.031657927
9	0x3e2d10a8	0.16900885
10	0x3e5c91c7	0.21539985
11	0xbd8ac0c2	-0.06775047
12	0x3eb47d22	0.3525172
13	0xbdefda4d	-0.117115594
14	0x3d906af9	0.070516534
15	0x3e57bebb	0.21068852
16	0x80000000	-0.0
17	0x00000000	0.0
18	0x80000000	-0.0
19	0x80000000	-0.0
20	0x80000000	-0.0
21	0x80000000	-0.0
22	0x00000000	0.0
23	0x80000000	-0.0
24	0x80000000	-0.0
25	0x80000000	-0.0
26	0x80000000	-0.0
27	0x00000000	0.0
28	0x00000000	0.0
29	0x80000000	-0.0
30	0x80000000	-0.0
31	0x00000000	0.0
32	0x3cf8b36c	0.030358993
33	0x3e68d422	0.22737172
34	0x3da7975f	0.081831686
35	0x3f0b1ed9	0.54343945
36	0xbe53a57f	-0.206686
37	0x3dc0b28d	0.09409056
38	0x3d5b2007	0.05349734
39	0x3cafa057	0.02143876
40	0x3c0d1834	0.0086117275
41	0xbc47c99f	-0.012194066
42	0xba94beee	-0.0011348405
43	0xbdfa438b	-0.12219914
44	0xbe985bd9	-0.29757574
45	0x3e1260e1	0.14294769
46	0x3dcb9346	0.099401996
47	0xbdfe8e7b	-0.1242952
48	0x3e13cdb7	0.14433943
49	0x3ccc3d9c	0.024931721
50	0xbde3066f	-0.110852115
51	0x3dc7f166	0.0976284
52	0x3de23399	0.11044998
53	0xbde6fe69	-0.11278994
54	0x3df83fb1	0.12121523
55	0xbed5f29f	-0.41786668
56	0xbe240161	-0.16016151
57	0xbcbc3cc6	-0.022978198
58	0x3d8765c6	0.066112086
59	0x3e44a8b7	0.19204985
60	0x3d8a949d	0.06766627
61	0xbe0efd38	-0.13963783
62	0x3cf14ea3	0.029456442
63	0xbe49e6a8	-0.19716895
64	0x3dc5f76a	0.09666331
65	0xbe7ad7ec	-0.2449643
66	0xbdd3662d	-0.10322223
67	0xbe52e3b5	-0.20594676
68	0x3e94934d	0.29018632
69	0xbe8cb2ae	-0.27480072
70	0xbda94bc1	-0.08266402
71	0x3da549e3	0.080707334
72	0xbe23ccdd	-0.15996118
73	0xbe0c4781	-0.13699152
74	0xbd9e5a85	-0.07732109
75	0x3c05c179	0.008163803
76	0x3c2b6e81	0.010463358
77	0xbe323669	-0.17403568
78	0xbcf24245	-0.029572615
79	0x3e2e0f73	0.16998081
80	0x3937ec0c	0.00017540174
81	0xbd8b1857	-0.06791752
82	0xbcdd0607	-0.026980413
83	0xbe815fb1	-0.2526832
84	0xbea9f0ff	-0.33191678
85	0x3c211c38	0.009833388
86	0xbe8777ef	-0.2645869
87	0xbd5b9642	-0.053610094
88	0x3ea803fe	0.32815546
89	0xbca4fc6f	-0.020139901
90	0xbe1aea18	-0.15128362
91	0xbca2231a	-0.019792128
92	0xbe8f0d4b	-0.2793983
93	0xbd5ced9f	-0.05393755
94	0xbdc615b3	-0.096721075
95	0xbe11d80b	-0.1424257
96	0x00000000	0.0
97	0x00000000	0.0
98	0x80000000	-0.0
99	0x80000000	-0.0
100	0x00000000	0.0
101	0x80000000	-0.0
102	0x00000000	0.0
103	0x00000000	0.0
104	0x00000000	0.0
105	0x80000000	-0.0
106	0x80000000	-0.0
107	0x80000000	-0.0
108	0x80000000	-0.0
109	0x00000000	0.0
110	0x00000000	0.0
111	0x80000000	-0.0
112	0x00000000	0.0
113	0x00000000	0.0
114	0x80000000	-0.0
115	0x80000000	-0.0
116	0x80000000	-0.0
117	0x80000000	-0.0
118	0x80000000	-0.0
119	0x00000000	0.0
120	0x00000000	0.0
121	0x00000000	0.0
122	0x80000000	-0.0
123	0x00000000	0.0
124	0x00000000	0.0
125	0x80000000	-0.0
126	0x00000000	0.0
127	0x80000000	-0.0
128	0x00000000	0.0
129	0x80000000	-0.0
130	0x80000000	-0.0
131	0x80000000	-0.0
132	0x00000000	0.0
133	0x00000000	0.0
134	0x80000000	-0.0
135	0x80000000	-0.0
136	0x80000000	-0.0
137	0x80000000	-0.0
138	0x00000000	0.0
139	0x00000000	0.0
140	0x80000000	-0.0
141	0x80000000	-0.0
142	0x80000000	-0.0
143	0x00000000	0.0
144	0xbeefff53	-0.46874484
145	0xbdfca76d	-0.123366214
146	0x3d57dc2e	0.052700214
147	0x3ca4af3d	0.020103091
148	0xbe4b95be	-0.19881341
149	0xbde7569b	-0.112958156
150	0xbdb18196	-0.08667295
151	0xbea0af9d	-0.31383982
152	0xbe0f93bb	-0.14021198
153	0xbb0f6f36	-0.0021886355
154	0xbd89e59a	-0.06733246
155	0x3d7f8933	0.062386703
156	0x3dec7f52	0.11547722
157	0x3e95da10	0.2926793
158	0xbd25ea4c	-0.040506646
159	0x3d1a8072	0.03772015
160	0xbe167a43	-0.14695077
161	0x3e22484b	0.1584789
162	0xbcc7b74f	-0.0243794
163	0xbd06d0eb	-0.032914083
164	0x3e47e601	0.19521333
165	0xbdb8f173	-0.09030428
166	0x3dca24db	0.09870311
167	0x3dc72ee6	0.09725742
168	0x3e86cfb5	0.26330343
169	0x399c20ae	0.00029778987
170	0x3d9e50cc	0.077302545
171	0x3ce65bfb	0.028120032
172	0x3e279c57	0.16368233
173	0x3af31d77	0.001854821
174	0xbe12d494	-0.14338905
175	0x3ecf3a2b	0.40474066
176	0x00000000	0.0
177	0x80000000	-0.0
178	0x80000000	-0.0
179	0x80000000	-0.0
180	0x00000000	0.0
181	0x80000000	-0.0
182	0x80000000	-0.0
183	0x80000000	-0.0
184	0x80000000	-0.0
185	0x80000000	-0.0
186	0x00000000	0.0
187	0x00000000	0.0
188	0x00000000	0.0
189	0x80000000	-0.0
190	0x00000000	0.0
191	0x80000000	-0.0
192	0x00000000	0.0
193	0x00000000	0.0
194	0x00000000	0.0
195	0x80000000	-0.0
196	0x00000000	0.0
197	0x00000000	0.0
198	0x00000000	0.0
199	0x00000000	0.0
200	0x00000000	0.0
201	0x80000000	-0.0
202	0x00000000	0.0
203	0x80000000	-0.0
204	0x80000000	-0.0
205	0x80000000	-0.0
206	0x00000000	0.0
207	0x80000000	-0.0
208	0x3c5b4f23	0.013385567
209	0xbe22652b	-0.15858905
210	0x3e31a44b	0.17347829
211	0xbdd22ca8	-0.10262424
212	0xbdd5b893	-0.10435595
213	0x3e92e28e	0.28688473
214	0x3d907772	0.070540324
215	0x3e36dc60	0.17857504
216	0xbec4be25	-0.3842632
217	0x3cc8e0f6	0.024521332
218	0x3cfda197	0.030960841
219	0x3db8ba12	0.09019865
220	0xbe5ae77a	-0.21377364
221	0x3d89bbc8	0.067252696
222	0x3e06dee7	0.13170968
223	0x3d90f06e	0.07077108
224	0xbe9da2d3	-0.30788288
225	0xbe3984a8	-0.1811701
226	0x3e151301	0.1455803
227	0x3e2d9f86	0.16955385
228	0x3e6326f1	0.22182824
229	0x3e1f0b8a	0.15531746
230	0x3d191e09	0.03738216
231	0x3e69037f	0.2275524
232	0x3e04849f	0.12941216
233	0xbd195f71	-0.037444536
234	0x3d2446d8	0.040106624
235	0xbdcaf69c	-0.09910318
236	0xbb5d62b4	-0.0033780755
237	0xbe9aef16	-0.30260533
238	0x3db92b63	0.090414785
239	0x3e2f7d0a	0.17137542
240	0x3e2ab815	0.16671784
241	0x3e0d0287	0.13770495
242	0x3c5098c2	0.012731733
243	0x3e9f1c11	0.310761
244	0xbd8231ff	-0.06357192
245	0x3d1552d0	0.03645593
246	0x3d57e63f	0.052709814
247	0x3c41b4c9	0.011822888
248	0x3e50f4ab	0.20405833
249	0x3d84965b	0.064739905
250	0x3d472565	0.048619647
251	0x3d93ec65	0.07222823
252	0x3db555d2	0.088542596
253	0x3e6522b3	0.22376518
254	0x3e017bc5	0.1264487
255	0xbde76448	-0.11298424

base.m0.b2_1.0.shortcut_layer.1.weight f4 [16]
0	0x3ed0f237	0.40809795
1	0x00000125	4.1e-43
2	0x3ef7bb68	0.48385167
3	0x3eacaade	0.3372411
4	0x3e8a7385	0.2704126
5	0x3e75f91b	0.24020807
6	0x8000424a	-2.378e-41
7	0x800004c1	-1.705e-42
8	0x17fc67b3	1.6311296e-24
9	0x3ead698b	0.33869585
10	0x3e1f28c9	0.15542902
11	0x8003c0a5	-3.44614e-40
12	0x8000b0ac	-6.3378e-41
13	0x3ec8831a	0.39162523
14	0x3ec44bff	0.3833923
15	0x3e11d200	0.14240265

base.m0.b2_1.0.shortcut_layer.1.bias f4 [16]
0	0x3ddbd010	0.10733044
1	0xbcf1d32c	-0.02951964
2	0xbcef91de	-0.02924436
3	0xbdde5b71	-0.10857285
4	0xbc94ac83	-0.018148666
5	0x3e1c9633	0.15291671
6	0x3dfe272f	0.124098174
7	0xbdfeed11	-0.124475606
8	0x3d0f5eea	0.035002626
9	0x3e9bb97d	0.30414954
10	0x3da46949	0.08027894
11	0xbd9fb6a8	-0.07798511
12	0xbca5c6dd	-0.020236427
13	0xbe0109aa	-0.12601343
14	0xbc958517	-0.018251939
15	0x3da905b1	0.08253039

base.m0.b2_1.0.shortcut_layer.1.running_mean f4 [16]
0	0x3e93ddd1	0.2888017
1	0x80000004	-6e-45
2	0x3e840969	0.2578843
3	0x3def7d7d	0.11693857
4	0xbe2f7ce6	-0.17137489
5	0xbe6bad31	-0.23015286
6	0x00000004	6e-45
7	0x80000004	-6e-45
8	0x80000004	-6e-45
9	0xbe31d240	-0.1736536
10	0x3e82f166	0.25574797
11	0x80000004	-6e-45
12	0x00000004	6e-45
13	0xbe89682d	-0.26837292
14	0x3ce621da	0.028092314
15	0x3e8dd7ec	0.27703798

base.m0.b2_1.0.shortcut_layer.1.running_var f4 [16]
0	0x3e261689	0.16219534
1	0x00000004	6e-45
2	0x3e01a789	0.12661566
3	0x3d9d1bee	0.07671343
4	0x3d82f22c	0.06393847
5	0x3dc77938	0.097399175
6	0x00000004	6e-45
7	0x00000004	6e-45
8	0x00000004	6e-45
9	0x3d9cce2a	0.0765651
10	0x3d8b96a5	0.068158425
11	0x00000004	6e-45
12	0x00000004	6e-45
13	0x3df5b910	0.119981885
14	0x3e01c8aa	0.12674204
15	0x3d25dde2	0.040494807

base.m0.b2_1.0.res_layer.0.weight f4 [16, 16, 3, 3]
0	0x3db39d83	0.08770277
1	0x3d9bdd61	0.07610584
2	0x3df2d149	0.11856324
3	0x3e09e4d4	0.13466197
4	0x3e3c5dfa	0.18395224
5	0x3c956818	0.018238112
6	0xbdbad069	-0.09121782
7	0xbe36c71e	-0.17849395
8	0xbe80c962	-0.25153643
9	0xbc78d95e	-0.015188543
10	0xbc7db878	-0.015485875
11	0xbd40018a	-0.046876468
12	0x3e06b3d8	0.13154542
13	0x3e734412	0.23756436
14	0x3dd98f76	0.10623066
15	0x3e034ba7	0.12821828
16	0x3dc22471	0.09479607
17	0x3dcc1022	0.099640146
18	0xbcb51f54	-0.022109665
19	0xbb859229	-0.0040762615
20	0xbd8f2bb2	-0.06990756
21	0xbaeeb0b6	-0.0018210623
22	0x3df3f884	0.11912635
23	0x3e39c3a5	0.18141039
24	0x3cad5c94	0.021162309
25	0x3e8df09b	0.2772263
26	0x3e82f5ee	0.25578254
27	0x3d518f8c	0.051162288
28	0xbcec49eb	-0.02884384
29	0x3d0edb78	0.03487727
30	0xbcc67747	-0.024226798
31	0xbe744dd1	-0.2385781
32	0xbe1d3366	-0.15351638
33	0xbd992c97	-0.07479208
34	0xbeaab8cd	-0.33344117
35	0xbe68c4ad	-0.22731276
36	0x3e03c492	0.12867954
37	0x3d599866	0.053123854
38	0xbcc72598	-0.024309918
39	0xbdd6ca6e	-0.10487829
40	0xbdfc426b	-0.12317356
41	0xbe5cea07	-0.2157365
42	0x3dc22399	0.09479446
43	0x3df64396	0.1202461
44	0x3d3c0080	0.045898914
45	0xbd658bb7	-0.056041446
46	0xbd4ed56b	-0.0504965
47	0xbc3ecd9d	-0.011645702
48	0xbdfbc98a	-0.122943
49	0xbe57a1d5	-0.21057828
50	0xbe31e311	-0.17371775
51	0x3c1150e2	0.008869382
52	0x3ea24861	0.31695846
53	0x3eb49047	0.35266325
54	0xbd80ca0c	-0.062885374
55	0xbd729d10	-0.059231818
56	0xbd20936b	-0.03920309
57	0xbcceef7b	-0.025260678
58	0x3bb1298f	0.0054065655
59	0x3cc1632c	0.02360686
60	0xbd2a3c70	-0.041561544
61	0xbca9888b	-0.020694992
62	0x3b68cbbd	0.0035521828
63	0xbd8c8bfc	-0.068626374
64	0x3c98ff1f	0.018676339
65	0x3c24571f	0.010030537
66	0x3dc4b8fc	0.096055955
67	0x3e3c7312	0.18403271
68	0x3d43f6b2	0.04784269
69	0xbe73604a	-0.237672
70	0xbdea34ad	-0.11435828
71	0xbe3dadd0	-0.18523335
72	0xbafc85d1	-0.0019265955
73	0x3be77368	0.007063318
74	0x3d3ca5e6	0.04605665
75	0x3d1cd085	0.038284797
76	0x3cd0e075	0.025497654
77	0x3d2425d7	0.04007515
78	0xbe563df6	-0.20922074
79	0xbe964744	-0.29351246
80	0xbe057c60	-0.13035727
81	0xbd1d64eb	-0.03842632
82	0xbd18c7de	-0.037299983
83	0x3bd42040	0.006473571
84	0xbca6b82a	-0.020351488
85	0x3b7d7be3	0.0038678579
86	0xbcaa6425	-0.020799706
87	0x3d0ad933	0.033898544
88	0xbcadd992	-0.02122191
89	0xbde646ff	-0.1124401
90	0x3d79593b	0.060876112
91	0x3c9e7ed7	0.019347591
92	0x3d9257f4	0.07145682
93	0xbd949697	-0.07255285
94	0xbdbe6993	-0.092974804
95	0x3d6e0ed8	0.058119625
96	0xbd94867d	-0.07252214
97	0x3d11e5cf	0.035619553
98	0x3c3a9a88	0.011389382
99	0xbd8b2f1b	-0.06796094
100	0xbdc2c819	-0.09510822
101	0xbd7809b7	-0.06055614
102	0xbe071ae4	-0.13193852
103	0xbe06eaf3	-0.13175564
104	0xbdc22fd2	-0.09481777
105	0xbcaebe2b	-0.021330914
106	0x3dbf4361	0.093390234
107	0x3dc2e713	0.0951673
108	0xbbd06670	-0.0063598678
109	0x3d2d9dfb	0.04238699
110	0x3c026dc9	0.007960745
111	0x3d300c58	0.042980522
112	0xbdb81900	-0.08989143
113	0xbe0bd109	-0.1365396
114	0x3d9d3304	0.07675746
115	0x3b43771b	0.002982563
116	0x3aebb0bb	0.0017981747
117	0x3ca61de4	0.020277925
118	0x3d712ab1	0.058878604
119	0xbcca01ef	-0.024659125
120	0x3de30a2a	0.11085923
121	0x3e35bdb4	0.17748147
122	0x3da5feea	0.081052616
123	0xbdbc6454	-0.091988236
124	0xbe657125	-0.22406442
125	0xbe04e150	-0.12976575
126	0x3d9cc07f	0.07653903
127	0x3d3b3632	0.04570598
128	0x3d655427	0.055988457
129	0xbd52242d	-0.05130403
130	0xbd8a87fd	-0.06764219
131	0xbb758103	-0.003746093
132	0xbda89536	-0.08231585
133	0xbc73601b	-0.014854456
134	0xbc733bb2	-0.014845775
135	0x3c3319c7	0.010931439
136	0xbd410e67	-0.047132876
137	0xbcb5adad	-0.022177542
138	0x3c889710	0.016673595
139	0x3d286c48	0.04111889
140	0x3ca74abf	0.020421384
141	0xbdcb412c	-0.0992454
142	0xbc23993b	-0.009985263
143	0xbe1d5199	-0.15363158
144	0x3e5a33dc	0.21308845
145	0x3e21c902	0.15799335
146	0x3ccb3b54	0.024808563
147	0xbddfeda6	-0.10934
148	0xbd70385f	-0.05864751
149	0xbe38e4e3	-0.18056063
150	0xbd0cda19	-0.03438768
151	0xbd77da33	-0.060510825
152	0xbda930bb	-0.08261248
153	0x3e54d5c7	0.20784675
154	0x3e9754b6	0.29556817
155	0x3e562a51	0.2091458
156	0x3dffe183	0.12494185
157	0x3e0fa8c8	0.14029229
158	0x3d66df9c	0.056365594
159	0x3ccd280e	0.025043514
160	0xbe0deb67	-0.1385933
161	0xbd41264c	-0.047155663
162	0xbc191b6f	-0.00934492
163	0x3d7b31a9	0.061326656
164	0x3de8d738	0.11369175
165	0x3d56ad18	0.05241117
166	0x3e6aa909	0.22916044
167	0x3e3d5cc9	0.18492426
168	0xbced8295	-0.02899293
169	0xbdc47fcf	-0.0959469
170	0xbd869004	-0.065704376
171	0x3c920bac	0.017827831
172	0xbe4bf858	-0.19918954
173	0xbe053d09	-0.13011564
174	0xbb81da59	-0.0039627966
175	0xbe85b557	-0.26114914
176	0xbe5a7638	-0.2133416
177	0x3d00d809	0.031456027
178	0xbdd3b98c	-0.10338125
179	0xbe3b7dad	-0.1830966
180	0x3c476b83	0.012171629
181	0xbe163632	-0.14669111
182	0xbe65e4d5	-0.22450574
183	0x3d8a3711	0.06748784
184	0x3da1a684	0.078930885
185	0x3c790c7a	0.015200729
186	0x3c39bc60	0.011336416
187	0x3dd1aa77	0.10237592
188	0x3da65da4	0.08123329
189	0xbe66fd36	-0.2255753
190	0xbe6508b0	-0.22366595
191	0xbe1d2a97	-0.15348278
192	0x3dbbf6f2	0.091779605
193	0x3ea84643	0.32866105
194	0x3e806fd5	0.2508532
195	0xbd92aca1	-0.071618326
196	0xbc390d70	-0.011294708
197	0xbd89126e	-0.06692968
198	0x3d1282a4	0.03576912
199	0x3d40e8f8	0.047097176
200	0x3d1b2bb6	0.037883483
201	0xbcf05b61	-0.029340448
202	0xbc366dcf	-0.011134579
203	0x3c49f798	0.012327097
204	0xbcece361	-0.028917016
205	0xbbfaf07d	-0.007658063
206	0x3ccad955	0.024761835
207	0x3d94b0f1	0.072603114
208	0x3e36d229	0.17853607
209	0x3d1287c9	0.035774026
210	0xbe3175c5	-0.17330082
211	0xbe1aa6ac	-0.15102643
212	0xbe7ed385	-0.24885376
213	0xbdc4046c	-0.09571156
214	0xbcf327ad	-0.029682005
215	0x3ca486a8	0.02008374
216	0x3d71f58d	0.059072066
217	0x3ba2ae0d	0.004964596
218	0x3ca36cac	0.01994928
219	0xbe6efc0d	-0.23338337
220	0xbea426b5	-0.3206078
221	0xbe0dbd3b	-0.13841717
222	0x3da1e236	0.079044744
223	0xbd3639a9	-0.044488583
224	0x3d64f0cf	0.055893715
225	0x3b815b38	0.0039476417
226	0xbdb46436	-0.08808176
227	0xbd76fcdc	-0.06029974
228	0x3ca7486a	0.020420272
229	0xbd79c5a4	-0.0609795
230	0xbdb01380	-0.08597469
231	0xbc1de96b	-0.009638171
232	0xbd03a727	-0.03214183
233	0xbceb4324	-0.028718539
234	0x3a9062cd	0.0011015773
235	0xbdc71e9b	-0.097226344
236	0x3ac7cc53	0.0015243388
237	0x3c1a8083	0.009430054
238	0x3d8e1183	0.06936934
239	0x3be80fc8	0.0070819594
240	0x3c0ab080	0.008464932
241	0x3d16aa0f	0.036783274
242	0xbc410265	-0.011780356
243	0xbe19327b	-0.14960663
244	0xbe4bac69	-0.19889988
245	0xbdacf492	-0.084450856
246	0xbd9bfb91	-0.07616342
247	0x3dd7104b	0.105011545
248	0x3d9786b8	0.073987424
249	0xbc9993c4	-0.018747218
250	0xbb3abc68	-0.0028493647
251	0x3d0d8b05	0.034556407
252	0x3b8b27dd	0.0042466954
253	0xbde7b1ea	-0.11313231
254	0xbdf2513e	-0.11831902
255	0x3d9e6172	0.0773343

base.m0.b2_1.0.res_layer.1.weight f4 [16]
0	0x3e91e664	0.28496087
1	0x3e87943f	0.2648029
2	0x3ead118a	0.33802444
3	0x3eab9ba1	0.33517173
4	0x000014be	7.441e-42
5	0x3e977892	0.29584175
6	0x3e98e94f	0.298655
7	0x80000028	-5.6e-44
8	0x800021dd	-1.2148e-41
9	0x80001038	-5.818e-42
10	0x3e88ef24	0.2674495
11	0x80000063	-1.39e-43
12	0x3e8916a9	0.267751
13	0x3eb3e880	0.3513832
14	0x3ee9d4b1	0.45670083
15	0x80000abc	-3.851e-42
