Pruned Models/EXTD/FPGM/EXTD10_FPGM.pth (torch, 713811 bytes, 134 tensors)

base.0.0.weight f4 [64, 3, 3, 3]
00000000: 60bb 3cc1 1717 31c1 0268 19c1 cbe7 44c1
00000010: f251 3bc1 95ab 21c1 c4d1 42c1 316d 37c1
00000020: 47ce 1ac1 e85e 9ec1 7d81 94c1 d05b 82c1
00000030: cdeb a5c1 69ec 9bc1 0da1 87c1 136c a9c1
00000040: 88a9 9fc1 cd9d 89c1 1b81 aac1 7a64 a4c1
00000050: 92f7 94c1 142e aec1 3c3a a7c1 2768 96c1
00000060: aaec b2c1 031c abc1 6e70 97c1 0000 0000
00000070: 0000 0000 0000 0080 0000 0000 0000 0000
00000080: 0000 0000 0000 0000 0000 0000 0000 0000
00000090: 0000 0000 0000 0000 0000 0080 0000 0000
000000a0: 0000 0000 0000 0000 0000 0000 0000 0000
000000b0: 0000 0000 0000 0000 0000 0080 0000 0080
000000c0: 0000 0000 0000 0000 0000 0080 0000 0000
000000d0: 0000 0000 0000 0000 0000 0080 0000 0080
000000e0: 0000 0080 0000 0080 0000 0080 0000 0080
000000f0: 0000 0080 0000 0080 0000 0080 0000 0080
00000100: 0000 0080 0000 0080 0000 0080 0000 0080
00000110: 0000 0080 0000 0080 0000 0080 0000 0080
00000120: 0000 0080 0000 0080 0000 0080 0000 0080
00000130: 0000 0080 0000 0080 0000 0080 0000 0080
00000140: 0000 0080 200f 8842 cb6a 9541 8678 f7c1
00000150: 7050 c542 3341 9142 5ec0 c741 f592 cf42
00000160: 77a3 a142 d9c4 0142 cd32 9342 7eb5 db41
00000170: 11d1 87c1 f11c ac42 00e0 8242 feb2 9441
00000180: efcd 9742 9814 5e42 29e0 9e40 ff29 9842
00000190: 0a52 e741 6e63 83c1 eabe ae42 fab0 8342
000001a0: ca1b 9241 1521 a342 46e4 6a42 f7fa e540
000001b0: 22e3 9ec0 fcf8 51c0 0f6c 85bf adad 05c1
000001c0: 1195 03c1 3cff e1c0 5ba2 01c1 7dde 0dc1
000001d0: d12e 00c1 bea3 e841 7fea e041 c1c4 d741
000001e0: e9b5 c941 539b bb41 846c b041 5cdd d241
000001f0: 9dbc c041 47a4 bb41 4fcb 6441 06aa 5841
00000200: bad1 5741 7600 2a41 6868 0241 c59f ed40
00000210: 8dc3 5341 7b0b 1e41 e944 1241 86a5 10c3
00000220: abfd 07c3 0053 8fc2 733a f6c2 d322 d7c2
00000230: 7587 30c2 92ee 9ac2 67c1 30c2 a2b9 81c0
00000240: 87a8 15c3 828a 03c3 e44b 83c2 1d95 01c3
00000250: 9e69 ddc2 e283 12c2 a02e abc2 9a29 3dc2
00000260: 20b5 2541 20ff 14c3 acf8 0ac3 b679 abc2
00000270: 4290 ffc2 be16 edc2 d2aa 6cc2 c347 95c2
00000280: 63e8 2bc2 9e25 a2bf 94ea 3e40 9c21 8340
00000290: d9dd a840 68b6 1f40 3cfa 6d40 3736 9940
000002a0: fe5d 1c40 5778 6d40 a845 9a40 942d ef3f
000002b0: 6bf5 2640 ffcf 6140 019f 1e3f 0135 b13f
000002c0: 1401 0e40 1e0d 593e 0857 863f f54e f63f
000002d0: c70e 3d41 24e0 4641 7e30 5841 eae8 2b41
000002e0: 0ef5 3841 c39d 4641 ede3 2641 df7b 3441
000002f0: aff2 4341 ae0b a544 4bdc 9244 0b00 8a44
00000300: 7165 f044 4fb2 ce44 8c8f ce44 d455 dd44
00000310: a306 be44 0edd b844 436a 7844 5523 5a44
00000320: fc81 5444 c912 ac44 2541 9344 b2e6 9444
00000330: 8b9a 8a44 ca79 6444 c40d 6e44 47e0 9644
00000340: 443b 8a44 7ac2 8c44 cbaf b344 27b5 9b44
00000350: 7619 a444 68ef a144 3cc6 8744 ec59 8c44
00000360: 0000 0080 0000 0000 0000 0000 0000 0080
00000370: 0000 0000 0000 0000 0000 0000 0000 0000
00000380: 0000 0000 0000 0080 0000 0000 0000 0000
00000390: 0000 0080 0000 0000 0000 0000 0000 0080
000003a0: 0000 0080 0000 0000 0000 0080 0000 0080
000003b0: 0000 0080 0000 0080 0000 0080 0000 0080
000003c0: 0000 0080 0000 0080 0000 0080 7a6c af3d
000003d0: 8e00 a93d 7bf5 b23d 4f39 d73d 6404 d23d
000003e0: 597e ef3d ce52 103e a5fc 103e 8e57 153e
000003f0: 269f 9f3d 0a4b 803d adca 7e3d 2206 b03d
-11.795746 -11.068137 -9.587893 -12.30659 -11.707506 -10.10439 -12.176212 -11.464158
-9.675361 -19.79634 -18.563227 -16.29483 -20.740137 -19.490435 -16.953638 -21.17777
-19.957779 -17.202051 -21.31304 -20.54906 -18.620884 -21.7725 -20.903435 -18.800856
-22.365559 -21.388678 -18.929897 0.0 0.0 -0.0 0.0 0.0
0.0 0.0 0.0 0.0 0.0 0.0 -0.0 0.0
0.0 0.0 0.0 0.0 0.0 0.0 -0.0 -0.0
0.0 0.0 -0.0 0.0 0.0 0.0 -0.0 -0.0
-0.0 -0.0 -0.0 -0.0 -0.0 -0.0 -0.0 -0.0
-0.0 -0.0 -0.0 -0.0 -0.0 -0.0 -0.0 -0.0
-0.0 -0.0 -0.0 -0.0 -0.0 -0.0 -0.0 -0.0
-0.0 68.02954 18.677145 -30.93385 98.657104 72.62734 24.96893 103.787025
80.81927 32.442234 73.59922 27.46362 -16.977083 86.056526 65.4375 18.587399
75.902214 55.52011 4.9648633 76.08202 28.915058 -16.42355 87.37288 65.84566
18.263569 81.56461 58.722923 7.1868854 -4.965226 -3.2808218 -1.0423602 -8.354901
-8.223893 -7.0624065 -8.102138 -8.866818 -8.01143 29.079952 28.1145 26.971071
25.213823 23.450842 22.052986 26.358086 24.092096 23.455214 14.299636 13.54151
13.488703 10.625113 8.15049 7.425753 13.235242 9.877803 9.141824 -144.64658
-135.99089 -71.66211 -123.11416 -107.568016 -44.132282 -77.46596 -44.18887 -4.0539103
-149.65831 -131.54105 -65.648224 -129.58247 -110.70628 -36.62879 -85.591064 -47.290627
10.35672 -148.99658 -138.97137 -85.73772 -127.78175 -118.54442 -59.166817 -74.64016
-42.97694 -1.266773 2.9830675 4.0978527 5.277081 2.4955082 3.718398 4.787868
2.4432368 3.71047 4.821003 1.8685784 2.6087291 3.52832 0.6196137 1.38443
2.2188158 0.2119641 1.049531 1.9242846 11.816108 12.429722 13.511839 10.744364
11.559828 12.413516 10.430646 11.280242 12.246749 1320.365 1174.8842 1104.0013
1923.17 1653.5721 1652.4858 1770.6821 1520.2074 1478.908 993.66034 872.55206
850.031 1376.587 1178.0358 1191.2092 1108.8295 913.90295 952.2151 1207.0087
1105.852 1126.0774 1437.4935 1245.661 1312.7957 1295.4814 1086.1948 1122.81
-0.0 0.0 0.0 -0.0 0.0 0.0 0.0 0.0
0.0 -0.0 0.0 0.0 -0.0 0.0 0.0 -0.0
-0.0 0.0 -0.0 -0.0 -0.0 -0.0 -0.0 -0.0
-0.0 -0.0 -0.0 0.08565612 0.08252059 0.08738228 0.105089776 0.10254744
0.11694021 0.14094087 0.14158876 0.1458418 0.07794027 0.062643126 0.062205005 0.0859492

base.0.1.weight f4 [64]
00000000: b3d4 693e 090b 293d 606e 2c3d ebaa c43e
00000010: caa9 393e db1c d53e f37a 583e 9a2a eb3e
00000020: 0a50 843d c21b b63d 49ec 803d 6c9c 1b3f
00000030: c8e3 d43d 287a 813e a3b2 ba3d 4a9c 003e
00000040: b9fb e33e 9208 f23e 91ce cd3e d1f2 073f
00000050: 5f4d f03d 46dc bf3e 51c2 063f b8c3 d43e
00000060: f48d 123e 43a8 aa3e 41a7 9d3e 5734 193f
00000070: f0d6 9d3e 6088 b73e 5db4 6c3f 1d4f 7e3e
00000080: f314 c13e fa03 473e 462c b13e 9162 fa3d
00000090: a2bb af3e 7b4e a03e 8faf 9b3f de99 183f
000000a0: e94f 233f 7c48 5a3e fadb c63e b138 353f
000000b0: 6c98 fc3e 7228 233f 8447 e43d 1884 0f3e
000000c0: f5dc 263f 5052 163e ea97 1b3f 74c9 4f3d
000000d0: 7821 6e3e d751 fc3e cebd f23e 85bf ea3c
000000e0: d8c0 063e 5572 a73d 29b5 043f c24d 803e
000000f0: 1597 b63e 4613 f73e cdbc 233e e46f 113f
0.22835045 0.04127029 0.04209745 0.3841165 0.18131176 0.41623577 0.21140651 0.4593094
0.06460579 0.08892013 0.06295068 0.60785556 0.10395008 0.2528851 0.091161035 0.1255962
0.44527987 0.47272164 0.4019666 0.53104883 0.11733507 0.37472743 0.52640253 0.41555572
0.14311963 0.33331499 0.30791667 0.5984549 0.30828047 0.35846233 0.9246271 0.24834867
0.37711295 0.1943511 0.3460409 0.12225831 0.3432284 0.31309876 1.2162951 0.5960978
0.6379381 0.21316713 0.38839704 0.7078963 0.4933504 0.6373359 0.11146453 0.14015234
0.65180904 0.14679837 0.6077868 0.05072923 0.23254955 0.4928119 0.47410434 0.028655777
0.13159502 0.08176104 0.5183893 0.25059325 0.3566214 0.48256892 0.1598999 0.56811357

base.0.1.bias f4 [64]
00000000: 3f98 c83d 6374 3fbd ba56 20be 06b2 913e
00000010: fa73 45be b4ce 68be b871 a8bd 5608 843d
00000020: 4ff0 42bd c497 2dbe caeb 8fb9 2f69 e9bd
00000030: c1c0 a13d 50c5 6ebd 753e 593d 92d3 e0bc
00000040: 8788 553d da62 013e 2e52 bcbd 0ee0 06be
00000050: 2a26 933d 07ea 043e 9c36 4cbc 96f8 4e3d
00000060: fb51 b5bd 85a8 673d d2a8 69bd a922 ca3c
00000070: 744b 9f3d af51 2d3e efba 803e 644b ed3d
00000080: 9e6f e03c d9d1 47bd abbc 0f3d 4b02 c53d
00000090: 8e0e 9fbd bfbb adbc 3b96 6fbe ad33 c2be
000000a0: 2c21 0fbc e774 81be c0fe 743e 4d37 14be
000000b0: 6511 77be f06f 53be aae6 a93d 720f c83c
000000c0: c002 bb3d 5165 43be 0ad7 59bd 12c5 dfbd
000000d0: 14d3 debd 8bbd 29be 4783 0b3b 5e59 3f3d
000000e0: 71fe 5b3e 155c 9c3d 445d 37be e451 ac3d
000000f0: 93a2 a8bd 3a60 093e 64be 9f3d dc37 13be
0.09794664 -0.046741854 -0.15658084 0.28456134 -0.19282523 -0.22735101 -0.08224815 0.064469025
-0.047592457 -0.16952425 -0.00027450762 -0.11397015 0.07898093 -0.05829364 0.05303808 -0.027444635
0.052132156 0.12635365 -0.09195362 -0.13171408 0.071850136 0.129799 -0.012464192 0.05053004
-0.08853527 0.056557197 -0.057045765 0.02467473 0.077780634 0.16925691 0.2514262 0.11586645
0.027396973 -0.04878411 0.035092037 0.09619578 -0.07766448 -0.021207688 -0.23397152 -0.3793005
-0.008735936 -0.25284502 0.23925304 -0.1447422 -0.24127729 -0.2064817 0.08295949 0.024421427
0.09131384 -0.19081618 -0.053183593 -0.1092626 -0.10880104 -0.16576211 0.0021287964 0.046716087
0.2148378 0.07634751 -0.17906672 0.08414057 -0.082341336 0.13415614 0.07799986 -0.14376777

base.0.1.running_mean f4 [64]
00000000: 0c52 3045 6f04 24c0 7dd8 2341 a387 e9c5
00000010: fa25 20c5 e4bd 5546 ed18 17c4 88c7 3cc8
00000020: 9d7d da3e 37b3 7dc1 a6cb 8744 9a83 66c8
00000030: 8c3b acc0 80c7 65c8 87ad ef40 409e ec41
00000040: d888 54c7 0bee 25c5 5ca6 0746 ba8e 5a45
00000050: 9830 5340 3c2a 66c4 9d6b e243 e0a2 8b44
00000060: a605 5044 2cd8 7647 2b17 11c6 f678 2e47
00000070: 9485 aec4 526b 8146 f91f 9243 026a c845
00000080: a8a7 81c8 d6f0 c444 d3ca 6a44 5790 bc42
00000090: 1efb dbc5 d487 f1c4 0297 4bc7 2239 ad44
000000a0: abb1 c5c6 4876 5fc4 f234 fbc6 e0bd fb44
000000b0: 2d82 0a44 c228 09c4 d759 24c5 799f 5a45
000000c0: c602 b547 3f8b e447 57cc 6044 f015 e8c0
000000d0: 0002 f0c6 2267 8f47 c9be 1bc6 43f5 18c0
000000e0: 315a a3c5 a816 2241 1b64 3546 1caa a0c4
000000f0: 388e 2f44 44b0 76c5 e783 bc47 7206 1046
2821.128 -2.5627706 10.240354 -7472.9546 -2562.3735 13679.473 -604.38947 -193310.12
0.4267396 -15.856254 1086.364 -236046.4 -5.382269 -235294.0 7.4899325 29.57727
-54408.844 -2654.8777 8681.59 3496.9204 3.299841 -920.6599 452.84073 1117.0898
832.08826 63192.17 -9285.792 44664.96 -1396.1743 16565.66 292.2498 6413.251
-265533.25 1575.5261 939.1691 94.28191 -7039.3896 -1932.2446 -52119.008 1385.7854
-25304.834 -893.84814 -32154.473 2013.9336 554.034 -548.63684 -2629.615 3497.967
92677.55 117014.49 899.1928 -7.252678 -30721.0 73422.266 -9967.696 -2.3899696
-5227.274 10.130531 11609.026 -1285.3159 702.22217 -3947.0166 96519.805 9217.611

base.0.1.running_var f4 [64]
00000000: 76d4 314e 3c95 1044 f622 2146 e13b b04f
00000010: d080 864d 2159 8f50 0846 a74c 3b4d 7754
00000020: 43cd eb42 0976 e646 ad99 d74c ba0f f653
00000030: c3a8 0845 650b 8954 11df c045 4c2f af47
00000040: 3629 8752 d37c 984d 03ba d24f 5918 d74e
00000050: cf6e b743 28fc 004d afda 094c f4e4 e64d
00000060: c3c6 914c 6d81 b852 4427 e14f eb6e 1d52
00000070: 5470 bb4d 16ac f250 8a5a 874a a3e6 964f
00000080: 5271 e454 c052 574d b0d4 964d 3222 6149
00000090: 593e a14f dae0 bd4d c2de 9b51 8c79 934c
000000a0: 1285 c354 b363 a54c 1d2b b551 870c aa4e
000000b0: 204a 8e4c 1993 0f4c c298 324e bb1d f14e
000000c0: 105f 5453 219e 9553 cda1 a84c 641c 9645
000000d0: fcb6 b851 5e12 0e53 58ea 1950 dbb4 b543
000000e0: 6ba6 224f f8f1 3146 8fbc 5650 01d3 1b4d
000000f0: d275 2e4c 2eef b14e e144 2f53 95e0 2c50
7.458728e+08 578.3318 10312.74 5.9134285e+09 2.820736e+08 1.9239864e+10 8.769952e+07 4.2486105e+12
117.9009 29499.018 1.1303665e+08 2.1136516e+12 2186.5476 4.7088135e+12 6171.8833 89694.59
2.90256e+11 3.1978966e+08 7.0708116e+09 1.8043485e+09 366.8657 1.3525056e+08 3.613766e+07 4.8422054e+08
7.6428824e+07 3.962227e+11 7.554894e+09 1.6904269e+11 3.930876e+08 3.2570913e+10 4.435269e+06 5.063395e+09
7.84923e+12 2.2578278e+08 3.1631514e+08 922147.1 5.4104356e+09 3.982037e+08 8.368215e+10 7.731926e+07
6.7180094e+12 8.6711704e+07 9.726405e+10 1.4264739e+09 7.46007e+07 3.763722e+07 7.490889e+08 2.0226287e+09
9.1212795e+11 1.2852062e+12 8.841175e+07 4803.549 9.916799e+10 6.101935e+11 1.0329088e+10 363.41293
2.7288154e+09 11388.492 1.4410726e+10 1.6339355e+08 4.5733704e+07 1.492621e+09 7.527749e+11 1.1601597e+10

base.1.conv.0.weight f4 [64, 1, 3, 3]
00000000: f8b5 893b b235 953b f196 053c 7d1f b73b
00000010: dc0d d13b e771 223c 6926 ca3b 67bc f63b
00000020: 9ded 203c 0000 0080 0000 0080 0000 0080
00000030: 0000 0080 0000 0080 0000 0080 0000 0000
00000040: 0000 0080 0000 0000 52c1 fe3a 5ee6 023b
00000050: 2e08 ff3a fd63 323b b5dc 253b 56a6 1d3b
00000060: 1654 463b 6a97 363b 2790 493b 856f 9a3d
00000070: 39eb aa3e 8b2c 5d3e 5ece b63d dc39 a8be
00000080: c780 a73c 1bb2 373d 2681 0cbf 2706 e73d
00000090: 22c5 98bd 2467 f2bd 41c7 02be 46fd 19bd
000000a0: 2018 b0bd a7f5 b5bd f291 023c 54cb 03bd
000000b0: fbb0 1fbd bacc f33c f685 a33e 8807 bb3d
000000c0: 350d a23d b508 793a a015 fdbc 9ce8 38be
000000d0: dc8b a7be 661a 4abc 0000 0080 0000 0080
000000e0: 0000 0000 0000 0000 0000 0080 0000 0000
000000f0: 0000 0000 0000 0000 0000 0000 7c73 48be
00000100: f8ce 7bbe 1924 57be 2036 643b 6796 a1bd
00000110: 9386 413d f700 f83d 483c 8b3e e063 4c3e
00000120: 7afb f53c d33e 833d 2e37 3c3d ddfd 043d
00000130: 586c afbc 99b3 9abb 59af 973c 832e 4fbc
00000140: 2280 853c bf02 383b 944c 033b d4ce 47ba
00000150: 2891 ed39 b873 0cba 2a31 7cbb 81d9 8e3a
00000160: 84f8 96ba d928 13bb bf46 6ebd 73b0 94bd
00000170: 6608 a0bd 5b5d aebc a9ff 5cbc e4a7 adbc
00000180: 09e9 a53c 0cf5 a23c a5a7 013d 5599 933c
00000190: 1618 53be 4748 0f3d 030c 18bd 9b09 babe
000001a0: 2d78 bdbd 5fe5 8fbc 2f4b 61be 5456 5abd
000001b0: 0000 0080 0000 0080 0000 0080 0000 0080
000001c0: 0000 0080 0000 0080 0000 0080 0000 0080
000001d0: 0000 0080 7407 4d3d 5b77 1d3d 2005 0bbd
000001e0: 973d 023e 0493 313e fb61 703d 9040 b93d
000001f0: 90c4 b23d 5253 f13c d494 7fbb 189a bfbb
00000200: fbc7 94bb f0bf 4bbb 86da 9ebb 3102 09bb
00000210: aaff 28bb a267 27bb 57d6 0cba c1ff 13bb
00000220: 7db3 38bb f000 16bb d9e8 11bb 1319 32bb
00000230: 097d 16bb f017 19bb 0943 41bb f83b 58bb
00000240: c3c2 33bd 57fc 043f 505f c1bd 192c 9d3d
00000250: 2682 30bf 4130 c83d 5837 0ebd 2a5b 5c3e
00000260: d126 c6bc 8b2d 743e 599c 9f3e 68d8 403e
00000270: eff6 423e 14ce 903e c5d9 3d3e 7baf 813d
00000280: 0433 f43d acee a63d 05d7 9f3d 6d15 ad3d
00000290: 6d83 c73d 21ba e33d aace 313e d0a0 ec3d
000002a0: de55 0e3e a3f9 123e af0f ae3d 1a40 333d
000002b0: acc1 db3d 2e7c 943d a614 353d 09fe 6c3e
000002c0: d067 253e 6ddb 49bd 3843 a63d 7db5 a23d
000002d0: e517 75ba 155c 9639 49c2 393b 78c7 26bb
000002e0: 7fe0 bfba 5b54 233a 381a deb9 7e77 053b
000002f0: d178 d039 a509 87bd 720f ffbd da0a a6bd
00000300: 16cb 6bbd c6c4 25be bc7f 22be 4100 4fbd
00000310: e02f aebd 68fb 8ebd fabd ff3d 0c01 823e
00000320: 87a1 273e db45 033e b431 7e3e 08db 173e
00000330: 9a58 143d 0278 e03d 3cec 0d3d 8b25 51be
00000340: 6327 08be 6333 52be 0b55 81be ec76 3abe
00000350: 0f69 43be fddd eebd a262 8bbd 798c 71bd
00000360: d496 0f3d 31c9 1a3d 13a8 013d 2f13 463d
00000370: c86c 723c fcb0 f23c 29ae e53c 7194 3b3d
00000380: a0a4 29bc 23bb c33d 445e 2a3e fc58 633e
00000390: 8318 a83d 9770 023e 65cb 283e 5831 ae3b
000003a0: 8594 b73d 463e 4c3c 6796 023e 9898 5d3e
000003b0: 3d87 423e 7e5d 133d cd16 b83d 5023 bd3d
000003c0: 2e99 393d adf1 b23d 6844 003d c462 373e
000003d0: 3060 29bf 345c 043f 0032 893c e8ad e0ba
000003e0: c588 1fbd 64e6 9b3b 9787 9bbc 43ca 84bc
000003f0: b234 9abd 235d 03be b9ae 85bd 5a14 aebd
0.0042026006 0.00455352 0.008153663 0.0055884705 0.006379826 0.009914852 0.0061691296 0.0075297835
0.009822276 -0.0 -0.0 -0.0 -0.0 -0.0 -0.0 0.0
-0.0 0.0 0.0019436276 0.0019973735 0.0019457394 0.0027220242 0.0025308554 0.0024055443
0.0030262521 0.0027861246 0.0030756088 0.07540802 0.33382586 0.21599023 0.0892608 -0.32856643
0.020447148 0.04484759 -0.54884565 0.1128047 -0.07459475 -0.11836079 -0.12771322 -0.037595056
-0.085983515 -0.08884745 0.007969366 -0.03217633 -0.03898714 0.029760707 0.31938142 0.09132296
0.07912675 0.00094998936 -0.0308941 -0.18057483 -0.32723892 -0.012335395 -0.0 -0.0
0.0 0.0 -0.0 0.0 0.0 0.0 0.0 -0.19575304
-0.24590671 -0.21009864 0.00348223 -0.07890015 0.04724748 0.12109559 0.27194428 0.19959974
0.03002714 0.06408467 0.04595106 0.032468665 -0.021413967 -0.0047211167 0.01851623 -0.012645367
0.01629645 0.0028077809 0.0020034658 -0.00076220674 0.00045312312 -0.00053578196 -0.0038481453 0.0010898561
-0.0011518155 -0.0022454767 -0.058172937 -0.072602175 -0.07814102 -0.02128475 -0.0134886885 -0.02119822
0.020252721 0.019892238 0.03165402 0.01801745 -0.20614657 0.03498104 -0.03712083 -0.36335453
-0.09251437 -0.017565427 -0.22001337 -0.053304985 -0.0 -0.0 -0.0 -0.0
-0.0 -0.0 -0.0 -0.0 -0.0 0.050055936 0.038443904 -0.033940434
0.12718807 0.17341238 0.05868719 0.090455174 0.087288976 0.029458676 -0.003899862 -0.005847227
-0.004540441 -0.0031089745 -0.0048478274 -0.0020905847 -0.0025787153 -0.0025543948 -0.00053725153 -0.002258286
-0.0028183155 -0.0022888742 -0.0022264032 -0.002717559 -0.002296271 -0.0023360215 -0.002948942 -0.0032994729
-0.04388691 0.5194754 -0.094420075 0.076744266 -0.6894859 0.09774829 -0.03472075 0.21519151
-0.024188431 0.23845498 0.3117397 0.18832552 0.1903951 0.28282225 0.18540104 0.06332298
0.11923793 0.08150992 0.078046836 0.08451352 0.09741864 0.11119486 0.17363992 0.1155411
0.13899943 0.14353041 0.08499085 0.043762304 0.10730299 0.07250248 0.044209145 0.23143782
0.16152883 -0.049281526 0.0811829 0.079447724 -0.0009349569 0.00028678836 0.0028344563 -0.0025448482
-0.0014639049 0.00062305265 -0.00042362674 0.0020365412 0.00039762867 -0.065936364 -0.12454118 -0.081075385
-0.057566725 -0.16188344 -0.1586904 -0.05053735 -0.08505225 -0.06981546 0.12487407 0.25391424
0.16370212 0.12819616 0.24823648 0.14829648 0.03621731 0.1096039 0.03464912 -0.20424478
-0.13296275 -0.20527415 -0.25260195 -0.18209428 -0.19083045 -0.11663435 -0.06805922 -0.058971856
0.03505595 0.037789527 0.03165443 0.04835814 0.014796443 0.029625408 0.028037148 0.04579586
-0.010354191 0.09557178 0.16637522 0.22201914 0.082078 0.12738262 0.16483839 0.005315941
0.08963875 0.012466019 0.12752686 0.21640241 0.18996902 0.035977833 0.08988724 0.09235251
0.0453121 0.08737502 0.031315237 0.1790877 -0.66162395 0.5170319 0.016747475 -0.0017141672
-0.038948793 0.0047576893 -0.018985553 -0.016209727 -0.07529582 -0.12828498 -0.06527466 -0.084999755

base.1.conv.0.bias f4 [64]
00000000: 2df8 c73c 0000 0080 9442 47bc 1691 aa3e
00000010: 85b2 243d 698e 423f 0000 0080 f7d0 4abd
00000020: 491c b93d 46f6 213c b2f8 d2bc 8f76 2e3e
00000030: 0000 0080 e6c7 94bd 0013 063d 3f97 023c
00000040: 3f6d b93f 1f81 503e 2046 afbd 98d5 22be
00000050: abe7 bebb 64c4 0abe e3bc dcbb 8f88 283e
00000060: d3f3 1a3d f05e 553d ffb3 ce3d 0073 d53f
00000070: 3ab0 e43c fe7c 71bd 3fd1 bc3e c638 53bd
00000080: 781e c03d 5d17 8a3e b876 363c 093d 30bb
00000090: a92a cabb de77 a43e 307f 5b3e 4911 74be
000000a0: 5cf9 3a3d 21ac 9abd 60cb f13e c2b3 353e
000000b0: 4a61 a73e 9a30 10be fb95 6dbd 7aed d3bc
000000c0: e434 fe3e 51ed 653e a420 27bd 0000 0000
000000d0: 9aa8 ed3d 2257 e03f 55a9 0abf 0000 0080
000000e0: 8956 96be 0000 0080 b472 bbbd ee26 05be
000000f0: 8990 a7bc a37b c2bd 28f2 823e baa1 643f
0.024410332 -0.0 -0.01216187 0.33313817 0.040209312 0.7599855 -0.0 -0.04951569
0.09038598 0.009885376 -0.025753353 0.17037414 -0.0 -0.0726469 0.032732964 0.00797063
1.4486464 0.20361756 -0.08558297 -0.15901792 -0.005825957 -0.1355148 -0.0067363842 0.16458343
0.037830185 0.052092493 0.10092925 1.667572 0.027916063 -0.058957092 0.36878392 -0.051567815
0.093808115 0.2697095 0.011136703 -0.0026891849 -0.0061696363 0.321227 0.21435237 -0.23834719
0.045647964 -0.07552362 0.47225475 0.17744353 0.32691413 -0.1408104 -0.05800436 -0.025870074
0.49649727 0.2245381 -0.040802613 0.0 0.11604424 1.7526591 -0.5416463 -0.0
-0.29362896 -0.0 -0.09152737 -0.13003132 -0.020454662 -0.09496238 0.25575376 0.89309275

base.1.conv.1.weight f4 [64]
00000000: 34a6 9e3d 24b4 203e 258c 2e3e d369 ef3e
00000010: c87b 8a3e d60b c03e b4ef 113e e2f8 993e
00000020: 7d66 343e 6dda e93d c2ad 4c3e a086 063f
00000030: df55 283e ae92 8f3e d8bc d93d 70c7 df3d
00000040: 846b b83e 6311 173f 9a28 a33e 3496 9e3e
00000050: 52e8 2e3e 7aac 9f3e d281 f53e 0418 f93e
00000060: aa25 5c3e 10e3 ad3e 40f2 be3e 57ed c63e
00000070: f3af 9e3e afec 773e 9978 5b3f 10f0 653e
00000080: 4348 e33e 2688 903e b2ab a93e f42f 3e3e
00000090: 3c85 5f3e 3a47 aa3e b982 673f ce89 063f
000000a0: 99e8 ea3e 3e9e 7c3e 3b12 e53e 910a 043f
000000b0: 4dfe 073f d617 ed3e b3e4 4d3e ce27 3d3e
000000c0: 7125 ad3e 6dcf 913e 1280 b03e d00f 893d
000000d0: d6e7 a03e 3add d33e 3aea 953e 8e93 203e
000000e0: 5c71 c03e 5253 113e c442 e43e ea3c 623e
000000f0: 27ed 873e f843 c13e 2db0 8b3e 9148 d63e
0.077465445 0.15693718 0.17045648 0.46760425 0.27047563 0.3750903 0.14251596 0.30072695
0.17617221 0.114186145 0.19988158 0.5254917 0.16439007 0.28041595 0.10631722 0.109267116
0.36019528 0.59010905 0.31866914 0.3097397 0.1708081 0.31186277 0.47950608 0.48651135
0.21498743 0.33962297 0.37294197 0.3885295 0.30993614 0.24211381 0.8573089 0.22454858
0.4439107 0.28228873 0.33138806 0.1857298 0.21828169 0.33257467 0.9043384 0.52554023
0.45880583 0.2466974 0.4474047 0.51578623 0.5312241 0.46307248 0.20106773 0.18472216
0.33817628 0.28478566 0.3447271 0.06692469 0.31426877 0.4137972 0.29280263 0.15681288
0.37586486 0.1419194 0.44582188 0.2209355 0.2654812 0.3774717 0.2728285 0.4185224

base.1.conv.1.bias f4 [64]
00000000: 8653 ae3d 2385 0d3c 4b1b 0abc 7812 183e
00000010: 4969 593c cf1f 823e fb7b 55bb bec4 483c
00000020: cbd7 72bc 0b9e 2f3d c431 dbbc 62bf 223e
00000030: 6952 323b 00e7 d3bd 3ddb c73c 57fc 20bd
00000040: 19b2 e93e 6b8a 323e 9830 1bbe 256e 7ebe
00000050: de52 0bbd 54bb 1ebe 5423 c5bd 70a2 b53d
00000060: 6149 b93c e48f 543d 5be5 493d e0c5 d83e
00000070: b7e4 7e3c daea 30bd 5629 073f f254 31bd
00000080: dcd7 183e d9c2 7d3d 0014 9cbc b11b 49bd
00000090: b8e9 0abc b1d7 7f3d 5395 233f 4c9c c6be
000000a0: b60a 243e 3f5d 30bd 46ea 803e 2272 0c3e
000000b0: 1859 c03e c1b4 21bd 27db b43c 4eb7 3bbc
000000c0: 9fa9 6a3e 92fd 873e 2cdf a5bc 0996 173d
000000d0: d9fa ee3d ea37 fc3e 0699 6fbe 6e41 cc3b
000000e0: 6a9f 23be 1def 64bc c4e3 c1bd 8a13 c0bd
000000f0: 65c8 f7bc ece9 d4bd d308 323e 9789 a63e
0.085120246 0.008637699 -0.008429359 0.14850795 0.013269731 0.25414893 -0.0032575119 0.012253938
-0.014821957 0.04287533 -0.026757129 0.15893319 0.0027209765 -0.10346794 0.024396533 -0.03930315
0.4564369 0.17435615 -0.15155256 -0.24846704 -0.034014575 -0.15501148 -0.09625879 0.08868873
0.022617998 0.051895037 0.049290996 0.42338467 0.01555746 -0.043192722 0.5279745 -0.0432939
0.14926094 0.0619534 -0.019052505 -0.049098674 -0.008478574 0.06246156 0.63899726 -0.3879112
0.16019711 -0.043057676 0.25178736 0.13715413 0.37567973 -0.03947902 0.022077156 -0.011457277
0.22916268 0.26560646 -0.020248018 0.03700832 0.11668939 0.4926141 -0.23398218 0.0062333858
-0.1597878 -0.013973025 -0.09467271 -0.09378727 -0.030246923 -0.103961796 0.17386179 0.32526848

base.1.conv.1.running_mean f4 [64]
00000000: fea0 de3a ca94 883a 2e30 4bb7 25ef a23e
00000010: 7827 243e 3a51 3e3f 678a 2f3b e241 5cbd
00000020: 949c a33d 5938 ad3b 906b b9bc 63ab 943e
00000030: e839 4ebb 338f e7bd 18ea 673a 343d 12b9
00000040: 5202 b73f 53e6 c73e 6e43 44be cf71 8bbe
00000050: e0e5 123b 1bc2 73be ced8 0fbd 93fd ca3d
00000060: 2773 643c 0423 ce3d c180 173d 4b94 d23f
00000070: f5c0 09bd 5035 83bb aa7a 703f abb0 bcbc
00000080: 230d 883d 65a7 7a3e c581 3bbc 82ad 37bd
00000090: b396 603d bfbe 9e3e 6e0c 793f 862d 6abf
000000a0: d245 963c eb0e 65be fbcb e93e b4ca c83e
000000b0: e83f 283f 4009 03be 0e9d 9ebd ac88 7fbc
000000c0: 16ad fd3e 1a2d 9b3e 691d af3c 3f7c 8d3a
000000d0: 47ee 483e b050 dd3f 85ae 09bf c748 53ba
000000e0: 0b2b fdbe e81e b539 338b a0be 59a7 17be
000000f0: f4df 19bd 2e9f 83be 1a38 963e 08a7 5f3f
0.0016985235 0.0010420319 -1.2110961e-05 0.31823078 0.16030681 0.7434269 0.0026785375 -0.05377377
0.07988849 0.005286258 -0.022634298 0.29037008 -0.003146762 -0.1130661 0.00088468334 -0.00013946445
1.4297583 0.3904291 -0.19166347 -0.27235267 0.0022414848 -0.23804514 -0.03511887 0.09911647
0.01394347 0.100652725 0.036988024 1.6451505 -0.033631284 -0.004004158 0.9393717 -0.02303346
0.06643131 0.24477918 -0.011444514 -0.044843204 0.054831218 0.31004903 0.9728459 -0.91475713
0.01834384 -0.22368972 0.45663437 0.3921715 0.65722513 -0.12796497 -0.077447996 -0.01559655
0.49546117 0.30307847 0.021376329 0.0010794475 0.19622146 1.7290249 -0.5378192 -0.0008059856
-0.49446902 0.00034546037 -0.313562 -0.14809932 -0.037567094 -0.25707382 0.29339677 0.87364244

base.1.conv.1.running_var f4 [64]
00000000: 77be 9737 a5a8 6635 ddaa 0b2f d016 6c3b
00000010: 01be 4d3c 4906 4a3b 6f4f 2c38 1287 f53b
00000020: 57ee ce38 0c22 0b37 98be 3039 472b a83e
00000030: 254b 9437 0b7a e43c 79bc 3536 e59b aa34
00000040: 77c4 6c3a 3746 153f ddf9 353e fab9 353e
00000050: eb3b 8037 5364 cf3d 57c6 df3e 1ebd a03e
00000060: b1f8 d63a c7c4 dc3d 4873 a13d e066 5c3b
00000070: 2abb 803d 7676 793c d14d 9a40 fee2 973b
00000080: be43 803e 7800 913b bedb 873d 3690 3e3b
00000090: 70c2 783d 369e 963c ce16 4d41 6513 833f
000000a0: 49e6 293f 001b 7a3c a01c 743b f5b2 663f
000000b0: 81c1 d83e 4f15 2e3c e534 183a ead9 cb3a
000000c0: 8954 843b c69e 6d3b a117 a73e ed54 9d34
000000d0: 6aca ed3c f132 8b3b 767b ee3b 320a 8234
000000e0: 1684 8a3c 3b67 2034 a180 b43e 2335 7a3b
000000f0: 0fce a13b 34ae c43e 9e01 263c b261 b73b
1.8089295e-05 8.5927087e-07 1.2702679e-10 0.003602434 0.0125575075 0.00308265 4.1081974e-05 0.0074929083
9.86724e-05 8.292973e-06 0.0001685567 0.32845518 1.7677967e-05 0.027890226 2.7080807e-06 3.1778396e-07
0.0009031961 0.58310264 0.17771097 0.17746726 1.528669e-05 0.10126557 0.4370601 0.31394285
0.001640102 0.1077972 0.07883316 0.0033630654 0.06285699 0.015225997 4.821999 0.004635214
0.25051683 0.0044251047 0.06633709 0.0029077656 0.060732305 0.018385988 12.818068 1.0240294
0.6636701 0.015265226 0.0037248507 0.90116817 0.42335132 0.010625198 0.0005806222 0.0015552614
0.0040383977 0.0036257966 0.32635215 2.930532e-07 0.029027183 0.004248016 0.0072779013 2.4221805e-07
0.016908687 1.4938716e-07 0.35254386 0.0038178645 0.004937894 0.38414156 0.0101322215 0.005596363

base.1.conv.3.weight f4 [64, 64, 1, 1]
00000000: 0000 0080 0000 0000 0000 0000 0000 0080
00000010: 0000 0080 0000 0000 0000 0080 0000 0000
00000020: 0000 0080 0000 0080 0000 0080 0000 0080
00000030: 0000 0080 0000 0000 0000 0000 0000 0080
00000040: 0000 0080 0000 0000 0000 0080 0000 0080
00000050: 0000 0080 0000 0080 0000 0000 0000 0080
00000060: 0000 0080 0000 0080 0000 0000 0000 0000
00000070: 0000 0080 0000 0080 0000 0080 0000 0080
00000080: 0000 0080 0000 0080 0000 0080 0000 0000
00000090: 0000 0080 0000 0000 0000 0080 0000 0080
000000a0: 0000 0080 0000 0080 0000 0000 0000 0080
000000b0: 0000 0000 0000 0000 0000 0080 0000 0080
000000c0: 0000 0080 0000 0000 0000 0000 0000 0080
000000d0: 0000 0080 0000 0080 0000 0000 0000 0000
000000e0: 0000 0080 0000 0000 0000 0080 0000 0080
000000f0: 0000 0080 0000 0080 0000 0080 0000 0080
00000100: 0000 0000 0000 0080 0000 0000 0000 0080
00000110: 0000 0000 0000 0080 0000 0000 0000 0080
00000120: 0000 0000 0000 0080 0000 0080 0000 0000
00000130: 0000 0080 0000 0080 0000 0080 0000 0080
00000140: 0000 0080 0000 0080 0000 0000 0000 0000
00000150: 0000 0000 0000 0080 0000 0080 0000 0000
00000160: 0000 0000 0000 0000 0000 0080 0000 0000
00000170: 0000 0000 0000 0000 0000 0000 0000 0000
00000180: 0000 0000 0000 0000 0000 0080 0000 0080
00000190: 0000 0000 0000 0080 0000 0000 0000 0000
000001a0: 0000 0080 0000 0080 0000 0080 0000 0080
000001b0: 0000 0080 0000 0000 0000 0000 0000 0000
000001c0: 0000 0080 0000 0080 0000 0080 0000 0080
000001d0: 0000 0000 0000 0000 0000 0080 0000 0000
000001e0: 0000 0000 0000 0080 0000 0000 0000 0000
000001f0: 0000 0080 0000 0000 0000 0000 0000 0080
00000200: 0ee9 f6bc 8845 98bb 80b9 673d 1d7e d5bd
00000210: d3a5 d33c 17c8 473d 04d9 afbc 995f f1bd
00000220: 91c6 fcbb ef99 bbbc 8bd4 15bc 3881 c0bd
00000230: f948 fdbb 059c 51bd 1dca 3abd ee32 483c
00000240: 82ab ed3d 34e7 1c3c c654 d4bc eb47 b4bc
00000250: 8731 da3a b60c 3dbd c4c5 2dbd 58c4 1ebd
00000260: 8843 53bc 0a33 fdbc deaa 52bd 47cc 13be
00000270: 3380 bd3c da7a 463d c076 923d ed63 8cbd
00000280: 79ab a9bd 603a 8fbc 3c01 41bd 3482 f1bc
00000290: 6e6f abbb 7c06 41bd e6d5 5dbd 1f8b cd3c
000002a0: 0685 d7bd 9152 b2bd 831b ba3d 5770 09bd
000002b0: ce62 09be 660c 213d 887a be3c 5b86 f1bc
000002c0: af83 15bb 0950 c1bd 11f4 d6bb c9f8 b6bc
000002d0: 6ae1 a1bc 0eed a13d 009e 18bd 76d0 d5bb
000002e0: e2e3 453b 742c eebb 496d ac3d cf07 033d
000002f0: 0c0a be3c 440e 9cbc ca8a 1ebd 0787 07be
00000300: 9eef be3c e480 2ebc 4b5d 4abc 1a41 ffbc
00000310: 734a e9bd 6636 663d c54d 45bd 17e5 b7bd
00000320: 18a2 a63d 3cfd 25bd 282e 95bd e388 01be
00000330: 4619 03bd bc2d 7abd ca86 813c 286d 263d
00000340: 22f4 723d 9389 0a3e 00d1 6fbe 8950 67be
00000350: 0295 e43c d3c5 1abe 9cb7 113d 1b50 793d
00000360: d49b 87bb 6c95 05be ebf3 38bd 11e3 febd
00000370: 624c 58bd 244d 61bd b3be 36bd 43ef f6bd
00000380: 2fbd 9bbe 0dce 06bc 9fba d5bd a930 483b
00000390: 7f22 c4bd f0c5 bcbc f4ad ccbe bb52 cbbe
000003a0: 3078 3fbe 588b d5bd e5b9 43be 1e09 95be
000003b0: 0639 c03c cd09 b13b a137 23bd 14a2 33bc
000003c0: 36f3 dd3d 7cdc 2d3e 6241 1ebd 90f1 063d
000003d0: 1361 1fbe a9a7 c83d 0f12 43bd f2cd 28bc
000003e0: 2848 42be c616 18bd e909 3dbe b462 09be
000003f0: 45f3 cbbd 981d 0bbe 0c02 f5bd f050 61be
-0.0 0.0 0.0 -0.0 -0.0 0.0 -0.0 0.0
-0.0 -0.0 -0.0 -0.0 -0.0 0.0 0.0 -0.0
-0.0 0.0 -0.0 -0.0 -0.0 -0.0 0.0 -0.0
-0.0 -0.0 0.0 0.0 -0.0 -0.0 -0.0 -0.0
-0.0 -0.0 -0.0 0.0 -0.0 0.0 -0.0 -0.0
-0.0 -0.0 0.0 -0.0 0.0 0.0 -0.0 -0.0
-0.0 0.0 0.0 -0.0 -0.0 -0.0 0.0 0.0
-0.0 0.0 -0.0 -0.0 -0.0 -0.0 -0.0 -0.0
0.0 -0.0 0.0 -0.0 0.0 -0.0 0.0 -0.0
0.0 -0.0 -0.0 0.0 -0.0 -0.0 -0.0 -0.0
-0.0 -0.0 0.0 0.0 0.0 -0.0 -0.0 0.0
0.0 0.0 -0.0 0.0 0.0 0.0 0.0 0.0
0.0 0.0 -0.0 -0.0 0.0 -0.0 0.0 0.0
-0.0 -0.0 -0.0 -0.0 -0.0 0.0 0.0 0.0
-0.0 -0.0 -0.0 -0.0 0.0 0.0 -0.0 0.0
0.0 -0.0 0.0 0.0 -0.0 0.0 0.0 -0.0
-0.030140426 -0.0046469606 0.05657339 -0.10424445 0.025835907 0.048774805 -0.021465786 -0.11785812
-0.0077141006 -0.02290055 -0.0091449125 -0.093996465 -0.0077296463 -0.051174182 -0.045602906 0.012219174
0.11604978 0.0095766075 -0.02591933 -0.02200695 0.001664684 -0.0461547 -0.042424932 -0.038761467
-0.012894519 -0.030908126 -0.051432483 -0.14433394 0.02313242 0.048457004 0.07151556 -0.06854997
-0.08284659 -0.01748389 -0.047120318 -0.029481031 -0.0052317893 -0.047125325 -0.054159068 0.025090752
-0.10523419 -0.087071545 0.09087279 -0.0335544 -0.13416597 0.039318465 0.023251787 -0.029483011
-0.0022814085 -0.094390936 -0.0065598567 -0.022335427 -0.019760806 0.07906543 -0.037260056 -0.0065250946
0.0030195643 -0.007268483 0.08419282 0.03198987 0.02319815 -0.019049771 -0.03870658 -0.13235103
0.023307618 -0.010650847 -0.012351344 -0.031158973 -0.11391153 0.056204222 -0.04816987 -0.08979242
0.08136386 -0.040524706 -0.07284194 -0.12649874 -0.032006525 -0.061078772 0.015811343 0.040631443
0.059314854 0.13529043 -0.23419571 -0.22589315 0.027903084 -0.15114526 0.035575494 0.06086741
-0.004138449 -0.13045281 -0.045154493 -0.12445653 -0.05280722 -0.055005208 -0.04461546 -0.12057354
-0.30417773 -0.008227837 -0.10435986 0.0030546582 -0.09576892 -0.023043603 -0.39976466 -0.39711556
-0.18698192 -0.10426968 -0.19113882 -0.29108518 0.02346469 0.0054027797 -0.039847974 -0.010963935
0.108374044 0.1697864 -0.038636573 0.032945216 -0.15564375 0.09797604 -0.047624644 -0.010303007
-0.18972838 -0.037131093 -0.18460812 -0.13416559 -0.09958509 -0.13585508 -0.11963281 -0.22003531

base.1.conv.4.weight f4 [64]
00000000: 7fd2 4a28 9591 973b b168 a43e 1e37 753f
00000010: b3d1 d03e 4925 f23e 44ba e6b8 ef21 393f
00000020: f049 f63e 94c2 b93e aa2e af3e ec3e 013f
00000030: 212d 153f e212 1a3f a676 023f b84a ca3e
00000040: 46a8 fd3e e67c f53e 4a7a de3e 3e57 ba3e
00000050: 9250 653d f79f 853e 2203 a13e cba9 2e3f
00000060: 17b7 993e 1e45 143f e23c d83e 21a1 143f
00000070: 2306 cb3e 0998 0e3f 33a6 b23e 350f 3b3f
00000080: 3391 043f 8a34 fe3e 9523 ca3e bca1 37b8
00000090: 33d6 9d3e 4d88 a5b5 491a 9e3e 1ee1 053f
000000a0: f647 2e3f 7c09 e63e 247c 9f3e 939e f83e
000000b0: bd10 8b3e 2cae 3a3f 6bd8 a93e 5965 bb3e
000000c0: d4c6 ef3e 25e8 203f e960 fb3e a8bf 9c3e
000000d0: b4f2 233d c285 673d 0c20 c13e aa56 823e
000000e0: 2305 a03e 4005 aa3e 6a21 a63d 452e 923e
000000f0: 66b4 dcac d7ab 5d3e 4f89 f93e c0d4 203f
1.1258897e-14 0.004625509 0.32111123 0.9578723 0.40784988 0.4729407 -0.00011001949 0.72317404
0.48103285 0.36281264 0.3421529 0.50486636 0.58271986 0.6018506 0.50962293 0.3951013
0.49542445 0.47946852 0.43452674 0.36394686 0.05598504 0.26098606 0.31447703 0.68227834
0.300225 0.57917964 0.4223395 0.58058363 0.3965312 0.5570074 0.34892425 0.7307008
0.51784056 0.4964946 0.39480272 -4.3781227e-05 0.30827484 -1.2333127e-06 0.3087943 0.52296627
0.68078554 0.4492911 0.311494 0.48558483 0.27161208 0.72922015 0.33172926 0.3660076
0.4683138 0.62854224 0.49097374 0.30614972 0.04002638 0.056524046 0.37719762 0.25456744
0.3125392 0.3320713 0.08111842 0.28550926 -6.2728043e-12 0.21647583 0.4873757 0.6282463

base.1.conv.4.bias f4 [64]
00000000: 9463 ca3d 9167 2cbd 0e9b 16be 4938 c73e
00000010: 5a32 2dbe a529 b3bd 0218 a2bd 8db3 20bd
00000020: 7e76 a0bd e886 2abe a2f0 1abd f867 adbd
00000030: fa5c 963d 9c27 663c d00c 873d 0fd0 cebc
00000040: df51 623d 8c02 86bd 524a 153d f5b7 483d
00000050: cd54 9e3d b842 663d 97ff 863d c837 6b3e
00000060: 8aa4 a4bd eb7c 573d 184d 78bd b124 1c3d
00000070: 3f8f e13d 436d 003e 4ff4 25bb 0645 ee3d
00000080: 1b65 9d3d e2bd e3bd 21f1 163d 450e d53d
00000090: 0826 a6bd f683 96bd 1495 103d d852 1cbd
000000a0: 46f2 19bc a90c 63be 049d e53c a3e4 20bd
000000b0: 0365 8c3d 7db8 dabd e11a 293d cb29 393d
000000c0: 84a4 77bd 4e37 9d3d fc13 81bd 91e1 09be
000000d0: 8dd9 29bd 9dd2 e03c e47d 6cbd f545 9d3a
000000e0: 96de e9bd bc44 a93d 3ce6 90bd 9518 103d
000000f0: 949e 71bd a949 1bbd 7aaf adbd dd07 54be
0.09882274 -0.042090956 -0.14707586 0.3891013 -0.16913739 -0.087481774 -0.079147354 -0.039233733
-0.078351006 -0.16653025 -0.03782714 -0.08467096 0.073419526 0.01404753 0.06594241 -0.025245694
0.05525386 -0.065434545 0.03644783 0.04900356 0.07731018 0.05621597 0.06591719 0.22970498
-0.08039196 0.052609365 -0.060620397 0.03812093 0.1101365 0.1254168 -0.0025322621 0.11634259
0.076853 -0.11120202 0.036851052 0.10403112 -0.08112723 -0.07349388 0.035298422 -0.038164943
-0.009396141 -0.22172798 0.028028972 -0.039280545 0.06855204 -0.106797196 0.0412854 0.045205873
-0.06045963 0.07676564 -0.0630264 -0.13464953 -0.04146724 0.027444178 -0.057737246 0.0011998998
-0.11419408 0.08265063 -0.07075164 0.035179693 -0.058989123 -0.037912045 -0.08480735 -0.20706125

base.1.conv.4.running_mean f4 [64]
00000000: c427 56aa cb68 503b 253a 4ebe 97e0 0ebf
00000010: 65fd b73b 1780 02bf 9f8f a1b9 9c7d 80be
00000020: 86bd 913e 5c3c 64bd 9038 0dbc 1746 583e
00000030: ecc5 843e d0fc 41be dcf5 bc3d b305 c33e
00000040: 2674 1cbe 7cb0 903d 0774 ef3e 20f3 0f3e
00000050: 583c 503c f7a7 9cbc 7e66 edbd a4b0 55bd
00000060: 3203 023e 11f6 803e ba1a c13d cbe4 adbc
00000070: c588 88bb b577 9f3e ea75 e2bd be69 b33e
00000080: 0ac4 f13d f659 dbbd 5bf4 ae3d 7469 31b8
00000090: ecc5 95bd 4f53 3837 fdc3 963d f5f0 9bbe
000000a0: ea75 d6be 9641 c7be 3523 c4bd d398 09bf
000000b0: 9d89 c2bd 37cf 94bd c46e 52be 27bf 89be
000000c0: 31dc ccbd c291 4e3e efb8 e0bd c287 ffba
000000d0: 4332 9c3b 3100 9c3c 9136 c5be e46b 79be
000000e0: 0f31 28be f663 653e 5ef2 bc3b 457c 413c
000000f0: 3b09 cbac 79a6 053c 1c1d 823e d5ea 93be
-1.9020815e-13 0.0031800743 -0.20139368 -0.55811447 0.005614924 -0.509767 -0.0003081532 -0.25095832
0.28464907 -0.055721626 -0.008619443 0.21120487 0.25932252 -0.18944097 0.092265815 0.38090286
-0.15278682 0.07064912 0.4676821 0.14057589 0.0127097 -0.01912306 -0.115918145 -0.05217041
0.12696531 0.25187734 0.09428926 -0.021227261 -0.004166695 0.31146017 -0.110576466 0.35041612
0.118049696 -0.10710518 0.08542701 -4.22983e-05 -0.07313141 1.0986651e-05 0.073616005 -0.30457273
-0.41886836 -0.38917226 -0.09577028 -0.53748816 -0.09498904 -0.072660856 -0.20550066 -0.2690365
-0.10002936 0.2017279 -0.10972773 -0.0019495415 0.004766734 0.01904306 -0.38518193 -0.24357563
-0.16424964 0.22401413 0.005766197 0.011809413 -5.770632e-12 0.008157366 0.25412834 -0.288901

base.1.conv.4.running_var f4 [64]
00000000: e4ff a915 59fe 8a38 5814 a83c afab ad3e
00000010: fb5f 7e3c d8f3 263e 8cd6 9c36 8615 dc3e
00000020: a199 2d3d eb82 683d e317 f23c 2aaf bf3c
00000030: 5dcf 913c 182f 673e b6b9 133d 5b1e c33c
00000040: be2c 643d fa28 163d 5e98 063e b590 523d
00000050: 5a57 db39 b576 783c 95ab 073d c333 193d
00000060: 5e4a 823c 200e a63e 2cbb a23c fdba d33c
00000070: 1bfa 4a3d 94c3 a63d bbdb c13c e7fb 253f
00000080: 8654 ec3d 0cdc cc3d ada6 383c 3e8b 3b33
00000090: 8c59 963c c5e6 6b2f 8b4c a53b 8a88 a33d
000000a0: bef8 0c3f 74a2 173e 9f11 cd3b 51b3 413e
000000b0: 50c0 b83b 879e 363e a6cd 6f3d 91c2 e23b
000000c0: af75 a63c 4220 153e 9126 fb3d 7b93 af3b
000000d0: 5760 8239 31e8 e339 3ad6 873c b780 dd3c
000000e0: a204 ba3b 93f6 cd3c d6c1 f239 75df e63a
000000f0: 4dbd 471c 3e47 a03a 4efb 063e 0b6a b73d
6.866228e-26 6.627729e-05 0.020517513 0.33920047 0.015525813 0.16303957 4.674139e-06 0.4298517
0.04238284 0.056765478 0.029552406 0.023398954 0.017799074 0.22576559 0.03606578 0.023818186
0.055706732 0.036660172 0.13144061 0.051407535 0.00041836017 0.015165021 0.033122618 0.03740288
0.015904602 0.32432652 0.019864641 0.025845999 0.049554925 0.08142772 0.023664346 0.648375
0.11539559 0.10002908 0.011270207 4.366597e-08 0.018353246 2.1455111e-10 0.005044525 0.07985027
0.5506705 0.14808065 0.006258204 0.1891606 0.00563816 0.17833911 0.05854573 0.006920167
0.020319788 0.14563087 0.12263215 0.005358157 0.0002486731 0.0004346981 0.016581643 0.027038915
0.005676822 0.02514199 0.00046302256 0.0017614203 6.608824e-22 0.0012228263 0.13181803 0.08955773

base.2.conv.0.weight f4 [128, 64, 1, 1]
00000000: 9fee 0abe 60d4 4fbe 2acf 37be 3bf5 803d
00000010: 3525 853d b4b3 a438 0765 40bd 5dcf 083e
00000020: eb80 aa3d 9936 abbc e05c 62bd d5a0 b5bd
00000030: d033 54bd 8752 043d 1a44 053d 01d6 82bd
00000040: 926c f23c 11d5 57be f38e a33c 499a cb3d
00000050: ca65 64bd 6af6 e4bc b62a ae3d 587f 11bc
00000060: e886 edbd c4f5 86bd 3a37 31bd 76b6 3abe
00000070: 5e96 a6bd 86c1 15bd 6895 d03d 6113 773d
00000080: f944 f53d 7ded 2c3d 2622 01bd 324b dabd
00000090: 9102 553b 712b 2abd 62f7 57bd 93ab 073e
000000a0: 3a78 7bbd 55a8 1cbd 7b60 d8bc d310 393c
000000b0: 7b86 473d 41aa 2abe 389c 5dbd 9701 28bc
000000c0: c6e2 fd3c 2a10 0cbd aabf 14bd 9895 37bd
000000d0: adfb d93d 20de 1dbe 4fe2 623d 5c98 8d3e
000000e0: 2389 07be 828b e1bd 4d67 88bd a9c5 963d
000000f0: f562 183d b116 36bd cdfb 113c 7e31 e93d
00000100: 5e50 db3c 80ac 94bc 4407 fa3c 6391 ad3c
00000110: d31e bebd c255 343c d8f9 013d 5a2d d23c
00000120: 16b1 623c 7ff7 0d3d d042 20bd 4fdf 9e3c
00000130: de01 1cba a3dc 2d3d 44e5 693d 9367 893b
00000140: 6cc7 043d 294e 48bc 062a ccbb bbe8 9c3d
00000150: 678e 103d c11f 4a3d f6a9 8dbc 8224 00bd
00000160: 9dc5 bc3d 506a 223d 2c62 433b 4341 6e3d
00000170: 8816 1cbc 9e87 0a3d f500 dd3c 887e 94bd
00000180: 4e9b 74bd 4253 3bbd ed98 133c 4ab8 0ebb
00000190: c2f5 b33a d525 8bbd 9aed 203d ce8e 883b
000001a0: 6d85 643d 162d 8a3d acec 1d3c 8059 28b9
000001b0: cdd9 2bbc 2d6e 67bc 6146 01bc 72d3 313c
000001c0: eff5 553d 992d d9bd 59a0 58bc d3f2 39bd
000001d0: 8c27 07bc 091d 4f39 b374 34bd a43f 563c
000001e0: bb0b cb3c 7846 443d cd11 e93b 6b46 033d
000001f0: 86c7 80bd e635 983b 4549 0bbd 0c70 25bc
00000200: b0be 633c d88e f4bd 5dea 0e3c 98d8 75bd
00000210: de2e 5b3e ede2 e6bd 0c1f b9bc acf3 b0bc
00000220: 1c84 463d cc73 5a3e 136f 043e aff4 b43c
00000230: 596e 743d bd2c f33c 0f9d 0abe 10cf 3a3d
00000240: 37dc 20be c656 0f3e 6db4 573c ad12 11bd
00000250: 9753 a1be 11b2 a0bd 872e 953d 1802 043e
00000260: 70a8 50be 0da8 e13d 8733 8bbd 2f68 04be
00000270: 20e1 abbc f4ab 7cbd ad8f 23be 4a4a df3d
00000280: c2bc fc3c 2e5b 333e 523e 97bd 52a1 b8bc
00000290: bea0 f1bd b879 8f3e f527 31be 777c 14be
000002a0: 5509 cebb 5b57 15bc 1368 853d d580 543b
000002b0: f640 39bd 05b8 0c3e 44da 723c b190 073d
000002c0: a81d 06be 9e5d 373d 5ba1 34bd 9f36 653d
000002d0: 06a6 6dbc 02a1 243e 09b6 2f3e 1d4c 15bd
000002e0: ded7 42be ed7e 01bc 49b4 9bbb 94a3 bebd
000002f0: 19f1 173e e6d0 43bd 0cca 2f3d 6340 ffbd
00000300: 64bc b339 f645 8cba a04c db3a d483 d2b9
00000310: 437a 6a39 9005 17bb bf15 8bba ed1e 07bb
00000320: 47b4 42ba 57cf aa3a 2c9b e1b9 118d 8739
00000330: 1b42 cb3a 6a04 85ba 22d1 f73a 1fae 0138
00000340: 0da5 35ba b176 d639 dd98 2a3a 0910 2fba
00000350: 901c 8aba f000 fdb9 76e8 713a f6dc 223a
00000360: 08a3 e5ba a61f af39 80c2 4db9 dfad 48ba
00000370: f2a1 5fba 446d 5dba 5f48 093b d4a2 b83a
00000380: 9e07 9eb9 59d7 a83a 43fc 7bb8 c244 d9b9
00000390: b2b9 0eb8 b8f0 c93a fb43 4bbb f682 d5ba
000003a0: 74f4 92b9 1960 d5ba c7cf c838 54ff d0ba
000003b0: 8539 36ba 3a83 873a 6678 a5b7 557e e5ba
000003c0: 9279 b8ba 7757 c93a 49aa 8fba ae64 08ba
000003d0: c842 32ba 9b0d 4039 13e2 803a 5163 ae3a
000003e0: ce11 6aba ab9c 3fb9 f209 31ba bf10 afb9
000003f0: fea4 a83a f650 94b9 1741 703a fb41 baba
-0.13567589 -0.20295858 -0.1795012 0.06296774 0.06501237 7.853602e-05 -0.046971347 0.13360353
0.083253704 -0.020900058 -0.055264354 -0.08868567 -0.051807225 0.032305267 0.03253565 -0.06388474
0.029592786 -0.21077372 0.019965624 0.09941537 -0.055761136 -0.02794953 0.0850424 -0.008880459
-0.11597997 -0.06589845 -0.04326556 -0.18233666 -0.08134149 -0.03656151 0.10184747 0.060321216
0.11976046 0.042218674 -0.031526707 -0.106588736 0.003250275 -0.041545335 -0.052726157 0.13249044
-0.061393954 -0.03824647 -0.026413193 0.011295515 0.048712235 -0.16666509 -0.05410406 -0.010254285
0.030991923 -0.034195103 -0.036315598 -0.044820398 0.106437065 -0.15416765 0.055391606 0.27655303
-0.13235907 -0.11012937 -0.06660328 0.073619194 0.037203748 -0.044455234 0.008910132 0.11386393
0.02677172 -0.01814866 0.030521043 0.02118749 -0.09283223 0.011006774 0.03173241 0.025656391
0.013836166 0.03465986 -0.039126217 0.019393591 -0.0005951206 0.042446744 0.05710341 0.004193255
0.032416746 -0.012225666 -0.0062305955 0.07661577 0.035292055 0.04934669 -0.017292958 -0.031284817
0.09217379 0.03965217 0.0029813154 0.058167707 -0.009526856 0.03382074 0.026977995 -0.072506964
-0.059718423 -0.045733698 0.009008628 -0.0021777325 0.0013729858 -0.06794325 0.039289095 0.0041674143
0.055791307 0.06746881 0.0096389465 -0.0001605507 -0.0104889395 -0.014125389 -0.007890315 0.010853635
0.052236494 -0.106044 -0.013221824 -0.04539759 -0.008249175 0.00019751875 -0.044056606 0.013076697
0.024785867 0.047918767 0.0071127177 0.032049578 -0.06288056 0.004645097 -0.034005422 -0.010097515
0.013900444 -0.11941308 0.008722869 -0.060021013 0.21404597 -0.112737514 -0.022597812 -0.021600567
0.048465833 0.21333236 0.12932996 0.02208933 0.05967555 0.029684419 -0.13536476 0.045607626
-0.15709005 0.13997945 0.013165575 -0.0354182 -0.31509086 -0.078464635 0.07284265 0.12891424
-0.20376754 0.11018381 -0.067969374 -0.12930368 -0.020981371 -0.061687425 -0.15972777 0.109028414
0.030851725 0.17515251 -0.073849335 -0.022537861 -0.11798237 0.28022552 -0.17300399 -0.14500605
-0.0062877336 -0.009115065 0.06513991 0.0032425423 -0.045227967 0.13742073 0.014822546 0.033096973
-0.1309725 0.044767015 -0.044099193 0.055960294 -0.014504915 0.16077045 0.17159285 -0.03644954
-0.1902766 -0.007903797 -0.0047517163 -0.09308544 0.14838065 -0.047806643 0.042917296 -0.12463453
0.00034281902 -0.0010702002 0.001673121 -0.0004015254 0.00022361525 -0.0023044087 -0.0010611339 -0.0020617798
-0.0007427376 0.0013031763 -0.00043030956 0.0002585431 0.0015507372 -0.001014841 0.0018906931 3.091816e-05
-0.00069291965 0.00040905693 0.0006507764 -0.00066781096 -0.0010537077 -0.0004825662 0.000922806 0.00062127353
-0.00175199 0.0003340218 -0.0001962278 -0.00076553033 -0.00085309066 -0.0008446763 0.0020947678 0.0014086613
-0.00030141784 0.0012881561 -6.0078e-05 -0.00041440694 -3.402838e-05 0.0015406823 -0.0031015861 -0.001628964
-0.00028029422 -0.001627925 9.575445e-05 -0.0015945234 -0.000695132 0.0010338791 -1.9725598e-05 -0.0017508963
-0.0014074317 0.001536115 -0.0010960783 -0.0005202991 -0.00068001123 0.00018315615 0.0009833 0.0013304745
-0.00089290447 -0.00018273543 -0.0006753496 -0.00033391078 0.0012866554 -0.0002828908 0.00091649726 -0.0014210338

base.2.conv.1.weight f4 [128]
00000000: 39e7 2d3f 68e6 883e 76f4 453f 8426 533e
00000010: 1982 143f b27a 2b3e fa8e 073f d44a 3d3e
00000020: a1b6 4c3f fe75 5a3e a128 4c3e d6c8 3a3f
00000030: 5ce4 113f 9436 903f 132e 6a3e f9f3 a63e
00000040: c834 0c3f 2615 0b3f 10f7 dc3e b287 423e
00000050: f029 433f bee7 ae3e 1951 fc3e 9722 5c3e
00000060: 3c8f 233f 8938 323e 0358 8e3f 6c85 113f
00000070: d628 103f 5275 c33e c375 f23e 3d19 3b3f
00000080: 9d3c 183f 0362 5a3f b4c2 fb3e 92c0 393f
00000090: 06eb 0b3f e164 3f3e 86ef 4c3e eb4c 223f
000000a0: 23e8 803f 45f7 5a3f d475 8c3f 62fc 313f
000000b0: a8aa 673f ce6b 333f 688b 943f d14a 243f
000000c0: de6c 9a3e 6451 a83e 6789 4c3e 8991 4c3e
000000d0: b42f d23e 8b4d 143f 1b96 833f c8eb fa3e
000000e0: 9a9f 173f b5ac ff3e 1e71 de3e 1f82 663f
000000f0: 9145 603f d36b 363f 01b4 5a3f 2444 df3e
00000100: edaf 1b3f 35b0 3e3e 2115 493f bf5b 8f3e
00000110: 7d53 033f 9e52 753f 4149 013f 486a 043f
00000120: 4925 1b3f a312 143f 4b74 823e 020d 143f
00000130: 7b89 fd3e cf75 433e cc28 5b3e d84f 533f
00000140: 503a 493f b8fb 733e b552 af3e 4bc1 833f
00000150: c09c 273e 0462 603f aa28 5f3f 2456 263f
00000160: 3f35 003f 3061 2d3e 59f2 323f 3da9 053f
00000170: 0718 9e3f 442a 353e 9e72 ba3e 6745 d63e
00000180: 34d8 6a3f 93d7 253f b851 c93e 0392 193f
00000190: 0ba5 793f c1c8 413f 10ad 663e 2fa3 513f
000001a0: 781d 943e 83d4 113f 3d90 543f 5c10 753f
000001b0: 0335 2f3f ddc5 173f be2d f33e 9493 723e
000001c0: 0247 243f a470 103f d327 ff3e a605 ff3e
000001d0: 4377 963e 62cc 063f 9a7b 253f 3af1 363f
000001e0: 3288 053f 0af5 ba3e 2bdf 313f 6f74 253f
000001f0: e5ed 223e b3d8 623f 4bd4 433e 0c3c 343e
0.6793094 0.26738286 0.7732614 0.20620161 0.58011013 0.16746023 0.5295254 0.18485576
0.7996617 0.21334073 0.19937374 0.729627 0.56989074 1.1266656 0.22869138 0.3260801
0.5476804 0.54329145 0.43157244 0.18997076 0.76235867 0.3416118 0.49280623 0.2149757
0.63890433 0.17404379 1.1120609 0.5684421 0.5631231 0.38175446 0.4735547 0.73085386
0.5946749 0.85305804 0.49171984 0.72559464 0.5465549 0.18690826 0.20013246 0.6339862
1.0070843 0.85533553 1.0973458 0.6952573 0.90494776 0.7008637 1.1605043 0.6417666
0.30161184 0.32874596 0.1997429 0.19977392 0.4105202 0.5793082 1.0280184 0.49008012
0.5922791 0.49936453 0.43445677 0.900423 0.8760615 0.71258277 0.85430914 0.43606675
0.60815316 0.18621905 0.78547865 0.27999684 0.5129927 0.9582919 0.505024 0.5172467
0.6060377 0.5784094 0.2547935 0.5783235 0.49518952 0.19087909 0.21402282 0.82543707
0.786046 0.23826492 0.34242788 1.0293363 0.16368389 0.8764956 0.87171423 0.6497519
0.5008125 0.16931605 0.69901043 0.5221136 1.2351083 0.17691904 0.3641557 0.41849825
0.9173615 0.64782065 0.3932016 0.5998842 0.9751746 0.7569695 0.22526956 0.81889623
0.28928733 0.5696489 0.8303259 0.9572809 0.68440264 0.5928629 0.47495836 0.23689109
0.6417085 0.56421876 0.4983507 0.49808997 0.29387864 0.52655613 0.64641726 0.7146183
0.5216094 0.36515075 0.6948115 0.6463079 0.15911062 0.88611907 0.19123952 0.17601031

base.2.conv.1.bias f4 [128]
00000000: 179a 8c3b c425 703c 1629 c83d 105a 133d
00000010: c190 89be 9d33 c1bb 5afb 803d ad04 933b
00000020: 133a 93bd 1838 233d 2be3 253d 6e9c 50be
00000030: 80fc 9a3d 29d9 66be 62a1 413d da86 9e3c
00000040: f33d 28be ca88 9d3e d2ab d1bd 2b36 243c
00000050: e74e 42be 91c6 873d e529 6dbe a3f7 113d
00000060: 0c7b 81bd 108c 4e3a 0c45 133e 7ef9 183e
00000070: 6bc0 41bd 836c 7fbc d28d e9bd 295d c8bc
00000080: 4b24 10be 1d42 973d b059 3fbc b3d8 98bd
00000090: 3e81 71be cd83 9c3c 8014 943c 983d 9abd
000000a0: f6b1 c3bd 4ce3 bb3d 996e bdbe 5656 8ebe
000000b0: bf50 c2be e65c b9bd e4d2 b0bc a6d4 b1bd
000000c0: 101a 44bd 0374 113c 6d45 86bb 98e3 4e3d
000000d0: 21ca 26bd 248d 03be fd63 00bd 7f26 b43d
000000e0: 02fc a13d 163b 30be 3e6c 1dbd 9547 5f3c
000000f0: e53c 1a3d 3488 bebd 9ac6 32be 6563 1bbe
00000100: 8c67 e9bc e63a ba3c 3681 0bbe ccf1 503d
00000110: 470e 6ebd 3e22 1cbc 599e 1cbd f165 5a3e
00000120: d61b 583e 0ebb 8e3d f6b8 1f3d bd77 c53c
00000130: 31bb edbd 5190 8a3c 8c9a b23c f96e 5fbd
00000140: ba5d f63e bd06 af3d f636 5b3e de3d 35be
00000150: f2d6 183d 491f 4fbd eba1 6c3d f52a 12bc
00000160: 1a66 bdbc b603 933b d89f 093e b809 ffbd
00000170: f20b e93c 3738 473d 51dc 853a 0473 96bd
00000180: 5150 d33d b7cf 823d 4309 3b3e eef9 38be
00000190: 06d0 c33c 8680 69bd 9a3b 983b 3d08 15be
000001a0: 76eb ba3c cbe9 5bbe ce76 50bd bda4 d03d
000001b0: bc77 673e fdfd 19be 9640 22be 4518 9b3c
000001c0: c8e5 01be 98d1 2abe 087e 7abd c4a7 22bd
000001d0: dcd0 babc 53f1 9ebd 4a88 613e ca1a bb3d
000001e0: 222e 84bd 185e 663d 6620 6ebe aad7 8abd
000001f0: 3acd d73c f519 9dbd e606 0d3d a47b fa3b
0.00429083 0.0146574415 0.097734615 0.035974562 -0.2686825 -0.0058960454 0.062979415 0.0044866414
-0.07188811 0.039848417 0.040499847 -0.20372173 0.07567692 -0.22543778 0.047273047 0.019351412
-0.16429882 0.30768424 -0.1023785 0.01002268 -0.18975411 0.066296704 -0.23160513 0.035636555
-0.063222975 0.00078791473 0.14381808 0.14938924 -0.047302645 -0.015589836 -0.11404003 -0.024458485
-0.14076345 0.07385657 -0.011679098 -0.07463207 -0.23584458 0.019105816 0.018076181 -0.07531279
-0.09555428 0.09174213 -0.36998442 -0.27800244 -0.3795223 -0.09050922 -0.021584935 -0.086831376
-0.047876418 0.008877757 -0.0040976317 0.05051002 -0.04072011 -0.1284681 -0.031345356 0.08796405
0.07909395 -0.1721004 -0.038433306 0.013627906 0.03765573 -0.093033224 -0.17458573 -0.15174635
-0.028491758 0.022733163 -0.13623509 0.051011845 -0.058119085 -0.009529648 -0.03823695 0.2132795
0.21104369 0.069692716 0.038994752 0.024104947 -0.116079696 0.016914519 0.02180221 -0.05454919
0.48118383 0.08546207 0.21407685 -0.17699382 0.037314363 -0.050566945 0.057771605 -0.008921375
-0.023119975 0.0044865264 0.13439882 -0.124530256 0.028448079 0.048637595 0.0010212754 -0.07346156
0.103180535 0.06387275 0.18265252 -0.1806409 0.023902904 -0.057007335 0.004645777 -0.14553924
0.022817355 -0.21475904 -0.05089455 0.10187671 0.22604269 -0.15038295 -0.1584495 0.018932471
-0.12685311 -0.16681516 -0.06115535 -0.039710775 -0.02280467 -0.07760873 0.22024646 0.09135969
-0.06454112 0.05624208 -0.23254547 -0.06779416 0.026342977 -0.076709665 0.034430407 0.0076441336
