Pruned Models/EXTD/FPGM/EXTD30_FPGM.pth (torch, 721847 bytes, 134 tensors)

base.0.0.weight f4 [64, 3, 3, 3]
-0.0 -0.0 -0.0 -0.0 -0.0 -0.0 -0.0 -0.0
-0.0 -0.0 -0.0 -0.0 -0.0 -0.0 -0.0 -0.0
-0.0 -0.0 -0.0 -0.0 -0.0 -0.0 -0.0 -0.0
-0.0 -0.0 -0.0 -0.0 -0.0 -0.0 -0.0 -0.0
-0.0 -0.0 -0.0 -0.0 -0.0 -0.0 -0.0 -0.0
-0.0 -0.0 -0.0 -0.0 -0.0 0.0 0.0 0.0
0.0 0.0 0.0 0.0 0.0 0.0 -0.0 -0.0
-0.0 -0.0 -0.0 -0.0 -0.0 -0.0 -0.0 0.0
0.0 0.0 -0.0 -0.0 -0.0 -0.0 -0.0 -0.0
-0.0 -0.0 -0.0 -0.0 -0.0 -0.0 -0.0 -0.0
-0.0 7.1546526 6.3189454 7.635072 5.740574 6.625942 3.7587125 1.363848
1.5800673 2.8188546 8.34511 7.6019716 9.632336 6.1222115 6.904373 4.303651
1.1161952 1.0149012 1.5675352 8.46452 7.3035364 9.90104 6.274408 6.4632707
3.9655237 2.082501 1.0561534 1.3529717 -6.531456 -5.1576824 -5.609509 -8.179115
-7.175791 -7.637557 -8.157081 -7.4916134 -8.206004 -10.812556 -9.534526 -8.979871
-12.397092 -11.508781 -10.930515 -12.474003 -11.947507 -11.596171 -9.576126 -8.398577
-7.5488763 -11.349199 -10.348053 -9.704052 -11.518988 -10.848035 -10.439694 -13.376088
-16.83807 -21.763245 -6.4878435 -17.766148 -23.218094 -5.7141614 -19.190996 -27.119236
-14.849278 -18.635824 -25.409996 -2.4220471 -15.463455 -20.10028 0.25517794 -16.024261
-23.290457 -12.379679 -16.527716 -23.952217 2.511381 -10.033898 -14.113517 5.6528177
-10.264795 -16.15831 0.0 0.0 0.0 0.0 0.0 0.0
0.0 0.0 0.0 -0.0 0.0 0.0 -0.0 0.0
0.0 -0.0 0.0 0.0 -0.0 -0.0 0.0 -0.0
-0.0 0.0 -0.0 -0.0 0.0 17.165913 -2.24388 -10.0929575
-2.010835 -23.867897 -28.844955 -39.245914 -54.79063 -50.27363 25.86982 7.2875934
-0.8990309 17.285156 -2.5873141 -8.820023 -9.710003 -23.55492 -21.172812 30.29083
16.58639 13.229343 23.558697 9.492754 6.7109213 -5.6401076 -14.243393 -10.440418
-0.0 -0.0 -0.0 -0.0 -0.0 -0.0 -0.0 -0.0
-0.0 -0.0 -0.0 -0.0 -0.0 -0.0 -0.0 -0.0
-0.0 -0.0 -0.0 -0.0 -0.0 -0.0 -0.0 -0.0
-0.0 -0.0 -0.0 0.0 0.0 0.0 0.0 -0.0
0.0 0.0 -0.0 0.0 0.0 0.0 0.0 0.0
00000000: 0000 0080 0000 0080 0000 0080 0000 0080
00000010: 0000 0080 0000 0080 0000 0080 0000 0080
00000020: 0000 0080 0000 0080 0000 0080 0000 0080
00000030: 0000 0080 0000 0080 0000 0080 0000 0080
00000040: 0000 0080 0000 0080 0000 0080 0000 0080
00000050: 0000 0080 0000 0080 0000 0080 0000 0080
00000060: 0000 0080 0000 0080 0000 0080 0000 0080
00000070: 0000 0080 0000 0080 0000 0080 0000 0080
00000080: 0000 0080 0000 0080 0000 0080 0000 0080
00000090: 0000 0080 0000 0080 0000 0080 0000 0080
000000a0: 0000 0080 0000 0080 0000 0080 0000 0080
000000b0: 0000 0080 0000 0000 0000 0000 0000 0000
000000c0: 0000 0000 0000 0000 0000 0000 0000 0000
000000d0: 0000 0000 0000 0000 0000 0080 0000 0080
000000e0: 0000 0080 0000 0080 0000 0080 0000 0080
000000f0: 0000 0080 0000 0080 0000 0080 0000 0000
00000100: 0000 0000 0000 0000 0000 0080 0000 0080
00000110: 0000 0080 0000 0080 0000 0080 0000 0080
00000120: 0000 0080 0000 0080 0000 0080 0000 0080
00000130: 0000 0080 0000 0080 0000 0080 0000 0080
00000140: 0000 0080 eaf2 e440 cd34 ca40 8352 f440
00000150: c8b2 b740 b807 d440 bf8e 7040 9292 ae3f
00000160: a53f ca3f 1d68 3440 9285 0541 5a43 f340
00000170: 0c1e 1a41 28e9 c340 a0f0 dc40 82b7 8940
00000180: 7cdf 8e3f 48e8 813f fea4 c83f ad6e 0741
00000190: 92b6 e940 a96a 1e41 f3c7 c840 1dd3 ce40
000001a0: 24cb 7d40 b247 0540 0930 873f 2d2e ad3f
000001b0: b001 d1c0 bc0b a5c0 1981 b3c0 a8dd 02c1
000001c0: 14a0 e5c0 de66 f4c0 6783 02c1 4cbb efc0
000001d0: cb4b 03c1 3b00 2dc1 6b8d 18c1 8dad 0fc1
000001e0: 7d5a 46c1 f823 38c1 64e3 2ec1 8495 47c1
000001f0: fd28 3fc1 eb89 39c1 d037 19c1 9260 06c1
00000200: 6590 f1c0 5296 35c1 a091 25c1 cc43 1bc1
00000210: c64d 38c1 8d91 2dc1 fd08 27c1 7504 56c1
00000220: 5eb4 86c1 201b aec1 6a9c cfc0 1221 8ec1
00000230: a8be b9c1 69da b6c0 2987 99c1 32f4 d8c1
00000240: a596 6dc1 2b16 95c1 ac47 cbc1 d202 1bc0
00000250: 506a 77c1 60cd a0c1 afa6 823e b031 80c1
00000260: db52 bac1 2a13 46c1 c338 84c1 249e bfc1
00000270: 77ba 2040 d98a 20c1 f7d0 61c1 e2e3 b440
00000280: 9a3c 24c1 3844 81c1 0000 0000 0000 0000
00000290: 0000 0000 0000 0000 0000 0000 0000 0000
000002a0: 0000 0000 0000 0000 0000 0000 0000 0080
000002b0: 0000 0000 0000 0000 0000 0080 0000 0000
000002c0: 0000 0000 0000 0080 0000 0000 0000 0000
000002d0: 0000 0080 0000 0080 0000 0000 0000 0080
000002e0: 0000 0080 0000 0000 0000 0080 0000 0080
000002f0: 0000 0000 ca53 8941 bb9b 0fc0 c17c 21c1
00000300: 85b1 00c0 74f1 bec1 78c2 e6c1 d1fb 1cc2
00000310: 9b29 5bc2 3218 49c2 64f5 ce41 f733 e940
00000320: e426 66bf 0048 8a41 8e96 25c0 d01e 0dc1
00000330: 2c5c 1bc1 7a70 bcc1 eb61 a9c1 9f53 f241
00000340: edb0 8441 64ab 5341 3678 bc41 52e2 1741
00000350: debf d640 c37b b4c0 f0e4 63c1 f40b 27c1
00000360: 0000 0080 0000 0080 0000 0080 0000 0080
00000370: 0000 0080 0000 0080 0000 0080 0000 0080
00000380: 0000 0080 0000 0080 0000 0080 0000 0080
00000390: 0000 0080 0000 0080 0000 0080 0000 0080
000003a0: 0000 0080 0000 0080 0000 0080 0000 0080
000003b0: 0000 0080 0000 0080 0000 0080 0000 0080
000003c0: 0000 0080 0000 0080 0000 0080 0000 0000
000003d0: 0000 0000 0000 0000 0000 0000 0000 0080
000003e0: 0000 0000 0000 0000 0000 0080 0000 0000
000003f0: 0000 0000 0000 0000 0000 0000 0000 0000

base.0.1.weight f4 [64]
0.002346332 0.0038301523 -0.0002955422 0.14271082 -0.06425087 0.33707854 -0.001723455 0.87237024
0.013305082 0.0051739877 0.32313663 0.58334535 0.0026062552 -0.18028985 0.008873039 0.008766748
0.6328174 0.04380331 0.06784791 0.2542577 -0.0029721134 -0.3051888 0.005025095 -0.031395324
-0.008330107 0.09302095 -0.19008188 0.5421765 0.25459647 0.17516904 0.007363114 0.17670293
-0.35483328 -0.0024104195 0.3732831 0.03604906 0.40135714 -0.0006783556 1.0174596 0.054785628
0.52601135 0.023318952 0.16393457 0.12048745 -0.07629541 0.20604154 0.2530714 0.10367247
0.46860242 -0.037600007 0.27560812 0.0008440718 -0.2413293 0.048603285 0.15945669 0.12863763
0.37280592 0.18793933 0.18167107 0.0042867274 -0.00365535 0.1598715 0.108631656 0.18352821
00000000: ebc4 193b 4b03 7b3b 01f3 9ab9 c922 123e
00000010: f695 83bd 8f95 ac3e 8ee5 e1ba a853 5f3f
00000020: 8ffd 593c 8e8a a93b 2a72 a53e 1f56 153f
00000030: b5cd 2a3b e79d 38be 3960 113c 68a2 0f3c
00000040: 5200 223f 196b 333d d8f3 8a3d 112e 823e
00000050: cac7 42bb b541 9cbe 8da9 a43b 6298 00bd
00000060: 007b 08bc c581 be3d d3a4 42be 14cc 0a3f
00000070: 785a 823e 835f 333e 4746 f13b 9df1 343e
00000080: b5ac b5be 21f8 1dbb f61e bf3e 2ea8 133d
00000090: af7e cd3e acd3 31ba 1e3c 823f e566 603d
000000a0: aea8 063f 6307 bf3c 77de 273e 20c2 f63d
000000b0: c540 9cbd 8efc 523e 9392 813e 3b52 d43d
000000c0: a8ec ef3e 7702 1abd 821c 8d3e b344 5d3a
000000d0: 071f 77be 3d14 473d 9d48 233e 95b9 033e
000000e0: 6be0 be3e 2b73 403e fb07 3a3e ad77 8c3b
000000f0: 998e 6fbb 5bb5 233e 467a de3d d2ee 3b3e

base.0.1.bias f4 [64]
-0.032921042 -0.05699349 -0.061842114 0.81826025 -0.06277051 -0.26887667 -0.028814422 -0.23386239
-0.032555033 -0.0540952 0.023849392 -0.09140779 -0.026369251 -0.37013987 0.03688557 -0.040102758
-0.27806458 -0.12347199 -0.18514642 0.029539753 -0.07548912 -0.3729224 -0.05558748 0.31658894
-0.031271923 0.26129803 -0.20469695 0.5347487 0.105520494 0.08883995 -0.02551001 -0.11380259
-0.17267644 -0.035974566 0.08000989 -0.04957561 0.09644808 -0.04202033 0.052511014 -0.13648033
0.08547355 -0.0826272 -0.17575845 -0.6675581 -0.14891456 -0.3396857 0.0904871 -0.1122506
-0.39614215 -0.099163145 0.027887642 -0.07311527 0.108133815 -0.36655453 0.0666965 0.21151198
-0.060422573 0.3490207 -0.1481362 -0.02705767 -0.03846512 -0.11764062 -0.08558618 -0.54937804
00000000: 37d8 06bd 0172 69bd 284e 7dbd 8179 513f
00000010: d38d 80bd 34aa 89be 390c ecbc 9f79 6fbe
00000020: 6d58 05bd ee92 5dbd cd5f c33c 0234 bbbd
00000030: 5404 d8bc f982 bdbe 5315 173d ca42 24bd
00000040: 7b5e 8ebe e2de fcbd 0697 3dbe 5afd f13c
00000050: 0a9a 9abd afef bebe b3af 63bd f217 a23e
00000060: fd16 00bd dbc8 853e 149c 51be 4ae5 083f
00000070: 211b d83d b8f1 b53d 5efa d0bc 5511 e9bd
00000080: 18d2 30be 115a 13bd 3adc a33d cb0f 4bbd
00000090: 9286 c53d 821d 2cbd ca15 573d 80c1 0bbe
000000a0: c20c af3d 7338 a9bd 06fa 33be 16e5 2abf
000000b0: 0f7d 18be 49eb adbe 4d51 b93d a4e3 e5bd
000000c0: 25d3 cabe 0c16 cbbd a074 e43c 75bd 95bd
000000d0: 4375 dd3d 09ad bbbe 2d98 883d 9996 583e
000000e0: a97d 77bd d7b2 b23e 04b1 17be 0ca8 ddbc
000000f0: 9a8d 1dbd 91ed f0bd cf47 afbd 0aa4 0cbf

base.0.1.running_mean f4 [64]
6e-45 6e-45 6e-45 -1754.693 3230.6553 5335.09 -6e-45 3183.8506
6e-45 -6e-45 -5012.8096 15540.867 -6e-45 -6443.3945 6e-45 -6e-45
115263.35 -2183.2332 11169.132 -55.22679 -6e-45 -1033.1775 -6e-45 1201.2775
-6e-45 -21901.38 -15373.281 48.088947 -1281.3123 -5400.475 6e-45 -11935.532
-1212.4463 -6e-45 -1768.3921 -6e-45 400.121 6e-45 2799.6448 -9971.293
4581.596 1838.8589 -16288.875 759.65356 3177.3667 -5807.437 -1458.8098 -2486.395
6960.214 -14734.119 1124.7645 -6e-45 -9156.319 208.80656 -14732.234 -1268.2747
5140.3027 -255.54633 3695.8013 -6e-45 6e-45 2501.4695 -5635.9287 -77491.5
00000000: 0400 0000 0400 0000 0400 0000 2d56 dbc4
00000010: 7cea 4945 b8b8 a645 0400 0080 9cfd 4645
00000020: 0400 0000 0400 0080 7aa6 9cc5 78d3 7246
00000030: 0400 0080 285b c9c5 0400 0000 0400 0080
00000040: ad1f e147 bb73 08c5 8784 2e46 3ce8 5cc2
00000050: 0400 0080 ae25 81c4 0400 0080 e128 9644
00000060: 0400 0080 c31a abc6 2035 70c6 155b 4042
00000070: fe29 a0c4 cdc3 a8c5 0400 0000 217e 3ac6
00000080: 488e 97c4 0400 0080 8c0c ddc4 0400 0080
00000090: 7d0f c843 0400 0000 51fa 2e45 2ccd 1bc6
000000a0: c52c 8f45 7cdb e544 8083 7ec6 d4e9 3d44
000000b0: de95 4645 7f7b b5c5 ea59 b6c4 5266 1bc5
000000c0: b681 d945 7a38 66c6 7798 8c44 0400 0080
000000d0: 4711 0fc6 7bce 5043 f030 66c6 ca88 9ec4
000000e0: 6ca2 a045 dc8b 7fc3 d2fc 6645 0400 0080
000000f0: 0400 0000 8357 1c45 6e1f b0c5 c059 97c7

base.0.1.running_var f4 [64]
6e-45 6e-45 6e-45 6.2615616e+07 2.16742e+08 5.007915e+08 6e-45 1.2172236e+08
6e-45 6e-45 4.4396256e+08 4.20693e+09 6e-45 1.01529606e+09 6e-45 6e-45
2.523647e+11 1.4758043e+08 2.3093652e+09 8.051431e+06 6e-45 9.929631e+06 6e-45 3.707459e+07
6e-45 8.0012513e+09 4.28663e+09 2.1081498e+07 2.9876982e+07 5.655146e+08 6e-45 2.4722038e+09
2.4616928e+07 6e-45 5.154713e+07 6e-45 1.1952353e+07 6e-45 9.231334e+08 2.2721485e+09
4.528202e+09 6.449624e+07 5.214897e+09 1.069602e+07 1.7103053e+08 5.963042e+08 3.9205696e+07 1.2114068e+08
1.0189309e+09 4.211438e+09 2.6506816e+07 6e-45 1.494661e+09 4.4166695e+06 3.8996104e+09 2.2815928e+07
6.03508e+08 2.5228258e+06 2.9140243e+08 6e-45 6e-45 1.0711725e+08 6.43288e+08 1.1338699e+11
00000000: 0400 0000 0400 0000 0400 0000 10dc 6e4c
00000010: 87b3 4e4d c6cb ee4d 0400 0000 bf2a e84c
00000020: 0400 0000 0400 0000 a6b2 d34d a8c0 7a4f
00000030: 0400 0000 c110 724e 0400 0000 0400 0000
00000040: 6f08 6b52 61be 0c4d 1ea6 094f ceb5 f54a
00000050: 0400 0000 9f83 174b 0400 0000 a86d 0d4c
00000060: 0400 0000 b474 ee4f c880 7f4f cdd6 a04b
00000070: 7bf1 e34b 46d4 064e 0400 0000 d65a 134f
00000080: f0cf bb4b 0400 0000 fea2 444c 0400 0000
00000090: e160 364b 0400 0000 9717 5c4e 3c6e 074f
000000a0: 71f3 864f 9c08 764c 826a 9b4f 5435 234b
000000b0: 801b 234d 852b 0e4e d08e 154c b90e e74c
000000c0: 9bee 724e 7205 7b4f 203b ca4b 0400 0000
000000d0: 6f2d b24e 3bc9 864a 556f 684f 5c12 ae4b
000000e0: 34e3 0f4e 27fb 194a 96f3 8a4d 0400 0000
000000f0: 0400 0000 584f cc4c 2f5f 194e 2133 d351

base.1.conv.0.weight f4 [64, 1, 3, 3]
-0.0 0.0 0.0 0.0 0.0 0.0 0.0 0.0
0.0 -0.0 -0.0 -0.0 0.0 -0.0 -0.0 0.0
0.0 -0.0 0.0 -0.0 -0.0 0.0 0.0 0.0
0.0 0.0 0.0 0.13240165 0.62322307 0.05967029 0.10770359 0.4039098
0.1595717 -0.3796505 -0.8729523 -0.22336666 0.0015439369 -0.017385207 -0.014693446 0.0067796856
-0.014476204 -0.03656636 0.0073038386 -0.03563364 -0.029761242 0.14634016 0.848873 0.09849382
-0.24348594 0.17661317 0.029224882 -0.16078973 -0.7899766 -0.10105112 -0.0 -0.0
-0.0 0.0 0.0 0.0 0.0 0.0 0.0 -0.031311125
-0.5734802 -0.09771159 0.41532832 0.022389172 -0.11162 0.21774663 0.0892572 -0.008930893
0.0 0.0 0.0 0.0 0.0 0.0 0.0 0.0
0.0 -0.0 -0.0 -0.0 -0.0 0.0 -0.0 0.0
0.0 0.0 0.015768351 -0.0416132 0.018489553 0.043060556 -0.0135699045 0.017664727
-7.4838514e-05 0.0006570545 0.08227543 0.08202343 -0.016188521 0.079678036 -0.16141771 -0.0528659
0.06099441 -0.25186968 -0.074906014 0.15338951 0.0 0.0 0.0 0.0
0.0 0.0 0.0 0.0 0.0 -0.03743149 -0.08410128 -0.034866445
0.08625041 0.6074427 -0.371385 -0.06257818 -0.015596015 -0.0946219 -0.036715668 -0.0059444443
0.008422857 -0.028643854 0.009993362 0.023636475 -0.013249729 0.016816448 0.022780782 -0.0
-0.0 -0.0 -0.0 -0.0 -0.0 -0.0 -0.0 -0.0
0.124408044 -0.119186476 -0.0056540472 0.1332473 -0.96040744 0.1237988 -0.12509073 0.9523646
-0.11643112 -0.0 -0.0 -0.0 -0.0 -0.0 -0.0 -0.0
-0.0 -0.0 -0.022689126 0.014551599 -0.07202418 -0.06201794 0.010243027 -0.026982782
0.04945235 0.03157254 -0.09276884 -0.007461723 -0.21060278 0.21918453 -0.090908155 0.78878075
-0.13426876 -0.024673859 -0.10560372 0.0036336016 0.0 0.0 -0.0 0.0
-0.0 -0.0 0.0 0.0 -0.0 -0.0112922955 -0.112403184 -0.05374413
-0.14915885 -0.044776604 -0.031382836 -0.11789093 -0.29184365 -0.2157686 -0.0 -0.0
0.0 -0.0 -0.0 0.0 -0.0 -0.0 0.0 -0.1673799
0.014475844 -0.19348902 -0.05602114 0.16708337 -0.0018239681 -0.06814733 -0.0033268991 -0.11432963
-0.0 -0.0 -0.0 -0.0 -0.0 -0.0 -0.0 -0.0
-0.0 -0.029162912 -0.07770895 0.16179256 0.12551169 -0.3120192 0.12211205 -0.004072283
0.060424943 0.032001503 -0.050280146 0.109176226 -0.073106006 -0.054182343 0.19374521 0.10766809
-0.058642834 0.06677748 -0.048472997 0.20133282 -0.41347876 0.14459755 -0.20446666 0.61877716
-0.15292412 0.032168042 -0.013059276 0.037528217 0.009919591 0.00030732987 -0.019181127 -0.015481432
00000000: 0000 0080 0000 0000 0000 0000 0000 0000
00000010: 0000 0000 0000 0000 0000 0000 0000 0000
00000020: 0000 0000 0000 0080 0000 0080 0000 0080
00000030: 0000 0000 0000 0080 0000 0080 0000 0000
00000040: 0000 0000 0000 0080 0000 0000 0000 0080
00000050: 0000 0080 0000 0000 0000 0000 0000 0000
00000060: 0000 0000 0000 0000 0000 0000 4c94 073e
00000070: 8c8b 1f3f d668 743d b393 dc3d 44cd ce3e
00000080: c466 233e 8d61 c2be cd79 5fbf 3bba 64be
00000090: ed5d ca3a 6c6b 8ebc c8bc 70bc 2028 de3b
000000a0: 9a2d 6dbc 9cc6 15bd 0a55 ef3b 94f4 11bd
000000b0: d9cd f3bc 32da 153e be4f 593f 21b7 c93d
000000c0: 6154 79be 15da 343e 0569 ef3c 10a6 24be
000000d0: e83b 4abf e4f3 cebd 0000 0080 0000 0080
000000e0: 0000 0080 0000 0000 0000 0000 0000 0000
000000f0: 0000 0000 0000 0000 0000 0000 1840 00bd
00000100: 99cf 12bf 041d c8bd eaa5 d43e 7f69 b73c
00000110: 0799 e4bd f9f8 5e3e 7bcc b63d e152 12bc
00000120: 0000 0000 0000 0000 0000 0000 0000 0000
00000130: 0000 0000 0000 0000 0000 0000 0000 0000
00000140: 0000 0000 0000 0080 0000 0080 0000 0080
00000150: 0000 0080 0000 0000 0000 0080 0000 0000
00000160: 0000 0000 0000 0000 a12c 813c 9a72 2abd
00000170: 6777 973c 4460 303d 4e54 5ebc 9eb5 903c
00000180: 9ff2 9cb8 2e3e 2c3a 0580 a83d e6fb a73d
00000190: ca9d 84bc 3d2e a33d af4a 25be ea89 58bd
000001a0: 46d5 793d 10f5 80be 5368 99bd 2412 1d3e
000001b0: 0000 0000 0000 0000 0000 0000 0000 0000
000001c0: 0000 0000 0000 0000 0000 0000 0000 0000
000001d0: 0000 0000 c351 19bd 4b3d acbd 1ed0 0ebd
000001e0: 0ea4 b03d 5d81 1b3f 2d26 bebe fd28 80bd
000001f0: 6e86 7fbc 20c9 c1bd 2b63 16bd 9dc9 c2bb
00000200: 0600 0a3c 84a6 eabc 33bb 233c 48a1 c13c
00000210: 6415 59bc a6c2 893c c39e ba3c 0000 0080
00000220: 0000 0080 0000 0080 0000 0080 0000 0080
00000230: 0000 0080 0000 0080 0000 0080 0000 0080
00000240: a5c9 fe3d 0a18 f4bd 9645 b9bb fb71 083e
00000250: 43dd 75bf 3a8a fd3d c917 00be 2bce 733f
00000260: 7073 eebd 0000 0080 0000 0080 0000 0080
00000270: 0000 0080 0000 0080 0000 0080 0000 0080
00000280: 0000 0080 0000 0080 8cde b9bc d469 6e3c
00000290: 6a81 93bd 8606 7ebd 5ed2 273c ff0a ddbc
000002a0: 8c8e 4a3d 3552 013d 97fd bdbd 7881 f4bb
000002b0: 41a8 57be e971 603e 0e2e babd 89ed 493f
000002c0: c07d 09be d520 cabc c346 d8bd b821 6e3b
000002d0: 0000 0000 0000 0000 0000 0080 0000 0000
000002e0: 0000 0080 0000 0080 0000 0000 0000 0000
000002f0: 0000 0080 5203 39bc a433 e6bd ce22 5cbd
00000300: 19bd 18be ac67 37bd 4a8b 00bd cd70 f1bd
00000310: 886c 95be 72f2 5cbe 0000 0080 0000 0080
00000320: 0000 0000 0000 0080 0000 0080 0000 0000
00000330: 0000 0080 0000 0080 0000 0000 a365 2bbe
00000340: 172c 6d3c fc21 46be 6c76 65bd e717 2b3e
00000350: 3712 efba d490 8bbd 1b08 5abb a725 eabd
00000360: 0000 0080 0000 0080 0000 0080 0000 0080
00000370: 0000 0080 0000 0080 0000 0080 0000 0080
00000380: 0000 0080 0fe7 eebc df25 9fbd f3ac 253e
00000390: 2386 003e fbc0 9fbe e215 fa3d c970 85bb
000003a0: 2580 773d 0214 033d 8ef2 4dbd c997 df3d
000003b0: 9ab8 95bd 4eee 5dbd 2565 463e 1681 dc3d
000003c0: 7833 70bd a2c2 883d 9f8b 46bd 312a 4e3e
000003d0: 7db3 d3be 6111 143e b55f 51be 2e68 1e3f
000003e0: 2498 1cbe a3c2 033d 93f6 55bc 30b7 193d
000003f0: c885 223c 1e21 a139 bd21 9dbc d5a5 7dbc

base.1.conv.0.bias f4 [64]
0.0 0.0 0.0 0.0030701405 -0.0030862316 0.01213939 -0.0 0.009144974
-0.0 -0.0 -0.0017699396 0.013448296 0.0 0.001670956 5.114144e-07 0.0
0.028235678 0.0 -0.003603359 -0.0066047926 -0.0 -0.0016587754 0.0 0.001513893
0.0 0.0071876505 0.0006170091 0.01428289 1.5846456e-07 -4.1936775e-05 -0.0 0.00036801715
0.000858327 -0.0 -0.0006751273 -2.3896984e-08 -0.0007831382 -0.00058407674 0.0044879136 -0.010512429
0.0010308896 0.0 0.008717735 0.004174181 0.0022198274 -0.00040612958 0.0 0.0
0.018531583 0.02103839 -4.103066e-08 0.0 0.006594779 0.010382071 -0.013426173 8.397147e-07
-0.023588983 -8.1321915e-08 -0.0054207095 -4.8996146e-05 -0.0 7.615962e-05 -0.002770681 0.007886087
00000000: 0000 0000 0000 0000 0000 0000 6934 493b
00000010: 6042 4abb 4be4 463c 0000 0080 cdd4 153c
00000020: 0000 0080 0000 0080 51fd e7ba 3e56 5c3c
00000030: 0000 0000 fb03 db3a 2148 0935 0000 0000
00000040: 824e e73c 0000 0000 5526 6cbb 046d d8bb
00000050: 0000 0080 446b d9ba 0000 0000 d26d c63a
00000060: 0000 0000 6286 eb3b c8be 213a c802 6a3c
00000070: 6826 2a34 45e5 2fb8 0000 0080 6df2 c039
00000080: 5a01 613a 0000 0080 07fb 30ba 0646 cdb2
00000090: 844b 4dba ba1c 19ba 590f 933b 533c 2cbc
000000a0: ea1e 873a 0000 0000 d5d4 0e3c 91c7 883b
000000b0: 867a 113b caed d4b9 0000 0000 0000 0000
000000c0: 8ccf 973c b458 ac3c b039 30b3 0000 0000
000000d0: 0419 d83b 9019 2a3c 73f9 5bbc c168 6135
000000e0: af3d c1bc 32a3 aeb3 35a0 b1bb 3681 4db8
000000f0: 0000 0080 e2b7 9f38 5094 35bb a534 013c

base.1.conv.1.weight f4 [64]
0.008674944 0.011781577 0.019731635 0.49300393 0.015622123 0.3573714 0.009609414 0.29632545
0.010113632 0.010844725 0.18214084 0.4044284 0.01173135 0.3354848 0.05209242 0.011002986
0.2952787 0.0062496364 0.060694043 0.3478738 0.015469884 0.46518642 0.009889229 0.16363938
0.0095853405 0.18531422 0.38647747 0.37232625 0.15670362 0.13962962 0.010304006 0.2744685
0.45569664 0.014309209 0.22431588 0.063038155 0.26920858 0.008581645 0.28465572 0.3165141
0.4889327 0.019040009 0.2834733 0.35340697 0.18835603 0.3796472 0.044782523 0.02985998
0.20930035 0.039544303 0.083688736 0.011449839 0.21582264 0.24468961 0.15923329 0.39757216
0.17382723 0.48778138 0.23581028 0.005267024 0.012440666 0.09497643 0.07423753 0.34243792
00000000: 5a21 0e3c 8407 413c 3da4 a13c 036b fc3e
00000010: eff3 7f3c 62f9 b63e ce70 1d3c f8b7 973e
00000020: a6b3 253c 13ae 313c 2183 3a3e 3d11 cf3e
00000030: d934 403c aac4 ab3e dd5e 553d de45 343c
00000040: c52e 973e c0c9 cc3b 519a 783d 841c b23e
00000050: 6575 7d3c ea2c ee3e 6f06 223c 1591 273e
00000060: d50b 1d3c 03c3 3d3e 60e0 c53e 8ca1 be3e
00000070: ea76 203e 11fb 0e3e 22d2 283c 2387 8c3e
00000080: 1251 e93e 2c71 6a3c 10b3 653e 261a 813d
00000090: b5d5 893e 079a 0c3c 65be 913e 230e a23e
000000a0: 6355 fa3e cbf9 9b3c 6a23 913e c2f1 b43e
000000b0: 67e0 403e 1e61 c23e e16d 373d eb9c f43c
000000c0: d552 563e 35f9 213d 0065 ab3d 1b98 3b3c
000000d0: 9c00 5d3e ea8f 7a3e 0d0e 233e 948e cb3e
000000e0: c4ff 313e 7bbe f93e 4078 713e 0097 ac3b
000000f0: efd3 4b3c 0183 c23d d909 983d 0654 af3e

base.1.conv.1.bias f4 [64]
-0.0034758728 -0.0044565555 -0.016267756 0.14819126 -0.045082428 0.21367499 -0.009242243 0.42009228
-0.005243035 -0.0032786604 0.0024221754 0.0015178319 -0.00665964 0.37882754 -0.00096435787 -0.002862602
0.4807117 0.005247156 0.12768038 0.44131893 -0.004475962 0.6663486 -0.008633749 -0.11464077
-0.01201675 0.30496064 -0.30108202 0.10641116 0.00077982486 -0.0036964847 -0.0064427108 0.34326783
0.27078885 -0.0078803105 -0.14424776 -0.03656128 -0.031444576 -0.033494722 0.07509677 -0.056754425
0.5426871 -0.012564147 0.037224356 0.09904608 -0.039117802 0.31786156 -0.041934945 0.016503653
0.23708472 0.08487878 -0.057201356 -0.0056751203 0.055056754 0.4987244 -0.12928778 0.25052753
-0.23894556 1.0786804 -0.2933166 -0.03598216 -0.012797425 0.109112695 0.14007357 0.3085912
00000000: 78cb 63bb 4c08 92bb f543 85bc 73bf 173e
00000010: 5aa8 38bd 9ecd 5a3e c76c 17bc 5616 d73e
00000020: c4cd abbb cbde 56bb 5cbd 1e3b fdf1 c63a
00000030: 1c39 dabb aff5 c13e f6cc 7cba 7e9a 3bbb
00000040: d81f f63e 56f0 ab3b a5be 023e 8ef4 e13e
00000050: 17ab 92bb d295 2a3f 9174 0dbc c8c8 eabd
00000060: e7e1 44bc cd23 9c3e 6c27 9abe 18ee d93d
00000070: 296d 4c3a b940 72bb 601d d3bb cdc0 af3e
00000080: d6a4 8a3e 6b1c 01bc afb5 13be 48c1 15bd
00000090: 07cc 00bd c331 09bd 56cc 993d 5477 68bd
000000a0: 8bed 0a3f dad9 4dbc 9178 183d acd8 ca3d
000000b0: fd39 20bd c0be a23e fac3 2bbd ab32 873c
000000c0: 56c6 723e edd4 ad3d f84b 6abd 5cf6 b9bb
000000d0: 3183 613d ce58 ff3e 0464 04be 2545 803e
000000e0: 25ae 74be 3312 8a3f 982d 96be 0862 13bd
000000f0: 4aac 51bc 7a76 df3d 726f 0f3e aaff 9d3e

base.1.conv.1.running_mean f4 [64]
-6e-45 6e-45 -6e-45 0.013752762 0.0017723487 0.011426023 -6e-45 0.013277659
-6e-45 6e-45 0.0065084337 0.010480983 -6e-45 0.0026144832 -0.000103009574 6e-45
0.02795252 6e-45 0.015928606 0.02134062 -6e-45 0.23313661 6e-45 -0.13131495
6e-45 0.027339652 -0.023650516 0.15196487 -0.01561772 0.017862557 -6e-45 -0.015533318
0.07674113 -6e-45 0.009888564 -0.0028981576 0.018150792 0.0006000199 -0.0071727405 0.0067564445
0.06714092 -6e-45 0.0022235871 0.006598152 0.030119918 -0.003667554 6e-45 6e-45
0.028675182 0.026016138 0.006272768 -6e-45 -0.0066650184 0.062930465 -0.004827714 -0.08399828
-0.019691937 0.49378318 0.04284993 -0.0010302685 6e-45 0.0065463893 -0.011544577 -0.010960953
00000000: 0400 0080 0400 0000 0400 0080 4453 613c
00000010: 274e e83a 3734 3b3c 0400 0080 8a8a 593c
00000020: 0400 0080 0400 0000 b344 d53b 6eb8 2b3c
00000030: 0400 0080 c057 2b3b d806 d8b8 0400 0000
00000040: affc e43c 0400 0000 b57c 823c 86d2 ae3c
00000050: 0400 0080 5dbb 6e3e 0400 0000 6d77 06be
00000060: 0400 0000 68f7 df3c babe c1bc ae9c 1b3e
00000070: 77e1 7fbc 7f54 923c 0400 0080 757f 7ebc
00000080: 742a 9d3d 0400 0080 a503 223c 04ef 3dbb
00000090: f8b0 943c a74a 1d3a 4f09 ebbb 2a65 dd3b
000000a0: 2e81 893d 0400 0080 9ab9 113b 5035 d83b
000000b0: 0cbe f63c 585b 70bb 0400 0000 0400 0000
000000c0: 37e8 ea3c cc1f d53c cb8b cd3b 0400 0080
000000d0: 3a66 dabb b0e1 803d cd31 9ebb 4a07 acbd
000000e0: fc50 a1bc 26d1 fc3e 6883 2f3d 130a 87ba
000000f0: 0400 0000 1883 d63b 7725 3dbc 9295 33bc

base.1.conv.1.running_var f4 [64]
6e-45 6e-45 6e-45 0.0095529435 3.4604644e-05 0.0075746235 6e-45 0.030475691
6e-45 6e-45 0.0010693768 0.009956177 6e-45 0.00022482514 4.688379e-08 6e-45
0.008040977 6e-45 5.907138e-05 0.008847036 6e-45 0.039271336 6e-45 0.00025232023
6e-45 9.990197e-05 0.00058888795 0.03354631 0.0007652176 0.0008799368 6e-45 0.0012878659
0.04826008 6e-45 0.0009480242 4.1868953e-09 0.0021150135 4.215661e-08 0.03664311 5.024421e-05
0.038092483 6e-45 0.00064184767 0.0012921023 0.00019751552 0.00064894796 6e-45 6e-45
0.0032613887 3.4634586e-06 0.00045829144 6e-45 0.00047715163 9.4710165e-05 0.00030568775 0.0025169614
0.0152128935 0.06322696 0.0049898215 4.385556e-09 6e-45 0.00012533329 0.00023866328 0.00048891007
00000000: 0400 0000 0400 0000 0400 0000 f383 1c3c
00000010: 7424 1138 8c34 f83b 0400 0000 28a8 f93c
00000020: 0400 0000 0400 0000 552a 8c3a 3c1f 233c
00000030: 0400 0000 0abf 6b39 465d 4933 0400 0000
00000040: 4dbe 033c 0400 0000 69c3 7738 29f3 103c
00000050: 0400 0000 fbda 203d 0400 0000 d949 8439
00000060: 0400 0000 7682 d138 9a5f 1a3a db67 093d
00000070: e298 483a 8fab 663a 0400 0000 9ccd a83a
00000080: 5dac 453d 0400 0000 d484 783a 52dc 8f31
00000090: 0a9c 0a3b af0f 3533 1617 163d 4fbd 5238
000000a0: dd06 1c3d 0400 0000 ab41 283a c25b a93a
000000b0: 2b1c 4f39 291e 2a3a 0400 0000 0400 0000
000000c0: 06bd 553b c46d 6836 d646 f039 0400 0000
000000d0: 352a fa39 229f c638 b744 a039 9bf3 243b
000000e0: 803f 793c 237d 813d a881 a33b c2af 9631
000000f0: 0400 0000 e66b 0339 b041 7a39 332a 003a

base.1.conv.3.weight f4 [64, 64, 1, 1]
-0.0 -0.0 -0.0 -0.0 0.0 0.0 -0.0 -0.0
-0.0 -0.0 0.0 0.0 -0.0 -0.0 -0.0 -0.0
-0.0 -0.0 0.0 -0.0 -0.0 0.0 -0.0 -0.0
-0.0 0.0 -0.0 -0.0 -0.0 0.0 -0.0 0.0
0.0 -0.0 0.0 0.0 -0.0 0.0 0.0 -0.0
0.0 -0.0 -0.0 -0.0 -0.0 -0.0 0.0 -0.0
-0.0 0.0 -0.0 -0.0 0.0 0.0 0.0 -0.0
-0.0 0.0 0.0 -0.0 -0.0 0.0 0.0 0.0
-0.0 -0.0 -0.0 0.0 0.0 -0.0 -0.0 0.0
-0.0 -0.0 0.0 -0.0 -0.0 -0.0 0.0 -0.0
0.0 0.0 0.0 -0.0 -0.0 -0.0 -0.0 0.0
-0.0 0.0 0.0 -0.0 -0.0 0.0 -0.0 0.0
-0.0 -0.0 -0.0 -0.0 0.0 0.0 -0.0 0.0
0.0 -0.0 0.0 0.0 0.0 0.0 0.0 0.0
-0.0 0.0 0.0 -0.0 0.0 0.0 -0.0 0.0
0.0 -0.0 -0.0 -0.0 -0.0 0.0 0.0 0.0
0.0 0.0 0.0 -0.0 0.0 -0.0 0.0 -0.0
0.0 0.0 0.0 -0.0 0.0 0.0 -0.0 0.0
0.0 -0.0 0.0 0.0 0.0 0.0 0.0 0.0
0.0 0.0 0.0 -0.0 -0.0 0.0 0.0 0.0
0.0 0.0 0.0 -0.0 0.0 0.0 0.0 -0.0
0.0 0.0 -0.0 0.0 -0.0 -0.0 -0.0 -0.0
-0.0 0.0 0.0 0.0 0.0 0.0 0.0 -0.0
0.0 0.0 -0.0 0.0 0.0 0.0 0.0 0.0
0.0032569545 -0.000964369 -0.013409331 0.02447523 -0.040172115 -0.06681268 -0.0051631886 0.0906075
0.005590679 -0.009515973 -0.014384564 -0.06332975 -0.001919549 0.019181043 -0.021429108 0.0020886364
-0.108730175 0.0053220293 -0.0931568 -0.38585052 -0.0036088915 0.024573322 -0.0005887413 -0.23201202
-0.0019919418 0.04217678 -0.364219 -0.054315563 -0.074858174 0.008291664 -0.0077074235 -0.08651468
-0.06818559 0.0041882624 0.047705088 -0.026610458 -0.109199665 -0.017421182 -0.090846136 -0.11937703
-0.06846924 -0.019601647 0.02223746 -0.08056967 -0.107581735 0.10868896 -0.0067721223 -0.0121939955
0.08798628 0.057399586 -0.043898653 -0.0009872381 -0.061437067 0.039040297 0.0038687726 -0.06604097
-0.09821701 -0.06183292 -0.14452538 -0.018687086 -0.009233226 -0.037181713 -0.027487792 -0.08128434
00000000: 0000 0080 0000 0080 0000 0080 0000 0080
00000010: 0000 0000 0000 0000 0000 0080 0000 0080
00000020: 0000 0080 0000 0080 0000 0000 0000 0000
00000030: 0000 0080 0000 0080 0000 0080 0000 0080
00000040: 0000 0080 0000 0080 0000 0000 0000 0080
00000050: 0000 0080 0000 0000 0000 0080 0000 0080
00000060: 0000 0080 0000 0000 0000 0080 0000 0080
00000070: 0000 0080 0000 0000 0000 0080 0000 0000
00000080: 0000 0000 0000 0080 0000 0000 0000 0000
00000090: 0000 0080 0000 0000 0000 0000 0000 0080
000000a0: 0000 0000 0000 0080 0000 0080 0000 0080
000000b0: 0000 0080 0000 0080 0000 0000 0000 0080
000000c0: 0000 0080 0000 0000 0000 0080 0000 0080
000000d0: 0000 0000 0000 0000 0000 0000 0000 0080
000000e0: 0000 0080 0000 0000 0000 0000 0000 0080
000000f0: 0000 0080 0000 0000 0000 0000 0000 0000
00000100: 0000 0080 0000 0080 0000 0080 0000 0000
00000110: 0000 0000 0000 0080 0000 0080 0000 0000
00000120: 0000 0080 0000 0080 0000 0000 0000 0080
00000130: 0000 0080 0000 0080 0000 0000 0000 0080
00000140: 0000 0000 0000 0000 0000 0000 0000 0080
00000150: 0000 0080 0000 0080 0000 0080 0000 0000
00000160: 0000 0080 0000 0000 0000 0000 0000 0080
00000170: 0000 0080 0000 0000 0000 0080 0000 0000
00000180: 0000 0080 0000 0080 0000 0080 0000 0080
00000190: 0000 0000 0000 0000 0000 0080 0000 0000
000001a0: 0000 0000 0000 0080 0000 0000 0000 0000
000001b0: 0000 0000 0000 0000 0000 0000 0000 0000
000001c0: 0000 0080 0000 0000 0000 0000 0000 0080
000001d0: 0000 0000 0000 0000 0000 0080 0000 0000
000001e0: 0000 0000 0000 0080 0000 0080 0000 0080
000001f0: 0000 0080 0000 0000 0000 0000 0000 0000
00000200: 0000 0000 0000 0000 0000 0000 0000 0080
00000210: 0000 0000 0000 0080 0000 0000 0000 0080
00000220: 0000 0000 0000 0000 0000 0000 0000 0080
00000230: 0000 0000 0000 0000 0000 0080 0000 0000
00000240: 0000 0000 0000 0080 0000 0000 0000 0000
00000250: 0000 0000 0000 0000 0000 0000 0000 0000
00000260: 0000 0000 0000 0000 0000 0000 0000 0080
00000270: 0000 0080 0000 0000 0000 0000 0000 0000
00000280: 0000 0000 0000 0000 0000 0000 0000 0080
00000290: 0000 0000 0000 0000 0000 0000 0000 0080
000002a0: 0000 0000 0000 0000 0000 0080 0000 0000
000002b0: 0000 0080 0000 0080 0000 0080 0000 0080
000002c0: 0000 0080 0000 0000 0000 0000 0000 0000
000002d0: 0000 0000 0000 0000 0000 0000 0000 0080
000002e0: 0000 0000 0000 0000 0000 0080 0000 0000
000002f0: 0000 0000 0000 0000 0000 0000 0000 0000
00000300: a172 553b b5cd 7cba d0b2 5bbc 4780 c83c
00000310: 848b 24bd 16d5 88bd f72f a9bb 6d90 b93d
00000320: 0432 b73b e2e8 1bbc 3cad 6bbc 07b3 81bd
00000330: 6099 fbba 9021 9d3c 198c afbc 81e1 083b
00000340: edad debd 6b64 ae3b fec8 bebd 338e c5be
00000350: 2783 6cbb fe4d c93c c355 1aba 8f94 6dbe
00000360: 3d8b 02bb 8fc1 2c3d ea7a babe ff79 5ebd
00000370: 3e4f 99bd c2d9 073c 8e8e fcbb 9c2e b1bd
00000380: e3a4 8bbd b13d 893b 6966 433d 2dfe d9bc
00000390: 13a4 dfbd deb6 8ebc 8a0d babd f27b f4bd
000003a0: 9a39 8cbd a293 a0bc 552b b63c b601 a5bd
000003b0: d053 dcbd 5198 de3d aee8 ddbb 53c9 47bc
000003c0: 2732 b43d d41b 6b3d 13cf 33bd 3766 81ba
000003d0: 6fa5 7bbd b8e8 1f3d 3c8b 7d3b 7d40 87bd
000003e0: 0026 c9bd 8444 7dbd 76fe 13be a915 99bc
000003f0: f546 17bc da4b 18bd 142e e1bc 6778 a6bd

base.1.conv.4.weight f4 [64]
5.78872e-05 0.0020574157 0.00011045149 0.33219132 0.18870515 0.16946253 -2.43213e-06 0.14651899
0.095374405 0.119308434 0.28324124 0.49445072 0.4354666 0.24189523 0.19580732 0.05757021
0.3817814 -9.882472e-06 0.0036593396 -0.0009639028 -0.0020166272 -0.0034434905 0.089765854 0.42789096
0.23545094 0.18199898 0.18987718 0.061512683 0.29525772 0.37691173 5.4113013e-07 0.1783927
0.22360338 0.090751626 0.53981614 -0.00019860028 0.26109937 -0.111883454 0.38128957 0.08293544
0.16766307 0.20639627 0.42048115 0.20636679 6.6266955e-05 0.17550895 0.24015142 -1.0361332e-06
0.31115818 0.23635903 0.29367158 0.24328601 -6.1653896e-07 2.7494427e-05 0.29322973 0.29975352
0.2146316 0.00011494608 5.7665283e-15 0.0014979325 -0.0056935037 0.23904039 0.24048525 0.25353006
00000000: e8cb 7238 b5d5 063b 31a2 e738 fb14 aa3e
00000010: ec3b 413e 9687 2d3e ad37 23b6 1309 163e
00000020: a853 c33d fb57 f43d ff04 913e a528 fd3e
00000030: 7af5 de3e 62b3 773e b781 483e bece 6b3d
00000040: da78 c33e e5cc 25b7 88d1 6f3b 6cae 7cba
00000050: 6429 04bb 2fac 61bb 29d7 b73d 8614 db3e
00000060: 0d1a 713e f15d 3a3e 2a6f 423e b9f4 7b3d
00000070: 052c 973e 93fa c03e 2e42 1135 93ac 363e
00000080: 49f8 643e fddb b93d 6431 0a3f 5b3f 50b9
00000090: d1ae 853e 2723 e5bd 6338 c33e 0eda a93d
000000a0: deaf 2b3e 8b59 533e 4e49 d73e d151 533e
000000b0: cdf8 8a38 9eb8 333e 41ea 753e 4411 8bb5
000000c0: 2050 9f3e 1a08 723e 1f5c 963e f81f 793e
000000d0: 3c80 25b5 d5a3 e637 3522 963e 4b79 993e
000000e0: 63c8 5b3e 350f f138 d6c2 cf27 4656 c43a
000000f0: 9290 babb 01c7 743e c441 763e b1ce 813e

base.1.conv.4.bias f4 [64]
0.0040893108 0.0036929054 -0.005997925 0.02132669 -0.008245648 0.0014203686 -0.004324326 -0.0060938443
-0.008052756 -0.007886069 0.00011912469 -0.005806979 0.0013890372 0.0023715433 0.00427951 -0.0034482882
0.007280468 -0.003419211 0.0016657126 0.002066387 0.0055958014 0.0057007982 0.0037415423 0.012010159
-0.003523704 0.0024929445 0.00041738545 0.004614861 0.008685067 0.007059235 0.0004022206 0.0071060983
0.0014549632 -0.003597552 0.0060478924 0.007009505 0.001471488 -0.0021821342 9.123855e-05 -0.002420236
0.008199757 -0.0077808383 0.002559357 -0.0018840022 0.005482638 -0.002959468 0.005436933 0.0019647116
-0.0006730777 0.0046437006 -0.001802416 -0.0072909757 -0.0031031943 -0.0012521958 -0.00038433963 0.00042507806
-0.002123996 0.0020155313 -0.0031146677 -0.0018512293 0.0011046983 -0.00042435335 -0.0018494157 -0.0053577255
00000000: a0ff 853b ac04 723b 3e8a c4bb 50b5 ae3c
00000010: c118 07bc a92b ba3a 13b3 8dbb dfae c7bb
00000020: b5ef 03bc 9234 01bc 95d2 f938 7848 bebb
00000030: 5b10 b63a e56b 1b3b 223b 8c3b adfc 61bb
00000040: fe90 ee3b d714 60bb 0a54 da3a 396c 073b
00000050: fc5c b73b c3cd ba3b aa34 753b 42c6 443c
00000060: f1ed 66bb ab60 233b 87d4 da39 4338 973b
00000070: d04b 0e3c 2851 e73b 23e1 d239 46da e83b
00000080: 77b4 be3a e8c4 6bbb 662d c63b fdaf e53b
00000090: f2de c03a 2302 0fbb 5357 bf38 d29c 1ebb
000000a0: 4658 063c 67f6 febb e3ba 273b a0f0 f6ba
000000b0: b3a7 b33b a2f3 41bb 4d28 b23b 64c2 003b
000000c0: 7b71 30ba 2f2a 983b 0c3f ecba 23e9 eebb
000000d0: f65e 4bbb b820 a4ba 3181 c9b9 03dd de39
000000e0: bd32 0bbb 0117 043b 741f 4cbb f3a4 f2ba
000000f0: 86cb 903a be7b deb9 1868 f2ba dc8f afbb

base.1.conv.4.running_mean f4 [64]
6e-45 6e-45 6e-45 -0.4256035 0.26952896 0.18149899 -6e-45 0.47642294
0.015635513 -0.20003845 0.04952552 0.7696354 0.15864833 0.024146393 -0.2431395 0.20591658
-0.065248065 -6e-45 -6e-45 6e-45 -6e-45 -6e-45 -0.37666416 -0.5716605
-0.08218678 -0.12307004 0.30593473 0.25714695 -0.01672513 -0.10827365 -6e-45 0.7075472
0.25044605 0.32676047 0.42531928 6e-45 0.36989865 0.057487737 0.25444174 -0.17678812
-0.3764266 0.19120756 0.446298 0.041681413 -6e-45 0.10468629 -0.09903418 -6e-45
0.15208997 0.16898653 0.013610681 0.14400184 -6e-45 6e-45 -0.4465243 -0.54627675
0.2111235 -6e-45 -6e-45 -6e-45 6e-45 -0.089157626 0.49447942 0.13645232
00000000: 0400 0000 0400 0000 0400 0000 b4e8 d9be
00000010: b3ff 893e dfda 393e 0400 0080 b5ed f33e
00000020: 0c16 803c e1d6 4cbe 46db 4a3d d306 453f
00000030: b574 223e a8ce c53c 90f9 78be ccdb 523e
00000040: c7a0 85bd 0400 0080 0400 0080 0400 0000
00000050: 0400 0080 0400 0080 20da c0be 5858 12bf
00000060: 8b51 a8bd 250c fcbd 7aa3 9c3e c4a8 833e
00000070: 2403 89bc 93be ddbd 0400 0080 d021 353f
00000080: 773a 803e 264d a73e 73c3 d93e 0400 0000
00000090: 5b63 bd3e 4378 6b3d 3046 823e f207 35be
000000a0: fdba c0be eacb 433e 2c81 e43e 21ba 2a3d
000000b0: 0400 0080 c465 d63d 6fd2 cabd 0400 0080
000000c0: 79bd 1b3e ce0a 2d3e 55ff 5e3c 3875 133e
000000d0: 0400 0080 0400 0000 d59e e4be cbd8 0bbf
000000e0: c230 583e 0400 0080 0400 0080 0400 0080
000000f0: 0400 0000 4698 b6bd 682c fd3e 28ba 0b3e

base.1.conv.4.running_var f4 [64]
6e-45 6e-45 6e-45 0.027983652 0.024449816 0.0361555 6e-45 0.076256104
0.022139167 0.02731887 0.019141564 0.09642804 0.048529882 0.046014447 0.024174172 0.004289008
0.07551794 6e-45 6e-45 6e-45 6e-45 6e-45 0.013754841 0.058736343
0.015709545 0.015339113 0.020162273 0.039839678 0.076997854 0.0460679 6e-45 0.041388955
0.04236798 0.014096442 0.045762517 6e-45 0.063790336 0.010559864 0.045049462 0.019274618
0.06540514 0.038193222 0.03010474 0.018061113 6e-45 0.049963903 0.023099 6e-45
0.03687858 0.015692538 0.037553776 0.05800004 6e-45 6e-45 0.057738006 0.05850305
0.022665283 6e-45 6e-45 6e-45 6e-45 0.0086264545 0.032325756 0.042511027
00000000: 0400 0000 0400 0000 0400 0000 f93d e53c
00000010: fb4a c83c ca17 143d 0400 0000 292c 9c3d
00000020: 335d b53c d3cb df3c c5ce 9c3c 107c c53d
00000030: 45c7 463d a579 3c3d ea08 c63c cf8a 8c3b
00000040: 26a9 9a3d 0400 0000 0400 0000 0400 0000
00000050: 0400 0000 0400 0000 fc5b 613c 8595 703d
00000060: 4eb1 803c e750 7b3c 5a2b a53c ee2e 233d
00000070: 0db1 9d3d b2b1 3c3d 0400 0000 7787 293d
00000080: 0c8a 2d3d c3f4 663c 7a71 3b3d 0400 0000
00000090: 82a4 823d 4803 2d3c c985 383d cee5 9d3c
000000a0: 21f3 853d 7f70 1c3d 379e f63c e6f4 933c
000000b0: 0400 0000 f3a6 4c3d 1d3a bd3c 0400 0000
000000c0: fe0d 173d a38d 803c fdd1 193d 7391 6d3d
000000d0: 0400 0000 0400 0000 b07e 6c3d e5a0 6f3d
000000e0: 8bac b93c 0400 0000 0400 0000 0400 0000
000000f0: 0400 0000 f955 0d3c 0368 043d 0b20 2e3d

base.2.conv.0.weight f4 [128, 64, 1, 1]
-0.019624153 -0.10062869 -0.26158315 -0.04426841 0.0112011945 0.017613925 0.024417775 0.09969662
-0.116618544 0.051252745 -0.08988904 -0.014135586 0.053783044 -0.030052688 0.061967764 0.062379207
0.057600904 -0.25471053 0.065694004 0.126575 -0.17264068 -0.0030872535 0.11694141 -0.058699228
0.018045664 -0.05685985 -0.07486937 -0.17434368 0.053355213 -0.013892176 0.008084373 0.09857202
-0.07095792 -0.037096523 -0.13344055 -0.003557779 -0.015655555 -0.08379856 0.028281637 0.0153856035
0.03873086 -0.096913084 0.09299791 -0.009540783 -0.08167869 -0.053731903 -0.015285784 0.016645074
0.12762377 0.0068141734 0.07557422 0.033017773 -0.0040764683 0.03274204 -0.077377245 0.23957556
-0.009424177 0.028266886 0.009650719 0.037772316 0.016895212 -0.026963785 0.011506472 -0.07288903
-0.0 0.0 -0.0 -0.0 -0.0 0.0 0.0 0.0
-0.0 -0.0 -0.0 -0.0 -0.0 -0.0 -0.0 -0.0
0.0 -0.0 -0.0 -0.0 0.0 0.0 0.0 0.0
0.0 -0.0 -0.0 -0.0 0.0 0.0 0.0 -0.0
-0.0 -0.0 -0.0 -0.0 0.0 -0.0 0.0 0.0
0.0 -0.0 -0.0 0.0 -0.0 0.0 0.0 -0.0
0.0 0.0 0.0 0.0 0.0 0.0 0.0 -0.0
0.0 -0.0 0.0 -0.0 -0.0 0.0 0.0 -0.0
-0.04514188 -0.025978208 0.0003325924 0.20858829 0.041701306 -0.014526783 -0.034113992 -0.12554026
-0.03410554 0.15075085 0.0063870256 -0.14466746 -0.11778189 0.15007277 -0.11121106 0.003414822
-0.17246395 0.1673624 0.0048574344 0.059399974 -0.25202093 -0.07373071 0.17493023 -0.08082306
0.016592592 0.17206298 -0.09213023 -0.09069773 -0.0269985 -0.078475006 -0.012950566 0.121464655
0.14913821 0.03339962 0.03824889 -0.06749254 -0.27137202 -0.014931131 -0.048238084 -0.049757984
-0.22956197 -0.020730754 -0.03481906 -0.017462669 -0.034740902 -0.08806355 0.03994722 -0.007050856
-0.10925661 -0.112524375 -0.07050305 -0.06292599 -0.06966707 0.19399282 -0.053409904 0.05483164
-0.10103934 -0.10371174 -0.057413172 -0.037016653 0.117591016 -0.055886105 -0.004871475 -0.04735027
-0.0 0.0 0.0 -0.0 -0.0 -0.0 0.0 0.0
-0.0 -0.0 0.0 0.0 0.0 0.0 0.0 0.0
-0.0 -0.0 0.0 -0.0 -0.0 0.0 0.0 0.0
0.0 0.0 -0.0 -0.0 0.0 -0.0 -0.0 -0.0
-0.0 0.0 0.0 0.0 -0.0 -0.0 0.0 0.0
-0.0 0.0 0.0 -0.0 -0.0 0.0 0.0 0.0
-0.0 -0.0 0.0 -0.0 -0.0 -0.0 -0.0 0.0
0.0 0.0 -0.0 0.0 0.0 0.0 0.0 -0.0
00000000: d5c2 a0bc 6a16 cebd 3aee 85be cb52 35bd
00000010: 3785 373c 144b 903c c907 c83c be2d cc3d
00000020: b4d5 eebd 66ee 513d bf17 b8bd f298 67bc
00000030: 9c4b 5c3d 0e31 f6bc e9d1 7d3d 5781 7f3d
00000040: edee 6b3d 6b69 82be 948a 863d e09c 013e
00000050: b8c8 30be 8553 4abb fa7e ef3d 9a6e 70bd
00000060: 80d4 933c e0e5 68bd 1d55 99bd 2687 32be
00000070: ff8a 5a3d 029c 63bc 5174 043c 21e0 c93d
00000080: 6352 91bd 86f2 17bd a4a4 08be a029 69bb
00000090: 1440 80bc 949e abbd e4ae e73c e613 7c3c
000000a0: 40a4 1e3d 5e7a c6bd b075 be3d f250 1cbc
000000b0: 2847 a7bd fc15 5cbd 3a71 7abc 405b 883c
000000c0: ceaf 023e 6e49 df3b a8c6 9a3d a53d 073d
000000d0: e593 85bb 841c 063d f677 9ebd 4c53 753e
000000e0: dd67 1abc f58f e73c 0d1e 1e3c 25b7 1a3d
000000f0: d467 8a3c 28e3 dcbc a485 3c3c d846 95bd
00000100: 0000 0080 0000 0000 0000 0080 0000 0080
00000110: 0000 0080 0000 0000 0000 0000 0000 0000
00000120: 0000 0080 0000 0080 0000 0080 0000 0080
00000130: 0000 0080 0000 0080 0000 0080 0000 0080
00000140: 0000 0000 0000 0080 0000 0080 0000 0080
00000150: 0000 0000 0000 0000 0000 0000 0000 0000
00000160: 0000 0000 0000 0080 0000 0080 0000 0080
00000170: 0000 0000 0000 0000 0000 0000 0000 0080
00000180: 0000 0080 0000 0080 0000 0080 0000 0080
00000190: 0000 0000 0000 0080 0000 0000 0000 0000
000001a0: 0000 0000 0000 0080 0000 0080 0000 0000
000001b0: 0000 0080 0000 0000 0000 0000 0000 0080
000001c0: 0000 0000 0000 0000 0000 0000 0000 0000
000001d0: 0000 0000 0000 0000 0000 0000 0000 0080
000001e0: 0000 0000 0000 0080 0000 0000 0000 0080
000001f0: 0000 0080 0000 0000 0000 0000 0000 0080
00000200: b1e6 38bd 40d0 d4bc cc5f ae39 2b98 553e
00000210: fdce 2a3d be01 6ebc 1dbb 0bbd a08d 00be
00000220: 40b2 0bbd 6e5e 1a3e 414a d13b b523 14be
00000230: a237 f1bd adac 193e a0c2 e3bd 35cb 5f3b
00000240: 649a 30be 0d61 2b3e 1d2b 9f3b 634d 733d
00000250: e308 81be 2000 97bd e920 333e 8f86 a5bd
00000260: 30ed 873c 4731 303e c6ae bcbd bbbf b9bd
00000270: f52b ddbc 81b7 a0bd 9c2e 54bc 76c2 f83d
00000280: b0b7 183e 0ace 083d deaa 1c3d 8739 8abd
00000290: 46f1 8abe b4a1 74bc 4c95 45bd 07cf 4bbd
000002a0: 4b12 6bbe 8bd3 a9bc 6e9e 0ebd df0d 8fbc
000002b0: 7a4c 0ebd aa5a b4bd b29f 233d de0a e7bb
000002c0: eec1 dfbd 2e73 e6bd e763 90bd 57df 80bd
000002d0: 9cad 8ebd 0ea6 463e 58c4 5abd 2497 603d
000002e0: b7ed cebd d266 d4bd 132a 6bbd c69e 17bd
000002f0: 8fd3 f03d d4e8 64bd e5a0 9fbb 5bf2 41bd
00000300: 0000 0080 0000 0000 0000 0000 0000 0080
00000310: 0000 0080 0000 0080 0000 0000 0000 0000
00000320: 0000 0080 0000 0080 0000 0000 0000 0000
00000330: 0000 0000 0000 0000 0000 0000 0000 0000
00000340: 0000 0080 0000 0080 0000 0000 0000 0080
00000350: 0000 0080 0000 0000 0000 0000 0000 0000
00000360: 0000 0000 0000 0000 0000 0080 0000 0080
00000370: 0000 0000 0000 0080 0000 0080 0000 0080
00000380: 0000 0080 0000 0000 0000 0000 0000 0000
00000390: 0000 0080 0000 0080 0000 0000 0000 0000
000003a0: 0000 0080 0000 0000 0000 0000 0000 0080
000003b0: 0000 0080 0000 0000 0000 0000 0000 0000
000003c0: 0000 0080 0000 0080 0000 0000 0000 0080
000003d0: 0000 0080 0000 0080 0000 0080 0000 0000
000003e0: 0000 0000 0000 0000 0000 0080 0000 0000
000003f0: 0000 0000 0000 0000 0000 0000 0000 0080

base.2.conv.1.weight f4 [128]
0.11846998 0.013900494 0.17171945 0.014229751 0.20570278 0.013486412 0.1726057 0.016394148
0.1691036 0.016587602 0.0126428185 0.14295433 0.14670852 0.20427479 0.015561586 0.020719567
0.18301812 0.14330168 0.13551523 0.013809167 0.10832992 0.01783823 0.14638038 0.01565943
0.17266136 0.013178583 0.15830758 0.13822128 0.20366105 0.024956418 0.14514577 0.18208884
0.17330027 0.15274577 0.17243177 0.15554766 0.107741825 0.01352316 0.014867023 0.12476537
0.17933415 0.17116864 0.17708735 0.14578676 0.2037502 0.15190141 0.20619275 0.13329592
0.017477674 0.017919201 0.0131450705 0.012827615 0.023420675 0.16731878 0.19109318 0.11672164
0.12878716 0.15443146 0.13069478 0.14344609 0.15828976 0.1714402 0.16864364 0.12961759
0.13402665 0.011958275 0.09212409 0.016942687 0.11869737 0.17479262 0.16920976 0.14691345
0.14444612 0.20199059 0.016051084 0.17058901 0.11434522 0.013942171 0.016021384 0.15593334
0.13092937 0.013190552 0.119492896 0.20558664 0.012677784 0.18252973 0.19649892 0.10788424
0.13648003 0.013675944 0.1567713 0.15359181 0.28246027 0.015952386 0.024799611 0.12374422
0.16460784 0.17963399 0.14164433 0.13953774 0.18124975 0.11479508 0.014534235 0.19880511
0.018545326 0.15007433 0.15238115 0.1875268 0.16012299 0.17389594 0.15146607 0.016302755
0.17436738 0.10897618 0.18908858 0.06973814 0.019772558 0.092116974 0.21363547 0.12756698
0.12687127 0.023727253 0.12640908 0.17861278 0.013788749 0.16743611 0.013942171 0.012254157
00000000: 64a0 f23d e6be 633c 39d7 2f3e e723 693c
00000010: c0a3 523e 1df6 5c3c 8cbf 303e 054d 863c
00000020: 7e29 2d3e b9e2 873c d323 4f3c 9f62 123e
00000030: c23a 163e 692d 513e 06f6 7e3c 15bc a93c
00000040: 1a69 3b3e adbd 123e 81c4 0a3e d83f 623c
00000050: 14dc dd3d 7b21 923c bde4 153e 3448 803c
00000060: 24ce 303e fcea 573c 621b 223e e189 0d3e
00000070: 868c 503e 6771 cc3c 18a1 143e 7f75 3a3e
00000080: a075 313e 6369 1c3e f491 303e e347 1f3e
00000090: bfa7 dc3d 3e90 5d3c d094 733c fc84 ff3d
000000a0: 5fa3 373e d546 2f3e 6356 353e 2049 153e
000000b0: e4a3 503e 0b8c 1b3e 3124 533e ba7e 083e
000000c0: 572d 8f3c 4acb 923c 6c5e 573c eb2a 523c
000000d0: b7dc bf3c 9d55 2b3e eead 433e c10b ef3d
000000e0: c8e0 033e 4823 1e3e dad4 053e 88e3 123e
000000f0: b616 223e 058e 2f3e ebb0 2c3e 79ba 043e
00000100: 483e 093e a4ec 433c 8eab bc3d 64cb 8a3c
00000110: 9b17 f33d d6fc 323e 5345 2d3e 7b70 163e
00000120: afe9 133e 9fd6 4e3e 907d 833c e3ae 2e3e
00000130: d42d ea3d b46d 643c 473f 833c fdac 1f3e
00000140: 5912 063e 2f1d 583c b1b8 f43d 4e85 523e
00000150: 7bb6 4f3c 13e9 3a3e 0337 493e 6af2 dc3d
00000160: 6cc1 0b3e 1111 603c a888 203e 2c47 1d3e
00000170: a29e 903e 94ae 823c 8e28 cb3c 9c6d fd3d
00000180: f58e 283e f9f1 373e 360b 113e fbe2 0e3e
00000190: 8999 393e af19 eb3d 0021 6e3c 9193 4b3e
000001a0: 5eec 973c 16ad 193e ce09 1c3e 0707 403e
000001b0: 48f7 233e c711 323e ec19 1b3e 5b8d 853c
000001c0: 5d8d 323e e72e df3d 70a0 413e dfd2 8e3d
000001d0: 0ffa a13c d3a7 bc3d 42c3 5a3e eba0 023e
000001e0: 8bea 013e a85f c23c 6271 013e 45e6 363e
000001f0: 35ea 613c 5f74 2b3e b46d 643c a9c5 483c

base.2.conv.1.bias f4 [128]
-0.00094147277 0.0010680646 0.08833338 0.0018740708 -0.13026214 -0.0007735959 -0.0140915895 0.0008883139
0.067403406 0.0027622005 0.0025057744 -0.18790199 -0.0068436447 -0.17085226 0.005406261 0.0015314372
-0.07114214 0.24953821 0.03450256 0.00045206054 -0.21569556 0.004475592 -0.20558156 0.0023497264
0.07818558 -0.00046410988 -0.0037973812 -0.061068956 0.1382714 -7.97124e-07 -0.060864914 0.06407065
0.09201226 0.10126069 0.09535093 -0.06373521 0.012149782 0.00030080284 -0.00080095464 0.00089112157
-0.054414205 0.076958604 -0.27340865 -0.0072939275 -0.3116702 -0.123304896 0.14011261 0.103363834
0.0009996518 0.00054398464 0.0013947875 0.003904921 0.0017180161 -0.06002619 -0.3167329 -0.019881302
0.0058362195 -0.023035713 0.018241877 -0.0030958564 0.049135543 -0.0061844783 0.1330465 0.078924656
-0.1557065 0.0010239256 0.09803525 0.004381715 -0.068363294 0.06857965 0.063224696 -0.2626534
0.018463206 -0.39041588 0.0020007044 0.03493779 -0.007111435 0.0010620711 0.000707175 0.014078929
0.15955415 0.0051378813 -0.04563018 -0.10813678 0.002066548 0.0028620474 -0.1319696 0.043981194
-0.06380117 0.00024970237 0.106252134 -0.23946942 0.40211907 0.00358432 -0.0014269801 -0.06381486
0.012332072 -0.0040761707 0.032530278 -0.08966664 0.029240837 0.31692916 0.00044283303 0.13345826
0.00069646764 -0.03996299 -0.010408184 -0.12108305 0.18731928 -0.22380885 0.14416867 0.0015913858
0.097591504 -0.07972662 0.02849885 -0.09995053 0.00061169884 -0.101218104 0.262672 0.07977081
-0.01852258 0.001122749 -0.08781382 -0.08598423 0.0014240512 -0.1362882 0.0024412787 -0.0005246323
00000000: 2bcd 76ba 4dfe 8b3a 22e8 b43d 62a3 f53a
00000010: 7063 05be 24cb 4aba 69e0 66bc bddd 683a
00000020: cc0a 8a3d 0906 353b eb37 243b 6169 40be
00000030: a740 e0bb e5f3 2ebe 0127 b13b 81ba c83a
00000040: f8b2 91bd f286 7f3e 8e52 0d3d 8a02 ed39
00000050: 4cdf 5cbe fda7 923b f983 52be defd 193b
00000060: c31f a03d c653 f3b9 7cdd 78bb 7123 7abd
00000070: 0597 0d3e f2f9 55b5 7d4d 79bd 7937 833d
00000080: ec70 bc3d c461 cf3d 5947 c33d 9b87 82bd
00000090: e10f 473c 13b5 9d39 28f7 51ba 289a 693a
000000a0: 6ee1 5ebd 799c 9d3d 38fc 8bbe e601 efbb
000000b0: 3d93 9fbe 4787 fcbd ae79 0f3e 6bb0 d33d
000000c0: c006 833a 319a 0e3a 4dd1 b63a b4e9 7f3b
000000d0: 0e2f e13a 06de 75bd d12a a2be 1dde a2bc
000000e0: c23d bf3b 64b5 bcbc fd6f 953c dae3 4abb
000000f0: 5a42 493d 2aa7 cabb 573d 083e 40a3 a13d
00000100: 8671 1fbe 3e35 863a b5c6 c83d 7d94 8f3b
00000110: 0e02 8cbd 7d73 8c3d f37b 813d 827a 86be
00000120: 2640 973c 97e4 c7be 401e 033b ee1a 0f3d
00000130: 0a07 e9bb 3135 8b3a b661 393a 4fab 663c
00000140: 2a62 233e ac5b a83b b6e6 3abd d176 ddbd
00000150: ec6e 073b 3091 3b3b 0a23 07be a025 343d
00000160: 30aa 82bd 7cea 8239 b89a d93d 7937 75be
00000170: 8de2 cd3e e9e6 6a3b 8209 bbba 5eb1 82bd
00000180: 750c 4a3c 6691 85bb 783e 053d 25a3 b7bd
00000190: 7b8a ef3c 8a44 a23e 0b2c e839 48a9 083e
000001a0: 2793 363a 3bb0 23bd 1687 2abc 64fa f7bd
000001b0: a0d0 3f3e 262e 65be f4a0 133e 0c96 d03a
000001c0: 0ede c73d b647 a3bd 6c76 e93c ddb2 ccbd
000001d0: 6a5a 203a 704b cfbd f27c 863e e15e a33d
000001e0: aabc 97bc 3429 933a bbd7 b3bd 8018 b0bd
000001f0: 3ba7 ba3a 228f 0bbe dcfd 1f3b 7a87 09ba

base.2.conv.1.running_mean f4 [128]
-0.0021461954 6e-45 0.17001468 6e-45 0.08732423 -6e-45 0.09685525 6e-45
0.060638823 -6e-45 -6e-45 0.036937855 -0.08653698 -0.05416414 6e-45 6e-45
0.1315137 -0.07275227 -0.016952273 6e-45 -0.019873489 6e-45 -0.11342315 6e-45
0.01845081 -6e-45 0.009726672 0.28082046 0.22624542 -6e-45 0.0037459654 -0.041564446
-0.068164825 -0.002280672 -0.14527169 -0.03831121 0.06304374 6e-45 -6e-45 0.15545991
-0.09163841 -0.100455284 -0.26350448 -0.06996407 -0.032926038 -0.2289187 0.036008276 0.07172815
-6e-45 6e-45 6e-45 6e-45 6e-45 -0.06059487 -0.43945575 0.03663389
-0.07638219 0.19857094 -0.022078613 0.078566015 0.3832356 0.21146537 -0.06747909 -0.011035002
0.047859482 6e-45 -0.09588645 6e-45 -0.0071069105 0.12992477 0.08447865 -0.0105839595
-0.14563651 -0.12779967 6e-45 -0.013862822 0.06607185 6e-45 6e-45 -0.068324976
-0.043280233 6e-45 0.097409666 0.02329129 6e-45 -0.5045372 -0.16348352 -0.12317375
0.029135766 6e-45 0.1358641 0.040595602 0.35854474 6e-45 -6e-45 0.076079816
-0.27141404 -0.19521111 0.077028364 0.20321022 -0.33354625 -0.078972556 6e-45 -0.036255036
6e-45 0.048500203 -0.030649202 0.2970309 -0.061543982 -0.2085419 -0.07362358 -6e-45
0.097228125 -0.10061871 0.026629036 0.010615687 6e-45 -0.05461923 0.23070641 -0.059694726
-0.0396715 -6e-45 0.2986993 -0.037864417 6e-45 -0.04091696 6e-45 6e-45
00000000: 2fa7 0cbb 0400 0000 5418 2e3e 0400 0000
00000010: 0cd7 b23d 0400 0080 0c5c c63d 0400 0000
00000020: 6a60 783d 0400 0080 0400 0080 264c 173d
00000030: 4d3a b1bd 38db 5dbd 0400 0000 0400 0000
00000040: 87ab 063e 24ff 94bd 7edf 8abc 0400 0000
00000050: bacd a2bc 0400 0000 654a e8bd 0400 0000
00000060: 2726 973c 0400 0080 9f5c 1f3c b3c7 8f3e
00000070: e1ac 673e 0400 0080 df7e 753b 7b3f 2abd
00000080: 009a 8bbd 5477 15bb 1ac2 14be 37ec 1cbd
00000090: 141d 813d 0400 0000 0400 0080 e230 1f3e
000000a0: ebac bbbd 80bb cdbd 0fea 86be 5349 8fbd
000000b0: 74dd 06bd aa69 6abe 6a7d 133d 35e6 923d
000000c0: 0400 0080 0400 0000 0400 0000 0400 0000
000000d0: 0400 0000 5432 78bd 5800 e1be 6b0d 163d
000000e0: 446e 9cbd 2e56 4b3e 35de b4bc 38e7 a03d
000000f0: 7537 c43e 618a 583e 7a32 8abd 27cc 34bc
00000100: 4e08 443d 0400 0000 1d60 c4bd 0400 0000
00000110: 16e1 e8bb 000b 053e 2403 ad3d 5868 2dbc
00000120: bd21 15be ebdd 02be 0400 0000 e420 63bc
00000130: ae50 873d 0400 0000 0400 0000 f7ed 8bbd
00000140: 9d46 31bd 0400 0000 b87e c73d 60cd be3c
00000150: 0400 0000 5a29 01bf 3968 27be 8542 fcbd
00000160: 21ae ee3c 0400 0000 f51f 0b3e 9347 263d
00000170: 2d93 b73e 0400 0000 0400 0080 bccf 9b3d
00000180: c8f6 8abe 6ce5 47be 0cc1 9d3d 5716 503e
00000190: 93c6 aabe 5dbc a1bd 0400 0000 2980 14bd
000001a0: 0400 0000 26a8 463d 0914 fbbc 6f14 983e
000001b0: 8b15 7cbd 028c 55be f6c7 96bd 0400 0080
000001c0: 8a1f c73d 2f11 cebd 2325 da3c 6bed 2d3c
000001d0: 0400 0000 6ab8 5fbd 4d3e 6c3e 7582 74bd
000001e0: 957e 22bd 0400 0080 1def 983e b817 1bbd
000001f0: 0400 0000 8b98 27bd 0400 0000 0400 0000
