Pruned_Models/ERESFD/L1/ERES20_L1.pth (torch, 542876 bytes, 400 tensors)

base.conv1.0.weight f4 [8, 3, 5, 5]
0	0xbe1dfe09	-0.15428938
1	0x3daa229e	0.08307384
2	0xbc88af24	-0.016685076
3	0xbe367281	-0.17817117
4	0xbdf4b920	-0.11949372
5	0xbc408e7f	-0.011752724
6	0x3e50929a	0.20368424
7	0x3e4cf71e	0.20016143
8	0x3d94b3f2	0.07260884
9	0xbc0b0ba1	-0.008486659
10	0xbdbc9818	-0.09208697
11	0x3d78581c	0.060630903
12	0x3e1504dd	0.14552636
13	0x3dd62188	0.10455614
14	0x3d00ad8f	0.03141552
15	0xbe14575b	-0.14486448
16	0xbd131e16	-0.035917364
17	0x3dbd5d67	0.09246331
18	0x3df39df9	0.11895365
19	0x3d796d51	0.060895268
20	0xbd3943bb	-0.04523061
21	0x3d85c23a	0.065311864
22	0x3e5db636	0.21651539
23	0x3e5c5b6d	0.21519251
24	0x3db9356c	0.090433925
25	0xbde4458f	-0.1114608
26	0x3d91e377	0.071234636
27	0xbd86fd31	-0.06591261
28	0xbe4f3534	-0.20235139
29	0xbdf0f3f5	-0.11765281
30	0xbd84b766	-0.06480293
31	0x3d811b8d	0.06304083
32	0xbb4b8479	-0.0031054302
33	0xbdf4a8cf	-0.1194626
34	0xbe3193eb	-0.17341582
35	0xbe4be35d	-0.19910951
36	0xbe1cd63e	-0.15316102
37	0xbe1ce049	-0.15319933
38	0xbe5573c3	-0.20844941
39	0xbe7a09e9	-0.24417843
40	0xbe705d7c	-0.23473161
41	0xbe76e74a	-0.24111667
42	0xbe52457d	-0.2053432
43	0xbe58e6ba	-0.21181765
44	0xbe6a25bc	-0.22865957
45	0xbdf02526	-0.117258355
46	0xbe00825c	-0.12549728
47	0xbd8f6e56	-0.07003467
48	0xbdc986c6	-0.09840159
49	0xbe372e14	-0.17888671
50	0x3dd2a5a1	0.102854975
51	0x3e962636	0.29326028
52	0x3e2b6775	0.16738684
53	0x3d4a198b	0.049340766
54	0x3dd6534d	0.10465107
55	0x3e2ed541	0.17073537
56	0x3e9e720b	0.30946383
57	0x3e8831a1	0.26600364
58	0x3e2eb806	0.17062387
59	0x3db39834	0.08769265
60	0x3d1fb62b	0.03899209
61	0x3dec530d	0.11539278
62	0x3e0cf3c0	0.13764858
63	0x3dd2f286	0.10300164
64	0x3d3b799c	0.045770273
65	0xbd509aa3	-0.050928723
66	0xbc9b4271	-0.01895258
67	0x3d1ddcd4	0.038540676
68	0x3d367b53	0.044551205
69	0x3c816c30	0.015798658
70	0xbc0ab4e6	-0.008465981
71	0x3cb797de	0.022411283
72	0x3dd2100a	0.102569655
73	0x3db964ec	0.090524524
74	0x3c28a8b1	0.010294125
75	0x80000000	-0.0
76	0x80000000	-0.0
77	0x80000000	-0.0
78	0x80000000	-0.0
79	0x80000000	-0.0
80	0x80000000	-0.0
81	0x80000000	-0.0
82	0x80000000	-0.0
83	0x80000000	-0.0
84	0x80000000	-0.0
85	0x80000000	-0.0
86	0x80000000	-0.0
87	0x80000000	-0.0
88	0x80000000	-0.0
89	0x80000000	-0.0
90	0x80000000	-0.0
91	0x80000000	-0.0
92	0x80000000	-0.0
93	0x80000000	-0.0
94	0x80000000	-0.0
95	0x80000000	-0.0
96	0x80000000	-0.0
97	0x80000000	-0.0
98	0x80000000	-0.0
99	0x80000000	-0.0
100	0x80000000	-0.0
101	0x80000000	-0.0
102	0x80000000	-0.0
103	0x80000000	-0.0
104	0x80000000	-0.0
105	0x80000000	-0.0
106	0x80000000	-0.0
107	0x80000000	-0.0
108	0x80000000	-0.0
109	0x80000000	-0.0
110	0x80000000	-0.0
111	0x80000000	-0.0
112	0x80000000	-0.0
113	0x80000000	-0.0
114	0x80000000	-0.0
115	0x80000000	-0.0
116	0x80000000	-0.0
117	0x80000000	-0.0
118	0x80000000	-0.0
119	0x80000000	-0.0
120	0x80000000	-0.0
121	0x80000000	-0.0
122	0x80000000	-0.0
123	0x80000000	-0.0
124	0x80000000	-0.0
125	0x80000000	-0.0
126	0x80000000	-0.0
127	0x80000000	-0.0
128	0x80000000	-0.0
129	0x80000000	-0.0
130	0x80000000	-0.0
131	0x80000000	-0.0
132	0x80000000	-0.0
133	0x80000000	-0.0
134	0x80000000	-0.0
135	0x80000000	-0.0
136	0x80000000	-0.0
137	0x80000000	-0.0
138	0x80000000	-0.0
139	0x80000000	-0.0
140	0x80000000	-0.0
141	0x80000000	-0.0
142	0x80000000	-0.0
143	0x80000000	-0.0
144	0x80000000	-0.0
145	0x80000000	-0.0
146	0x80000000	-0.0
147	0x80000000	-0.0
148	0x80000000	-0.0
149	0x80000000	-0.0
150	0xbe289143	-0.16461663
151	0xbe694d3b	-0.22783367
152	0xbe82becf	-0.255362
153	0xbe681b24	-0.22666603
154	0xbdbae28e	-0.09125243
155	0xbe6cfa8e	-0.23142454
156	0xbea9af4e	-0.3314156
157	0xbec4d1a9	-0.38441208
158	0xbeb6176d	-0.35564747
159	0xbe0c56fd	-0.13705058
160	0xbe46d447	-0.19416915
161	0xbeb03f78	-0.34423423
162	0xbecec7a3	-0.40386686
163	0xbed2372a	-0.41057712
164	0xbe8ff02d	-0.28112927
165	0xbdc30315	-0.09522072
166	0xbe913c5b	-0.2836636
167	0xbebc9245	-0.36830345
168	0xbec1feca	-0.378897
169	0xbeaa3337	-0.332422
170	0xbc19cad4	-0.009386737
171	0xbe3a4406	-0.18190011
172	0xbe8404ac	-0.25784814
173	0xbe833d4d	-0.25632706
174	0xbe20cea7	-0.15703832
175	0x3dd44397	0.10364454
176	0x3e4bba82	0.19895366
177	0x3e4ab2aa	0.19794717
178	0x3dd9abae	0.106284484
179	0xbaa575de	-0.0012623628
180	0x3e2816ab	0.16414897
181	0x3e8e085d	0.27740756
182	0x3e977779	0.29583338
183	0x3e6ee8b9	0.23330964
184	0x3e586ca8	0.21135199
185	0x3e3f003d	0.18652435
186	0x3e9bc09c	0.30420387
187	0x3ebe09d7	0.37116882
188	0x3ea0be5a	0.31395227
189	0x3e781429	0.2422644
190	0x3e2597fc	0.16171259
191	0x3e84f31c	0.25966728
192	0x3eaec77c	0.3413657
193	0x3eadd7f9	0.33953837
194	0x3e748c5c	0.23881668
195	0x3d147b20	0.036250234
196	0x3e1edbfb	0.15513603
197	0x3e84e0ac	0.2595266
198	0x3ea5e9b3	0.3240486
199	0x3ea8d1bf	0.32972524
200	0x3d26c62c	0.040716335
201	0x3de1aaeb	0.11018928
202	0x3da6be12	0.08141722
203	0xbcf72388	-0.03016831
204	0xbe261ae5	-0.16221197
205	0x3d73a129	0.059479866
206	0x3e27f641	0.16402532
207	0x3e229a24	0.15879112
208	0x3da3a933	0.079912566
209	0x3d0b290d	0.033974696
210	0x3c969488	0.018381372
211	0x3e0efc6d	0.1396348
212	0x3e3c49d1	0.18387534
213	0x3e04d281	0.12970926
214	0x3cf7dff4	0.030258156
215	0xbd73d5cf	-0.059530076
216	0x3d5d4999	0.054025266
217	0x3dec6c6d	0.11544118
218	0x3de179e1	0.11009575
219	0xbb1c0130	-0.0023804419
220	0xbe8672aa	-0.26259357
221	0xbdf6122d	-0.120151855
222	0xbce48cf2	-0.02789924
223	0x3d18af35	0.037276465
224	0x3d13239b	0.035922628
225	0xbe4dcc9b	-0.20097582
226	0xbdf7d9f4	-0.12102118
227	0x3dd50065	0.10400466
228	0x3e4d427d	0.20044895
229	0x3e845428	0.25845456
230	0xbe5ad52a	-0.21370378
231	0xbc8d8da4	-0.017279454
232	0x3e34898f	0.176306
233	0x3e11bd86	0.14232454
234	0x3acb130a	0.0015493345
235	0xbe9c843d	-0.3056964
236	0xbc06e928	-0.0082343
237	0x3df7e847	0.1210485
238	0xbcfdf398	-0.030999944
239	0xbe8c108e	-0.2735638
240	0xbe8835d7	-0.26603577
241	0x3d0f2425	0.03494658
242	0x3df4cd6d	0.11953244
243	0xbd27f2c6	-0.04100301
244	0xbeab641b	-0.33474812
245	0xbe51dbb0	-0.2049396
246	0x3ddc3988	0.10753161
247	0x3e861367	0.26186678
248	0x3dab0ec4	0.08352426
249	0xbe1fc755	-0.15603383
250	0x3b7a1e5d	0.003816507
251	0x3d9ac91f	0.07557892
252	0x3e2d03f1	0.16896035
253	0x3e5e0605	0.21681984
254	0x3dfd8238	0.12378353
255	0x3d595e2c	0.053068325

base.conv1.1.weight f4 [8]
0	0x3dc375d6	0.0954396
1	0x8000959a	-5.3667e-41
2	0x3f709ab1	0.9398604
3	0x3e1ae310	0.1512568
4	0x3e5c79cb	0.21530835
5	0x3e7a8988	0.24466527
6	0x3eac4362	0.3364516
7	0x3e845bd8	0.2585132

base.conv1.1.bias f4 [8]
0	0xbe3bf69a	-0.1835579
1	0xbda48bc5	-0.080344714
2	0x3e5ca650	0.21547818
3	0xbe3e4be5	-0.18583639
4	0x3d9d6846	0.07685904
5	0x3eb8aa2a	0.36067325
6	0x3dcadcaf	0.09905373
7	0xbe0dfbf0	-0.13865638

base.conv1.1.running_mean f4 [8]
0	0x41457fbb	12.343684
1	0x00000004	6e-45
2	0x41de33d9	27.775316
3	0xbe03bd48	-0.12865174
4	0xbf86af6c	-1.0522285
5	0xc0d36aae	-6.6067724
6	0x40c03862	6.0068827
7	0xc01154e4	-2.2708063

base.conv1.1.running_var f4 [8]
0	0x45b8e8c5	5917.096
1	0x00000004	6e-45
2	0x47345c24	46172.14
3	0x450526ba	2130.4204
4	0x44285a85	673.41437
5	0x45e224e1	7236.61
6	0x45bc2b41	6021.4067
7	0x4596ba8e	4823.3193

base.conv2.0.weight f4 [8, 8, 3, 3]
0	0x00000000	0.0
1	0x00000000	0.0
2	0x00000000	0.0
3	0x00000000	0.0
4	0x00000000	0.0
5	0x00000000	0.0
6	0x80000000	-0.0
7	0x80000000	-0.0
8	0x80000000	-0.0
9	0x00000000	0.0
10	0x00000000	0.0
11	0x00000000	0.0
12	0x00000000	0.0
13	0x00000000	0.0
14	0x00000000	0.0
15	0x00000000	0.0
16	0x00000000	0.0
17	0x00000000	0.0
18	0x80000000	-0.0
19	0x80000000	-0.0
20	0x00000000	0.0
21	0x80000000	-0.0
22	0x80000000	-0.0
23	0x80000000	-0.0
24	0x00000000	0.0
25	0x80000000	-0.0
26	0x80000000	-0.0
27	0x00000000	0.0
28	0x80000000	-0.0
29	0x80000000	-0.0
30	0x00000000	0.0
31	0x80000000	-0.0
32	0x80000000	-0.0
33	0x00000000	0.0
34	0x00000000	0.0
35	0x80000000	-0.0
36	0x80000000	-0.0
37	0x00000000	0.0
38	0x80000000	-0.0
39	0x00000000	0.0
40	0x00000000	0.0
41	0x80000000	-0.0
42	0x80000000	-0.0
43	0x80000000	-0.0
44	0x80000000	-0.0
45	0x80000000	-0.0
46	0x80000000	-0.0
47	0x80000000	-0.0
48	0x80000000	-0.0
49	0x00000000	0.0
50	0x00000000	0.0
51	0x00000000	0.0
52	0x00000000	0.0
53	0x00000000	0.0
54	0x80000000	-0.0
55	0x80000000	-0.0
56	0x00000000	0.0
57	0x00000000	0.0
58	0x80000000	-0.0
59	0x80000000	-0.0
60	0x80000000	-0.0
61	0x00000000	0.0
62	0x00000000	0.0
63	0x00000000	0.0
64	0x80000000	-0.0
65	0x00000000	0.0
66	0x00000000	0.0
67	0x80000000	-0.0
68	0x80000000	-0.0
69	0x00000000	0.0
70	0x00000000	0.0
71	0x80000000	-0.0
72	0x3e386065	0.18005522
73	0x3d0ad0ef	0.03389066
74	0x3d88424c	0.0665327
75	0x3de62632	0.11237754
76	0xbd1a355d	-0.037648547
77	0x3d550953	0.052010845
78	0xbe966a9c	-0.29378211
79	0xbf2471b6	-0.6423601
80	0xbe59ea1c	-0.21280712
81	0x3d8482f7	0.06470292
82	0x3def6831	0.11689795
83	0xbccfaad2	-0.025350008
84	0x3de4bcd8	0.111688316
85	0x3e4f2216	0.20227847
86	0xbd74d95b	-0.0597776
87	0xbd7aaeb9	-0.061201785
88	0xbe527b68	-0.20554888
89	0xbe73192f	-0.23740076
90	0xbe0041a0	-0.12525034
91	0xbd87eb29	-0.0663665
92	0xbce98e3c	-0.028510205
93	0xbec47241	-0.3836842
94	0x3ea815b5	0.3282906
95	0x3e826a7c	0.25471866
96	0xbe396ae3	-0.1810718
97	0x3e9c3317	0.30507728
98	0xbc2d6218	-0.010582469
99	0x3c3214b9	0.0108691985
100	0x3d0894c4	0.033345
101	0x3d57bdf1	0.052671377
102	0x3e2e6334	0.1703003
103	0xbf474e42	-0.77853787
104	0xbd0176e1	-0.031607512
105	0xbd47ce63	-0.04878081
106	0x3f3998f6	0.72499025
107	0xbd430987	-0.047616508
108	0x3cbfa5eb	0.023394546
109	0x3dbb5c18	0.09148425
110	0xbd492d8b	-0.0491157
111	0x3e1d1757	0.15340935
112	0xbea8d20f	-0.32972762
113	0x3e06a546	0.13148984
114	0xbc6a3bdf	-0.014296501
115	0x3d7a35ca	0.061086453
116	0x3da4b13d	0.08041618
117	0x3cd603e2	0.026124898
118	0xbcd4357a	-0.025904406
119	0xbd2d28ae	-0.042275123
120	0xbd147eee	-0.036253862
121	0xbdae0ed2	-0.084989205
122	0x3af2cd8e	0.0018524395
123	0x3d4b5b62	0.049647696
124	0xbd2f8793	-0.042853903
125	0x3cf20447	0.029543055
126	0x3d5ec685	0.05438854
127	0xbdb31e42	-0.087460056
128	0xbbd9dc3e	-0.0066485694
129	0xbdbbfce1	-0.09179092
130	0x3ec3b57b	0.38224396
131	0x3b352929	0.0027642942
132	0xbe11301f	-0.14178513
133	0xbe722061	-0.23645164
134	0xbd11f1e4	-0.035631076
135	0x3c31595a	0.010824526
136	0x3d4769b4	0.04868479
137	0xbd41c116	-0.04730328
138	0xbd8dfab9	-0.06932587
139	0x3bb678bf	0.0055685933
140	0xbe013f28	-0.12621748
141	0x3d40a1d6	0.04702934
142	0x3f126a06	0.5719303
143	0xbe2ab8d9	-0.16672076
144	0x3bff3b08	0.0077890195
145	0xbdc30640	-0.095226765
146	0x3de955c8	0.113933146
147	0xbe49ea73	-0.19718342
148	0xbe98fa4e	-0.29878467
149	0x3e3cbd5b	0.18431608
150	0x3d333380	0.043750286
151	0x3e359f13	0.17736463
152	0x3d64206e	0.05569499
153	0xbdc7f7ab	-0.09764036
154	0x3e83dd9b	0.2575501
155	0xbb9e7f68	-0.0048369654
156	0xbe84da46	-0.2594778
157	0x3e4c49e7	0.19950067
158	0xbb2942a2	-0.002582707
159	0xbe513f84	-0.20434386
160	0x3db59845	0.08866934
161	0x3d803f73	0.06262102
162	0x3d4ba974	0.04972215
163	0x3ca6cf58	0.020362541
164	0xbd09c960	-0.03363931
165	0xba536cdd	-0.0008065233
166	0x3c6f25e6	0.014596438
167	0xbde28902	-0.110612884
168	0xbbea5a7f	-0.0071519013
169	0x3dde60c1	0.10858298
170	0xbd300ae3	-0.042979132
171	0xbbc95aa0	-0.0061448365
172	0xbe743f5c	-0.23852295
173	0x3d51381f	0.051078912
174	0xbeb6a28f	-0.35670897
175	0x3eb2f3b7	0.34951565
176	0x3ead54f7	0.33853886
177	0x3c121969	0.008917191
178	0xbdbc164e	-0.09183942
179	0x3d5ba3df	0.053623077
180	0xbcecdcff	-0.028913973
181	0x3cdc66f6	0.026904564
182	0xbd95625d	-0.07294152
183	0x3e190a2f	0.14945291
184	0x3c8e4a4b	0.01736941
185	0xbdb2ac84	-0.08724311
186	0xbc927e2d	-0.01788243
187	0xbc52c7f7	-0.012865058
188	0xbd1aad54	-0.037762955
189	0x3cda6a06	0.026661884
190	0xbd014d65	-0.03156795
191	0xbe3d65ea	-0.18495908
192	0xbe04149e	-0.1289849
193	0x3ec48c38	0.38388228
194	0x3e441408	0.19148266
195	0x3c54fd76	0.012999883
196	0x3de17118	0.11007899
197	0xbe0cb09a	-0.13739243
198	0xbd64395f	-0.055718776
199	0x3dadcd06	0.08486371
200	0xbe3895ef	-0.18025945
201	0x3e09af08	0.13445675
202	0x3f2833c6	0.65704
203	0xbeac1985	-0.3361322
204	0x3bd72ca6	0.006566602
205	0xbd5a5f5b	-0.053313594
206	0xbd17d1d4	-0.037065342
207	0x3cf526f1	0.029925795
208	0x3e80c8dd	0.25153247
209	0x3d4f94bb	0.05067895
210	0x3e92273f	0.28545567
211	0xbfa03820	-1.2517128
212	0x3e71aae5	0.23600347
213	0xbd001bb5	-0.031276423
214	0xbd94f8bd	-0.072740056
215	0x3e3a72e4	0.1820789
216	0xbd56ff03	-0.052489292
217	0xbe0d12d2	-0.1377671
218	0xbd27ed29	-0.040997658
219	0x3e25518e	0.16144392
220	0xbd1eded5	-0.038786728
221	0x3dad54bb	0.08463427
222	0xbd8bf365	-0.06833533
223	0x3e0d1762	0.13778451
224	0x3e13e1ec	0.14441651
225	0xbdd54efe	-0.10415457
226	0xbe8b371e	-0.2719049
227	0xbed3dbce	-0.41378635
228	0x3f20e9dd	0.6285685
229	0x3ecd8f2c	0.40148294
230	0xbed2c6ca	-0.4116729
231	0x3ed6fe24	0.4199077
232	0x3e4268f8	0.18985355
233	0xbeb36c89	-0.35043743
234	0x3c0f3755	0.0087412195
235	0xbd3941e4	-0.045228854
236	0xbd88936c	-0.066687435
237	0x3d61418f	0.054994162
238	0x3d85567e	0.06510638
239	0xbe149155	-0.14508565
240	0x3d45b164	0.048264876
241	0x3cc640f0	0.024200886
242	0xbd38f684	-0.04515697
243	0xbcd8fa20	-0.026486456
244	0x3d82501a	0.063629344
245	0x3cb8838d	0.022523666
246	0x3eb27251	0.34852841
247	0xbeeedecb	-0.46654353
248	0x3d284bef	0.04108804
249	0x3e017513	0.12642317
250	0xbdd38f0e	-0.1033002
251	0x3d553ea1	0.05206168
252	0xbc226a31	-0.009913013
253	0x3d871adb	0.06596919
254	0xbd8a5135	-0.0675377
255	0xbdb5cb9b	-0.08876725

base.conv2.1.weight f4 [8]
0	0x00001ecf	1.1052e-41
1	0x3e8b18c7	0.2716734
2	0x3eb6bac4	0.35689366
3	0x3ea66a26	0.3250286
4	0x3e83c507	0.25736257
5	0x3e865a1c	0.26240623
6	0x3eb73e8d	0.3578991
7	0x3ebb8015	0.36621156

base.conv2.1.bias f4 [8]
0	0x3ec941ff	0.39308164
1	0x3e325ab5	0.17417414
2	0x3b9f596f	0.0048629562
3	0x3e72315e	0.23651645
4	0x3f39c024	0.7255881
5	0x3e115b75	0.14195044
6	0x3e488403	0.19581608
7	0x3e1ffea6	0.15624484

base.conv2.1.running_mean f4 [8]
0	0x80000004	-6e-45
1	0x3d77438d	0.060367156
2	0x3e048e9f	0.1294503
3	0xbe573a65	-0.2101837
4	0x3d251fe4	0.040313616
5	0xbe3d5f23	-0.18493323
6	0x3d1e148d	0.038593818
7	0xbd7c785b	-0.061638217

base.conv2.1.running_var f4 [8]
0	0x00000004	6e-45
1	0x3dde7416	0.108619854
2	0x3e17241c	0.14759868
3	0x3db8f468	0.09030992
4	0x3d9b8a10	0.07594693
5	0x3da56cf1	0.080774195
6	0x3ded40ef	0.11584651
7	0x3e29a598	0.16567075

base.conv3.0.weight f4 [16, 8, 3, 3]
0	0xbd5a38b1	-0.05327672
1	0x3e08cd48	0.13359559
2	0x3cbe3bba	0.02322184
3	0x3c1b041d	0.00946143
4	0x3bd071a7	0.0063612047
5	0xbdd0f17a	-0.10202308
6	0x3dec4c67	0.1153801
7	0xbca1cef5	-0.019752005
8	0xbbc1636f	-0.005901746
9	0x3c4130d0	0.011791423
10	0xbe2890c4	-0.16461474
11	0xbdb80e7b	-0.08987137
12	0xbc7913e2	-0.015202494
13	0xbd9af7dc	-0.07566807
14	0xbd5ac68b	-0.053412
15	0x3c955973	0.01823113
16	0x3dffbe39	0.12487454
17	0x3da1f414	0.07907882
18	0xbdc5c6a5	-0.09657029
19	0xbef95c5a	-0.4870327
20	0xbda31b97	-0.07964247
21	0x3d5b7716	0.053580366
22	0xbf171104	-0.5901034
23	0xbe051a4c	-0.12998313
24	0x3db45371	0.08804978
25	0xbe0a2b08	-0.13492978
26	0xbd5c7d41	-0.05383039
27	0xbd18b188	-0.037278682
28	0x3ddc81f2	0.107669726
29	0x3e4c7c0b	0.19969194
30	0x3e57a8c8	0.21060479
31	0xbcf480c9	-0.029846566
32	0x3debe68a	0.11518581
33	0xbcf0f8d3	-0.029415524
34	0xbdf7d550	-0.12101233
35	0x3d25866d	0.0404114
36	0xbca8d6f2	-0.020610306
37	0x3dd1a0c4	0.10235742
38	0xbb2516a0	-0.0025190488
39	0xbe0e5484	-0.13899428
40	0x3dc92e33	0.09823265
41	0x3dac7079	0.0841989
42	0xbda25bc8	-0.07927662
43	0xbe145e0f	-0.14489006
44	0x3b40fdf5	0.0029448245
45	0xbe8103ad	-0.25198117
46	0xbe863ef2	-0.26219898
47	0xbcce9dd9	-0.025221752
48	0xbee43483	-0.44571313
49	0xbf24ba59	-0.64346844
50	0x3dc21384	0.094763786
51	0x3d133b37	0.035945144
52	0xbe8ed9e5	-0.27900615
53	0xbda706f5	-0.08155624
54	0x3de5df6d	0.11224256
55	0xbe03ed4b	-0.12883489
56	0xbda95dd5	-0.0826985
57	0xbe1faf95	-0.15594323
58	0xbe6636f0	-0.22481894
59	0x3d91f040	0.07125902
60	0xbdbc478d	-0.09193335
61	0x3bf0316d	0.0073301108
62	0x3df8343a	0.121193364
63	0xbe22f2fc	-0.15913004
64	0x3e5c2c00	0.2150116
65	0x3ded8250	0.11597121
66	0xbe46b3da	-0.19404545
67	0xbdab2b20	-0.08357835
68	0x3da4e457	0.08051365
69	0x3d2966fe	0.041357987
70	0x3cc1d813	0.023662603
71	0x3d15cc3a	0.03657172
72	0x3e11e568	0.14247668
73	0x3e171ee1	0.14757873
74	0xbe12f438	-0.14350975
75	0x3d704900	0.05866337
76	0x3de510a0	0.111848116
77	0xbe0d3ead	-0.1379344
78	0xbdc0877a	-0.0940084
79	0xbd408316	-0.047000013
80	0x3cdc0a93	0.02686051
81	0xbe12270e	-0.1427271
82	0xbec5a67b	-0.38603577
83	0x3da0c9d5	0.078509964
84	0xbe790bd0	-0.24320912
85	0xbeb7e1f4	-0.35914576
86	0x3e22595b	0.15854399
87	0xbbe3bdd3	-0.006950119
88	0x3d6895de	0.05678355
89	0x3c2ce31e	0.010552196
90	0x3d6f49eb	0.058420103
91	0xbbe88a1e	-0.007096543
92	0x3da3f2f0	0.08005321
93	0x3deeafbc	0.116546124
94	0xbe814a02	-0.25251776
95	0x3e3d35a8	0.184775
96	0x3cebdd0d	0.028791929
97	0x3d099d9a	0.033597566
98	0x3ca650f0	0.020302266
99	0x3db4eab8	0.088338315
100	0x3dd54404	0.104133636
101	0xbc0f79cd	-0.008757067
102	0x3dcdc016	0.10046403
103	0xbde57808	-0.11204535
104	0x3da39dd8	0.07989091
105	0x3c7ab2bc	0.015301403
106	0xbbba9440	-0.0056939423
107	0x3e0b5943	0.1360827
108	0x3d58851a	0.05286131
109	0xbcddd5e7	-0.027079536
110	0x3d10e89c	0.035378084
111	0xbe5a5fca	-0.21325603
112	0xbeb2efb9	-0.3494852
113	0x3d1ef62b	0.038808983
114	0xbe05b07b	-0.13055603
115	0xbf347e1e	-0.7050494
116	0x3d4227fb	0.04740141
117	0xbe0c9217	-0.13727604
118	0x3daf2e1e	0.08553718
119	0x3d835d36	0.06414263
120	0xbb526137	-0.0032101402
121	0xbd58b405	-0.052906055
122	0x3e0f263c	0.13979429
123	0x3e1f172c	0.15536183
124	0xbd826d1e	-0.06368469
125	0x3d9ed1e4	0.07754877
126	0x3d9bbd7b	0.076045
127	0xbd8731f3	-0.06601324
128	0x3c83a5b5	0.016070226
129	0xbcbbaeec	-0.022910558
130	0xbdb29755	-0.087202705
131	0x3c8a5474	0.016885974
132	0x3e140afd	0.14457317
133	0x3e35dbf6	0.1775969
134	0x3d12824b	0.03576879
135	0x3db10f48	0.08645493
136	0x3a3705fa	0.00069817866
137	0xbc8b98af	-0.017040579
138	0xbe6b013a	-0.22949687
139	0xbf801fa3	-1.0009655
140	0xbe7683d9	-0.24073733
141	0xbc8be0b2	-0.017074917
142	0xbdf7ff85	-0.12109283
143	0xbd817936	-0.06321947
144	0x3d4a179f	0.049338933
145	0x3e292940	0.16519642
146	0x3d7b66ee	0.06137746
147	0xbcd0d16d	-0.025490487
148	0xbdcabd77	-0.09899419
149	0x3d54c4b2	0.051945396
150	0x3bbc49bf	0.005746096
151	0xbe4d0ed1	-0.20025183
152	0xbd4deb9e	-0.05027353
153	0xbc7f0784	-0.015565757
154	0xbcfee790	-0.031116277
155	0xbe2eb016	-0.17059359
156	0xbdc82826	-0.09773283
157	0x3d9a59c3	0.07536652
158	0x3d8bb17d	0.068209626
159	0xbd276689	-0.04086927
160	0xbe3cc265	-0.1843353
161	0x3cad7d8b	0.021178028
162	0x3c0452c0	0.00807637
163	0x3cdc9cc7	0.026930226
164	0xbc5cefe3	-0.013484928
165	0x3ce123d2	0.0274829
166	0xbe8f97d4	-0.28045523
167	0x3b16b29f	0.002299465
168	0xbc01c2a4	-0.007919941
169	0x3d56c7ec	0.052436754
170	0x3c80c42f	0.015718548
171	0x3d8f1fa1	0.069884546
172	0x3d75c0c2	0.05999828
173	0x3d8c729e	0.06857799
174	0x3d7b78e5	0.06139459
175	0xbe234bcd	-0.15946884
176	0xbd04955f	-0.032369014
177	0x3ac09513	0.0014692865
178	0xbceadb66	-0.02866907
179	0x39c12c11	0.0003684466
180	0x3c6cfdbc	0.014464792
181	0x3d7b520d	0.061357547
182	0xbc9ecdfb	-0.019385329
183	0x3e22a45c	0.1588301
184	0x3f4252c1	0.7590752
185	0xbd2505e5	-0.040288825
186	0x3e361f02	0.17785266
187	0x3e92e2fd	0.28688803
188	0xbd9c7f28	-0.07641441
189	0x394ba892	0.00019422386
190	0xbbb4b1bd	-0.005514352
191	0xbc61cb99	-0.013781452
192	0xbe592397	-0.21204983
193	0xbe8f4ff7	-0.27990696
194	0x3cf54a38	0.029942617
195	0x3d9a3d9c	0.07531282
196	0x3e1b0c8b	0.15141504
197	0xbcd3b197	-0.025841517
198	0xbd3437ba	-0.043998457
199	0xbdd1dee2	-0.1024759
200	0xbda999c1	-0.08281279
201	0x3e899837	0.26873943
202	0x3f78969d	0.9710482
203	0x3d16556e	0.036702566
204	0xbe231269	-0.15924992
205	0xbeba9460	-0.36441326
206	0xbe0b1243	-0.13581185
207	0x3c999bdc	0.018751077
208	0xbcb60bce	-0.022222426
209	0x3cc98a75	0.024602154
210	0xbe59d80f	-0.21273826
211	0xbf88fe2d	-1.0702568
212	0xbe8a8123	-0.27051648
213	0xbc9f9eb6	-0.019484859
214	0x3e7369ac	0.2377078
215	0x3e05d9d6	0.13071379
216	0x80000000	-0.0
217	0x80000000	-0.0
218	0x00000000	0.0
219	0x80000000	-0.0
220	0x80000000	-0.0
221	0x80000000	-0.0
222	0x80000000	-0.0
223	0x80000000	-0.0
224	0x80000000	-0.0
225	0x00000000	0.0
226	0x00000000	0.0
227	0x80000000	-0.0
228	0x00000000	0.0
229	0x00000000	0.0
230	0x80000000	-0.0
231	0x00000000	0.0
232	0x80000000	-0.0
233	0x80000000	-0.0
234	0x00000000	0.0
235	0x00000000	0.0
236	0x80000000	-0.0
237	0x00000000	0.0
238	0x00000000	0.0
239	0x00000000	0.0
240	0x00000000	0.0
241	0x00000000	0.0
242	0x00000000	0.0
243	0x80000000	-0.0
244	0x00000000	0.0
245	0x00000000	0.0
246	0x00000000	0.0
247	0x00000000	0.0
248	0x00000000	0.0
249	0x80000000	-0.0
250	0x00000000	0.0
251	0x00000000	0.0
252	0x80000000	-0.0
253	0x80000000	-0.0
254	0x80000000	-0.0
255	0x00000000	0.0

base.conv3.1.weight f4 [16]
0	0x3ee09601	0.43864444
1	0x3ec9f9d6	0.39448422
2	0x3f030f06	0.511948
3	0x8001a9dd	-1.52771e-40
4	0x3f06d81f	0.52673525
5	0x3ebd5f90	0.3698697
6	0x3e83fe1c	0.25779808
7	0x3181d024	3.778057e-09
8	0x3e87b608	0.26506066
9	0x3ea773f7	0.32705662
10	0x3ed47271	0.41493562
11	0x3e94e634	0.2908188
12	0x0001423e	1.15599e-40
13	0x3e89f2be	0.2694301
14	0x3e740ac3	0.2383223
15	0x3ebba6a0	0.36650562

base.conv3.1.bias f4 [16]
0	0x3d9c1abf	0.07622289
1	0x3ea6e246	0.32594508
2	0x3cc572e9	0.024102645
3	0x3e8611f4	0.26185572
4	0x3da14971	0.07875336
5	0x3c6b4a50	0.014360979
6	0xbd9c6235	-0.07635919
7	0xba27e2b7	-0.00064043276
8	0x3ecee7eb	0.40411314
9	0x3c26bb0a	0.0101764295
10	0x3e1cd0c1	0.15314008
11	0xbd1bca33	-0.03803463
12	0xa7576f23	-2.9897491e-15
13	0x3e845edc	0.25853622
14	0x3e3d2450	0.18470883
15	0x3c0485fd	0.008088586

base.conv3.1.running_mean f4 [16]
0	0xbee70cb9	-0.45126894
1	0xbf9247c7	-1.1428155
2	0x3f2b5822	0.66931355
3	0x80000004	-6e-45
4	0x3eab8204	0.33497632
5	0xbf9ffd10	-1.2499104
6	0xbec0b850	-0.3764062
7	0x80000004	-6e-45
8	0xbf57fd85	-0.84371215
9	0xbec20144	-0.3789159
10	0xbbbb7b5a	-0.0057214918
11	0x3df461e9	0.119327374
12	0x80000004	-6e-45
13	0xbd561838	-0.05226919
14	0x3c150f49	0.009097883
15	0x3e4dedc6	0.20110235

base.conv3.1.running_var f4 [16]
0	0x3e310df7	0.17290483
1	0x3e2a95a1	0.16658641
2	0x3eb8fd15	0.36130586
3	0x00000004	6e-45
4	0x3e076cfb	0.13225166
5	0x3e8d652d	0.27616253
6	0x3db7d377	0.089758806
7	0x00000004	6e-45
8	0x3e5722dc	0.21009392
9	0x3e4b5dbd	0.19859977
10	0x3e550f6d	0.20806666
11	0x3e778d47	0.24174987
12	0x00000004	6e-45
13	0x3df09ebb	0.117490254
14	0x3ce449e0	0.027867258
15	0x3e18f905	0.14938743

base.conv4.res_layer.0.weight f4 [16, 16, 3, 3]
0	0x3bedc068	0.0072556026
1	0xbe4fb711	-0.20284678
2	0xbe23fa39	-0.16013421
3	0x3e9454a8	0.28970838
4	0xbe9c01c3	-0.30470094
5	0xbe11ce96	-0.14238963
6	0xbd036d42	-0.03208662
7	0x3d01d0db	0.03169332
8	0x3d408bff	0.04700851
9	0xbdd1cade	-0.10243772
10	0xbd8b04f7	-0.06788056
11	0xbd6b2a6d	-0.057413507
12	0x3dab66da	0.08369227
13	0xbd0b503b	-0.03401206
14	0x3d90d2f0	0.07071483
15	0xbce4feff	-0.027953623
16	0xbcd13c14	-0.025541343
17	0xbe86a4f5	-0.26297727
18	0x3dd3723a	0.10324521
19	0x3e3f6877	0.18692194
20	0x3d8a5dd5	0.06756178
21	0xbcdbd42d	-0.026834572
22	0x3d8c7c07	0.06859594
23	0x3cd5999b	0.026074221
24	0xbd576098	-0.052582353
25	0x3c996d9b	0.018729022
26	0x3ca41c6c	0.020033084
27	0xbe57c663	-0.21071772
28	0xbe233b9f	-0.15940712
29	0xbd7d341e	-0.06181728
30	0xbe3d7479	-0.18501462
31	0xbdb44194	-0.088015705
32	0xbbebb2d5	-0.0071929493
33	0x3e136afe	0.14396283
34	0x3c5279f7	0.0128464615
35	0x3e04ea56	0.12980017
36	0xbba30593	-0.0049750297
37	0x3cc22e7b	0.023703804
38	0xbce6a2a2	-0.028153721
39	0xbe89fd33	-0.26950988
40	0xbd22dd91	-0.039762083
41	0xbc90fe34	-0.017699338
42	0xbd266198	-0.040620416
43	0x3d126ead	0.03575008
44	0xbc7d3147	-0.015453643
45	0x3e2e6b56	0.17033133
46	0x3dc466ce	0.09589921
47	0x3cbdcb7d	0.02316832
48	0x3da5a076	0.08087246
49	0x3e33806e	0.17529461
50	0x3de8278c	0.11335668
51	0xbd436d90	-0.04771191
52	0xbd1f429f	-0.038881894
53	0x3db15da0	0.08660436
54	0xbe260a03	-0.16214757
55	0xbcdbb290	-0.026818544
56	0xbd5b3000	-0.053512573
57	0xbd507d14	-0.050900534
58	0xbe3bbdbf	-0.18334101
59	0xbdc2eb63	-0.09517553
60	0x3d5c8bde	0.053844325
61	0xbb98b55e	-0.0046602925
62	0x3e02ae32	0.12761763
63	0xbd045b85	-0.032313842
64	0xbc9a4c1c	-0.01883512
65	0x3c97075b	0.018436125
66	0xbc5fd220	-0.013660938
67	0xbc1b9b15	-0.009497424
68	0x3ca31852	0.019909058
69	0xbc6aaf77	-0.014324061
70	0xbc793e2a	-0.015212575
71	0x3c9e6dfc	0.019339554
72	0x3e2edcf9	0.17076482
73	0xbdd05dfe	-0.101741776
74	0x3d7378d8	0.059441417
75	0x3e55ea4e	0.20890161
76	0x3cb76e64	0.022391506
77	0xbc22112c	-0.009891789
78	0x3dbeceac	0.09316763
79	0x3da62896	0.0811321
80	0xbe263d5c	-0.16234344
81	0x3d823e0b	0.0635949
82	0xbdac6358	-0.08417386
83	0x3dcda042	0.100403324
84	0x3c8946d4	0.016757406
85	0x3bcdc4d3	0.006279567
86	0x3d085588	0.033284694
87	0xbcc1d0fb	-0.02365922
88	0xbdcba690	-0.09943879
89	0xbc37b744	-0.0112131275
90	0xbded5cfa	-0.115899995
91	0xbdbacdf5	-0.091213144
92	0xbbb1db53	-0.005427757
93	0xbd4b0b63	-0.049571406
94	0xbe3bca97	-0.18339
95	0x3c6349b6	0.0138725545
96	0x3e07a2a3	0.13245635
97	0xbec7b672	-0.39006382
98	0xbe200677	-0.15627466
99	0x3e4001be	0.18750665
100	0x3e4a5acf	0.19761203
101	0x3d9e1306	0.07718472
102	0xbe59b468	-0.21260226
103	0x3dd1ae08	0.10238272
104	0x3daa4d40	0.083155155
105	0xbe869210	-0.26283312
106	0x3d3cbe0a	0.046079673
107	0xbc48097c	-0.0122092925
108	0x3cbd939f	0.02314168
109	0xbd54b0b8	-0.051926345
110	0xbd3df953	-0.046380352
111	0x3ccc8c8d	0.024969364
112	0xbd967b78	-0.073477685
113	0xbd78ef2e	-0.060774975
114	0x3c9c1e54	0.01905743
115	0xbd03d587	-0.032186057
116	0xbd078a10	-0.03309065
117	0x3db11496	0.086465046
118	0xbda06e1b	-0.07833501
119	0xbe1bf081	-0.15228464
120	0x3d59b85f	0.053154346
121	0xbd599ee0	-0.05313003
122	0xbcf22856	-0.02956025
123	0xbe3e96c6	-0.18612203
124	0xbe4f3404	-0.20234686
125	0xbd9585ab	-0.07300886
126	0x3d060dfa	0.032728173
127	0xbe1a27af	-0.150542
128	0xbdfefaa9	-0.124501534
129	0xbc073167	-0.0082515245
130	0xbde9727d	-0.1139879
131	0xbdd3adae	-0.10335861
132	0xbdb5190e	-0.088426694
133	0x3d42bb11	0.04754168
134	0xbd10a5cf	-0.035314377
135	0x3cc08150	0.023499161
136	0xbc8f04af	-0.017458288
137	0x3d156e29	0.03648201
138	0x3e1b720d	0.15180226
139	0xbc2027f0	-0.009775147
140	0xbdcd66cc	-0.100293726
141	0x3e335fe3	0.17517047
142	0xbe1cb536	-0.15303501
143	0x3dd879a0	0.10570073
144	0xbde7c235	-0.11316339
145	0xbd800836	-0.06251566
146	0xbe5eae39	-0.21746148
147	0xbcb96686	-0.022631895
148	0xbe1013ff	-0.14070128
149	0x3da4cec6	0.080472514
150	0xbe1f2cbe	-0.15544412
151	0x3e2c7efe	0.16845319
152	0x3f1902ff	0.59770197
153	0xbd9ce2ff	-0.076604836
154	0x3e603aa3	0.21897368
155	0x3daab453	0.08335175
156	0x3e2c6b02	0.16837695
157	0x3e557a73	0.20847492
158	0xbe697672	-0.2279909
159	0x3e2bce4a	0.16777912
160	0xbeb8257e	-0.35966104
161	0xbca85fd7	-0.020553512
162	0x3d93f65f	0.07224726
163	0xbe7e1e94	-0.24816352
164	0x3db6a186	0.08917527
165	0xbce86d57	-0.02837245
166	0x3e88fb4a	0.26754218
167	0xbde5e2dc	-0.112249106
168	0x3dd713d2	0.10501827
169	0xbeca523a	-0.3951586
170	0x3d102b8f	0.03519779
171	0xbd4574ca	-0.04820708
172	0xbd0ff012	-0.03514106
173	0x3d11cb70	0.035594404
174	0xbc459718	-0.012059949
175	0xbddd026f	-0.1079148
176	0xbd19b8db	-0.037529808
177	0x3e158e2a	0.14605013
178	0xbd8e2a0d	-0.06941614
179	0x3e084691	0.13308169
180	0x3c86e16b	0.01646491
181	0xbb51bbe5	-0.0032002863
182	0x3d526c45	0.051372785
183	0xbdb2e14a	-0.08734377
184	0xbda979b5	-0.08275167
185	0xbc8c1b63	-0.017102903
186	0xbd8b73e5	-0.068092145
187	0x3e9e9d94	0.30979598
188	0xbddafc03	-0.10692599
189	0x3d4b9b99	0.049708936
190	0x3d52849c	0.051395997
191	0xbd5e0756	-0.054206215
192	0xbe29a344	-0.16566187
193	0xbd62a226	-0.055330418
194	0x3e30f0eb	0.17279403
195	0x3ea285e0	0.31742764
196	0xbe9046d5	-0.2817904
197	0xbe50407b	-0.20337097
198	0xbe2c13c2	-0.16804412
199	0xbdae87da	-0.085220054
200	0xbcee735e	-0.029107746
201	0xbcf94bb7	-0.030431611
202	0xbe77d22b	-0.24201266
203	0x3bd35a0e	0.0064499443
204	0xbce72141	-0.028214099
205	0xbdedcab0	-0.11610925
206	0x3e0034af	0.12520097
207	0xbcb731cf	-0.022362618
208	0xbcc51357	-0.024057074
209	0xbcb766c5	-0.022387872
210	0xbd047a2f	-0.032343086
211	0xbd0f6dd4	-0.03501685
212	0xbccbb69b	-0.024867347
213	0xbcbed53e	-0.023295041
214	0xbce9c4c6	-0.028536212
215	0xbcc3666e	-0.023852553
216	0x3eab2067	0.3342316
217	0x3dc28233	0.0949749
218	0xbe3e9861	-0.18612815
219	0x3dd18122	0.10229708
220	0xbf011d02	-0.5043489
221	0xbc4fb724	-0.0126779415
222	0xbe93876f	-0.28814265
223	0x3e31279e	0.17300269
224	0xbc413974	-0.011793483
225	0x3dab234c	0.08356342
226	0xbdc4d202	-0.09610368
227	0xbcb73e25	-0.0223685
228	0xbe33148e	-0.1748831
229	0x3ddeb1ac	0.10873732
230	0xbe0e6a10	-0.13907647
231	0x3e022cd9	0.1271242
232	0xbe433339	-0.19062509
233	0x3ceb8eba	0.02875458
234	0xbdc27792	-0.094954625
235	0xbe2de5b3	-0.16982155
236	0xbc95a59a	-0.018267442
237	0xbc335fcc	-0.010948133
238	0xbead9d89	-0.33909252
239	0xbe1db089	-0.15399374
240	0xbdd3e6db	-0.103467666
241	0xbe046f26	-0.12933025
242	0xbd927d27	-0.07152777
243	0x3e114152	0.14185074
244	0xbd53b2c1	-0.051684145
245	0xbc136f69	-0.00899873
246	0x3bfe613c	0.007763056
247	0x3ee16aad	0.440267
248	0xbd380b85	-0.04493286
249	0x3e24e0ad	0.16101332
250	0xbd0e3a60	-0.03472364
251	0xbd1f59c4	-0.038903967
252	0x3c24bdef	0.010055049
253	0xbb7aa4a0	-0.0038245097
254	0xbb7e6391	-0.003881667
255	0x3c8d9eb7	0.017287595

base.conv4.res_layer.1.weight f4 [16]
0	0x3e8ab97e	0.27094644
1	0x3ef87ba6	0.48531836
2	0x3ec75193	0.38929424
3	0x3eb7d9ea	0.35908443
4	0x3eda702a	0.426637
5	0x3edabe81	0.42723468
6	0x3ec7f9dc	0.39057815
7	0x0000159e	7.755e-42
8	0x3ecaf928	0.39643216
9	0x8000111b	-6.136e-42
10	0x3ee68527	0.45023462
11	0x3ef4c5cf	0.47807166
12	0x8000092f	-3.294e-42
13	0x3eebb572	0.4603687
14	0x3ece9d20	0.40354252
15	0x3ec61257	0.38685867

base.conv4.res_layer.1.bias f4 [16]
0	0x3e52a7d5	0.20571835
1	0xbd9d77db	-0.07688876
2	0xbca987f8	-0.020694718
3	0xbe1deaaa	-0.15421548
4	0xbc3e6ce3	-0.01162264
5	0xbe72426a	-0.23658147
6	0x3ee1a25e	0.4406919
7	0x3319c254	3.579983e-08
8	0xbd165712	-0.03670413
9	0x80000e68	-5.168e-42
10	0xbcacfb5d	-0.021115953
11	0x3ea86089	0.3288615
12	0x80000369	-1.223e-42
13	0xbdca664b	-0.09882792
14	0x3d00145c	0.031269416
15	0x3e9d73fc	0.30752552

base.conv4.res_layer.1.running_mean f4 [16]
0	0xbf16a7c0	-0.58849716
1	0xbf03f958	-0.51552343
2	0xbf3676fe	-0.7127532
3	0xbdb0223d	-0.086002804
4	0xbeebbb7c	-0.46041477
5	0xbf14a303	-0.58061236
6	0xbeaf6f98	-0.34264827
7	0x00000004	6e-45
8	0xbf131b25	-0.57463294
9	0x80000004	-6e-45
10	0xbe3de5e1	-0.18544723
11	0xbe330749	-0.17483248
12	0x80000004	-6e-45
13	0xbeca4d00	-0.3951187
14	0xbf37646a	-0.71637595
15	0xbf74c44f	-0.95612043

base.conv4.res_layer.1.running_var f4 [16]
0	0x3da89a61	0.082325704
1	0x3e7c4b6e	0.24638149
2	0x3df6eb56	0.120566055
3	0x3da64bee	0.08119951
4	0x3e0baf37	0.13641058
5	0x3e229789	0.15878119
6	0x3ea91272	0.33021885
7	0x00000004	6e-45
8	0x3e44c5ed	0.19216128
9	0x00000004	6e-45
10	0x3dfaf14c	0.12253055
11	0x3ee7acf4	0.4524914
12	0x00000004	6e-45
13	0x3e69fe0a	0.22850814
14	0x3e0ce890	0.1376059
15	0x3e609973	0.21933536

base.conv4.res_layer.3.weight f4 [16, 16, 3, 3]
0	0x3e2588a0	0.161654
1	0x3e54ab37	0.20768438
2	0x3e35c70e	0.17751715
3	0xbd2ca7d0	-0.042152226
4	0x3e0fc915	0.1404155
5	0x3d6cc475	0.057804544
6	0xbe57be5b	-0.21068709
7	0x3c5a54fc	0.013325926
8	0x3e4bf2ae	0.19916794
9	0xbda5cfb8	-0.0809626
10	0xbc2e7b7f	-0.010649561
11	0xbdc57bc8	-0.0964275
12	0x3ce7b85d	0.028286153
13	0xbcb852bc	-0.022500388
14	0xbcc9ad1b	-0.024618676
15	0x3d27c068	0.040954977
16	0x3c9f7fad	0.01947006
17	0x3d6a95c1	0.057271723
18	0x3d7083b3	0.05871935
19	0x3e613261	0.21991874
20	0x3ddd7a39	0.10814328
21	0xbe7e85d4	-0.24855739
22	0x3d783c13	0.060604166
23	0x3db29f9b	0.087218486
24	0xbbcf316e	-0.006323031
25	0x3e04ecad	0.1298091
26	0x3e257723	0.16158728
27	0xbd96d956	-0.07365672
28	0xbac89aff	-0.0015304981
29	0xbd17515b	-0.03694282
30	0xbe4469eb	-0.1918103
31	0xbe281af6	-0.16416535
32	0x3b2ae576	0.002607671
33	0x3c614e7d	0.013751623
34	0x3d8e395f	0.069445364
35	0x3db0eeb9	0.08639283
36	0x3db65a25	0.089039125
37	0x3d229d74	0.03970094
38	0x3dc85f44	0.097837955
39	0xbdda9a59	-0.10673971
40	0xbe213aa7	-0.1574503
41	0xbdd98dbb	-0.10622736
42	0xbd699bb7	-0.057033267
43	0xbdf1936a	-0.11795695
44	0xbdefca63	-0.11708524
45	0x3ce60f73	0.028083539
46	0x3e13e2ad	0.14441939
47	0x3d65351f	0.055958863
48	0xbd9359c5	-0.071948566
49	0x3c3bc507	0.011460549
50	0x3dca2d7b	0.09871956
51	0xbdc7fffe	-0.097656235
52	0xbe1777e9	-0.14791836
53	0x3c86e6e2	0.016467515
54	0x3e631b6d	0.22178431
55	0x3e7906e8	0.24319041
56	0xbd0d64db	-0.03452001
57	0x3e8ce1c0	0.27515984
58	0x3e490934	0.19632417
59	0x3d58c422	0.05292142
60	0x3ccb0f72	0.024787638
61	0x3d9abeee	0.07555948
62	0xbdd70e91	-0.10500825
63	0x1347f4c5	2.5238012e-27
64	0x13566397	2.7059699e-27
65	0x12c850b7	1.2641672e-27
66	0x9249543e	-6.3528253e-28
67	0x0af0ec7c	2.3200115e-32
68	0x9281b37c	-8.185291e-28
69	0x12a6f66b	1.053682e-27
70	0x920cb078	-4.4393725e-28
71	0x111750a0	1.1936644e-28
72	0xbd8dace8	-0.06917745
73	0xbe55cfe8	-0.20880091
74	0xbe1c2e3c	-0.15252012
75	0xbdf41e32	-0.11919822
76	0xbdd1a38f	-0.102362745
77	0xbc677bd3	-0.014128643
78	0x3d060870	0.03272289
79	0x3db6ddaa	0.08928998
80	0x3db49eca	0.08819349
81	0x80000b9c	-4.165e-42
82	0x00001885	8.796e-42
83	0x80000162	-4.96e-43
84	0x000003a9	1.313e-42
85	0x0000059c	2.012e-42
86	0x000013b7	7.072e-42
87	0x00001aee	9.66e-42
88	0x00002185	1.2025e-41
89	0x80000a8a	-3.781e-42
90	0xbd23f40a	-0.040027656
91	0xbd18f9c1	-0.03734756
92	0x3d187b4b	0.037226956
93	0x3cfa73fe	0.030572888
94	0x3daf82f2	0.08569898
95	0xbba2790d	-0.004958278
96	0x3dd0c22f	0.101932876
97	0x3e72fb8b	0.23728769
98	0x3e8518cb	0.25995478
99	0xbe6cf5e0	-0.23140669
100	0xbe8f503b	-0.27990898
101	0xbd8c26cc	-0.068433374
102	0xbdb65b38	-0.08904117
103	0x3d66c55d	0.056340564
104	0x3db973b1	0.090552695
105	0x3d8774da	0.066140845
106	0x3ea0338f	0.31289336
107	0x3e7a4472	0.24440172
108	0x0000158a	7.727e-42
109	0x8000083b	-2.953e-42
110	0x8000105a	-5.866e-42
111	0x00001fc8	1.1401e-41
112	0x80000564	-1.934e-42
113	0x80000234	-7.9e-43
114	0x8000148a	-7.368e-42
115	0x00000f3e	5.468e-42
116	0x000005e4	2.113e-42
117	0xbc3a78a1	-0.011381299
118	0x3e1b227b	0.15149872
119	0x3de3bb32	0.11119689
120	0x3da0a2ec	0.07843575
121	0x3e57b037	0.21063314
122	0x3dddb7a9	0.10826046
123	0x3df49b70	0.1194371
124	0x3e766d5e	0.24065158
125	0x3dff58f2	0.12468137
126	0xbe09bc03	-0.13450627
127	0x3cfbdb75	0.030744294
128	0x3cb757d4	0.022380747
129	0xbd19f360	-0.037585616
130	0x3d5e2e1b	0.05424319
131	0xbe0e8672	-0.13918474
132	0xbdedfb37	-0.11620181
133	0xbcf81494	-0.03028325
134	0xbdc0dbf3	-0.09416952
135	0xbd945d3f	-0.07244348
136	0x3ce91e69	0.028456884
137	0x3e687bd4	0.22703487
138	0xbdd9eaa1	-0.10640455
139	0x3db7ac96	0.08968465
140	0x3d618a86	0.055063747
141	0xbd354861	-0.04425848
142	0x3d060034	0.032715037
143	0xbd6b9829	-0.057518158
144	0x00000000	0.0
145	0x80000000	-0.0
146	0x80000000	-0.0
147	0x80000000	-0.0
148	0x80000000	-0.0
149	0x00000000	0.0
150	0x00000000	0.0
151	0x00000000	0.0
152	0x00000000	0.0
153	0x00000000	0.0
154	0x00000000	0.0
155	0x80000000	-0.0
156	0x00000000	0.0
157	0x00000000	0.0
158	0x80000000	-0.0
159	0x00000000	0.0
160	0x80000000	-0.0
161	0x80000000	-0.0
162	0x80000000	-0.0
163	0x80000000	-0.0
164	0x00000000	0.0
165	0x80000000	-0.0
166	0x80000000	-0.0
167	0x00000000	0.0
168	0x00000000	0.0
169	0x00000000	0.0
170	0x00000000	0.0
171	0x80000000	-0.0
172	0x80000000	-0.0
173	0x80000000	-0.0
174	0x80000000	-0.0
175	0x80000000	-0.0
176	0x80000000	-0.0
177	0x80000000	-0.0
178	0x80000000	-0.0
179	0x80000000	-0.0
180	0x80000000	-0.0
181	0x80000000	-0.0
182	0x00000000	0.0
183	0x80000000	-0.0
184	0x80000000	-0.0
185	0x00000000	0.0
186	0x00000000	0.0
187	0x80000000	-0.0
188	0x00000000	0.0
189	0x80000000	-0.0
190	0x80000000	-0.0
191	0x80000000	-0.0
192	0x80000000	-0.0
193	0x80000000	-0.0
194	0x80000000	-0.0
195	0x80000000	-0.0
196	0x80000000	-0.0
197	0x80000000	-0.0
198	0x00000000	0.0
199	0x00000000	0.0
200	0x00000000	0.0
201	0x00000000	0.0
202	0x00000000	0.0
203	0x00000000	0.0
204	0x00000000	0.0
205	0x00000000	0.0
206	0x00000000	0.0
207	0x80000000	-0.0
208	0x80000000	-0.0
209	0x80000000	-0.0
210	0x00000000	0.0
211	0x00000000	0.0
212	0x80000000	-0.0
213	0x00000000	0.0
214	0x00000000	0.0
215	0x80000000	-0.0
216	0x00000000	0.0
217	0x80000000	-0.0
218	0x80000000	-0.0
219	0x00000000	0.0
220	0x00000000	0.0
221	0x80000000	-0.0
222	0x00000000	0.0
223	0x00000000	0.0
224	0x00000000	0.0
225	0x00000000	0.0
226	0x80000000	-0.0
227	0x00000000	0.0
228	0x80000000	-0.0
229	0x80000000	-0.0
230	0x00000000	0.0
231	0x80000000	-0.0
232	0x00000000	0.0
233	0x80000000	-0.0
234	0x80000000	-0.0
235	0x80000000	-0.0
236	0x80000000	-0.0
237	0x80000000	-0.0
238	0x80000000	-0.0
239	0x80000000	-0.0
240	0x80000000	-0.0
241	0x80000000	-0.0
242	0x00000000	0.0
243	0x80000000	-0.0
244	0x80000000	-0.0
245	0x00000000	0.0
246	0x00000000	0.0
247	0x00000000	0.0
248	0x00000000	0.0
249	0x80000000	-0.0
250	0x00000000	0.0
251	0x00000000	0.0
252	0x80000000	-0.0
253	0x00000000	0.0
254	0x80000000	-0.0
255	0x00000000	0.0

base.conv4.res_layer.4.weight f4 [16]
0	0x3ebd5999	0.3698242
1	0x313f2cce	2.7819627e-09
2	0x3e4b361e	0.19844863
3	0x3e864980	0.2622795
4	0x3eeeb17d	0.46619788
5	0x3f1f0abb	0.6212575
6	0x3ec55ee5	0.3854896
7	0x3ea083d4	0.31350577
8	0x3ed3a278	0.4133489
9	0xabd1f4e2	-1.4918312e-12
10	0x2c9abdb5	4.398005e-12
11	0x3ef28bef	0.47372386
12	0x3f0be61f	0.5464801
13	0x3eba4092	0.36377388
14	0x3edebc62	0.435031
15	0x3eb9f089	0.36316326

base.conv4.res_layer.4.bias f4 [16]
0	0x3e570a38	0.20999992
1	0x3cd81673	0.026377892
2	0xbc9715a6	-0.01844294
3	0x3e967306	0.2938463
4	0x3d8fa3d1	0.070136674
5	0xbd627d3a	-0.055295207
6	0xbe3682c3	-0.17823319
7	0xbe0d0cff	-0.13774489
8	0x3bb33f47	0.0054701897
9	0xbda49756	-0.080366775
10	0xbd64be5a	-0.055845596
11	0x3d4a0abc	0.049326643
12	0xbe4a86b7	-0.19777952
13	0xbe8c91f6	-0.2745511
14	0xbe5fdffe	-0.2186279
15	0xbdb3bb41	-0.0877595

base.conv4.res_layer.4.running_mean f4 [16]
0	0x3f4b9f72	0.7954017
1	0x00000004	6e-45
2	0xbe731b02	-0.23740771
3	0xbecf0b4a	-0.404383
4	0x3f52c15e	0.82326305
5	0xbf2be629	-0.6714807
6	0x3f48d23c	0.7844579
7	0x3bdc010b	0.0067139915
8	0x3e36a195	0.17835076
9	0x80000004	-6e-45
10	0x80000004	-6e-45
11	0xbeef28ec	-0.46710908
12	0x3e98e884	0.29864895
13	0x3ed1059f	0.408246
14	0x3f16af8e	0.58861625
15	0x3e15a1f4	0.14612561

base.conv4.res_layer.4.running_var f4 [16]
0	0x3db01779	0.08598227
1	0x00000004	6e-45
2	0x3cdeea5a	0.027211357
3	0x3dce45f7	0.100719385
4	0x3e0645bb	0.13112538
5	0x3e3af591	0.18257739
6	0x3dd70642	0.104992405
7	0x3dc059ef	0.093921535
8	0x3de91dc5	0.11382631
9	0x00000004	6e-45
10	0x00000004	6e-45
11	0x3def0cd1	0.116723664
12	0x3e7eb21d	0.24872632
13	0x3dad9bbd	0.0847697
14	0x3de8b113	0.11361899
15	0x3d8ed76c	0.06974682

base.m0.b2_1.0.shortcut_layer.0.weight f4 [16, 16, 1, 1]
0	0x3de1aa36	0.11018793
1	0x3da44c14	0.08022323
2	0xbd09db19	-0.033656213
3	0x3e588cde	0.21147487
4	0xbea6b727	-0.3256161
5	0xbdeb1670	-0.11478889
6	0x3dff4fd5	0.124663986
7	0xbe787cc2	-0.24266341
8	0xbdf3b7a2	-0.119002596
9	0x3deed13a	0.116610005
10	0x3e31202f	0.17297433
11	0xbd73109e	-0.05934202
12	0x3eabbc4f	0.33542106
13	0xbd58abe3	-0.0528983
14	0x3e150e21	0.14556171
15	0x3e4aef79	0.19817914
16	0xbc3ca8d8	-0.011514865
17	0x3b409153	0.0029383495
18	0x3d3fbcb2	0.046810813
19	0xbe6610f3	-0.22467403
20	0xbe1be27d	-0.15223117
21	0xbeafe2ef	-0.34352824
22	0xbd9595f1	-0.0730399
23	0xbe48fcb7	-0.19627653
24	0xbd5fda87	-0.054651763
25	0x3d36dc38	0.04464361
26	0xbda9def2	-0.082944766
27	0xbd8cb8a9	-0.06871159
28	0xbe85fcd9	-0.2616947
29	0xbe6b4261	-0.2297454
30	0xbe4ab2ed	-0.19794817
31	0xbdd7cfc9	-0.10537679
32	0x3c8b598d	0.017010475
33	0x3e28ba00	0.16477203
34	0x3d9ea640	0.077465534
35	0x3f09b85e	0.53796947
36	0xbde2583c	-0.110519856
37	0x3c65a03f	0.014015256
38	0x3e15debd	0.14635749
39	0xbcb2896b	-0.021794042
40	0xbc6c7c29	-0.014433899
41	0xbd802379	-0.06256766
42	0xbd675619	-0.056478593
43	0xbdaf83ba	-0.08570047
44	0xbefb6086	-0.4909708
45	0x3d6d07dc	0.057868823
46	0x3de3a7f4	0.11116019
47	0xbcdfeb55	-0.027333895
48	0x3ddc0cbb	0.10744616
49	0x3dbe5ed0	0.09295428
50	0x3b9f52b8	0.0048621558
51	0x3eae3469	0.3402436
52	0x3de81fae	0.113341674
53	0xbcd0dd6b	-0.025496205
54	0xbda597f8	-0.08085626
55	0xbe8f20e2	-0.27954775
56	0xbdc6a98f	-0.097003095
57	0xbd1c1801	-0.03810883
58	0x3c4ac911	0.0123770395
59	0x3e35828d	0.17725582
60	0x3e859e00	0.26097107
61	0xbdb8b05c	-0.09018013
62	0xbe871f01	-0.26390842
63	0xbe9c5b2f	-0.30538318
64	0x3e91c457	0.28470108
65	0xbe09a10a	-0.13440338
66	0xbdfb516f	-0.122713916
67	0xbcee0d54	-0.02905909
68	0x3e170d05	0.1475106
69	0xbe4f4d23	-0.20244269
70	0xbce60934	-0.02808056
71	0x3e8d5af8	0.27608466
72	0xbd85b7fc	-0.06529233
73	0xbd966186	-0.0734282
74	0xbcf4c91d	-0.029881055
75	0xbe33670b	-0.17519777
76	0xbdf7f767	-0.12107735
77	0xbe735c40	-0.2376566
78	0x3c6317ce	0.013860656
79	0x3df2d635	0.11857263
80	0x3d57586f	0.05257457
81	0x3e11544f	0.14192317
82	0x3c9aca50	0.018895298
83	0xbe89aec2	-0.26891142
84	0xbe61af0a	-0.22039428
85	0x3d808b6f	0.06276595
86	0xbe27fa8d	-0.16404171
87	0xbd989d47	-0.07451873
88	0x3e8fe93c	0.2810763
89	0xbcf8138c	-0.030282758
90	0xbd96c3dd	-0.07361577
91	0xbc0983d5	-0.008393248
92	0xbe84c91b	-0.2593468
93	0xbd474123	-0.048646104
94	0x3dc4031e	0.09570907
95	0xbd9233d3	-0.07138791
96	0x00000000	0.0
97	0x80000000	-0.0
98	0x80000000	-0.0
99	0x00000000	0.0
100	0x00000000	0.0
101	0x80000000	-0.0
102	0x80000000	-0.0
103	0x00000000	0.0
104	0x00000000	0.0
105	0x80000000	-0.0
106	0x00000000	0.0
107	0x00000000	0.0
108	0x00000000	0.0
109	0x80000000	-0.0
110	0x80000000	-0.0
111	0x80000000	-0.0
112	0x00000000	0.0
113	0x00000000	0.0
114	0x00000000	0.0
115	0x00000000	0.0
116	0x80000000	-0.0
117	0x00000000	0.0
118	0x00000000	0.0
119	0x00000000	0.0
120	0x80000000	-0.0
121	0x80000000	-0.0
122	0x00000000	0.0
123	0x80000000	-0.0
124	0x80000000	-0.0
125	0x80000000	-0.0
126	0x80000000	-0.0
127	0x80000000	-0.0
128	0x3ba43474	0.0050111357
129	0xbe561557	-0.20906578
130	0x3c9871f5	0.018609026
131	0xbeafbeb1	-0.34325173
132	0x3e6e56b5	0.23275264
133	0x3defd66f	0.11710822
134	0x3dd3e979	0.10347266
135	0xbe36fa69	-0.17868961
136	0x3dbadcfb	0.0912418
137	0xb9d0cd17	-0.00039825655
138	0xbdf612da	-0.120153144
139	0xbd83e147	-0.064394526
140	0xbc66b2ab	-0.014080684
141	0xbe0b9856	-0.1363233
142	0x3c87f1fe	0.016594883
143	0x3d514c34	0.051098064
144	0xbeaf68a0	-0.3425951
145	0xbc83baec	-0.016080342
146	0xbd653659	-0.055960033
147	0xbdbb4670	-0.09144294
148	0xbdb1d67c	-0.08683488
149	0xbe0bf311	-0.13666941
150	0xbe57c1b6	-0.21069989
151	0xbe94a609	-0.29032925
152	0xbe3c1b2f	-0.18369745
153	0xbc5583ab	-0.01303188
154	0xbcdf225e	-0.027238067
155	0x3df6af57	0.12045162
156	0x3d19b0eb	0.037522238
157	0x3ddab668	0.106793225
158	0x3e89fcfb	0.2695082
159	0x3ccc5847	0.024944438
160	0xbe8f85eb	-0.2803186
161	0x3e323245	0.17401989
162	0xbd10700c	-0.035263106
163	0x3e6b907e	0.23004338
164	0x3ddeec48	0.10884911
165	0xbe16bf9f	-0.14721535
166	0x3d93a0c9	0.07208402
167	0x3bcac623	0.0061881705
168	0x3e5bf651	0.21480681
169	0x3ca3ac93	0.01997975
170	0x3e14bd38	0.14525306
171	0x3c3fd2be	0.01170796
172	0x3e321f6f	0.17394803
173	0x3d617f0c	0.055052802
174	0xbdead909	-0.114671774
175	0x3ebdd7b7	0.3707864
176	0xbd5d43d1	-0.054019753
177	0x3d94789e	0.072495684
178	0xbdd914dd	-0.105996825
179	0xbead99dc	-0.33906448
180	0x3d90e51c	0.07074949
181	0xbe667577	-0.22505747
182	0xbdbc4247	-0.09192329
183	0x3e7f401c	0.249268
184	0xbd436fa2	-0.047713883
185	0xbe1df2d4	-0.15424663
186	0xbe2735c1	-0.16329099
187	0xbc2d24f3	-0.010567891
188	0xbd47e901	-0.048806194
189	0x3e0ac8af	0.13553117
190	0xbe21e94c	-0.15811652
191	0xbe39cd4a	-0.18144718
192	0x80000000	-0.0
193	0x00000000	0.0
194	0x00000000	0.0
195	0x80000000	-0.0
196	0x00000000	0.0
197	0x80000000	-0.0
198	0x00000000	0.0
199	0x80000000	-0.0
200	0x80000000	-0.0
201	0x80000000	-0.0
202	0x80000000	-0.0
203	0x80000000	-0.0
204	0x80000000	-0.0
205	0x00000000	0.0
206	0x80000000	-0.0
207	0x80000000	-0.0
208	0x3ccd6e12	0.0250769
209	0xbd28d175	-0.04121538
210	0x3d0257d9	0.03182206
211	0xbeab8762	-0.33501726
212	0xbd6b3567	-0.057423975
213	0x3e59ad79	0.21257581
214	0x3de0d54b	0.109781824
215	0x3e8458bf	0.25848958
216	0xbe8dad6b	-0.2767137
217	0xbd345b9d	-0.04403268
218	0x3c4f39d8	0.012648068
219	0x3e32a5ba	0.17446032
220	0xbe72c777	-0.23708902
221	0xbda8ce50	-0.08242476
222	0x3e30d194	0.17267448
223	0x3d395c5f	0.045254108
224	0xbe7a79b1	-0.24460484
225	0xbdc54b88	-0.09633547
226	0x3e734551	0.23756911
227	0x3e9ce3b0	0.30642462
228	0x3e12a225	0.14319666
229	0x3e33962f	0.17537759
230	0x3d41b133	0.04728813
231	0x3ed77b23	0.42086133
232	0xbaf046a8	-0.0018331604
233	0x3c159993	0.009130853
234	0x3d856147	0.06512695
235	0xbe08d274	-0.13361531
236	0x3d819498	0.0632717
237	0xbde1a80c	-0.110183805
238	0xbbdf446d	-0.006813577
239	0x3e199401	0.14997865
240	0x3d879231	0.06619681
241	0x3e074345	0.13209255
242	0x3cd2a281	0.025712254
243	0x3ea23372	0.31679875
244	0xbd0da762	-0.034583457
245	0x3db5b9a7	0.08873301
246	0xba32579f	-0.00068032177
247	0xbd8d53b7	-0.06900733
248	0xbd10af15	-0.03532322
249	0x3e3ff5e7	0.18746148
250	0x3e286300	0.16444016
251	0x3e564071	0.2092302
252	0x3d0ee2c8	0.034884244
253	0x3e8ad614	0.27116454
254	0x3e8e9b79	0.2785299
255	0x3b8b14c0	0.004244417

base.m0.b2_1.0.shortcut_layer.1.weight f4 [16]
0	0x3e7efd83	0.24901395
1	0x3e9bda15	0.3043982
2	0x3eea74cc	0.45792234
3	0x3ea20eb8	0.31651855
4	0x3e4aff23	0.1982389
5	0x3e324c4c	0.17411917
6	0x9bc3c81f	-3.238937e-22
7	0xb14173a9	-2.8150942e-09
8	0x3e1cb33d	0.15302749
9	0x3e846f3d	0.25866118
10	0x3e4bd2dc	0.19904655
11	0x3e3ed9f5	0.18637832
12	0xb5ff25df	-1.9010002e-06
13	0x3e950fba	0.2911356
14	0x3eaf3b51	0.34224942
15	0x3e1a418b	0.15064065

base.m0.b2_1.0.shortcut_layer.1.bias f4 [16]
0	0x3d281b89	0.041041885
1	0x3d7edc54	0.06222184
2	0xbe14598b	-0.14487283
3	0x3d3a7c60	0.04552877
4	0xbde97066	-0.113983914
5	0x3e4bc022	0.19897512
6	0xbd5f0216	-0.05444535
7	0xbd49521c	-0.04915057
8	0x3dfafb3c	0.122549504
9	0x3e89f419	0.26944044
10	0x3cdfb1ab	0.027306398
11	0xbe32ece1	-0.17473175
12	0xbd09cee5	-0.033644576
13	0xbde3698d	-0.111041166
14	0x3d571e2f	0.05251902
15	0x3df0e09d	0.117615916

base.m0.b2_1.0.shortcut_layer.1.running_mean f4 [16]
0	0x3bcb8c7e	0.0062118163
1	0xbe18c9d3	-0.1492074
2	0x3ecea91e	0.403634
3	0x3e8d83b4	0.27639544
4	0xbae4f6e7	-0.0017468602
5	0x3d68ba21	0.05681813
6	0x00000004	6e-45
7	0x00000004	6e-45
8	0xbe29add6	-0.1657022
9	0xbe81d7be	-0.2535991
10	0x3e416457	0.18885933
11	0xbe80212b	-0.25025305
12	0x80000004	-6e-45
13	0xbe9aebd4	-0.30258048
14	0x3d3021eb	0.043001097
15	0x3e950195	0.2910277

base.m0.b2_1.0.shortcut_layer.1.running_var f4 [16]
0	0x3e0caceb	0.13737838
1	0x3dd99720	0.10624528
2	0x3e112d09	0.14177336
3	0x3db29737	0.08720248
4	0x3dbdc3ca	0.092658594
5	0x3d72cfcf	0.059280213
6	0x00000004	6e-45
7	0x00000004	6e-45
8	0x3d6a8a50	0.05726081
9	0x3dc8429a	0.09778328
10	0x3d907238	0.070530355
11	0x3db2327f	0.087010376
12	0x00000004	6e-45
13	0x3e04b318	0.12958944
14	0x3dd9e82b	0.10639986
15	0x3d890525	0.06690434
