Pruned_Models/ERESFD/L1/ERES40_L1.pth (torch, 542876 bytes, 400 tensors)

base.conv1.0.weight f4 [8, 3, 5, 5]
00000000: 0000 0000 0000 0000 0000 0000 0000 0000
00000010: 0000 0000 0000 0000 0000 0000 0000 0000
00000020: 0000 0000 0000 0000 0000 0000 0000 0000
00000030: 0000 0000 0000 0000 0000 0000 0000 0000
00000040: 0000 0000 0000 0000 0000 0000 0000 0000
00000050: 0000 0000 0000 0000 0000 0000 0000 0000
00000060: 0000 0000 0000 0000 0000 0000 0000 0000
00000070: 0000 0000 0000 0000 0000 0000 0000 0000
00000080: 0000 0000 0000 0080 0000 0000 0000 0000
00000090: 0000 0080 0000 0000 0000 0000 0000 0000
000000a0: 0000 0080 0000 0080 0000 0000 0000 0080
000000b0: 0000 0000 0000 0000 0000 0000 0000 0000
000000c0: 0000 0080 0000 0000 0000 0080 0000 0080
000000d0: 0000 0080 0000 0080 0000 0080 0000 0080
000000e0: 0000 0080 0000 0080 0000 0080 0000 0080
000000f0: 0000 0080 0000 0080 0000 0080 0000 0080
00000100: 0000 0080 0000 0080 0000 0080 0000 0080
00000110: 0000 0080 0000 0080 0000 0080 0000 0000
00000120: 0000 0080 0000 0080 0000 0080 0000 0080
00000130: 0000 0080 0000 0080 0000 0080 0000 0080
00000140: 0000 0080 0000 0080 0000 0080 0000 0080
00000150: 0000 0080 0000 0080 0000 0080 0000 0080
00000160: 0000 0080 0000 0080 0000 0080 0000 0080
00000170: 0000 0080 0000 0080 0000 0080 0000 0080
00000180: 0000 0080 0000 0080 0000 0080 0000 0080
00000190: 0000 0080 0000 0080 0000 0080 0000 0080
000001a0: 0000 0080 0000 0080 0000 0080 0000 0080
000001b0: 0000 0080 0000 0080 0000 0080 0000 0080
000001c0: 0000 0080 0000 0080 0000 0080 0000 0080
000001d0: 0000 0080 0000 0080 0000 0080 0000 0080
000001e0: 0000 0080 0000 0080 0000 0080 0000 0080
000001f0: 0000 0080 0000 0080 0000 0080 0000 0080
00000200: 0000 0080 0000 0080 0000 0080 0000 0080
00000210: 0000 0080 0000 0080 0000 0080 0000 0080
00000220: 0000 0080 0000 0080 0000 0080 0000 0080
00000230: 0000 0080 0000 0080 0000 0080 0000 0080
00000240: 0000 0080 0000 0080 0000 0080 0000 0080
00000250: 0000 0080 0000 0080 377e f13d 3dcf 55bd
00000260: c364 21be fa95 36be 3ede bfbd 79f0 46bd
00000270: c18c 63be 93cb a6be fdeb b4be 4d51 35be
00000280: 6625 13be c6c1 9dbe 41ff d2be 218a d6be
00000290: 30b2 82be 5196 febd 5cea a2be d534 d7be
000002a0: 37b6 d9be 59dd a2be 40bd f9bd fbb8 aabe
000002b0: ca37 cfbe d6f2 cabe 3b49 9ebe fe8a 773d
000002c0: 9be2 383e 1f58 523e c2ce 323e b0a2 ec3d
000002d0: 8a2e eb3d 03eb 8a3e 8119 a53e e3c4 963e
000002e0: d5b0 993e 8a9d ea3d 2d5b 9f3e efd5 c33e
000002f0: e7b4 c23e 9eea bf3e 793f 113e 9677 963e
00000300: c68d bb3e c473 c53e 1516 b03e b869 953d
00000310: e122 343e 2e25 873e b83f 9c3e 0022 8a3e
00000320: c988 5dbe 26ad f3bd af47 01be 59e4 31be
00000330: a286 91be 8284 acbd e1bc 803d 71d4 923d
00000340: 1733 323c 52a6 2dbd 436e 99bd 9dd8 003e
00000350: 617a 233e 768b fb3d d3e5 603d 428b cabc
00000360: d0d2 133e ce57 403e ecb4 263e 6478 8e3d
00000370: c6e1 87bd a385 3e3d b1b9 df3d 12d4 f93d
00000380: 63f8 c03c 6026 14be 9e44 073c 50b5 0a3e
00000390: 61d5 0e3e d96a 093e fbbc b3bd 81f7 483e
000003a0: 5386 793e 60ed a63d 897b 27be d5b1 61be
000003b0: ee33 843d bd73 a23d b8d4 10be 6601 e5be
000003c0: 0f14 30be 7aa0 df3d f334 ed3d 470d d4bd
000003d0: bc2f c3be a36c 89bd 219d 6f3e a791 983e
000003e0: e4ab dc3d e2f0 20be eb58 3dbd b011 993d
000003f0: 5a55 333e d9c4 643e d0be 373e 2aea 9d3b
0.0 0.0 0.0 0.0 0.0 0.0 0.0 0.0
0.0 0.0 0.0 0.0 0.0 0.0 0.0 0.0
0.0 0.0 0.0 0.0 0.0 0.0 0.0 0.0
0.0 0.0 0.0 0.0 0.0 0.0 0.0 0.0
0.0 -0.0 0.0 0.0 -0.0 0.0 0.0 0.0
-0.0 -0.0 0.0 -0.0 0.0 0.0 0.0 0.0
-0.0 0.0 -0.0 -0.0 -0.0 -0.0 -0.0 -0.0
-0.0 -0.0 -0.0 -0.0 -0.0 -0.0 -0.0 -0.0
-0.0 -0.0 -0.0 -0.0 -0.0 -0.0 -0.0 0.0
-0.0 -0.0 -0.0 -0.0 -0.0 -0.0 -0.0 -0.0
-0.0 -0.0 -0.0 -0.0 -0.0 -0.0 -0.0 -0.0
-0.0 -0.0 -0.0 -0.0 -0.0 -0.0 -0.0 -0.0
-0.0 -0.0 -0.0 -0.0 -0.0 -0.0 -0.0 -0.0
-0.0 -0.0 -0.0 -0.0 -0.0 -0.0 -0.0 -0.0
-0.0 -0.0 -0.0 -0.0 -0.0 -0.0 -0.0 -0.0
-0.0 -0.0 -0.0 -0.0 -0.0 -0.0 -0.0 -0.0
-0.0 -0.0 -0.0 -0.0 -0.0 -0.0 -0.0 -0.0
-0.0 -0.0 -0.0 -0.0 -0.0 -0.0 -0.0 -0.0
-0.0 -0.0 -0.0 -0.0 -0.0 -0.0 0.11791652 -0.05219959
-0.15761094 -0.17830649 -0.09368561 -0.048569176 -0.22221662 -0.3257719 -0.35336295 -0.17706795
-0.14369735 -0.308119 -0.41210368 -0.4190226 -0.2552657 -0.12431014 -0.31819427 -0.42032495
-0.4252183 -0.318095 -0.121943 -0.33344254 -0.4047225 -0.39638394 -0.30915245 0.060435288
0.18055193 0.20541428 0.17461684 0.11554468 0.11483486 0.27132425 0.3224602 0.29447088
0.30017725 0.114558294 0.3112425 0.38249156 0.38028643 0.37483686 0.14184369 0.29388112
0.36631602 0.38564885 0.34391847 0.07295555 0.1759143 0.26395553 0.30517364 0.26979065
-0.2163421 -0.1189826 -0.12625001 -0.17372264 -0.2842303 -0.08423711 0.06286026 0.07169426
0.010876439 -0.042394944 -0.07491734 0.12582631 0.15964653 0.122824594 0.054906677 -0.024724606
0.14435887 0.18783495 0.16279954 0.069565564 -0.0663486 0.046514165 0.1092409 0.12198652
0.02355594 -0.14467764 0.008256106 0.13545728 0.13948585 0.13419665 -0.087762795 0.19625665
0.24367647 0.081507444 -0.16355719 -0.22040494 0.06455217 0.079322316 -0.14143646 -0.4472763
-0.17195152 0.1091928 0.11582365 -0.10354095 -0.38122356 -0.06710174 0.23399784 0.29798624
0.10774973 -0.1571689 -0.046227377 0.07474077 0.17513028 0.22340716 0.17943883 0.0048191743

base.conv1.1.weight f4 [8]
00000000: 6ae2 ef34 d0f3 dab3 2015 893f 1476 1e3e
00000010: 656e b8b0 487a 5e3e 6b7e 733e fc07 543e
4.4681957e-07 -1.0195765e-07 1.0709572 0.1547473 -1.3419138e-09 0.21726334 0.23778693 0.20706171

base.conv1.1.bias f4 [8]
00000000: b7d0 a9be 214e febd e5d5 e83e 305e 07bf
00000010: 4635 0dbe 3159 ad3d 7e69 02bd cf8e 78be
-0.3316705 -0.12417246 0.4547569 -0.52878094 -0.13789853 0.084642775 -0.031838886 -0.24273227

base.conv1.1.running_mean f4 [8]
00000000: 0400 0080 0400 0000 d0a7 9bc1 b5b0 e2c0
00000010: 0400 0080 6bdf a9bf 0c86 9b40 d9e6 04bf
-6e-45 6e-45 -19.45694 -7.0840707 -6e-45 -1.3271307 4.860113 -0.51914746

base.conv1.1.running_var f4 [8]
00000000: 0400 0000 0400 0000 a341 6247 856a 6d45
00000010: 0400 0000 5144 a545 d052 ce45 8147 cc45
6e-45 6e-45 57921.637 3798.6575 6e-45 5288.5396 6602.3516 6536.938

base.conv2.0.weight f4 [8, 8, 3, 3]
00000000: 0000 0000 0000 0000 0000 0000 0000 0080
00000010: 0000 0000 0000 0000 0000 0080 0000 0080
00000020: 0000 0000 0000 0080 0000 0000 0000 0000
00000030: 0000 0000 0000 0000 0000 0000 0000 0080
00000040: 0000 0080 0000 0080 0000 0000 0000 0080
00000050: 0000 0000 0000 0080 0000 0080 0000 0080
00000060: 0000 0000 0000 0080 0000 0000 0000 0000
00000070: 0000 0000 0000 0000 0000 0000 0000 0080
00000080: 0000 0080 0000 0080 0000 0000 0000 0080
00000090: 0000 0000 0000 0000 0000 0000 0000 0080
000000a0: 0000 0080 0000 0080 0000 0080 0000 0080
000000b0: 0000 0080 0000 0080 0000 0080 0000 0000
000000c0: 0000 0000 0000 0000 0000 0000 0000 0080
000000d0: 0000 0080 0000 0000 0000 0000 0000 0080
000000e0: 0000 0080 0000 0080 0000 0080 0000 0080
000000f0: 0000 0080 0000 0000 0000 0000 0000 0000
00000100: 0000 0080 0000 0080 0000 0080 0000 0080
00000110: 0000 0080 0000 0000 0000 0000 0000 0000
00000120: 0000 0080 0000 0080 0000 0080 0000 0000
00000130: 0000 0000 0000 0080 0000 0000 0000 0000
00000140: 0000 0080 0000 0080 0000 0080 0000 0080
00000150: 0000 0080 0000 0080 0000 0080 0000 0000
00000160: 0000 0080 0000 0080 0000 0080 0000 0000
00000170: 0000 0000 0000 0080 0000 0000 0000 0000
00000180: 0000 0080 0000 0080 0000 0000 0000 0000
00000190: 0000 0080 0000 0000 0000 0000 0000 0080
000001a0: 0000 0000 0000 0000 0000 0000 0000 0000
000001b0: 0000 0080 0000 0080 0000 0080 0000 0080
000001c0: 0000 0080 0000 0080 0000 0080 0000 0080
000001d0: 0000 0080 0000 0000 0000 0080 0000 0000
000001e0: 0000 0000 0000 0000 0000 0080 0000 0080
000001f0: 0000 0000 0000 0000 0000 0080 0000 0080
00000200: 0000 0080 0000 0080 0000 0000 0000 0000
00000210: 0000 0080 0000 0080 0000 0080 0000 0080
00000220: 0000 0000 0000 0000 0000 0080 0000 0000
00000230: 0000 0080 0000 0080 0000 0000 0000 0080
00000240: 17b7 43bd 34ec e4bc 3176 91bc ea41 c5bc
00000250: 57d5 3a3a b28a 443c 1830 88bb af55 b73c
00000260: aa38 c03c e0cf d6bd d691 863e ea66 9bbc
00000270: 1530 81be 13f5 663e 93cd 71bd a967 1fbe
00000280: fae5 ad3d 9be7 153c 7f3a 503d c8d9 c439
00000290: 0571 84bd cebd 553a 91e2 623d 441c 81bd
000002a0: 2404 acbb 7786 e63d ca6d babd 09b1 053d
000002b0: 5dc4 81be abaf c73d 69b0 a4be 823a 4f3e
000002c0: 4675 d53e edff 833c 6837 0ebe 00fe b03d
000002d0: 221e 83bc 9ec1 22bc 9d4d e8bb 0b6c e7bb
000002e0: e679 0bbb 5c2e 9b3a d0c0 72bb d83a 813a
000002f0: a1d2 9b3b 000a e63c 78fc ebbc 56c2 3abe
00000300: 76cd 71bd 0915 b93e 8a29 4c3e bdd9 363c
00000310: 0742 883c 7800 11be d964 86bd 6fd3 ff3d
00000320: 6ee8 63be ed1f 583d 82b2 483f 9643 cdbe
00000330: d1ae 253d 031e 3cbd 7f2c 15bd f819 dd3b
00000340: 6abb 903e 863c b33c e505 343e 5128 9cbf
00000350: 8225 c13e a325 10bc 3601 d1bd 06f8 8d3e
00000360: 0000 0080 0000 0000 0000 0080 0000 0080
00000370: 0000 0080 0000 0080 0000 0000 0000 0000
00000380: 0000 0000 0000 0000 0000 0080 0000 0080
00000390: 0000 0000 0000 0000 0000 0080 0000 0000
000003a0: 0000 0000 0000 0080 0000 0080 0000 0080
000003b0: 0000 0000 0000 0080 0000 0080 0000 0000
000003c0: 0000 0080 0000 0080 0000 0080 0000 0080
000003d0: 0000 0080 0000 0000 0000 0000 0000 0080
000003e0: 0000 0080 0000 0000 0000 0080 0000 0080
000003f0: 0000 0080 0000 0080 0000 0080 0000 0080
0.0 0.0 0.0 -0.0 0.0 0.0 -0.0 -0.0
0.0 -0.0 0.0 0.0 0.0 0.0 0.0 -0.0
-0.0 -0.0 0.0 -0.0 0.0 -0.0 -0.0 -0.0
0.0 -0.0 0.0 0.0 0.0 0.0 0.0 -0.0
-0.0 -0.0 0.0 -0.0 0.0 0.0 0.0 -0.0
-0.0 -0.0 -0.0 -0.0 -0.0 -0.0 -0.0 0.0
0.0 0.0 0.0 -0.0 -0.0 0.0 0.0 -0.0
-0.0 -0.0 -0.0 -0.0 -0.0 0.0 0.0 0.0
-0.0 -0.0 -0.0 -0.0 -0.0 0.0 0.0 0.0
-0.0 -0.0 -0.0 0.0 0.0 -0.0 0.0 0.0
-0.0 -0.0 -0.0 -0.0 -0.0 -0.0 -0.0 0.0
-0.0 -0.0 -0.0 0.0 0.0 -0.0 0.0 0.0
-0.0 -0.0 0.0 0.0 -0.0 0.0 0.0 -0.0
0.0 0.0 0.0 0.0 -0.0 -0.0 -0.0 -0.0
-0.0 -0.0 -0.0 -0.0 -0.0 0.0 -0.0 0.0
0.0 0.0 -0.0 -0.0 0.0 0.0 -0.0 -0.0
-0.0 -0.0 0.0 0.0 -0.0 -0.0 -0.0 -0.0
0.0 0.0 -0.0 0.0 -0.0 -0.0 0.0 -0.0
-0.04778203 -0.027944662 -0.017756553 -0.024079282 0.0007127127 0.011995958 -0.004156124 0.022379724
0.02346452 -0.10488868 0.2628314 -0.018969972 -0.25231996 0.22554426 -0.05903394 -0.15566887
0.0849113 0.009149457 0.050837036 0.00037546293 -0.06466869 0.0008153588 0.05539185 -0.06304219
-0.005249517 0.11256116 -0.09102972 0.032639537 -0.25345126 0.09750303 -0.3216584 0.20237163
0.41691035 0.016113246 -0.13888323 0.08642197 -0.01600558 -0.009933857 -0.0070893303 -0.0070624403
-0.0021282374 0.0011839378 -0.0037041195 0.0009859456 0.0047553335 0.02808094 -0.02880691 -0.18238196
-0.059033833 0.3614886 0.19937721 0.011160311 0.016633047 -0.14160335 -0.06562204 0.124915
-0.22256634 0.05276482 0.7839738 -0.40090626 0.04044992 -0.04592706 -0.036419388 0.0067474805
0.28267986 0.021879446 0.17580374 -1.2199804 0.3772393 -0.008798036 -0.10205309 0.2772829
-0.0 0.0 -0.0 -0.0 -0.0 -0.0 0.0 0.0
0.0 0.0 -0.0 -0.0 0.0 0.0 -0.0 0.0
0.0 -0.0 -0.0 -0.0 0.0 -0.0 -0.0 0.0
-0.0 -0.0 -0.0 -0.0 -0.0 0.0 0.0 -0.0
-0.0 0.0 -0.0 -0.0 -0.0 -0.0 -0.0 -0.0

base.conv2.1.weight f4 [8]
00000000: 6ba6 179b 29e9 2fad d16f 883e e725 7730
00000010: c75f 953e 404d 823e 51f3 813e 3647 733e
-1.25442e-22 -9.99937e-12 0.2664781 8.991194e-10 0.29174635 0.25449562 0.25380948 0.23757634

base.conv2.1.bias f4 [8]
00000000: 396d ba3e 0234 af3e 625f 5abd cede 6abc
00000010: 8b6f 573f d876 df3e ba1d 213e c21b 8f3e
0.36411455 0.34219366 -0.05331362 -0.014335347 0.84154576 0.43645358 0.15733996 0.27950865

base.conv2.1.running_mean f4 [8]
00000000: 0400 0080 0400 0000 e433 213c 0400 0080
00000010: 73f7 36be 8593 90bd 6920 34bd 7517 853e
-6e-45 6e-45 0.009839032 -6e-45 -0.17867832 -0.07059387 -0.04397622 0.2599446

base.conv2.1.running_var f4 [8]
00000000: 0400 0000 0400 0000 b505 aa3d 0400 0000
00000010: 3df2 653d a443 863d 0721 a13d 51d7 c33d
6e-45 6e-45 0.0830187 6e-45 0.05613922 0.0655587 0.078676276 0.09562553

base.conv3.0.weight f4 [16, 8, 3, 3]
00000000: f0bc 9abd baed 9b3d 2069 113e 4ceb 0bbd
00000010: b8f4 5abb 3354 28bd b0ba 323e a5a3 293a
00000020: 4b71 afbd 4289 91bc 1be6 d4bd c4dc 98bc
00000030: 806c 9cbc 48c5 a0bd 11c0 153c 4b60 0abe
00000040: 300b dfbc e164 153e 40f1 e0bd b354 cbbe
00000050: af68 90bd 4a65 9fbd 2660 fcbe 316b 0dbe
00000060: 8318 9e3d 3807 bfbd b88d da3c f87f 8bbd
00000070: 2434 e6bd 4feb 083e a195 c33d ff09 19be
00000080: 806c 073e d1e7 5dbd 12b0 27bd c1a2 5e3d
00000090: 158d d6bc 524c 8e3d 7b7b 3fbd b4fc 12be
000000a0: c4e2 1f3c 53b5 b43d 3c05 d73c 47aa c1bd
000000b0: 334a 11bd 7b67 37be 71db a4be 6f7f d0bc
000000c0: 94ca 24bf a374 2fbf 4c78 a73d 5e72 eebc
000000d0: 2235 7fbe 6f81 01be 8558 3f3e 5553 21bc
000000e0: 4ff8 c4bd 0712 d0bd 9205 52be 4452 5ebc
000000f0: 311d 21be 295f e6bd 6ee0 ed3d 8d9d 2abe
00000100: 860a 7d3e bbae f83d 379c 81be 3b05 07be
00000110: 9af7 a13d 8826 ff3c f1d1 9d3d dc14 e93c
00000120: 75f1 543d 77d2 213e 76e3 edbd 7609 20bd
00000130: 2060 093e 4132 dcbd 6b8b cabd fa33 dcbb
00000140: c05b 3a3d fd92 bfbc 8d19 38bc dc84 d93c
00000150: 7326 37be 0fc6 7ebe 6500 f33d 8cc4 a938
00000160: f44b 0f3d 62fd c03d bdb5 883c e3e4 ffbd
00000170: 5d9c 543d aca6 cb3d f2a5 80be 130a db3d
00000180: 2996 37bd a5ae e73d 2f3a 013d ce92 b03d
00000190: c630 67bd 6b76 54bd da6d 033e 3330 a8be
000001a0: 78c9 4c3e 18fc 28bd 1c99 e3bd b010 3a3e
000001b0: f1c2 443d a1ce 73bc c521 823d e6ce 0bbe
000001c0: ab53 97be 0e1c bdbc 36b8 78bd 7880 49bf
000001d0: c76b 013d 5a81 2dbe 8c82 b6bd 067d f33c
000001e0: 4d3b 2c3e 02ab 69be 25cd 193e 0666 193e
000001f0: 741c 31bd 06f8 f43c 64fc aa3d f56b f43d
00000200: ae3e cf3d 480e 8bbc 282f 933d 375a b73d
00000210: b030 313e b866 293e 93dc d33d f175 c73d
00000220: e238 c43d 5cc5 f53b 928c fcbc 8e4b 83bf
00000230: 2a1a d1be a0ba 313c 045a 8bbe b41f b4bc
00000240: bcfa bc3d aae5 873e 0f0e 8f3d 120f 7a3d
00000250: 9286 463c 8180 d6bc c0db 9cbd b23c 96be
00000260: 8950 2fbe 20e2 ffbb 35e6 873b 35a5 d53c
00000270: 50bd 3dbe 0338 66bd c552 9a3d 5838 c73d
00000280: 30b1 acbc 4464 7bbd 2914 2b3d 0d0c 503c
00000290: 1329 09bb eb9e 483d 998c 89be 6539 0bbd
000002a0: e960 23bd d63d b13d 6b38 253c 29ab 813d
000002b0: a75c 1c3d 516d 573d 27ad 943d 1e96 50bd
000002c0: 539d 1abd 65ae 84bc 63a3 9ebc 9649 5f3b
000002d0: 1fa0 0e3c 9819 06bc e586 e7bc de44 bc3d
000002e0: be01 2b3f 712e bbbd cdf5 a53d 7ec9 ca3e
000002f0: a8dc 91bd 0e9f b2bc 8b74 153d 4c2b 4b3c
00000300: 3676 81be ab66 97be 89b5 e13b 5e4e 8b3d
00000310: 9685 c93d be06 06bd 89e8 933a ed5d f0bd
00000320: 6873 adbd d962 8a3e 5002 5e3f 9314 d03c
00000330: fc0c 22be 8313 9abe 482f d9bd dfc8 ad3c
00000340: bfe8 efbc 54ee aabc 8026 dabd 3940 8cbf
00000350: d9c0 81be 1434 11ba e81e b23e 93f4 cf3d
00000360: 0000 0000 0000 0080 0000 0000 0000 0080
00000370: 0000 0080 0000 0080 0000 0000 0000 0080
00000380: 0000 0080 0000 0000 0000 0080 0000 0080
00000390: 0000 0000 0000 0000 0000 0080 0000 0000
000003a0: 0000 0000 0000 0080 0000 0000 0000 0000
000003b0: 0000 0000 0000 0000 0000 0000 0000 0000
000003c0: 0000 0000 0000 0000 0000 0000 0000 0080
000003d0: 0000 0080 0000 0000 0000 0000 0000 0080
000003e0: 0000 0000 0000 0000 0000 0000 0000 0000
000003f0: 0000 0000 0000 0080 0000 0080 0000 0080
-0.07555568 0.07613702 0.14200258 -0.034159943 -0.0033410024 -0.041095924 0.17454028 0.00064712233
-0.08566531 -0.017765645 -0.10395452 -0.018659957 -0.019094706 -0.078501284 0.0091400305 -0.13513295
-0.027227014 0.14589263 -0.10983515 -0.39713058 -0.07051217 -0.07782991 -0.49292105 -0.13810422
0.07719519 -0.09327549 0.026678905 -0.068115175 -0.11240414 0.13371013 0.09550024 -0.1494522
0.13224983 -0.054176155 -0.040939398 0.054354433 -0.02619032 0.06948151 -0.04674862 -0.14354211
0.009758655 0.08823647 0.026247613 -0.09456306 -0.035471153 -0.17910568 -0.3219867 -0.02545139
-0.6437161 -0.6853735 0.08177242 -0.029107269 -0.24922612 -0.12647031 0.18686111 -0.009846528
-0.096176736 -0.101596884 -0.20509937 -0.013569418 -0.15733792 -0.11248619 0.11615072 -0.16661663
0.24711046 0.12142702 -0.25314495 -0.13185589 0.079085544 0.031146303 0.07706059 0.02845233
0.051988084 0.15802942 -0.1161565 -0.039071523 0.13415575 -0.10751773 -0.09889873 -0.0067200633
0.045497656 -0.02338552 -0.0112365605 0.02655261 -0.17885761 -0.24880241 0.118653096 8.095158e-05
0.034984544 0.09423329 0.016688222 -0.124948286 0.051906932 0.099438995 -0.25126606 0.10695281
-0.04482094 0.11312608 0.03154963 0.08621751 -0.056443 -0.051870745 0.12834874 -0.32849273
0.19998729 -0.04125604 -0.11113188 0.18170428 0.048037473 -0.014880807 0.06354097 -0.13653144
-0.2955602 -0.023084667 -0.060722552 -0.7871165 0.031596925 -0.16943875 -0.089116186 0.029722702
0.16819496 -0.2281914 0.15019663 0.14980325 -0.043240026 0.029903423 0.08348921 0.11934654
0.10119377 -0.016974583 0.07186729 0.08952754 0.17303729 0.1654309 0.103448056 0.097392924
0.09581162 0.0075003337 -0.030828748 -1.0257432 -0.40840274 0.0108477175 -0.27217114 -0.021987773
0.09227511 0.26542407 0.06985103 0.06104953 0.012117045 -0.026184322 -0.076591015 -0.29343182
-0.17120565 -0.0078089386 0.004147316 0.026079753 -0.18529248 -0.05620576 0.07535318 0.097275436
-0.021080583 -0.061374918 0.041767273 0.012698186 -0.0020929023 0.04897968 -0.2686508 -0.033990283
-0.039887343 0.086543724 0.010084252 0.06331474 0.038174298 0.052594487 0.07259589 -0.050924413
-0.037747692 -0.016196439 -0.019365018 0.003407096 0.008705168 -0.008184813 -0.028262565 0.09192823
0.66799533 -0.09139717 0.081035234 0.3960685 -0.07122165 -0.021804359 0.036488097 0.0124004595
-0.252855 -0.29570517 0.0068880958 0.06802057 0.098399326 -0.032721274 0.0011284511 -0.11736665
-0.084692776 0.2702854 0.8672228 0.025400436 -0.15825266 -0.3009301 -0.10604721 0.021213947
-0.029285787 -0.020865597 -0.106518745 -1.0957099 -0.25342444 -0.0005539071 0.34789205 0.10154071
0.0 -0.0 0.0 -0.0 -0.0 -0.0 0.0 -0.0
-0.0 0.0 -0.0 -0.0 0.0 0.0 -0.0 0.0
0.0 -0.0 0.0 0.0 0.0 0.0 0.0 0.0
0.0 0.0 0.0 -0.0 -0.0 0.0 0.0 -0.0
0.0 0.0 0.0 0.0 0.0 -0.0 -0.0 -0.0

base.conv3.1.weight f4 [16]
00000000: 8d62 6e3e 9174 063f 71fd 1e3f 030c 9c2c
00000010: 86d8 ff3e 1197 123f 09bc 593e 5020 0000
00000020: 2ae3 77aa 943d b13e 2722 d23e 58e2 933e
00000030: 74f8 4226 c25f e3a9 7d11 0000 7de4 843e
0.23279782 0.52521616 0.6210547 4.4351202e-12 0.49969882 0.5726176 0.21263136 1.1592e-41
-2.201682e-13 0.34617293 0.4104168 0.28883624 6.764399e-16 -1.00974364e-13 6.274e-42 0.25955573

base.conv3.1.bias f4 [16]
00000000: f973 a63e 347e 023f 5300 70bd f2ad 8b3e
00000010: 4731 113e c3bb ebbd e64f 9b3d fb4f d53d
00000020: 84a6 033e 8e19 a73b c656 e33d 5e7f d7bc
00000030: f7b3 eab8 de76 22bb 70c9 98aa cad6 f9bc
0.32510355 0.5097382 -0.05859406 0.27281147 0.14178954 -0.11510422 0.07583599 0.10415646
0.1285649 0.005099482 0.11100535 -0.02630585 -0.000111915106 -0.0024790089 -2.71404e-13 -0.030497927

base.conv3.1.running_mean f4 [16]
00000000: d94c 9fbf 01a6 abbf 3f69 cf3e 0400 0080
00000010: 0b96 a53e b3b2 90bf 0aea 85bd 0400 0080
00000020: 0400 0080 bbb6 0abe 3d16 febe be9f e9bc
00000030: 0400 0080 0400 0080 0400 0080 664f 4c3f
-1.2445327 -1.3410035 0.40509984 -6e-45 0.32341036 -1.1304535 -0.0653878 -6e-45
-6e-45 -0.13546269 -0.4962634 -0.028518554 -6e-45 -6e-45 -6e-45 0.7980865

base.conv3.1.running_var f4 [16]
00000000: 1863 0f3e f6fe 083e c27c 563e 0400 0000
00000010: e7f4 ab3d bbf9 463e 5089 2f3c 0400 0000
00000020: 0400 0000 71cb fa3d c77e d73d 8916 093e
00000030: 0400 0000 0400 0000 0400 0000 5b6d b33d
0.14002645 0.1337851 0.20946029 6e-45 0.08396321 0.19431202 0.01071389 6e-45
6e-45 0.122458346 0.10522228 0.13387503 6e-45 6e-45 6e-45 0.08761092

base.conv4.res_layer.0.weight f4 [16, 16, 3, 3]
00000000: 0000 0080 0000 0080 0000 0080 0000 0080
00000010: 0000 0080 0000 0080 0000 0000 0000 0080
00000020: 0000 0080 0000 0080 0000 0080 0000 0080
00000030: 0000 0080 0000 0080 0000 0080 0000 0080
00000040: 0000 0080 0000 0080 0000 0000 0000 0000
00000050: 0000 0000 0000 0000 0000 0000 0000 0000
00000060: 0000 0080 0000 0000 0000 0000 0000 0080
00000070: 0000 0080 0000 0080 0000 0080 0000 0080
00000080: 0000 0000 0000 0000 0000 0080 0000 0080
00000090: 0000 0080 0000 0080 0000 0080 0000 0080
000000a0: 0000 0080 0000 0080 0000 0080 0000 0080
000000b0: 0000 0000 0000 0000 0000 0000 0000 0080
000000c0: 0000 0000 0000 0080 0000 0000 0000 0080
000000d0: 0000 0080 0000 0000 0000 0080 0000 0080
000000e0: 0000 0080 0000 0000 0000 0080 0000 0080
000000f0: 0000 0000 0000 0000 0000 0080 0000 0080
00000100: 0000 0080 0000 0080 0000 0080 0000 0000
00000110: 0000 0000 0000 0000 0000 0080 0000 0000
00000120: 0000 0000 0000 0080 0000 0080 0000 0080
00000130: 0000 0080 0000 0080 0000 0080 0000 0080
00000140: 0000 0080 0000 0080 0000 0080 0000 0080
00000150: 0000 0000 0000 0080 0000 0080 0000 0000
00000160: 0000 0000 0000 0080 0000 0080 0000 0080
00000170: 0000 0080 0000 0080 0000 0080 0000 0080
00000180: 0000 0080 0000 0080 0000 0080 0000 0080
00000190: 0000 0000 0000 0000 0000 0080 0000 0000
000001a0: 0000 0000 0000 0080 0000 0080 0000 0000
000001b0: 0000 0080 0000 0080 0000 0080 0000 0080
000001c0: 0000 0080 0000 0080 0000 0000 0000 0080
000001d0: 0000 0080 0000 0080 0000 0080 0000 0080
000001e0: 0000 0080 0000 0080 0000 0080 0000 0080
000001f0: 0000 0080 0000 0080 0000 0080 0000 0080
00000200: 0000 0080 0000 0000 0000 0080 0000 0000
00000210: 0000 0000 0000 0000 0000 0000 0000 0080
00000220: 0000 0080 0000 0080 0000 0000 0000 0000
00000230: 0000 0000 0000 0000 0000 0000 0000 0000
00000240: 96b8 50bc c6f4 dfbd b348 71be adbf 4dbe
00000250: 7e77 25be f281 6a3e 2389 d8bd 7792 263e
00000260: fbb9 253f f790 74bd 176c 6b3e 9652 923d
00000270: 40f6 653e fddd 8f3e 58f6 bbbe a427 8c3d
00000280: 37fd f4be 79b1 c0bd a7d0 903c b2bb 88be
00000290: d84a cc3d f24d bebc 5081 633e 2abd 62be
000002a0: 4515 143e e39c 9abe 6644 4d3c 9d83 183d
000002b0: 5c6a d2bd b362 b63c 9d0e 2b3c 6b03 dabd
000002c0: 0b9b 013a afeb f93d bfd7 74bc 9d67 073e
000002d0: 20ae b43d d4d4 82bd e9e5 3abd 11fb 81bd
000002e0: f037 bbbd ee42 b93d 0eb9 2dbe 18ba 493e
000002f0: d1fe 87bd 0fb7 463d ee43 77bc b29d a6bd
00000300: 57e9 52be 150b a0bd cc64 ac3d 1769 903e
00000310: cd49 a0be f115 11be 3092 4bbd 6386 fabc
00000320: 16fd 333d c79d 2fbc a068 edbd 8e4a b0bd
00000330: af82 523d dd32 293d 89a5 813d a580 0080
00000340: 78eb 0000 ae79 0080 37e9 0080 de6f 0000
00000350: 4f70 0080 cf67 0080 b996 0080 181f 0000
00000360: 9be3 833e 0936 d33d f216 26be 891e d83d
00000370: 7d4b d3be 41be 4d3d 5dd1 50be 98f5 5a3e
00000380: 53b1 bdbd 457b c53d e84a 1ebe 6bd1 cc3d
00000390: 9b70 3bbe 4356 4d3e 85f8 53be 5696 863d
000003a0: 5151 3bbd 5813 9e3c 5696 1fbe 85ed 7abe
000003b0: 172d 1fbd 3101 3cbe afe1 febe 58d7 96bd
000003c0: cf90 15be 34d2 c6bd 7eed 98bd cbe7 303e
000003d0: d742 c93d faab 443d fd9a 2d3e edaf d73e
000003e0: 759e 803c d52f 4d3c adb1 af3c 96b6 36bc
000003f0: de41 763b 8edc 703b 36e6 bf3b 1b3a 323b
-0.0 -0.0 -0.0 -0.0 -0.0 -0.0 0.0 -0.0
-0.0 -0.0 -0.0 -0.0 -0.0 -0.0 -0.0 -0.0
-0.0 -0.0 0.0 0.0 0.0 0.0 0.0 0.0
-0.0 0.0 0.0 -0.0 -0.0 -0.0 -0.0 -0.0
0.0 0.0 -0.0 -0.0 -0.0 -0.0 -0.0 -0.0
-0.0 -0.0 -0.0 -0.0 0.0 0.0 0.0 -0.0
0.0 -0.0 0.0 -0.0 -0.0 0.0 -0.0 -0.0
-0.0 0.0 -0.0 -0.0 0.0 0.0 -0.0 -0.0
-0.0 -0.0 -0.0 0.0 0.0 0.0 -0.0 0.0
0.0 -0.0 -0.0 -0.0 -0.0 -0.0 -0.0 -0.0
-0.0 -0.0 -0.0 -0.0 0.0 -0.0 -0.0 0.0
0.0 -0.0 -0.0 -0.0 -0.0 -0.0 -0.0 -0.0
-0.0 -0.0 -0.0 -0.0 0.0 0.0 -0.0 0.0
0.0 -0.0 -0.0 0.0 -0.0 -0.0 -0.0 -0.0
-0.0 -0.0 0.0 -0.0 -0.0 -0.0 -0.0 -0.0
-0.0 -0.0 -0.0 -0.0 -0.0 -0.0 -0.0 -0.0
-0.0 0.0 -0.0 0.0 0.0 0.0 0.0 -0.0
-0.0 -0.0 0.0 0.0 0.0 0.0 0.0 0.0
-0.012739321 -0.10935359 -0.23562889 -0.2009265 -0.16158864 0.22901133 -0.10573032 0.1626681
0.6473691 -0.05970856 0.22990452 0.07144658 0.22457218 0.2809905 -0.36711383 0.06843498
-0.47849438 -0.0940885 0.017677618 -0.267057 0.09975213 -0.023230527 0.22217298 -0.22142473
0.14461239 -0.3019782 0.0125285145 0.03723489 -0.10274193 0.02226386 0.010440496 -0.10645183
0.00049440627 0.12203156 -0.014944016 0.13223119 0.08822274 -0.0638825 -0.045629416 -0.06346715
-0.091415286 0.09045969 -0.16965124 0.19699895 -0.06640399 0.048514422 -0.015091879 -0.08135547
-0.20596825 -0.07814614 0.08417663 0.28205177 -0.31306306 -0.14168526 -0.049699962 -0.030581659
0.043942533 -0.010718769 -0.11592221 -0.0860797 0.05139416 0.041308273 0.063304015 -4.6149e-41
8.447e-41 -4.365e-41 -8.3662e-41 4.013e-41 -4.0289e-41 -3.724e-41 -5.4069e-41 1.1154e-41
0.25759587 0.10313041 -0.1621969 0.10552699 -0.4126853 0.05023027 -0.20392366 0.21382749
-0.092623375 0.096426524 -0.15458262 0.10000881 -0.18304674 0.20052437 -0.20700271 0.06571643
-0.045731846 0.019296333 -0.15584692 -0.24504669 -0.03886136 -0.1835983 -0.49781558 -0.07365292
-0.14606021 -0.09708062 -0.07467173 0.17275922 0.09827202 0.048015572 0.16953655 0.42126408
0.015700558 0.012523611 0.021447027 -0.01115193 0.003757588 0.0036752555 0.0058563007 0.0027195278

base.conv4.res_layer.1.weight f4 [16]
00000000: 650b 23a0 ab59 ec3e b292 8e3e 231e 0000
00000010: 6a5f 8b3e 29f3 083f dd60 8a21 6a65 8a24
00000020: f390 043f d41f 0080 d20e c93e bd65 353f
00000030: 0f11 0000 cc30 db3e 45ce 8f3e 1ae6 bc3e
-1.3810407e-19 0.4616216 0.27846295 1.0811e-41 0.27221233 0.5349603 9.376883e-19 6.001976e-17
0.51783675 -1.1418e-41 0.3926912 0.70858365 6.12e-42 0.42810667 0.2808706 0.36894304

base.conv4.res_layer.1.bias f4 [16]
00000000: 35d5 a1bb 2dab 85bd fd9a bf3e 4b1f 302b
00000010: 5c4c f13d e3ff 8abe 2bdf dbb9 6558 b03c
00000020: be07 db3d 8b09 0080 3eb3 f73d 1421 4f3e
00000030: 398f 08aa 50a0 d13c 3fbe ca3e 27c3 803d
-0.0049387463 -0.0652679 0.37422934 6.257119e-13 0.117821425 -0.2714835 -0.00041937208 0.021526525
0.10694836 -3.423e-42 0.120947346 0.20227462 -1.2128917e-13 0.025589138 0.3959827 0.06287222

base.conv4.res_layer.1.running_mean f4 [16]
00000000: 0400 0080 14b4 b6be c9c2 33bf 0400 0000
00000010: c733 7abd 7137 d8be 0400 0080 0400 0080
00000020: d207 2ebf 0400 0000 95d6 f4bd 362b 4fbe
00000030: 0400 0000 f9d5 ebbe d3a3 18bf 79fe a1bf
-6e-45 -0.35684264 -0.70219094 6e-45 -0.061084535 -0.42229798 -6e-45 -6e-45
-0.6798068 6e-45 -0.11954991 -0.20231327 6e-45 -0.46061686 -0.59624976 -1.2655784

base.conv4.res_layer.1.running_var f4 [16]
00000000: 0400 0000 c624 913e 6015 b53d 0400 0000
00000010: 6bb2 0a3e c4b3 0f3e 0400 0000 0400 0000
00000020: 2d3d 763e 0400 0000 168e 273e b79a de3e
00000030: 0400 0000 8614 963e dacb 123e 7d9c 903e
6e-45 0.28348368 0.088419676 6e-45 0.13544624 0.14033419 6e-45 6e-45
0.24046774 6e-45 0.16362795 0.43477413 6e-45 0.29312533 0.14335576 0.2824439

base.conv4.res_layer.3.weight f4 [16, 16, 3, 3]
00000000: 87d3 8c3d 0880 f43d 3682 873d 0e61 1fbe
00000010: 9313 50bd 4c49 a9bb 6193 59be 75b7 5ebe
00000020: 87b6 4dbd d8ec bf3c e1b4 ddbc af03 aabd
00000030: 0daf c43d aff3 fc3b 5b24 1bbd d54f 583d
00000040: 5dd2 923a ac0a 8b3c 16bf af3d 7963 283e
00000050: a518 ec3d fc8b 7dbe 8c02 4ebd 8608 e53d
00000060: a14e 0dbc 1d6a 353d f2ec 5c3e 30bf e51b
00000070: 47d8 9b1c da60 bb1c 1b90 181c 11c6 0f15
00000080: f87f 9699 9fb8 b71b 77c8 9b9a fbf5 ab1a
00000090: 0a50 663d 4880 87bb be23 2d3e ddc4 8cbd
000000a0: 1bfe e9bd 8ee4 ecbd 2898 adbc 3570 64bd
000000b0: 8407 3fbe ef86 873c ae47 593d 4463 e9bc
000000c0: c93e 36bd a0ef a0bd 8a2a 7fbd ac38 0fbd
000000d0: f326 b5bd 4a66 e4bd 5cbd 913e b772 4f3e
000000e0: 368d 2bbd 47a7 943e 20c2 3d3e 5469 513d
000000f0: a745 bfbc 535d aa3c 72de 07be b556 953c
00000100: f8bf b13c 13ed af3c ff3f 743c 8a77 893c
00000110: f2ae 623c 8059 21bb 90ff 97ba b5ad 16bb
00000120: a5db 8bbb 6bd7 9cbe 0642 81be 278b 0dbe
00000130: f54b 3ebe 286f 8fbd de16 ddbd 27a4 be3d
00000140: d0c9 ba3d 7e0b 0080 7505 0000 9a0e 0000
00000150: 5409 0000 c308 0000 7103 0000 3318 0080
00000160: 9222 0000 a20b 0000 3bc9 c8bd 774a b0bd
00000170: 6b62 153d 9d54 8cbd 6b8c 4b3d 85a2 903d
00000180: 195c 4d3d 88b5 9c3e 85de ab3e 031a 81be
00000190: d7bb 19be 172d 39bb 636c 14be 24db b83d
000001a0: ce42 7c3e 80ca 96bd 5e42 683e 7937 643e
000001b0: 731d 0000 c416 0080 7426 0080 c40a 0080
000001c0: 770c 0080 b707 0080 180e 0080 8511 0080
000001d0: a024 0000 32bd 033d 67a1 913d 883d a73d
000001e0: 8c9f c93d e817 823e 0b20 253e b6be 033e
000001f0: c8df 903e 19db 343e 7f72 c8bd 6340 2e3e
00000200: 7f3e a63d 39ed 23be 77b1 f73d 05a4 a5bb
00000210: 3097 afbc e6c5 95bd 635d a63d 91b3 28bd
00000220: b76e 703d 348e 693e 8ee4 32be 22d1 013e
00000230: 88d1 6c3c 6990 0ebe 727a 73bc 1860 8dbd
00000240: 0000 0000 0000 0080 0000 0080 0000 0000
00000250: 0000 0080 0000 0080 0000 0000 0000 0000
00000260: 0000 0080 0000 0080 0000 0080 0000 0080
00000270: 0000 0000 0000 0000 0000 0080 0000 0080
00000280: 0000 0000 0000 0000 0000 0000 0000 0000
00000290: 0000 0000 0000 0000 0000 0000 0000 0000
000002a0: 0000 0000 0000 0000 0000 0000 0000 0080
000002b0: 0000 0000 0000 0080 0000 0000 0000 0000
000002c0: 0000 0080 0000 0080 0000 0080 0000 0080
000002d0: 0000 0080 0000 0000 0000 0000 0000 0080
000002e0: 0000 0080 0000 0080 0000 0080 0000 0000
000002f0: 0000 0080 0000 0080 0000 0080 0000 0080
00000300: 0000 0000 0000 0080 0000 0080 0000 0080
00000310: 0000 0080 0000 0000 0000 0080 0000 0080
00000320: 0000 0080 0000 0080 0000 0080 0000 0080
00000330: 0000 0080 0000 0080 0000 0000 0000 0000
00000340: 0000 0000 0000 0000 0000 0000 0000 0000
00000350: 0000 0000 0000 0000 0000 0000 0000 0000
00000360: 0000 0080 0000 0080 0000 0080 0000 0080
00000370: 0000 0080 0000 0000 0000 0080 0000 0080
00000380: 0000 0000 0000 0080 0000 0000 0000 0080
00000390: 0000 0080 0000 0080 0000 0080 0000 0000
000003a0: 0000 0080 0000 0080 0000 0080 0000 0080
000003b0: 0000 0000 0000 0080 0000 0080 0000 0000
000003c0: 0000 0080 0000 0080 0000 0080 0000 0000
000003d0: 0000 0000 0000 0080 0000 0080 0000 0080
000003e0: 0000 0080 0000 0080 0000 0080 0000 0080
000003f0: 0000 0000 0000 0080 0000 0080 0000 0000
0.06876283 0.119384825 0.06616633 -0.15564367 -0.050799917 -0.0051662084 -0.21247627 -0.21749671
-0.0502229 0.023428366 -0.027063789 -0.08301484 0.09603701 0.007719479 -0.03787647 0.05281051
0.0011201609 0.016972862 0.085813686 0.16444196 0.11528138 -0.24760431 -0.050295398 0.11183266
-0.008624704 0.04429065 0.21574762 3.8008424e-22 1.0312946e-21 1.2399658e-21 5.0478833e-22 2.9034867e-26
-1.5561323e-23 3.039412e-22 -6.4430366e-23 7.1121345e-23 0.056228675 -0.0041351654 0.16908166 -0.06873486
-0.1142542 -0.11567031 -0.021190718 -0.05577107 -0.1865521 0.016543834 0.053046875 -0.028489716
-0.04449347 -0.07858205 -0.062296428 -0.034966156 -0.088453196 -0.111523226 0.28464782 0.20258604
-0.041882716 0.29033872 0.18531084 0.05112584 -0.023348643 0.020796454 -0.1326845 0.018229822
0.021697983 0.02147535 0.014907836 0.016780633 0.0138356555 -0.0024619997 -0.0011596549 -0.002299172
-0.004268127 -0.306331 -0.25245684 -0.13822614 -0.18583663 -0.07003623 -0.10795377 0.09308653
0.09120524 -4.123e-42 1.958e-42 5.238e-42 3.346e-42 3.143e-42 1.235e-42 -8.681e-42
1.2401e-41 4.173e-42 -0.09804007 -0.08607953 0.03647081 -0.06852076 0.04969446 0.07062248
0.05013666 0.30607247 0.33568206 -0.25215158 -0.15013061 -0.0028255635 -0.14494471 0.09026173
0.24634859 -0.073628426 0.22681567 0.22286786 1.0564e-41 -8.167e-42 -1.3794e-41 -3.862e-42
-4.472e-42 -2.768e-42 -5.056e-42 -6.285e-42 1.3139e-41 0.032162853 0.07110863 0.08166033
0.09844884 0.25408864 0.16125505 0.12865719 0.28295732 0.17661704 -0.097874634 0.17016749
0.08117389 -0.16008462 0.120943956 -0.005054953 -0.021434397 -0.07313137 0.08123281 -0.041186873
0.058699336 0.22808152 -0.17469999 0.12677434 0.014454253 -0.13922276 -0.014860736 -0.06903094
0.0 -0.0 -0.0 0.0 -0.0 -0.0 0.0 0.0
-0.0 -0.0 -0.0 -0.0 0.0 0.0 -0.0 -0.0
0.0 0.0 0.0 0.0 0.0 0.0 0.0 0.0
0.0 0.0 0.0 -0.0 0.0 -0.0 0.0 0.0
-0.0 -0.0 -0.0 -0.0 -0.0 0.0 0.0 -0.0
-0.0 -0.0 -0.0 0.0 -0.0 -0.0 -0.0 -0.0
0.0 -0.0 -0.0 -0.0 -0.0 0.0 -0.0 -0.0
-0.0 -0.0 -0.0 -0.0 -0.0 -0.0 0.0 0.0
0.0 0.0 0.0 0.0 0.0 0.0 0.0 0.0
-0.0 -0.0 -0.0 -0.0 -0.0 0.0 -0.0 -0.0
0.0 -0.0 0.0 -0.0 -0.0 -0.0 -0.0 0.0
-0.0 -0.0 -0.0 -0.0 0.0 -0.0 -0.0 0.0
-0.0 -0.0 -0.0 0.0 0.0 -0.0 -0.0 -0.0
-0.0 -0.0 -0.0 -0.0 0.0 -0.0 -0.0 0.0

base.conv4.res_layer.4.weight f4 [16]
00000000: bcb2 cc3e fb77 a6ac afd2 8baf 4feb 783e
00000010: caa1 013f 9cb1 073f baf6 be30 a22b bb3e
00000020: db45 b13e 24a9 e22b 756d 12b5 12d9 8432
00000030: cb4b c53e ec5c bd3e 3eec ea3e 15d7 b43e
0.39980114 -4.7313243e-12 -2.5433652e-10 0.24308513 0.50637496 0.53005385 1.3894443e-09 0.36556727
0.34623608 1.6105212e-12 -5.454852e-07 1.5465535e-08 0.38534388 0.36984956 0.45883363 0.35320345

base.conv4.res_layer.4.bias f4 [16]
00000000: 8967 13bd 29d7 6d3e e917 e23d f7e3 45be
00000010: 6494 c8bd 872d 77bd 29d3 ecbd bab8 d23d
00000020: 5dba 4b3e 4425 bfbd 52e8 09be a03b e1bd
00000030: dec8 44bd ccf8 393e f159 49be 2f6e 243c
-0.03598741 0.23226608 0.11039717 -0.19325243 -0.09793928 -0.060346153 -0.11563713 0.1028914
0.1989531 -0.0933328 -0.1346753 -0.10997701 -0.048043124 0.18161315 -0.19663216 0.010036035

base.conv4.res_layer.4.running_mean f4 [16]
00000000: 5b95 993e 0400 0080 0400 0000 293a c23d
00000010: 3640 273f 3553 ba3c 0400 0000 2e0e f03e
00000020: b987 c23e 0400 0080 0400 0080 0400 0080
00000030: 2b87 66be cb4c 27be 6e96 9a3e c134 0a3f
0.29996762 -6e-45 6e-45 0.094837494 0.65332353 0.022744754 6e-45 0.46885818
0.37994173 -6e-45 -6e-45 -6e-45 -0.225125 -0.16337888 0.30192894 0.53986746

base.conv4.res_layer.4.running_var f4 [16]
00000000: 282c cd3d 0400 0000 0400 0000 8663 083e
00000010: 12bf 533e 75c6 053e 0400 0000 bbe4 ca3d
00000020: db02 b13d 0400 0000 0400 0000 0400 0000
00000030: 4ae0 943e 20fc 023e 1311 ec3d 8a9b ee3d
0.10018188 6e-45 6e-45 0.13319215 0.20678356 0.13063987 6e-45 0.09906908
0.08643123 6e-45 6e-45 6e-45 0.2907737 0.1279149 0.11526694 0.116507605

base.m0.b2_1.0.shortcut_layer.0.weight f4 [16, 16, 1, 1]
00000000: 76fd 703d 23cd 5b3e 05b5 9e3c 7d82 973e
00000010: 002f 9cbe 53d7 8d3c b2a8 023e b97a 1cbe
00000020: 1c4d 33bd 274f ee3d b1cd 363e afd8 85ba
00000030: 812a 8d3e 6128 febd de9d 0b3e be93 b13e
00000040: fca7 9bbd f6cb 31bd 23ad 06bc 0b6f 48be
00000050: 0879 6bbe fb02 04be 5be6 5ebe 2905 04be
00000060: dd8d 16be fc90 083d 6f92 86bd a5e1 55bd
00000070: 76bd 49be 11ab e9be 4e79 f7bd ccd6 0abd
00000080: d1f7 6dbc 382c f63d abbc 6b3d 7c6e 1a3f
00000090: bcbe 0bbe f479 603c 19ae 863d ef4a 2bbd
000000a0: c408 d33b 66c8 a2bc 026d 70bd b0d0 17bd
000000b0: 4e7f ebbe 9cad a53c bf03 b1bd a33d 673c
000000c0: ca87 d03d cb51 1e3e 9d3c 73bd 3c27 553e
000000d0: d175 f43d 66f1 4cbd 85fe 5a3d b97c e9be
000000e0: 9362 b8bd d12c a93c a27e c53d abe1 573b
000000f0: cb50 a03e 7916 dabd 6072 c9bd 8d19 85be
00000100: d2f4 d43d abb5 5cbe 47a3 e3bd 81e5 3c3d
00000110: 5b91 213e 255f 01be 9f1e 0b3e 379c 7f3e
00000120: 75ee 6abe 68b9 c1bd fc99 73bc 6a9e ad3c
00000130: 17dd 44bd 35c5 48be eaa8 07bd 86a3 963d
00000140: 0000 0000 0000 0080 0000 0080 0000 0000
00000150: 0000 0000 0000 0000 0000 0000 0000 0000
00000160: 0000 0080 0000 0080 0000 0080 0000 0080
00000170: 0000 0000 0000 0080 0000 0080 0000 0000
00000180: 0000 0000 0000 0080 0000 0080 0000 0080
00000190: 0000 0000 0000 0080 0000 0000 0000 0080
000001a0: 0000 0000 0000 0080 0000 0080 0000 0080
000001b0: 0000 0000 0000 0080 0000 0080 0000 0080
000001c0: 0000 0080 0000 0000 0000 0080 0000 0080
000001d0: 0000 0080 0000 0080 0000 0080 0000 0000
000001e0: 0000 0080 0000 0080 0000 0000 0000 0080
000001f0: 0000 0080 0000 0080 0000 0080 0000 0080
00000200: 0000 0000 0000 0080 0000 0080 0000 0000
00000210: 0000 0080 0000 0080 0000 0080 0000 0080
00000220: 0000 0080 0000 0080 0000 0080 0000 0080
00000230: 0000 0000 0000 0000 0000 0080 0000 0080
00000240: cd4f c9be 6823 c1bd 011b 003d cc13 de3d
00000250: ce47 87bd 947a 88bd b6e4 93bd 1b91 c9be
00000260: cfc3 9dbc 7b8f 9bbd c60b 2ebd b677 9a3b
00000270: b0ca 00bb 5859 7e3e 3579 703e ccd1 373e
00000280: 7544 f9bd d42b 123e 2ba5 b1bd d307 933c
00000290: d4e5 183e f1b2 43be 68cd 07be 5bd3 bf3d
000002a0: 6df9 3d3e 460f dd3c 7e1d 9a3d 9547 f63c
000002b0: ad3b 603e 5e47 663d 7a18 56be 5eed b33e
000002c0: 0000 0080 0000 0000 0000 0000 0000 0000
000002d0: 0000 0080 0000 0000 0000 0000 0000 0080
000002e0: 0000 0000 0000 0080 0000 0000 0000 0080
000002f0: 0000 0080 0000 0000 0000 0080 0000 0000
00000300: 0000 0000 0000 0080 0000 0000 0000 0080
00000310: 0000 0000 0000 0000 0000 0000 0000 0000
00000320: 0000 0080 0000 0000 0000 0000 0000 0080
00000330: 0000 0080 0000 0000 0000 0080 0000 0000
00000340: 9191 483d 002f f7bd a210 5e3d 81dc 43be
00000350: 7ebc b1bd d694 e43d 0218 063c c834 3f3e
00000360: de99 a2be 04d5 96bc 00e2 ae3d 2afd a43c
00000370: 5be1 acbe 225f e33d d092 3b3e 1ad4 843d
00000380: b018 6dbe 2257 5abd 7c25 193e b64d 7a3e
00000390: c997 a43d d60d f53d 6f86 1c3e 5125 983e
000003a0: c4aa e53d a00f 183c 523c 7fbb 9457 173a
000003b0: 2066 613e 31ef abbd b5d0 ecbe bb81 3c3e
000003c0: c3c7 813d 607b 083d 12a5 933d 58c9 aa3e
000003d0: 10fc 0f3d 7628 663d 7a41 733d 6c3c 6cbe
000003e0: 925a 243e 9375 2a3e a775 153e 77bc 173e
000003f0: e586 babd aa94 143e 2fa9 103e 035e 2cbd
0.05883547 0.21464972 0.019373426 0.29591742 -0.30504608 0.017314589 0.12759665 -0.1528119
-0.04377471 0.11636191 0.17851903 -0.0010211671 0.2757149 -0.124100454 0.1363444 0.3468303
-0.076004 -0.043407403 -0.00821999 -0.1957361 -0.22995389 -0.12891762 -0.21767561 -0.12892593
-0.14702554 0.033341393 -0.06570899 -0.052217145 -0.1970118 -0.45638326 -0.12083684 -0.033896253
-0.014524416 0.12020153 0.057552975 0.60324836 -0.13646978 0.013700951 0.06576175 -0.04181951
0.006440254 -0.019870948 -0.058697708 -0.037064254 -0.45995563 0.020224385 -0.08643293 0.014113816
0.1018215 0.15460889 -0.059383977 0.20815748 0.11936534 -0.050034903 0.053465385 -0.45602968
-0.090031765 0.020651253 0.09643294 0.0032940905 0.3131164 -0.106488176 -0.098362684 -0.25996056
0.10398258 -0.21553676 -0.11115127 0.04611731 0.15778105 -0.12633951 0.135859 0.24961935
-0.22942527 -0.094591916 -0.014868256 0.021193702 -0.04806241 -0.19606479 -0.033120073 0.07355408
0.0 -0.0 -0.0 0.0 0.0 0.0 0.0 0.0
-0.0 -0.0 -0.0 -0.0 0.0 -0.0 -0.0 0.0
0.0 -0.0 -0.0 -0.0 0.0 -0.0 0.0 -0.0
0.0 -0.0 -0.0 -0.0 0.0 -0.0 -0.0 -0.0
-0.0 0.0 -0.0 -0.0 -0.0 -0.0 -0.0 0.0
-0.0 -0.0 0.0 -0.0 -0.0 -0.0 -0.0 -0.0
0.0 -0.0 -0.0 0.0 -0.0 -0.0 -0.0 -0.0
-0.0 -0.0 -0.0 -0.0 0.0 0.0 -0.0 -0.0
-0.39318696 -0.09430581 0.031275753 0.1084362 -0.066054925 -0.06664005 -0.072213575 -0.3936852
-0.019258408 -0.07595726 -0.042491697 0.0047139777 -0.0019652061 0.2483877 0.23483737 0.17951125
-0.1217126 0.14274532 -0.086740814 0.017948067 0.14931422 -0.1911123 -0.1326195 0.09366485
0.1855218 0.026984822 0.075251564 0.03006343 0.21897765 0.056220405 -0.20907775 0.35142034
-0.0 0.0 0.0 0.0 -0.0 0.0 0.0 -0.0
0.0 -0.0 0.0 -0.0 -0.0 0.0 -0.0 0.0
0.0 -0.0 0.0 -0.0 0.0 0.0 0.0 0.0
-0.0 0.0 0.0 -0.0 -0.0 0.0 -0.0 0.0
0.048966948 -0.120695114 0.05421508 -0.19127084 -0.0867853 0.11161201 0.008184435 0.18672478
-0.31758016 -0.01841212 0.085392 0.02014025 -0.33765683 0.111021295 0.18317723 0.06485768
-0.23153949 -0.053305753 0.14955705 0.24443707 0.08036763 0.119655296 0.15285657 0.2971597
0.112142116 0.009281069 -0.0038945866 0.0005773243 0.22011614 -0.083952315 -0.4625298 0.18408863
0.0633693 0.033320785 0.07209219 0.33356738 0.035152495 0.05619093 0.059388615 -0.23069924
0.16050175 0.16646414 0.14595662 0.14817987 -0.0910776 0.14509836 0.14127038 -0.042081844

base.m0.b2_1.0.shortcut_layer.1.weight f4 [16]
00000000: dabf cf3e ff85 b83e d9a8 0c3f db1c a23e
00000010: daf5 ee3d 5c6c 6138 7507 d9a4 3bb8 2f9c
00000020: bb54 3ab3 f97d b53e 7d2e 0d3e 1ba1 302d
00000030: cbdc d731 7f4a 7d3e 1974 c13e e74e 563e
0.4057606 0.3603973 0.5494514 0.3166264 0.11667986 5.3745098e-05 -9.412138e-17 -5.8140755e-22
-4.338356e-08 0.35447672 0.13787265 1.0040214e-11 6.282425e-09 0.24735449 0.37783888 0.20928536

base.m0.b2_1.0.shortcut_layer.1.bias f4 [16]
00000000: bbd9 e63d e009 183c fc1b 1a3e 262f 45bd
00000010: c875 823d 63ae d1bd 9af7 00bd 3201 133d
00000020: b425 ee3d 09a4 2c3e 2556 913d 32ca 98bd
00000030: 65de 1c3d e2eb e23d 1191 323e 5c63 0b3e
0.112719975 0.009279698 0.15049738 -0.048140667 0.06370121 -0.1023834 -0.03148613 0.03588981
0.11628285 0.1685945 0.07096509 -0.07460441 0.03829803 0.11080147 0.17438151 0.13612121

base.m0.b2_1.0.shortcut_layer.1.running_mean f4 [16]
00000000: 2c92 b43d 9f65 79be d75f 2a3e 1055 a13c
00000010: 4ccb 3ebe 0400 0080 0400 0080 0400 0080
00000020: 0400 0080 c7cf 8fbe ba83 613e 0400 0000
00000030: 0400 0000 7f8e 19be 7d20 053e 5deb cd3d
0.088169426 -0.24355172 0.16638122 0.019693881 -0.18632239 -6e-45 -6e-45 -6e-45
-6e-45 -0.2808821 0.22022906 6e-45 6e-45 -0.14995764 0.13000675 0.100546576

base.m0.b2_1.0.shortcut_layer.1.running_var f4 [16]
00000000: 8aad ec3d e8f3 d93d be8d a73d dcc0 973d
00000010: bd22 473d 0400 0000 0400 0000 0400 0000
00000020: 0400 0000 c52a b23d fb23 603d 0400 0000
00000030: 0400 0000 7e9f 483d 0248 f33d 6dc8 073d
0.115565374 0.106422246 0.08181332 0.07409832 0.048617113 6e-45 6e-45 6e-45
6e-45 0.08699564 0.054721814 6e-45 6e-45 0.04898023 0.11878969 0.033150125

base.m0.b2_1.0.res_layer.0.weight f4 [16, 16, 3, 3]
00000000: 7ac7 b83d b32f 56bc 97d5 eb3c 732b 6e3e
00000010: 3d6b 563e fd14 313d 43ed b2bd a8a5 87be
00000020: f07f 43be 0d78 babd c9a0 c1bd 7b63 56bd
00000030: 7bbb 0d3e 866d 433e b558 af3d b34e 473e
00000040: 014e 743e 6f61 0c3e 3343 1a3c 4de2 093d
00000050: e948 19bd 2c09 48bd 9ea8 ff3d 8b86 963d
00000060: e1ee 5a3d 90af 5d3e f66a 523e c4e6 0c3d
00000070: 14c2 94bc 4620 b3bd 7d55 cd3c b987 babd
00000080: 410d 0fbe 92fa 8dbd 5c2c 5abe 105b 6bbe
00000090: 3168 e7bc 37d7 5fbd 7ad3 10be 3d77 fbbd
000000a0: 7632 d9bd 6950 0cbe 1eab 1e3e 56ea 093e
000000b0: 84ca d23d 009b c93b 7372 923c a46c b53c
000000c0: f974 45be 1bb9 52be 38bd 05be d640 8b3d
000000d0: af3c 973e 4a8d a63e 68e2 173d bab2 5abc
000000e0: 5391 013c 9177 4bbc a510 2d3c 7cda 2d3d
000000f0: 938e cabd 66ec cdbd 1328 8bbd cfde 263d
00000100: 125a 3d3d 1509 96bd 184c 9a3d 24d4 0b3e
00000110: f3ca 2f3c 871f 2cbd 0464 283c 55fe 8dbc
00000120: b36a 09bd f137 59bc 7d6e 833d c8d8 0e3e
00000130: 0305 513e 1b1a 393e 4299 8fbe 8f1b b0be
00000140: d778 b3bd fdd9 4ebd 4418 80bc 18a1 823d
00000150: ac6e 0b3d f292 063d 2f0c 85bc 8cd2 ae3d
00000160: ff3f 20bc d888 f5bd 8ff1 f83c 72e6 36bd
00000170: 1e42 c6bb f0b8 59bd 912c 23bd 7841 333c
00000180: a421 56bd 93e5 8dbc 924c 40bc dcdc 61bd
00000190: 4574 c0bd ecd2 8ebd fe3c a7bc 9df2 c5bd
000001a0: 54dd a6bd a5a6 42bb 0a77 6abd fadd fabc
000001b0: ccae 36bd a0dd f83c 8bd4 f1bb 19f3 8bbd
000001c0: 5f4a d5bd 9819 11be fd90 4c3e f228 fc3c
000001d0: 6b1e ca3b 1c96 743c 95ff 063e f01a f7bc
000001e0: ac11 303e ccb7 923e 060f aa3d 5f41 44be
000001f0: d619 79be d2f3 4cbe 2407 d4bc 539b e4bc
00000200: e710 763c eb98 0bbd c9a6 33bd 7890 8cbc
00000210: 256f 573d 35f1 d03c 23d9 493c cbc8 84bd
00000220: 7cfe 79bc 7f6c 4a3b 4bfc a43d ffed 023e
00000230: 5c51 843d a4db 4ebd 93f3 e9bd a7d3 adbd
00000240: 3275 9c3e 14ff 483e 6e93 943c ac21 2bbe
00000250: 551d 4bbe f59e 7cbe 2f4d 0b3a 2909 a3bd
00000260: f7ee 0cbd 0521 c43d 4c24 4c3e 4c51 4e3e
00000270: 4078 333e b018 573e c906 e33d e183 8a3c
00000280: e611 57bd 89c6 acbc 15b5 49bc 3ee5 cf3d
00000290: 94d0 923d a4a0 ad3d f988 893e a820 273e
000002a0: 0b2a 11bb f3f9 573b 0cde 2bbc 50fa 8c3d
000002b0: deb9 0bbe 8fb8 fdbd fac4 39bd 1ff3 47be
000002c0: 1f11 3abe 654b 9bbc a6d3 d2bd 5d1a e9bd
000002d0: 859d b4bd 8937 3cbe 9ca8 26be 8db2 d03d
000002e0: 9339 023e 38e1 913d 87bd 0ebd 821c 853d
000002f0: f209 8e3d 9f99 53be f50c 64be 5a68 06be
00000300: c90a b03d 6a5d c43e 7943 8f3e 60fd 0cbd
00000310: 2004 5a3d 2ba8 223d 47cf 15bd 333f 24bd
00000320: 19a1 0d3d b3d5 76bd 4d1f 85bd d76b b0bc
00000330: 1ca8 19bc 5f59 553d 50e2 173d 01b5 d63d
00000340: d4af 383e 59b4 313d 85c2 b0bd 7a87 c6bd
00000350: 7f33 2ebe d056 683a dab3 863c 5d50 a4bb
00000360: a727 e83d 1c33 153e 0545 453e de3d 76be
00000370: 95e5 aebe a92b ccbd 22a3 da3d 726d 1c3d
00000380: e1fb 5e3d 1cb3 dc3b f807 89bd 2bf3 36bc
00000390: d019 183d 7e54 843d 0af7 2bbd 8f08 7abc
000003a0: 4941 703d 1811 8b3c c8a3 6fbc cfc6 f3bd
000003b0: 7277 6abd b19f 8dbd d247 363c 6851 79bd
000003c0: 4209 d7bc 8783 1bbd 77a3 88bd 94c6 25bd
000003d0: 0826 f0bd 9ed7 9fbd e563 2b3d aee5 af3d
000003e0: 497f a5bc 9573 e73c 475d a73c 5186 acbc
000003f0: 826b 2f3d 69e2 8cbd d841 f8bd fbf2 a43d
0.09022422 -0.013072896 0.028788371 0.23258762 0.20939346 0.043232907 -0.0873666 -0.26493573
-0.19091773 -0.09104929 -0.094544955 -0.052340966 0.1384105 0.19084749 0.085618414 0.19463615
0.23857881 0.13709043 0.009415436 0.033663083 -0.03742305 -0.048836872 0.12483333 0.07349881
0.05345047 0.21649003 0.20548615 0.034399763 -0.01815895 -0.0874639 0.025065178 -0.09107918
-0.139699 -0.06932558 -0.21305984 -0.22983956 -0.028247925 -0.054648604 -0.14143172 -0.12278602
-0.10605328 -0.13702549 0.15494964 0.13468298 0.10292533 0.0061525106 0.01787684 0.02214653
-0.19282903 -0.20578425 -0.13060462 0.06799476 0.29538485 0.3252967 0.037081152 -0.013348276
0.007908183 -0.012418644 0.01056305 0.04244469 -0.09890475 -0.10054855 -0.06794753 0.04073983
0.046228476 -0.07325951 0.07534045 0.13655144 0.010729539 -0.042022254 0.010277752 -0.017333189
-0.033549022 -0.013257966 0.06417558 0.13949883 0.20412068 0.18076365 -0.28046614 -0.34396026
-0.08763283 -0.05050086 -0.01563657 0.063783824 0.03404109 0.03285498 -0.016241161 0.085362524
-0.009780883 -0.119889915 0.030388622 -0.044653364 -0.0060503623 -0.053154886 -0.039837424 0.010940902
-0.052278176 -0.017321384 -0.011737006 -0.05514227 -0.09397177 -0.06973824 -0.020414826 -0.096654154
-0.08147684 -0.0029701379 -0.05724243 -0.030623425 -0.044600293 0.030379117 -0.0073800734 -0.068334766
-0.10414576 -0.1416992 0.19977184 0.030781243 0.006168177 0.014928367 0.13183434 -0.030164212
0.17194241 0.2865585 0.08303647 -0.19165562 -0.24326262 -0.20014885 -0.025882311 -0.027906096
0.015018678 -0.03408138 -0.04386023 -0.017158732 0.05259623 0.025505641 0.012319836 -0.06483611
-0.015258428 0.0030887423 0.080559336 0.12786101 0.064608306 -0.050502434 -0.11423411 -0.08487635
0.30558163 0.19628555 0.018136706 -0.16712064 -0.19835408 -0.24670012 0.00053139305 -0.079607315
-0.034407582 0.095766105 0.19935721 0.201482 0.1752634 0.21005511 0.110852785 0.016908588
-0.052507304 -0.021090763 -0.01231124 0.10151146 0.07168689 0.084779054 0.26862314 0.16321051
-0.0022150304 0.0032955378 -0.010489952 0.06883681 -0.13645121 -0.123887174 -0.045353867 -0.19526337
-0.18170594 -0.01895685 -0.10294275 -0.113819815 -0.08819107 -0.1838056 -0.16275257 0.10190306
0.12717275 0.07123035 -0.034848716 0.06499578 0.06935491 -0.2066407 -0.22270568 -0.13125744
0.08595807 0.3835252 0.27981165 -0.034421325 0.05322659 0.03971116 -0.03657463 -0.040099334
0.034577463 -0.060262393 -0.06500111 -0.021535797 -0.009378459 0.052087184 0.037081063 0.104837425
0.18035823 0.043384884 -0.08630852 -0.09693809 -0.17011832 0.0008863034 0.016443182 -0.005014463
0.11335688 0.14570278 0.1926461 -0.24047038 -0.34159532 -0.09969265 0.10675646 0.038190313
0.05443943 0.0067352187 -0.06690973 -0.011166374 0.03713399 0.06461428 -0.04198364 -0.01526083
0.05865601 0.016975924 -0.014626451 -0.11903154 -0.05724282 -0.06915224 0.011125522 -0.06086865
-0.026249532 -0.03796723 -0.066718034 -0.040472582 -0.11726004 -0.078047976 0.041843314 0.0858873
-0.020202296 0.028253356 0.02043022 -0.02106014 0.042827137 -0.06879122 -0.12121934 0.08054157

base.m0.b2_1.0.res_layer.1.weight f4 [16]
00000000: 8b45 9f3e 2d5a b03e a6b1 df3e a7f6 df3e
00000010: b6da f13e b083 b73e 35f5 8e3e e723 131b
00000020: 49ad a3ab 7215 0000 5bce b33e d220 0000
00000030: 7a04 483e f203 0000 ba27 ae32 41c4 a03e
0.31107745 0.344438 0.43690223 0.43742868 0.47237176 0.35842657 0.27921453 1.2171156e-22
-1.1629943e-12 7.693e-42 0.35118374 1.1774e-41 0.19532958 1.415e-42 2.0274332e-08 0.3139973

base.m0.b2_1.0.res_layer.1.bias f4 [16]
00000000: 1b90 0ebd d710 8ebd 1fbb 0c3f f6a5 bf3e
00000010: 92e3 da3e dde7 353c 50c0 933d d325 a3b1
00000020: bc86 52ab 0073 ab35 82cd 423c c124 962f
00000030: 62fb de3d d334 462b 5448 dbb4 64c0 533e
-0.0348054 -0.06936806 0.54973024 0.37431306 0.42751747 0.011102644 0.07214415 -4.7482245e-09
-7.479397e-13 1.2773962e-06 0.011889817 2.7310956e-10 0.10887791 7.041704e-13 -4.0844554e-07 0.2067886

base.m0.b2_1.0.res_layer.1.running_mean f4 [16]
00000000: 06a3 373f a7a1 333f 1f0b 463e 15b1 dfbe
00000010: 62ff 31bd 6bfc b4be a672 78be 0400 0080
00000020: 0400 0080 0400 0000 afa6 8abe 0400 0080
00000030: d5fb 65bf 0400 0080 0400 0000 1901 083f
0.7173313 0.70168537 0.1934018 -0.4368979 -0.043456443 -0.3534883 -0.24262485 -6e-45
-6e-45 6e-45 -0.27080294 -6e-45 -0.8983739 -6e-45 6e-45 0.53126675

base.m0.b2_1.0.res_layer.1.running_var f4 [16]
00000000: 6a1c 8c3f 4a53 9c3f 74c6 913f f678 d73f
00000010: 06e1 563f 44f3 3c3f 0240 2a3f 0400 0000
00000020: 0400 0000 0400 0000 ff62 e83e 0400 0000
00000030: dfeb 9e3e 0400 0000 0400 0000 cfe7 ed3e
1.0946171 1.2212918 1.1388688 1.6833789 0.8393711 0.73808694 0.6650392 6e-45
6e-45 6e-45 0.45388028 6e-45 0.3103933 6e-45 6e-45 0.46465918
