Pruned_Models/EXTD/FPGM/EXTD50_FPGM.pth (torch, 722013 bytes, 134 tensors)

base.0.0.weight f4 [64, 3, 3, 3]
00000000: 0000 0000 0000 0000 0000 0000 0000 0000
00000010: 0000 0000 0000 0000 0000 0000 0000 0000
00000020: 0000 0000 0000 0000 0000 0000 0000 0000
00000030: 0000 0000 0000 0000 0000 0000 0000 0000
00000040: 0000 0000 0000 0000 0000 0000 0000 0000
00000050: 0000 0000 0000 0000 0000 0000 0000 0000
00000060: 0000 0000 0000 0000 0000 0000 0000 0000
00000070: 0000 0000 0000 0000 0000 0000 0000 0000
00000080: 0000 0000 0000 0000 0000 0000 0000 0000
00000090: 0000 0000 0000 0000 0000 0000 0000 0000
000000a0: 0000 0000 0000 0000 0000 0000 0000 0000
000000b0: 0000 0000 0000 0000 0000 0000 0000 0000
000000c0: 0000 0000 0000 0000 0000 0000 0000 0000
000000d0: 0000 0000 0000 0000 0000 0000 0000 0000
000000e0: 0000 0000 0000 0000 0000 0000 0000 0000
000000f0: 0000 0000 0000 0000 0000 0000 0000 0000
00000100: 0000 0000 0000 0000 0000 0000 0000 0000
00000110: 0000 0000 0000 0000 0000 0000 0000 0000
00000120: 0000 0000 0000 0000 0000 0000 0000 0000
00000130: 0000 0000 0000 0000 0000 0000 0000 0000
00000140: 0000 0000 49ed 2940 d93a c53f 78cd 343f
00000150: 3024 d3bc 822a 19c0 72b1 343f c27b b0c0
00000160: fcab 1bc1 a30b 5bc0 0d6e 623f 237e 73bf
00000170: bfda 37c0 c50b 90c0 6210 00c1 df96 8cc0
00000180: 3ac2 1cc1 bafd 58c1 9ff0 d6c0 b262 7cbf
00000190: 3be1 31c0 c7e0 5fc0 997e ebc0 c2d6 1bc1
000001a0: 5692 e7c0 4957 38c1 9ada 68c1 1a6d 02c1
000001b0: 0000 0000 0000 0000 0000 0000 0000 0000
000001c0: 0000 0000 0000 0000 0000 0000 0000 0000
000001d0: 0000 0000 0000 0000 0000 0000 0000 0000
000001e0: 0000 0000 0000 0000 0000 0000 0000 0000
000001f0: 0000 0000 0000 0000 0000 0000 0000 0000
00000200: 0000 0000 0000 0000 0000 0000 0000 0000
00000210: 0000 0000 0000 0000 0000 0000 e036 74c1
00000220: 5429 33c1 86b9 edc0 2f5c 05c2 f455 d9c1
00000230: 8d7e b6c1 09c4 15c2 7e96 e8c1 0628 bdc1
00000240: 9f1c 39c1 3600 9cc0 e3da c340 f521 d1c1
00000250: 629a 81c1 fd01 e7c0 195f e0c1 61cf a5c1
00000260: 92d4 45c1 c5ce a43f 638d b840 c1e6 1d41
00000270: fe43 5dc1 3d7d e5c0 7e07 df3d f2fd 97c1
00000280: 39ec 5cc1 86f1 f2c0 0000 0000 0000 0000
00000290: 0000 0000 0000 0000 0000 0000 0000 0000
000002a0: 0000 0000 0000 0000 0000 0000 0000 0000
000002b0: 0000 0000 0000 0000 0000 0000 0000 0000
000002c0: 0000 0000 0000 0000 0000 0000 0000 0000
000002d0: 0000 0000 0000 0000 0000 0000 0000 0000
000002e0: 0000 0000 0000 0000 0000 0000 0000 0000
000002f0: 0000 0000 9c44 f641 47f4 1e41 e767 58c1
00000300: 99ec 90c1 7f41 dac1 345a 3fc2 18a8 ffc1
00000310: d7f3 e3c1 1605 4bc2 7156 3741 bc6d 55c1
00000320: bfe3 e9c1 e2cd 46c1 bde8 dac1 f692 1dc2
00000330: 06e4 b6c1 2c53 e1c1 d44f 32c2 0468 7f42
00000340: 4f4a 0442 dff6 1841 fd3d 1642 b7ef 7741
00000350: fbed b93f 46b6 1841 f7f8 7cc0 9a56 9dc1
00000360: 0000 0000 0000 0000 0000 0000 0000 0000
00000370: 0000 0000 0000 0000 0000 0000 0000 0000
00000380: 0000 0000 0000 0000 0000 0000 0000 0000
00000390: 0000 0000 0000 0000 0000 0000 0000 0000
000003a0: 0000 0000 0000 0000 0000 0000 0000 0000
000003b0: 0000 0000 0000 0000 0000 0000 0000 0000
000003c0: 0000 0000 0000 0000 0000 0000 0000 0080
000003d0: 0000 0080 0000 0080 0000 0080 0000 0080
000003e0: 0000 0080 0000 0080 0000 0080 0000 0080
000003f0: 0000 0080 0000 0080 0000 0080 0000 0080
0.0 0.0 0.0 0.0 0.0 0.0 0.0 0.0
0.0 0.0 0.0 0.0 0.0 0.0 0.0 0.0
0.0 0.0 0.0 0.0 0.0 0.0 0.0 0.0
0.0 0.0 0.0 0.0 0.0 0.0 0.0 0.0
0.0 0.0 0.0 0.0 0.0 0.0 0.0 0.0
0.0 0.0 0.0 0.0 0.0 0.0 0.0 0.0
0.0 0.0 0.0 0.0 0.0 0.0 0.0 0.0
0.0 0.0 0.0 0.0 0.0 0.0 0.0 0.0
0.0 0.0 0.0 0.0 0.0 0.0 0.0 0.0
0.0 0.0 0.0 0.0 0.0 0.0 0.0 0.0
0.0 2.6551077 1.5408584 0.7062602 -0.025774091 -2.3932195 0.7058326 -5.515107
-9.729488 -3.4225852 0.88449174 -0.95114344 -2.8727262 -4.5014367 -8.004 -4.393417
-9.797419 -13.561945 -6.7168727 -0.985881 -2.779372 -3.4980943 -7.359204 -9.739931
-7.2366133 -11.52131 -14.5533695 -8.151636 0.0 0.0 0.0 0.0
0.0 0.0 0.0 0.0 0.0 0.0 0.0 0.0
0.0 0.0 0.0 0.0 0.0 0.0 0.0 0.0
0.0 0.0 0.0 0.0 0.0 0.0 0.0 -15.263397
-11.19759 -7.428897 -33.340023 -27.16697 -22.811792 -37.44144 -29.073483 -23.644543
-11.569488 -4.8750257 6.1204696 -26.14158 -16.200382 -7.2189927 -28.046434 -20.72626
-12.364397 1.2875601 5.767259 9.868836 -13.8291 -7.171538 0.10890101 -18.998997
-13.807672 -7.591983 0.0 0.0 0.0 0.0 0.0 0.0
0.0 0.0 0.0 0.0 0.0 0.0 0.0 0.0
0.0 0.0 0.0 0.0 0.0 0.0 0.0 0.0
0.0 0.0 0.0 0.0 0.0 30.7835 9.934638 -13.525367
-18.115526 -27.28198 -47.83809 -31.957077 -28.494062 -50.754967 11.458604 -13.339291
-29.236204 -12.425264 -27.363642 -39.393517 -22.86134 -28.165611 -44.577957 63.851578
33.072567 9.560271 37.560535 15.496024 1.4525751 9.5445 -3.9526956 -19.667286
0.0 0.0 0.0 0.0 0.0 0.0 0.0 0.0
0.0 0.0 0.0 0.0 0.0 0.0 0.0 0.0
0.0 0.0 0.0 0.0 0.0 0.0 0.0 0.0
0.0 0.0 0.0 -0.0 -0.0 -0.0 -0.0 -0.0
-0.0 -0.0 -0.0 -0.0 -0.0 -0.0 -0.0 -0.0

base.0.1.weight f4 [64]
00000000: 3069 aebb 9390 aabb 2cb1 db3c c9d9 5c3e
00000010: 40e9 cebc 1a51 fa3e 6619 18ba 1718 463f
00000020: 3e56 dbbc 4e5a 11bd 12cc 3b3c b74d 303f
00000030: 5cb4 6ebd e9b5 363e a001 b2bc 5d6b f7bc
00000040: 30e3 633f 27e3 533d 8170 893d fef5 ddbd
00000050: 236e a8bc d744 0abc 2bfa 86bc 5da7 263c
00000060: 38fb d83a e6eb ccbd 15af 863c 4d74 623e
00000070: 5296 18bc 78c4 f7bd 197b 43bc 4523 8b3f
00000080: e0a3 e238 4dbe b9bc 7efe 543e 3f8c c2bb
00000090: 35a9 9d3e ecb1 623c ef23 003f d47c 3ebd
000000a0: 29da 103f 2e17 16bd 5ad4 093f 29c4 613e
000000b0: 882d 0fbc 0096 c73e c67a 53bd a068 973c
000000c0: b787 433e 3d70 b93e f71b 053d 5011 be3c
000000d0: 7c80 0f3e 9383 873e 76f7 2e3e 6567 243e
000000e0: bb04 f8bd a055 de39 1a42 da3e 5f8e 403d
000000f0: 02ef b53d 3881 ea3e 217a c43d 9824 313f
-0.005322598 -0.005205223 0.02681788 0.21567453 -0.025257707 0.4889 -0.00058021245 0.7738051
-0.026774522 -0.035486512 0.011462228 0.68868583 -0.058277473 0.1784283 -0.02172929 -0.030202562
0.89018536 0.0517303 0.067109115 -0.10837935 -0.02056033 -0.008439264 -0.016476711 0.010171738
0.0016554361 -0.100059316 0.016440907 0.22114678 -0.009313183 -0.1209802 -0.011931204 1.0870138
0.00010807044 -0.02267375 0.20800206 -0.005937129 0.30793157 0.013836365 0.5005483 -0.046505764
0.56582886 -0.0366432 0.5383965 0.22047485 -0.008738883 0.38981628 -0.051630758 0.018482506
0.1909474 0.36218444 0.032497372 0.023201615 0.14013857 0.2646757 0.17086586 0.16055067
-0.12110277 0.00042406935 0.42628556 0.047010776 0.08883478 0.4580171 0.09593607 0.6919646

base.0.1.bias f4 [64]
00000000: 9556 a7bd d32a b0bd 4e49 e5bd 866d 133f
00000010: 31f3 c5bd 4c6f 14bf 1798 0abd 79ea 85be
00000020: e1aa 9ebd 0b3b d5bd 5bfc c4bd 9db0 783c
00000030: f298 50bd c5b3 d53d 17c3 9ebd 0de6 a2bd
00000040: c333 933e 7f4e 91bd 1828 e5bd b4b7 68be
00000050: f9da 77bd 90a9 58bd cd7b 0abe cd5d 74bd
00000060: b363 b1bd e323 29be c79a d13e d475 d5be
00000070: 384c 64bd d92f b0bc 5548 5dbd b343 a6be
00000080: 0c45 a0bd a0e3 88bd 940e 9f3c 5a82 89bd
00000090: a067 96be 6a65 b3bd 1c77 45bc 63af b3bd
000000a0: cf95 a2be 1c35 a6bd 186c 29bf a421 4b3e
000000b0: 56c1 bdba 4850 4c3f 5292 abbd c1dc 8dbd
000000c0: 5471 c63e b0c8 e1be 8b02 ccbd cfe3 8fbd
000000d0: 4523 bebd ebae 03bf 9821 09bf e1d9 e7bd
000000e0: f845 d6bd 9710 66bd ce8a 6d3e 46dc e3bc
000000f0: cb30 9ebd 7100 92bd 55ea f7bc 3d20 1c3f
-0.08170811 -0.08601918 -0.111956224 0.57588995 -0.09665526 -0.57982326 -0.03383645 -0.2615545
-0.07747436 -0.10411652 -0.096184455 0.015178827 -0.05092711 0.10434679 -0.07752054 -0.07954035
0.2875043 -0.0709505 -0.11189288 -0.22726327 -0.060511563 -0.052896082 -0.13523789 -0.059659768
-0.08661594 -0.16517596 0.40938398 -0.41691458 -0.05573675 -0.02150719 -0.05402406 -0.32473525
-0.0782567 -0.06684041 0.019416131 -0.06714316 -0.29375935 -0.087595776 -0.012052324 -0.08773687
-0.3175492 -0.081155986 -0.6618056 0.19837052 -0.0014477174 0.7981 -0.08377518 -0.06926871
0.38758337 -0.44098425 -0.099614225 -0.07025873 -0.09284071 -0.5143878 -0.53566885 -0.11320854
-0.10462564 -0.056168165 0.23197481 -0.027814995 -0.0772415 -0.071289904 -0.030263105 0.6098669

base.0.1.running_mean f4 [64]
00000000: f65b 33c0 89e5 a8c2 3682 08c3 34ef a843
00000010: 29b4 8fc3 aac9 1545 dc51 fcbf b889 3545
00000020: 9756 6dc2 9694 2943 f912 4043 738a 3245
00000030: 3e64 4d40 d47c 40c5 3862 59c2 911c 2ac3
00000040: e9e6 e0c2 d0a8 fcc2 6c11 11c5 6799 e543
00000050: c3b9 f441 c294 a0bf c400 0a41 5a2e 60c0
00000060: b9a4 4941 dfaf 9444 1806 25c7 a6a5 adc4
00000070: 12ad c142 d13a 6444 6a50 b440 c3fd 0445
00000080: b13b f142 09c9 34c2 5d0a 2145 452e 87c3
00000090: 0f20 4bc4 2b6a 29c2 fbc3 b245 fbe4 88c4
000000a0: f1cb 8145 4eca 4bc0 a6c3 8f44 ac2e 8944
000000b0: d05f b3be eb55 c2c4 d914 1a42 fde9 1942
000000c0: dc1c 2cc5 e5a9 9d44 9d98 b4c3 c6bf 64c2
000000d0: 0384 80c4 4b0a 8fc4 bbb1 02c5 2580 db43
000000e0: f398 3ec4 9b2f f3c1 1b22 2cc5 0f62 9641
000000f0: d8d0 8744 aa92 2445 5b6d f644 20e9 aac4
-2.8024879 -84.44831 -136.50864 337.86877 -287.4075 2396.604 -1.9712481 2904.6074
-59.33456 169.58041 192.07411 2856.653 3.2092433 -3079.8018 -54.345917 -170.11159
-112.451 -126.32971 -2321.0889 459.19846 30.590704 -1.2545397 8.625187 -3.502829
12.6027155 1189.496 -42246.094 -1389.1765 96.83803 912.919 5.634816 2127.86
120.616585 -45.196323 2576.6477 -270.36148 -812.5009 -42.35368 5720.4976 -1095.1556
4153.4927 -3.1842227 1150.114 1097.4585 -0.35034037 -1554.6849 38.52036 38.478504
-2753.8037 1261.3092 -361.1923 -57.18728 -1028.1254 -1144.3217 -2091.1082 439.00113
-762.38983 -30.398245 -2754.1316 18.79788 1086.5264 2633.1665 1971.4174 -1367.2852

base.0.1.running_var f4 [64]
00000000: d1c8 ae44 e33d 9a49 337d 344a fa29 614c
00000010: 205a 4d4b 462e e44d 7fbf 7744 26d0 7d4d
00000020: 6df0 0f49 20db 8c4a 0496 cb4a 17eb 3b4d
00000030: fad3 9344 b9da 3e4e b83b 2049 7e4f 9d4a
00000040: b8bf f04b cc94 224a bf3a 5b4e df37 a04c
00000050: 3809 0548 7047 7c43 73f7 4d45 345c 0a45
00000060: 92d0 ea46 04bb c74e dd11 1752 ded7 5d4d
00000070: 7215 cb49 5c87 024d 137d 8246 466f fe4c
00000080: 40e5 694b c2e5 b848 33e9 804e e77c 434b
00000090: 5e21 964c 1462 5848 f51f 994f f9c8 9d4d
000000a0: 5856 9850 a06c f244 d38e 4d4e 2609 0e4d
000000b0: 775a 4f41 86a7 9f4d 35b6 8748 6c9e 3248
000000c0: 2dc5 004f 1eb1 254d 2ccb ad4b 8d47 0849
000000d0: e25d 264e b376 254e 3fba 8a4d e9f0 fe4b
000000e0: 71be 5f4d a530 3648 08f8 204d bc47 9a47
000000f0: 3c1e 3e4d 7819 2f4e 0014 b84d 740a ff4b
1398.2755 1.2635484e+06 2.9571328e+06 5.9025384e+07 1.3457952e+07 4.7852973e+08 990.9921 2.661423e+08
589574.8 4.615568e+06 6.671106e+06 1.9704664e+08 1182.6243 8.005013e+08 656315.5 5.154751e+06
3.155544e+07 2.663731e+06 9.195151e+08 8.4000504e+07 136228.88 252.27905 3295.4656 2213.7627
30056.285 1.6754611e+09 1.6220994e+11 2.3261949e+08 1.6636622e+06 1.3686931e+08 16702.537 1.3339704e+08
1.5328576e+07 378670.06 1.0813833e+09 1.2811495e+07 7.871154e+07 221576.31 5.138017e+09 3.3089923e+08
2.0446364e+10 1939.3945 8.6217235e+08 1.4893526e+08 12.959586 3.3481952e+08 277937.66 182905.69
2.1604058e+09 1.7374051e+08 2.277948e+07 558200.8 6.9779264e+08 6.940049e+08 2.909327e+08 3.3415634e+07
2.346125e+08 186562.58 1.687881e+08 78991.47 1.9935328e+08 7.344205e+08 3.860398e+08 3.3428712e+07

base.1.conv.0.weight f4 [64, 1, 3, 3]
00000000: 0000 0080 0000 0080 0000 0080 0000 0080
00000010: 0000 0080 0000 0080 0000 0080 0000 0080
00000020: 0000 0080 0000 0000 0000 0080 0000 0080
00000030: 0000 0080 0000 0080 0000 0080 0000 0000
00000040: 0000 0080 0000 0080 0000 0000 0000 0000
00000050: 0000 0000 0000 0000 0000 0000 0000 0000
00000060: 0000 0000 0000 0000 0000 0000 afd7 983e
00000070: bf5b 6f3e 1a9a 803e d533 933e 83d3 9fbc
00000080: f4d2 6a3e 08c3 10bd 1fbf 3dbf b6bf edbe
00000090: 0000 0080 0000 0080 0000 0080 0000 0000
000000a0: 0000 0080 0000 0080 0000 0000 0000 0080
000000b0: 0000 0080 1198 6d3e 213b 843f 071e 0e3f
000000c0: a2a3 313d 206f cdbe af38 87bc 6983 4fbe
000000d0: f8c6 5ebf 23db aabe 0000 0080 0000 0080
000000e0: 0000 0080 0000 0000 0000 0080 0000 0080
000000f0: 0000 0000 0000 0080 0000 0080 15dc 133d
00000100: 0ecc 54bf 115e c4bd 2e6c 6dbe 3c28 323f
00000110: 737c 483e 6eec 36be 2fe3 9e3e cd7f 53be
00000120: 0000 0080 0000 0080 0000 0080 0000 0080
00000130: 0000 0000 0000 0080 0000 0080 0000 0000
00000140: 0000 0000 0000 0080 0000 0000 0000 0000
00000150: 0000 0080 0000 0000 0000 0000 0000 0080
00000160: 0000 0080 0000 0000 0000 0080 0000 0080
00000170: 0000 0000 0000 0000 0000 0000 0000 0000
00000180: 0000 0000 0000 0000 0000 0080 76f4 31be
00000190: d6d1 8bbd ead2 2cbe 40ad 86bc 80bf ab3d
000001a0: 559f e1bd 7043 bcbb 6e9e 8a3d ec3a b63c
000001b0: 0000 0000 0000 0000 0000 0000 0000 0000
000001c0: 0000 0000 0000 0000 0000 0000 0000 0000
000001d0: 0000 0000 e0b6 8b3d 0487 703e 6209 2abe
000001e0: d0fd d73d 0e8e 333e 33e9 c1be 2713 5e3e
000001f0: 6016 ac3e 1e44 d4be 0000 0080 0000 0080
00000200: 0000 0080 0000 0080 0000 0080 0000 0080
00000210: 0000 0080 0000 0080 0000 0080 0000 0080
00000220: 0000 0080 0000 0080 0000 0080 0000 0080
00000230: 0000 0080 0000 0080 0000 0080 0000 0080
00000240: aeaf 0a3e c39d e73d c98a 133e 55b2 ee3d
00000250: 6969 20bf 4343 27bd 25a3 babc 7df9 7a3e
00000260: 26ab fabc 0000 0000 0000 0080 0000 0000
00000270: 0000 0000 0000 0000 0000 0000 0000 0000
00000280: 0000 0000 0000 0080 b4f0 10bd f68e 0fbd
00000290: ae2f f1bc ad1f 22bc 5fc0 5b3b a1ca dfbc
000002a0: 056d aabc da3c 063b 9646 1abc 658e ac3d
000002b0: bd05 473e 1f9c ec3d 0c7b 563d c8ac 313e
000002c0: add8 f63d 133e 22be 041b d3bd 9628 95bd
000002d0: 0000 0080 0000 0000 0000 0000 0000 0080
000002e0: 0000 0000 0000 0000 0000 0080 0000 0080
000002f0: 0000 0080 0000 0080 0000 0080 0000 0080
00000300: 0000 0080 0000 0080 0000 0080 0000 0080
00000310: 0000 0080 0000 0080 0000 0080 0000 0080
00000320: 0000 0080 0000 0080 0000 0080 0000 0080
00000330: 0000 0080 0000 0080 0000 0080 0000 0000
00000340: 0000 0000 0000 0000 0000 0000 0000 0000
00000350: 0000 0000 0000 0080 0000 0080 0000 0000
00000360: 0000 0000 0000 0000 0000 0000 0000 0000
00000370: 0000 0000 0000 0000 0000 0000 0000 0000
00000380: 0000 0000 865b 7e3d ca31 5cbe a908 c93d
00000390: 5e6e d1bd 832c a0be 6bce 75be 0d55 433d
000003a0: 8436 06be 18c0 fcbc 6184 68be 0925 ad3e
000003b0: 9f82 32be c83f 30bc a8b4 573e d7ca 24bc
000003c0: 4638 f0bd acb5 9f3e 7b0b 343d e081 0dbe
000003d0: ef66 8bbf 85c9 643e eea3 133f 6784 013f
000003e0: 0dd0 833e fb51 7fbe 0e3c 3a3e db2f 8bbd
000003f0: 0000 0080 0000 0000 0000 0000 0000 0080
-0.0 -0.0 -0.0 -0.0 -0.0 -0.0 -0.0 -0.0
-0.0 0.0 -0.0 -0.0 -0.0 -0.0 -0.0 0.0
-0.0 -0.0 0.0 0.0 0.0 0.0 0.0 0.0
0.0 0.0 0.0 0.29852054 0.23374842 0.2511757 0.28750482 -0.019510036
0.22932035 -0.035342246 -0.7411975 -0.46435326 -0.0 -0.0 -0.0 0.0
-0.0 -0.0 0.0 -0.0 -0.0 0.2320254 1.0330545 0.5551457
0.043368943 -0.40123844 -0.016506521 -0.20264973 -0.8702235 -0.33370313 -0.0 -0.0
-0.0 0.0 -0.0 -0.0 0.0 -0.0 -0.0 0.03609856
-0.8312386 -0.09588254 -0.23185799 0.6959264 0.19578724 -0.17863628 0.31032702 -0.20654221
-0.0 -0.0 -0.0 -0.0 0.0 -0.0 -0.0 0.0
0.0 -0.0 0.0 0.0 -0.0 0.0 0.0 -0.0
-0.0 0.0 -0.0 -0.0 0.0 0.0 0.0 0.0
0.0 0.0 -0.0 -0.1737841 -0.068271324 -0.16877332 -0.016440034 0.08386135
-0.11016718 -0.005745344 0.06768499 0.022244893 0.0 0.0 0.0 0.0
0.0 0.0 0.0 0.0 0.0 0.0682199 0.23489004 -0.16605142
0.10546458 0.17534658 -0.3787323 0.21686994 0.3361082 -0.4145822 -0.0 -0.0
-0.0 -0.0 -0.0 -0.0 -0.0 -0.0 -0.0 -0.0
-0.0 -0.0 -0.0 -0.0 -0.0 -0.0 -0.0 -0.0
0.13543579 0.113093875 0.14408411 0.11655108 -0.62660843 -0.04083563 -0.022782871 0.24509235
-0.030599188 0.0 -0.0 0.0 0.0 0.0 0.0 0.0
0.0 -0.0 -0.035385802 -0.035048448 -0.02944168 -0.009895247 0.003353141 -0.0273183
-0.020803938 0.0020483048 -0.009416243 0.08425597 0.19435783 0.11553215 0.05236344 0.17351067
0.120530464 -0.15843992 -0.10307887 -0.07283132 -0.0 0.0 0.0 -0.0
0.0 0.0 -0.0 -0.0 -0.0 -0.0 -0.0 -0.0
-0.0 -0.0 -0.0 -0.0 -0.0 -0.0 -0.0 -0.0
-0.0 -0.0 -0.0 -0.0 -0.0 -0.0 -0.0 0.0
0.0 0.0 0.0 0.0 0.0 -0.0 -0.0 0.0
0.0 0.0 0.0 0.0 0.0 0.0 0.0 0.0
0.0 0.062099002 -0.21503368 0.09816105 -0.10226129 -0.3128396 -0.24004523 0.047688533
-0.13106734 -0.030853316 -0.22706749 0.33817318 -0.1743264 -0.010757394 0.21065009 -0.010058126
-0.11729483 0.31193292 0.04395626 -0.13819075 -1.0890788 0.22342499 0.5767201 0.50592655
0.25744668 -0.24933617 0.18186972 -0.06796237 -0.0 0.0 0.0 -0.0

base.1.conv.0.bias f4 [64]
00000000: 0000 0080 0000 0080 0000 0080 b502 b53a
00000010: 0000 0000 f299 b33b 0000 0080 eb90 843b
00000020: 0000 0080 0000 0000 0000 0000 b0a3 c33b
00000030: 0000 0080 e678 433a 0000 0000 0000 0000
00000040: dc72 4e3c 0000 0080 9e09 d4ba d2f7 40bb
00000050: 0000 0080 0000 0000 0000 0080 0000 0080
00000060: 0000 0080 f323 533b 7b0b 9139 9c30 d13b
00000070: 0000 0000 4a13 9fb7 0000 0000 2ce5 2b39
00000080: c8f1 c839 0000 0000 7b48 9db9 0000 0080
00000090: 9e62 b8b9 0000 0080 d8ef 013b ff7b 99bb
000000a0: b6e6 f039 0000 0080 1d47 7d3b 263b f43a
000000b0: 0000 0000 3bf5 3fb9 0000 0080 0000 0080
000000c0: aa4b 073c 18f2 193c 0000 0000 0000 0080
000000d0: fa81 403b 2a58 983b c550 c3bb 0000 0080
000000e0: cdef 2dbc 0000 0000 4a14 1ebb 0000 0000
000000f0: 0000 0000 f802 1038 6f6f a1ba 47f4 643b
-0.0 -0.0 -0.0 0.0013810011 0.0 0.005480998 -0.0 0.004045596
-0.0 0.0 0.0 0.005970441 -0.0 0.0007456675 0.0 0.0
0.012600627 -0.0 -0.0016177183 -0.0029444587 -0.0 0.0 -0.0 -0.0
-0.0 0.0032217472 0.0002766511 0.0063839685 0.0 -1.896326e-05 0.0 0.00016393204
0.00038327114 0.0 -0.00029999376 -0.0 -0.0003516869 -0.0 0.0019826796 -0.004683971
0.0004594826 -0.0 0.0038647123 0.001863335 0.0 -0.00018306535 -0.0 -0.0
0.008257786 0.009396099 0.0 -0.0 0.0029374347 0.004649182 -0.005960556 -0.0
-0.010616255 0.0 -0.002412098 0.0 0.0 3.433504e-05 -0.0012316535 0.003493564

base.1.conv.1.weight f4 [64]
00000000: 8e3c d03b 789c cb3b aa53 c13b c50c d73e
00000010: b8e5 e83b 6579 c33e 14b4 c13b 4480 873e
00000020: 4724 0b3c 7a11 a03b 90ba f13b b9d3 ab3e
00000030: 269d aa3b 7423 933e dbd3 de3b 8627 be3b
00000040: 7c1e 553e 1624 d23b 2a6a d13d ef03 d73e
00000050: 52a2 923b 73cc e83b 9cca ca3b 82b0 a33b
00000060: 889f f83b 7ef2 1b3f 95e9 8d3c 95b0 953e
00000070: 828d bf3b 6f0c 343d f1c4 ac3b 9288 c33e
00000080: 22a7 333d f7c2 ba3b cf85 263e dfd7 c43b
00000090: 9a5c d83e a607 cb3b 1a35 043e d5e9 513d
000000a0: 2ef3 153f ba70 ca3b 1e3c cf3e 5450 b93e
000000b0: 5ff5 dd3b 10e2 c03e 5764 a23b 51bf cd3b
000000c0: fe8f cf3e 0d5c 233f badf d23b 5383 d03b
000000d0: 4248 403e eb84 a53e 9d78 ce3e 7aec d23b
000000e0: ab6d 873e 5a06 bf3b 5cbc 8a3e b9a4 cf3b
000000f0: 8b9f a83b 19cc 2b3e dd5f 7c3e 3f91 533e
0.006354875 0.006213721 0.005899866 0.4200193 0.0071074627 0.38178554 0.0059113596 0.26465046
0.008492536 0.004884896 0.0073769763 0.3355997 0.005206722 0.28737986 0.0068001575 0.0058030514
0.2081241 0.006412993 0.10225327 0.4199519 0.0044749165 0.0071044504 0.0061887037 0.0049954066
0.007587377 0.6091689 0.017323295 0.29236284 0.0058457265 0.04395717 0.0052725007 0.38190132
0.043860562 0.005699511 0.16261981 0.006007179 0.4225815 0.00619598 0.12910882 0.05124839
0.5857419 0.006177989 0.40475553 0.36194098 0.0067736353 0.37672472 0.004955809 0.00627891
0.40539545 0.63812333 0.0064353617 0.0063633113 0.18777564 0.3232797 0.40326396 0.0064368816
0.26450858 0.0058296146 0.27096832 0.006336775 0.005145972 0.16777076 0.24645944 0.20660876

base.1.conv.1.bias f4 [64]
00000000: 0d61 93ba b0ef 1eba 485d c4ba 9e06 ffbd
00000010: eda3 a6bb bf45 a13e 277f 35ba df73 fd3e
00000020: 8114 d3ba aa7a 0ebb b0f8 e1ba 672b 79bc
00000030: e04f 7ebb 802d d0be e77a 76bb d529 bbba
00000040: 03f7 dc3e 5d0d bfb9 3eaf c5bd 5eb6 023d
00000050: f305 96bb 7c2e 28bb fdf2 38bb 62b6 3fbb
00000060: a3cb caba 33b9 3f3e 8a91 913e 3905 b13e
00000070: ad48 96bb 3756 97bc 07d1 1d3b 8bfe 943e
00000080: e2cb 77b9 b9d2 8e3a e270 7f3e fb77 59bb
00000090: 2875 8a3e 6438 23bb 6288 923d f8cf bbbd
000000a0: 0af4 563f 5eb5 eaba 0801 1b3f bd5e 8abe
000000b0: ba95 9fbb b95d d93e e44e 06bb f7cc 64bb
000000c0: 9f02 8cbe 8593 403f e107 74bb 064c 10bb
000000d0: ea00 123e f5bf ca3e 40b0 97be 118e 71bb
000000e0: 7a47 16be 7050 b5ba 12c7 dd3e 8234 1bbb
000000f0: bec5 9cbb 1e42 20be be71 383e 329b 163f
-0.0011244133 -0.0006062938 -0.0014981413 -0.12452434 -0.0050854594 0.31498525 -0.0006923549 0.49502465
-0.0016104133 -0.0021740594 -0.0017240252 -0.015208102 -0.0038804933 -0.40659714 -0.0037609877 -0.0014279435
0.43157205 -0.00036440315 -0.096525654 0.0319122 -0.004578346 -0.0025662472 -0.0028221004 -0.0029252996
-0.0015472065 0.18722992 0.2843135 0.34574297 -0.0045863003 -0.018473728 0.0024080889 0.2910045
-0.00023631708 0.001089654 0.24945405 -0.0033183086 0.27042508 -0.0024905438 0.07154919 -0.09170526
0.83966124 -0.0017906835 0.6054845 -0.27025405 -0.0048701437 0.42454317 -0.00204938 -0.0034912208
-0.2734575 0.75225097 -0.0037236142 -0.002201797 0.14258161 0.39599577 -0.29626656 -0.003685836
-0.14675704 -0.0013833176 0.4331594 -0.002368242 -0.004784315 -0.15650222 0.18012139 0.5883056

base.1.conv.1.running_mean f4 [64]
00000000: bc36 7a33 222c 8c34 f07e 90b4 a3d3 cd3c
00000010: 302a ad34 29e4 a6bb 4515 e031 2671 ec3c
00000020: 4786 4534 18a3 fa31 3203 55b4 ad83 18bd
00000030: 5c94 51b3 1ae7 af3c 941c 4935 5b5a 0735
00000040: c27b d33c de1b 3eb4 98bc 183c cb13 73bd
00000050: 74d4 7230 b092 0533 3da9 4335 9ee1 0db3
00000060: ed4b 3fb4 bfc6 ad3d 87c8 193e 0055 46bd
00000070: 95f4 85b3 fedc 41b7 0d25 4335 149e 2dbd
00000080: 69bf 8c3b 5e64 9cb6 b819 1ebc 1d58 0eb4
00000090: d210 4a3d 2ecc 3231 2ac8 203c 7f6d f4bb
000000a0: cb20 22be c2af 4b33 a3ae 2b3c e1eb 173d
000000b0: 71e1 06af 9f18 5dbb 7118 3cb3 6740 c032
000000c0: ca56 6fbc d3fb 8b3e fb38 7fb4 6cb2 a8b3
000000d0: 6716 9b3b ab71 a5bd 6f9b c9bc 4b4f ccb4
000000e0: 780f 563c 12c2 35b3 3553 323e 595d a8b3
000000f0: a4ad c1b3 35e6 63bb 56d0 523b 87f0 51be
5.825744e-08 2.6109143e-07 -2.691445e-07 0.02512533 3.2254457e-07 -0.005093117 6.521676e-09 0.028862547
1.8395905e-07 7.2944992e-09 -1.9838333e-07 -0.03723495 -4.8796537e-08 0.021472502 7.491992e-07 5.0422904e-07
0.025815848 -1.7705267e-07 0.009322308 -0.059345048 8.8341e-10 3.1099887e-08 7.2889435e-07 -3.303432e-08
-1.7815883e-07 0.084851734 0.15017901 -0.048420906 -6.237784e-08 -1.155515e-05 7.2697077e-07 -0.042387083
0.004295279 -4.6608466e-06 -0.0096496865 -1.3256836e-07 0.049332447 2.6018472e-09 0.009813348 -0.007459342
-0.15832822 4.742447e-08 0.010478648 0.037090186 -1.2267322e-10 -0.00337366 -4.379439e-08 2.2381029e-08
-0.0146080945 0.27340564 -2.3769455e-07 -7.8555644e-08 0.004732895 -0.08078321 -0.02461025 -3.8055654e-07
0.0130652115 -4.2318852e-08 0.17414553 -7.8400895e-08 -9.018848e-08 -0.0034774665 0.0032167635 -0.2050191

base.1.conv.1.running_var f4 [64]
00000000: 8ee1 6623 4acd d125 91f2 9927 bd89 133c
00000010: 7487 1028 5aae 103d 8531 0720 e995 4e3d
00000020: 4a77 8c27 af9f 6a24 57cc 3126 8d19 203d
00000030: 7a52 a827 8cbc 373b 7430 7a29 a770 2a29
00000040: 6f37 223d fdcb b328 ee98 3f38 f09c 533a
00000050: 4ffd a022 0d1a e623 32e7 df27 6b79 3224
00000060: fe50 5924 594d 433b 4030 3439 be0d 163b
00000070: 9067 0225 2ed3 7336 0737 e728 4941 1b3e
00000080: d038 0e33 8cf3 472c 6fd1 933a 9f48 9925
00000090: dcfe 8a3b 8527 b922 48b8 4d3b 2bcb 3936
000000a0: cd3c 2a3e 21d5 0c26 273e a23c 8dfd d33b
000000b0: 852a 1824 3b25 913c 20c4 7226 8239 3024
000000c0: 48e0 ab3b 0ed0 523d a0b2 bf27 d492 3526
000000d0: e045 0c39 e5e4 ad3b cf43 e13a 0644 222b
000000e0: bde0 863a dc93 4d22 eca8 873d f8d0 0829
000000f0: 6dd9 9c28 873b e53b 1deb ce3a 5959 7b3d
1.2516088e-17 3.639483e-16 4.272902e-15 0.009005007 8.0229775e-15 0.035322525 1.145133e-19 0.050435934
3.898714e-15 5.087592e-17 6.1686143e-16 0.039086867 4.671879e-15 0.0028035967 5.5553178e-14 3.7845293e-14
0.039603647 1.9961458e-14 4.5680375e-05 0.0008072397 4.3636288e-18 2.4947683e-17 6.2145596e-15 3.8700442e-17
4.7122977e-17 0.0029800741 0.00017184112 0.0022896375 1.1310791e-16 3.6332744e-06 2.5670016e-14 0.15161623
3.3113622e-08 2.8414797e-12 0.0011277626 2.659048e-16 0.0042418074 5.0186193e-18 0.0031390358 2.7685408e-06
0.16624756 4.88611e-16 0.019805027 0.0064694346 3.299576e-17 0.017717948 8.4226415e-16 3.8212627e-17
0.0052452423 0.051467948 5.3206815e-15 6.299598e-16 0.00013377471 0.0053068274 0.0017186346 5.7648363e-13
0.0010290366 2.7860957e-18 0.06624016 3.0379318e-14 1.7413773e-14 0.0069956216 0.0015786622 0.061364505

base.1.conv.3.weight f4 [64, 64, 1, 1]
00000000: 0000 0000 0000 0000 0000 0080 0000 0000
00000010: 0000 0080 0000 0000 0000 0080 0000 0000
00000020: 0000 0000 0000 0080 0000 0000 0000 0000
00000030: 0000 0080 0000 0000 0000 0080 0000 0080
00000040: 0000 0080 0000 0080 0000 0000 0000 0000
00000050: 0000 0080 0000 0080 0000 0000 0000 0080
00000060: 0000 0080 0000 0000 0000 0080 0000 0000
00000070: 0000 0080 0000 0000 0000 0000 0000 0080
00000080: 0000 0000 0000 0080 0000 0000 0000 0080
00000090: 0000 0080 0000 0080 0000 0000 0000 0000
000000a0: 0000 0080 0000 0080 0000 0080 0000 0080
000000b0: 0000 0080 0000 0000 0000 0080 0000 0080
000000c0: 0000 0000 0000 0000 0000 0080 0000 0080
000000d0: 0000 0080 0000 0080 0000 0000 0000 0080
000000e0: 0000 0000 0000 0080 0000 0000 0000 0000
000000f0: 0000 0000 0000 0000 0000 0000 0000 0080
00000100: 0000 0080 0000 0000 0000 0000 0000 0080
00000110: 0000 0000 0000 0080 0000 0000 0000 0000
00000120: 0000 0080 0000 0000 0000 0080 0000 0000
00000130: 0000 0000 0000 0080 0000 0000 0000 0000
00000140: 0000 0000 0000 0080 0000 0080 0000 0000
00000150: 0000 0000 0000 0000 0000 0080 0000 0080
00000160: 0000 0000 0000 0080 0000 0000 0000 0080
00000170: 0000 0000 0000 0080 0000 0080 0000 0080
00000180: 0000 0000 0000 0000 0000 0000 0000 0080
00000190: 0000 0080 0000 0080 0000 0000 0000 0000
000001a0: 0000 0080 0000 0080 0000 0000 0000 0080
000001b0: 0000 0080 0000 0000 0000 0080 0000 0000
000001c0: 0000 0000 0000 0000 0000 0000 0000 0000
000001d0: 0000 0080 0000 0080 0000 0000 0000 0080
000001e0: 0000 0000 0000 0000 0000 0000 0000 0080
000001f0: 0000 0000 0000 0000 0000 0000 0000 0000
00000200: 0000 0080 0000 0080 0000 0080 0000 0080
00000210: 0000 0080 0000 0080 0000 0000 0000 0000
00000220: 0000 0080 0000 0000 0000 0080 0000 0080
00000230: 0000 0000 0000 0000 0000 0080 0000 0080
00000240: 0000 0000 0000 0080 0000 0000 0000 0000
00000250: 0000 0080 0000 0000 0000 0080 0000 0080
00000260: 0000 0080 0000 0080 0000 0000 0000 0000
00000270: 0000 0000 0000 0000 0000 0080 0000 0080
00000280: 0000 0000 0000 0000 0000 0000 0000 0000
00000290: 0000 0080 0000 0080 0000 0080 0000 0080
000002a0: 0000 0080 0000 0080 0000 0000 0000 0080
000002b0: 0000 0080 0000 0080 0000 0080 0000 0000
000002c0: 0000 0080 0000 0000 0000 0080 0000 0080
000002d0: 0000 0080 0000 0080 0000 0080 0000 0080
000002e0: 0000 0000 0000 0080 0000 0080 0000 0000
000002f0: 0000 0080 0000 0000 0000 0000 0000 0000
00000300: a7f6 6538 7450 f4b9 6df4 9ab8 1bab 12be
00000310: 8d30 81bb 9f8c 5c3d b2ab d3ba 7a33 3bbe
00000320: 4a23 1d3b ed5d 8fba bb2e 12bb 3627 29bd
00000330: 3d95 bc39 b2ce b93c 8c83 4eba d76d b83a
00000340: 0de8 693e 6861 413b d3c4 acbc 1640 1dbd
00000350: 1e55 a53a 41b6 79bb ed0e 213b 616b a8ba
00000360: fc3f c9b9 a88e 04bd 29d0 113e aa45 94bd
00000370: 2f71 65bb c5f8 f6bb a1b0 b8b9 dcb0 12be
00000380: b7fb 19bc 219d 8bb9 c541 68bd 60cd d2b8
00000390: f04f f2bc 9075 c5ba eab7 e23c ecf9 64bc
000003a0: d030 49bd 21ea 5bbb 3f53 c33c ad0f a3bc
000003b0: 2e2c 1fba c6d0 c7bc 3d32 a4ba 81bf 3f3a
000003c0: f42f b83d adc4 e43c f88c cfba d693 7fb9
000003d0: e52a c7bc 6c5d 9dbd 34c5 403d 52f9 b8ba
000003e0: 44c3 3fbd 07fd 48b9 78b7 e7bd 93ec 8ebb
000003f0: 5a0b 61bb fc6a 98bc b0dd c5bd 1226 8fbe
0.0 0.0 -0.0 0.0 -0.0 0.0 -0.0 0.0
0.0 -0.0 0.0 0.0 -0.0 0.0 -0.0 -0.0
-0.0 -0.0 0.0 0.0 -0.0 -0.0 0.0 -0.0
-0.0 0.0 -0.0 0.0 -0.0 0.0 0.0 -0.0
0.0 -0.0 0.0 -0.0 -0.0 -0.0 0.0 0.0
-0.0 -0.0 -0.0 -0.0 -0.0 0.0 -0.0 -0.0
0.0 0.0 -0.0 -0.0 -0.0 -0.0 0.0 -0.0
0.0 -0.0 0.0 0.0 0.0 0.0 0.0 -0.0
-0.0 0.0 0.0 -0.0 0.0 -0.0 0.0 0.0
-0.0 0.0 -0.0 0.0 0.0 -0.0 0.0 0.0
0.0 -0.0 -0.0 0.0 0.0 0.0 -0.0 -0.0
0.0 -0.0 0.0 -0.0 0.0 -0.0 -0.0 -0.0
0.0 0.0 0.0 -0.0 -0.0 -0.0 0.0 0.0
-0.0 -0.0 0.0 -0.0 -0.0 0.0 -0.0 0.0
0.0 0.0 0.0 0.0 -0.0 -0.0 0.0 -0.0
0.0 0.0 0.0 -0.0 0.0 0.0 0.0 0.0
-0.0 -0.0 -0.0 -0.0 -0.0 -0.0 0.0 0.0
-0.0 0.0 -0.0 -0.0 0.0 0.0 -0.0 -0.0
0.0 -0.0 0.0 0.0 -0.0 0.0 -0.0 -0.0
-0.0 -0.0 0.0 0.0 0.0 0.0 -0.0 -0.0
0.0 0.0 0.0 0.0 -0.0 -0.0 -0.0 -0.0
-0.0 -0.0 0.0 -0.0 -0.0 -0.0 -0.0 0.0
-0.0 0.0 -0.0 -0.0 -0.0 -0.0 -0.0 -0.0
0.0 -0.0 -0.0 0.0 -0.0 0.0 0.0 0.0
5.4827568e-05 -0.0004659925 -7.38882e-05 -0.14323084 -0.0039425553 0.053845044 -0.0016149192 -0.18281356
0.0023977333 -0.0010938026 -0.0022305686 -0.04129716 0.00035969345 0.022681568 -0.00078778784 0.0014070821
0.22842427 0.0029507522 -0.021089947 -0.038391195 0.0012613868 -0.0038103017 0.0024575547 -0.0012849384
-0.0003838538 -0.03236261 0.14239563 -0.0723985 -0.003501009 -0.00753698 -0.00035226814 -0.14325279
-0.009398392 -0.00026629216 -0.056703348 -0.000100518344 -0.029579133 -0.0015064944 0.027675588 -0.013975602
-0.049118817 -0.00335563 0.023843406 -0.019904936 -0.0006071952 -0.024391543 -0.0012527179 0.0007314608
0.08993521 0.027925814 -0.0015834859 -0.00024373768 -0.024312446 -0.076838344 0.047063068 -0.0014112389
-0.04681708 -0.00019167746 -0.11314291 -0.004361698 -0.0034339041 -0.018605702 -0.09661424 -0.27958733

base.1.conv.4.weight f4 [64]
00000000: 27a6 fbbc acc7 563c d71b f23c 79e5 063e
00000010: 972e 903e 4925 213f 066a a9bc 753b 9d3e
00000020: dfa2 ca3e a0a8 afbc 96c1 a73c c577 c13e
00000030: 48ac 023f 4d6f d53e 979c 333e ac02 8a3e
00000040: a3cd 973e 1491 873c 07ac 9c3c 5884 093c
00000050: e3d2 2f3c a865 183c e032 6b3d a51e 033f
00000060: 04a5 583e 77fa 093e c2d6 fc3e 22eb 983c
00000070: d7aa 8d3e ae49 173e acfe 0cbd cd63 2a3c
00000080: d331 ad3e f1bb 233c 52c3 0b3f 913f 723c
00000090: b0a3 e3bb 42d8 4a3b a79a 143f b8da 5e3d
000000a0: 7a70 ac3e 7fb3 1d3e d043 0e3f 21f8 323e
000000b0: ac06 0f80 8442 0b3f a2ea cd3c 17f1 6abc
000000c0: 2d8e b13c 9c7f 493e 4a4f d43e bfcd 30be
000000d0: 8a0c 33bc 294c 3abc d967 0b3d 39ce 213e
000000e0: d3fd 67bb 4161 af3c 0354 abbc 9e97 e9bb
000000f0: 8327 60bc c20b b9bc e350 803e 0f10 c73d
-0.030718876 0.013109129 0.02955429 0.13173474 0.28160545 0.6294752 -0.020680439 0.30709425
0.39577386 -0.021442711 0.020478051 0.3778669 0.5104413 0.41686478 0.17540203 0.26955163
0.29649076 0.01654867 0.019124998 0.00839337 0.010731432 0.0093015805 0.057421565 0.51218635
0.21156698 0.13474451 0.49382597 0.018666808 0.27669403 0.147742 -0.03442256 0.010399771
0.33827075 0.009993539 0.5459491 0.014785663 -0.0069470033 0.0030951654 0.5804848 0.054407805
0.33679563 0.15400504 0.55572224 0.17477466 -1.379926e-39 0.5439837 0.025136296 -0.014339707
0.02167424 0.19677585 0.41466743 -0.17265986 -0.0109282825 -0.011370697 0.034034584 0.15801324
-0.0035399094 0.021408679 -0.020914083 -0.00712867 -0.013681295 -0.022588614 0.25061712 0.0971986

base.1.conv.4.bias f4 [64]
00000000: d6a3 173b a819 143b 5aae 78bb dc06 4e3c
00000010: 0b35 a3bb 561a 863a 4408 28bb f37e 64bb
00000020: 19cd 9ebb 52c6 95bb 742e 7238 552a 6bbb
00000030: 3cc1 613a 11d2 be3a b911 2a3b c9e3 fdba
00000040: 2ecf 903b 30c9 0fbb b1b4 733a feb7 9c3a
00000050: 45ef 573b 1c68 603b 876f 0e3b 9729 eb3b
00000060: 3c7a f8ba c761 ab3a 1142 3139 6763 2d3b
00000070: 060c a73b 11e9 8c3b 44ee 9539 48ca 853b
00000080: 0037 763a 6985 0dbb 0d04 6e3b c155 883b
00000090: ad4f 3a3a 5349 b4ba 3739 7938 c09d bfba
000000a0: ccac a33b 5cb0 9dbb ec49 cc3a 150e 9bba
000000b0: 05c1 463b ddc7 d8ba 0bf2 5c3b c3d0 ab3a
000000c0: b798 ceb9 877d 353b 4c1e 82ba 2753 8fbb
000000d0: e390 f1ba 68e4 d7b9 862c 36b9 56da 053a
000000e0: 69d3 abba d4ed 913a 3758 e9ba 90bd 99ba
000000f0: 1796 293a ff9a a1b9 76ac 91ba f893 4fbb
0.0023138425 0.00225983 -0.0037945719 0.012574878 -0.0049806884 0.0010231237 -0.0025639692 -0.0034865707
-0.004846227 -0.0045707608 5.774056e-05 -0.0035883386 0.0008611863 0.0014558454 0.0025950505 -0.0019370253
0.004419229 -0.0021939985 0.00092966395 0.0011956689 0.0032949012 0.0034241742 0.0021733956 0.0071765888
-0.0018957327 0.0013075405 0.00016904647 0.0026456953 0.005097869 0.0043002446 0.00028597016 0.0040829517
0.0009392351 -0.0021594411 0.0036318332 0.0041606133 0.00071072095 -0.0013754762 5.941951e-05 -0.0014619157
0.004994964 -0.0048122834 0.0015585995 -0.0011829758 0.003032745 -0.0016539056 0.0033713605 0.001310848
-0.00039405163 0.0027693228 -0.0009927242 -0.004373926 -0.001843002 -0.00041178172 -0.00017373459 0.0005106082
-0.001310927 0.00111335 -0.0017802779 -0.0011729468 0.00064692035 -0.00030823794 -0.001111402 -0.003167389

base.1.conv.4.running_mean f4 [64]
00000000: 6ffb 5d3d 3997 933c 2905 13bc 437b b0be
00000010: d4e2 273e 6987 9dbe 41dd 3b3d 9636 913f
00000020: f6c3 313f ad50 8bbc fefc 633d 4ada 253f
00000030: 09a1 6e3e c7a3 3bbe 823d aabe 15d7 b73e
00000040: 1860 29be fcf4 3d3d 4fec 573c 42e9 ce3d
00000050: 3e63 1c3d b8e3 e1bc eb05 35bd 6edf 2d3e
00000060: a87f 853e 22a1 9b3d b7c1 333f e581 8c3c
00000070: cb74 e93e 3414 0ebf 0ace 09bc e532 aebc
00000080: b09a 143f 3936 c83c 1523 803f 0850 dc3c
00000090: 6480 d73c 782f 1d3d f6f0 1abf 9bee 6a3e
000000a0: e741 2d3e f412 ea3e 6dfd 2c3f 677e 00bf
000000b0: b92f 0080 ebd3 873f db75 133c dd33 6cbc
000000c0: 1f6b 50bd 8190 e0bc c2bf f03d 8779 8a3e
000000d0: 1527 0ebc 8a4a 9bbc fc31 e0bc 5076 a73d
000000e0: fca3 28bc adc3 4d3d f7b2 123d c5e3 10bc
000000f0: 4fb6 02bc 81a6 153c d36d b9bd 31a2 78be
0.054194864 0.018016445 -0.008973398 -0.3446904 0.16395122 -0.30767372 0.0458653 1.1344783
0.6943964 -0.017006243 0.055661194 0.6478621 0.23303618 -0.18324195 -0.33250052 0.35906282
-0.16540563 0.046376213 0.013178899 0.10103084 0.038180582 -0.027574405 -0.044195097 0.16979763
0.26073956 0.07599093 0.7021746 0.017151782 0.45596918 -0.5549958 -0.00841094 -0.021264503
0.58048534 0.024439918 1.0010706 0.02689363 0.026306339 0.038375348 -0.6052393 0.22942583
0.16919671 0.45717585 0.675742 -0.50192875 -1.712e-41 1.0611547 0.009000267 -0.014416662
-0.05088341 -0.027412655 0.11755325 0.27045843 -0.00867631 -0.018956441 -0.027367584 0.08176863
-0.010293003 0.05023544 0.035815205 -0.008843367 -0.007978036 0.009133936 -0.090541504 -0.24280621

base.1.conv.4.running_var f4 [64]
00000000: 91e9 893b 8d67 173b fed4 953b ca25 383c
00000010: 3a5a 783d 30bf 2e3e af80 9939 9e03 e73d
00000020: b756 dc3d 3013 183c 9639 953b a2b9 be3d
00000030: 891c 9e3d bf86 ca3d 2b91 ba3c 6fe5 133d
00000040: 0369 d13d dde3 263b 0370 033c 4412 243b
00000050: 96f8 f13a a0d8 d03a df9d 0a3b 3b9e 903d
00000060: 4265 1d3d 9f55 8b3d d5d5 343e 308d 093b
00000070: cead d63c fe77 0d3d 4061 1c3b 1fcc e03b
00000080: 82a4 783d 4853 813a 04c7 b13d 874b ee3a
00000090: 9cf4 163b d437 953b 2ba1 f23d b340 a33b
000000a0: e524 ec3d a34c 3e3d d304 9c3d 89b1 823c
000000b0: 0400 0000 6c8a 803e aab0 2a3b 0160 b33a
000000c0: 82d1 263b 63ad 1d3d fc5e 4b3e 80b2 f33c
000000d0: 0617 3e3a b99e db3b 6370 663b a4ae 983d
000000e0: b0b6 fe39 1395 943a 5264 303b 2221 9539
000000f0: 443c cd3b 16c3 b93a 0dd2 f13c a456 d13c
0.0042087515 0.0023102493 0.00457251 0.011239478 0.06063292 0.1706512 0.0002927831 0.11279987
0.10758727 0.009281918 0.004553984 0.093127504 0.077202864 0.09888982 0.0227743 0.036107477
0.102251075 0.0025465407 0.008022311 0.0025035301 0.0018460925 0.00159337 0.0021151227 0.0706143
0.038426645 0.0680344 0.17659695 0.0020988695 0.026205923 0.03453826 0.0023861676 0.0068602706
0.060703762 0.0009866739 0.08680537 0.0018180468 0.0023033982 0.0045537744 0.118471466 0.004982078
0.115304746 0.046459805 0.07618108 0.015953796 6e-45 0.25105608 0.0026045241 0.0013685228
0.0025454466 0.038495433 0.19860452 0.029748201 0.00072513556 0.006702271 0.0035162203 0.07455185
0.00048582768 0.0011335931 0.0026915264 0.0002844418 0.0062632877 0.001417252 0.029519105 0.025554009

base.2.conv.0.weight f4 [128, 64, 1, 1]
00000000: babd de3d 9a0a 953e ed26 323e a35c 613e
00000010: ad11 01be 89a7 563e 1e6d ac3d 5c6f 79ba
00000020: 12da 2ebd 704c 96be f0f9 17bd 5972 1c3e
00000030: 7dc8 01bf 13d6 d9bd b0b1 a2be e645 78bc
00000040: f284 89bd b40c 0f3e 75a5 c1be a65b 2dbe
00000050: 561b 3b3e 9597 0ebb 943d 96bb d58e 6f3e
00000060: e913 d03e 36f0 e93c 8afe 85be a6d8 05be
00000070: fc40 a4bd fd4c febd 319f a9bd 860c 153e
00000080: ade8 52be acce e63c 1960 8c3d 7903 aa3d
00000090: ea28 f03e 155a 9fbe da0e 8abd 387b 383e
000000a0: 6a93 aa3e d50a a2be b7cf 7fbc 07e9 773c
000000b0: 4952 bbbd 0a88 8e3e bfdb f73d a173 293d
000000c0: 914a e1bb 6562 a23c b59f 1d3d 099c 953e
000000d0: 06c5 f3ba 603f 7abd 5164 bfbd 2d35 d4bd
000000e0: 1136 4e3b aaae afbd 4531 f5bc 126b 7bba
000000f0: 0f11 b4be ab21 843c f45b 35bd 340d 8ebe
00000100: 0000 0000 0000 0000 0000 0080 0000 0080
00000110: 0000 0000 0000 0080 0000 0000 0000 0000
00000120: 0000 0000 0000 0080 0000 0080 0000 0000
00000130: 0000 0000 0000 0000 0000 0000 0000 0080
00000140: 0000 0000 0000 0000 0000 0000 0000 0080
00000150: 0000 0080 0000 0080 0000 0000 0000 0000
00000160: 0000 0080 0000 0080 0000 0000 0000 0080
00000170: 0000 0000 0000 0080 0000 0080 0000 0000
00000180: 0000 0000 0000 0080 0000 0000 0000 0000
00000190: 0000 0080 0000 0000 0000 0000 0000 0080
000001a0: 0000 0000 0000 0080 0000 0080 0000 0000
000001b0: 0000 0000 0000 0080 0000 0080 0000 0000
000001c0: 0000 0080 0000 0000 0000 0000 0000 0000
000001d0: 0000 0080 0000 0000 0000 0000 0000 0000
000001e0: 0000 0000 0000 0000 0000 0080 0000 0000
000001f0: 0000 0000 0000 0000 0000 0080 0000 0000
00000200: 281a 813d e502 e9bd 2e74 2dbd 4faa 87bd
00000210: bbc2 203d 3ebf 1a3e b45b 08bc 259a 003e
00000220: 62cf 8dbd 3ea3 933c 474b 38be 75d6 3c3e
00000230: 5679 623d cd4a a6bc 1c69 febd 014b 873d
00000240: 2a9d 053d 50b0 5c3e c89c 963c 59d8 83bd
00000250: dc08 aabc b7ef 74bc 4f63 ecbb f8c9 2dbe
00000260: 8f28 d9bc 1375 3d3e 1872 2fbe 0e11 c03c
00000270: 0bd2 53bd 8ce5 533d 431e 3cbd 3032 3f3e
00000280: 43b6 373d aa31 313e bfc7 3ebd 1f95 b2bc
00000290: 30d1 223c 9fb4 663e 594d 5d3e b533 98bc
000002a0: 0da7 11bc cdef c3bd adc3 f4bc d749 81bb
000002b0: 3d52 eb3a 8989 553d 6989 a9bc d532 ab3e
000002c0: e691 953c 77b4 22bc efce e3b9 a3dd cc3a
000002d0: 1174 813c aab5 f7bb 99c3 853e bc35 7b3e
000002e0: 04bf 55bc 6962 5abb 177d 86bd 1799 a8ba
000002f0: ead9 0d3e b8b0 2dbd 5ad4 9f3d b25c bdbc
00000300: 0000 0000 0000 0000 0000 0080 0000 0000
00000310: 0000 0000 0000 0080 0000 0080 0000 0000
00000320: 0000 0080 0000 0080 0000 0080 0000 0080
00000330: 0000 0080 0000 0000 0000 0000 0000 0000
00000340: 0000 0000 0000 0000 0000 0000 0000 0000
00000350: 0000 0000 0000 0000 0000 0080 0000 0000
00000360: 0000 0080 0000 0080 0000 0000 0000 0080
00000370: 0000 0080 0000 0080 0000 0080 0000 0000
00000380: 0000 0000 0000 0000 0000 0000 0000 0000
00000390: 0000 0080 0000 0000 0000 0080 0000 0000
000003a0: 0000 0000 0000 0000 0000 0000 0000 0000
000003b0: 0000 0000 0000 0000 0000 0080 0000 0000
000003c0: 0000 0080 0000 0000 0000 0000 0000 0080
000003d0: 0000 0080 0000 0080 0000 0000 0000 0080
000003e0: 0000 0000 0000 0080 0000 0080 0000 0000
000003f0: 0000 0000 0000 0000 0000 0080 0000 0080
0.10876031 0.2910965 0.17397662 0.22007994 -0.12604399 0.20962347 0.0841925 -0.000951519
-0.042688437 -0.29355192 -0.037103593 0.15277995 -0.50696546 -0.106365345 -0.3177619 -0.015153384
-0.067148104 0.1396969 -0.37821546 -0.16929492 0.18272147 -0.002175783 -0.0045849774 0.2339433
0.4064019 0.028556924 -0.2617076 -0.13070926 -0.08020207 -0.12417028 -0.082823165 0.14555559
-0.20596571 0.02817472 0.06854267 0.083014436 0.46906215 -0.31123415 -0.06741114 0.18015754
0.33315593 -0.3164889 -0.015613488 0.015131242 -0.09146554 0.27838165 0.1210246 0.041370038
-0.006875344 0.019822309 0.038482387 0.29220608 -0.0018598146 -0.061095595 -0.09345306 -0.10361705
0.0031465332 -0.085782364 -0.02993072 -0.0009590845 -0.35169265 0.016129335 -0.044277146 -0.27744448
0.0 0.0 -0.0 -0.0 0.0 -0.0 0.0 0.0
0.0 -0.0 -0.0 0.0 0.0 0.0 0.0 -0.0
0.0 0.0 0.0 -0.0 -0.0 -0.0 0.0 0.0
-0.0 -0.0 0.0 -0.0 0.0 -0.0 -0.0 0.0
0.0 -0.0 0.0 0.0 -0.0 0.0 0.0 -0.0
0.0 -0.0 -0.0 0.0 0.0 -0.0 -0.0 0.0
-0.0 0.0 0.0 0.0 -0.0 0.0 0.0 0.0
0.0 0.0 -0.0 0.0 0.0 0.0 -0.0 0.0
0.06303817 -0.11377505 -0.042347126 -0.06624281 0.03924821 0.15112016 -0.008322645 0.12558801
-0.06924321 0.018022176 -0.17997466 0.18441184 0.055291496 -0.02029934 -0.12422392 0.06606103
0.032620586 0.21551633 0.018385306 -0.064377494 -0.020756178 -0.014949731 -0.007213987 -0.16971576
-0.026508598 0.18501692 -0.17133367 0.023445632 -0.051713984 0.051732585 -0.045927297 0.18671489
0.044851553 0.17304102 -0.04657721 -0.021799622 0.0099375695 0.22529839 0.21611537 -0.018579343
-0.008889926 -0.09567223 -0.029878462 -0.00394557 0.0017953586 0.052133117 -0.020695405 0.3343722
0.018258046 -0.0099307215 -0.00043450992 0.0015630018 0.015802415 -0.007559498 0.26125792 0.24532217
-0.01304603 -0.0033322817 -0.06566828 -0.0012863007 0.13852659 -0.04240486 0.07804175 -0.02311549
0.0 0.0 -0.0 0.0 0.0 -0.0 -0.0 0.0
-0.0 -0.0 -0.0 -0.0 -0.0 0.0 0.0 0.0
0.0 0.0 0.0 0.0 0.0 0.0 -0.0 0.0
-0.0 -0.0 0.0 -0.0 -0.0 -0.0 -0.0 0.0
0.0 0.0 0.0 0.0 -0.0 0.0 -0.0 0.0
0.0 0.0 0.0 0.0 0.0 0.0 -0.0 0.0
-0.0 0.0 0.0 -0.0 -0.0 -0.0 0.0 -0.0
0.0 -0.0 -0.0 0.0 0.0 0.0 -0.0 -0.0

base.2.conv.1.weight f4 [128]
00000000: b027 dc3d e8ff 0e3c 2483 253e 312d 0f3c
00000010: 6c32 153e 3eaf ff3b d96d 533e de27 0c3c
00000020: 4b60 3c3e 21f7 1d3c d743 0c3c f9aa 653e
00000030: 8a0f bc3c 0a1d 453e f1ac 203c 7be8 483c
00000040: c583 253e 2538 1b3e dc60 863c 68a5 0c3c
00000050: 51f1 053e dfd2 333c 6003 523e e309 183c
00000060: 12af 323e fce3 013c c3a3 3e3e be8f 233e
00000070: 69d6 663e 486e 773c 4302 193e c47d b53c
00000080: 34ff ab3c c089 413e 44bd a53c 28fb 143e
00000090: 953f 003e 622a 053c d31d 123c 2f63 ac3c
000000a0: 66b5 503e b9cb 263e e842 243e 8ceb 393e
000000b0: 16c2 653e f460 083e 27d6 4b3e 4ae8 a03c
000000c0: 964e 2b3c 6d25 313c 4f7b 053c 148a 0a3c
000000d0: 799a 6d3c ebf6 263e 8510 833e 3fff b03c
000000e0: 88f4 a83c f6ea 9a3c 233b a03c feca 163e
000000f0: 103c 763e 2b70 543e 8e01 3c3e d15a 913c
00000100: 587e 023e 5117 013c b98f 3a3e fd82 313c
00000110: 6cbc a03c 92eb 383e 7ac4 353e 100d a33c
00000120: 4d59 163e 4dee 2b3e 0935 2a3c a79e f93d
00000130: 1cb9 a53c a500 043c 66aa 1b3c 5388 3e3e
00000140: 5991 323e ebf2 2a3c 5a55 803c 8fd3 373e
00000150: 06a5 003c 6d6a 483e 8b99 403e f375 9d3c
00000160: 20bf 973c 8c3e 023c e3e5 1a3e 9246 0a3e
00000170: 9095 353e 041e 193c 6a3f 773c c891 8a3c
00000180: 9fe4 5c3e 2222 493e 00dd 8e3c 1d07 aa3c
00000190: 649c 6f3e bf16 093e 1663 083c 60c4 393e
000001a0: db8c 343c 632c e93d de9a 253e 8040 3d3e
000001b0: 6dc7 293e 76e8 1c3e 75f5 933c 3ca3 243c
000001c0: 9d51 283e d767 9f3c 8ba8 993c 453f 8c3c
000001d0: a275 423c bdc7 1c3e 88b5 663e 524a 213e
000001e0: d03b 943c 1b6c 683c 5af9 1e3e 417b 2f3e
000001f0: d66f fe3b e314 2c3e b499 fc3b de9f f23b
0.10749757 0.008728005 0.16163307 0.008738802 0.14570016 0.007802873 0.20647372 0.008554427
0.18396108 0.00964144 0.008561096 0.22428502 0.022956628 0.19249359 0.009806857 0.012262459
0.16163547 0.15158136 0.016403608 0.008584358 0.13080336 0.010975569 0.205091 0.009279701
0.17449597 0.007927891 0.18617158 0.15972802 0.22542728 0.015101977 0.14942269 0.022154696
0.020995714 0.18900204 0.02023185 0.14548934 0.12524255 0.008127781 0.008918243 0.021043388
0.20381698 0.16288652 0.16041148 0.1815626 0.22437319 0.13318235 0.19905911 0.019642014
0.010455748 0.010812146 0.008147075 0.008455772 0.014502161 0.16305129 0.2559854 0.021606086
0.020624414 0.018910866 0.019559449 0.14725873 0.2404635 0.20745914 0.18359968 0.0177435
0.12743509 0.007879094 0.18218888 0.010834453 0.019621097 0.18058613 0.17750731 0.01990369
0.14682503 0.16790123 0.010388621 0.12188464 0.020229869 0.008056794 0.009501075 0.18606691
0.17438258 0.010433893 0.015665699 0.17951797 0.007851845 0.19571848 0.18808572 0.019221282
0.018523753 0.007949483 0.15126757 0.13503483 0.17732835 0.009345535 0.015090803 0.016915217
0.21571587 0.19641927 0.017439365 0.020755345 0.23399502 0.13387583 0.008324405 0.18141317
0.011019911 0.11385419 0.16172358 0.18481636 0.16579981 0.15323052 0.018061379 0.010048684
0.16437383 0.019458694 0.018757125 0.017120013 0.011868866 0.15310569 0.22530186 0.15751007
0.018094927 0.014185931 0.15524808 0.17136861 0.0077647967 0.16804843 0.0077087525 0.0074043116

base.2.conv.1.bias f4 [128]
00000000: e61f f2bb 3b59 743a fe6c dc3d b555 b53a
00000010: 94f2 863d 5cbd 2eba 61d8 173e 449d c8b7
00000020: f746 bf3d 3a70 da3a b2f1 d33a 785e 223c
00000030: ca53 253b 4f68 36be ac4b f63a f81b 453a
00000040: 9305 80bd a06a 833e 3e05 92ba 8e51 fe39
00000050: 9808 8ebe cb4c 2f3b b35d 49bd a764 b23a
00000060: 59d4 b2bd f3ce 54b9 df2a 893c 48d7 55be
00000070: b3f0 e03d 86d3 3ab8 1071 0ebd 09e7 0b3b
00000080: 5cf4 58ba dfe4 3e3e 74b8 adba 2289 ad3c
00000090: 15e7 94bd 8520 f639 392e 013a c285 9cb9
000000a0: 3c3f e7bd 19c0 c0bd bd8a 57be 4105 70bc
000000b0: e7be b2be c35a 62be 42e6 ac3b 8649 2d39
000000c0: 6f7c d9b8 6e91 073a 1031 b2b9 988c 0c3b
000000d0: f5d2 f039 5116 ae3d 583d 77be 3712 543b
000000e0: ada9 56b9 7f94 beba 7b3f 153a 3861 473e
000000f0: 3810 873d 386e 09be abc1 533e e85a 1dbb
00000100: 9871 74be 34a8 1e3a 2428 e83c 5fd9 043b
00000110: 2e21 7cb9 cb01 6c3d b7a5 5cbc 2fd9 713b
00000120: a0ea 323e f96c e3be f3f8 4e3b ef16 ec3d
00000130: aec9 94ba 98b9 493a ab17 133a 657d e73b
00000140: 1e72 33be bfd3 4f3b 65cc 6c3b 33d7 51bd
00000150: 5b93 cc3a e6bd a7bd cec7 02bd 0104 323b
00000160: 72fb 29b9 b857 be38 afda c53d cf05 65be
00000170: 7a38 603b 733b fc3a 9e99 ceba f963 a639
00000180: 8314 663c 9396 7c3d cc15 853b 9b71 2bbb
00000190: f853 0cbe 35cf 60be e31c 7239 6a12 713d
000001a0: 1e3f a8b9 cb60 913d 3048 a63b 74b9 413c
000001b0: a553 df3d d979 5fbe 0fc0 50b9 a4c1 163a
000001c0: 4361 893d 724d 3fbb 5a8e 1db9 f4bb c9ba
000001d0: 5f31 d7b9 f494 01be 56bf b93c 2992 b13d
000001e0: cc5a 353a 8525 103a a85e 8abd 0db4 3fbe
000001f0: 2747 5e3a 547f 423d 6fc8 a63a e287 e938
-0.0073890565 0.00093211577 0.10762976 0.0013834747 0.06589237 -0.000666579 0.14828636 -2.391509e-05
0.09339707 0.0016665526 0.0016170053 0.009910218 0.0025226944 -0.17813228 0.0018790863 0.0007519121
-0.06251063 0.25667286 -0.0011140478 0.00048507418 -0.27740932 0.0026748653 -0.049161624 0.0013610319
-0.08731908 -0.0002029499 0.016744075 -0.20882905 0.1098341 -4.4542852e-05 -0.034775794 0.0021347424
-0.00082761585 0.18641995 -0.0013253824 0.021183554 -0.07270638 0.00046945005 0.0004927847 -0.00029854296
-0.11291358 -0.0941164 -0.21049018 -0.01464969 -0.34911272 -0.22104935 0.0052764723 0.00016525955
-0.00010370544 0.0005171512 -0.0003398736 0.0021446105 0.00045933542 0.0850035 -0.24144495 0.003235949
-0.0002047184 -0.0014540105 0.0005693358 0.1947068 0.0659489 -0.13420951 0.20679347 -0.0024010483
-0.23871458 0.0006052286 0.028339453 0.0020271165 -0.00024044953 0.057618897 -0.013467244 0.0036903133
0.17472315 -0.44419077 0.003158149 0.11527812 -0.0011351609 0.0007695197 0.0005611132 0.0070645087
-0.17524001 0.0031711904 0.003613257 -0.05123062 0.001560788 -0.08190517 -0.03192883 0.002716303
-0.00016210767 9.076245e-05 0.09660851 -0.22365497 0.003421335 0.0019243791 -0.0015762334 0.00031736473
0.014042976 0.061667036 0.0040614363 -0.0026160243 -0.13703907 -0.21954043 0.0002308968 0.05885545
-0.00032090483 0.0709854 0.0050745234 0.011824001 0.10904626 -0.21823825 -0.00019907973 0.00057509006
0.06708004 -0.0029190448 -0.00015025717 -0.0015391097 -0.0004104478 -0.12654477 0.022674244 0.08670456
0.0006918132 0.0005498755 -0.067563355 -0.18721028 0.00084792305 0.04748471 0.0012724529 0.00011135616

base.2.conv.1.running_mean f4 [128]
00000000: ae35 f53e f13f f2ad 0340 ffbd 640e 61ad
00000010: 0e8e 78bd fa7d 1aae 17d2 0dbe ac7b 05ab
00000020: f3b6 9a3c b263 a82c c4ab 1f2d b3c8 193e
00000030: 7395 5f2f fbb4 64be f48d 792d a513 ca2d
00000040: 17d6 7e3e 286e acbe 9202 262b 558c 2e2b
00000050: 3dd1 2a3e f6cf 8f2e 613e 163e b1b6 f42c
00000060: 2aad c23e b167 47ac 8aa8 00bf bea7 9e3e
00000070: 68bb b03e 46a2 2f2a 852d 863d fca7 802b
00000080: 504d 2caf d04a 09be 5160 a12c 9644 82bd
00000090: e887 1dbe ed89 a92b 2c7a 90ac b484 59ac
000000a0: 97bc 3b3e aba7 b7bc 2741 15be 3782 d3bb
000000b0: 530f edbe d18e 993d 1284 b7be 7ad6 0629
000000c0: 77a7 c5ab 80e9 2c2b 4319 ebac 69aa f02d
000000d0: fc8b 252e 0ba3 fe3c 5019 11bf 0972 a92f
000000e0: 66f5 8529 b49a f6ae ee48 ecac fce2 e23d
000000f0: cd21 b23e 4678 063f 7d38 053e 16b6 332e
00000100: 97c9 a73d e2f7 b02d c676 573e ef8e 03ad
00000110: d7e5 afaa 8080 25bd 94ae 643e d7a3 e02c
00000120: a964 d43d 18bc d13d 1456 db2f 89cb 863d
00000130: 1bc0 ad2c a5f4 d42c 6c94 062d 36f1 93be
00000140: a36b febd ecbd 502f ee7e e928 21fb 843c
00000150: d050 8a2e bb1e cbbe b52f 563d 1988 e1ac
00000160: 3da3 7c2c dac8 a12a a85a efbd c49e 633e
00000170: 2397 2e3e 570e d92d 53e2 d2ae 4e6c 5d2c
00000180: 44d4 26be 6703 fabe ab79 b52d 2555 09ad
00000190: e755 1a3e 2f57 d4bd 97b3 932c cf79 413d
000001a0: e145 8e2b dc70 b43d 2e0a 91bd f4c5 07bd
000001b0: 0c19 7a3d 0172 9a3e 6572 2ead dc23 842c
000001c0: dbaa eb3e c7d3 a72c 3ced 9cac 9474 25ac
000001d0: b8df c6ad e1b4 0abd e675 af3e 4771 60be
000001e0: c11d 552b 0912 912d 61f4 a83e aa97 c83d
000001f0: f649 a32d 6524 073d 3b7a a32b 8b81 f928
0.47892517 -2.754061e-11 -0.12463381 -1.2792965e-11 -0.06068235 -3.5127436e-11 -0.13849674 -4.742272e-13
0.018886065 4.7859156e-12 9.076243e-12 0.15017967 2.0334827e-10 -0.22334664 1.4185531e-11 2.2973465e-11
0.24886356 -0.33677793 5.8978614e-13 6.201197e-13 0.1668138 6.5398284e-11 0.14672233 6.95518e-12
0.3802274 -2.8337161e-12 -0.5025717 0.30987352 0.3451798 1.5599422e-13 0.06551651 9.141572e-13
-1.5670776e-10 -0.13407445 4.5865885e-12 -0.06360738 -0.15383875 1.2046454e-12 -4.10629e-12 -3.091122e-12
0.1833366 -0.022418818 -0.14575635 -0.006454732 -0.46300754 0.07497943 -0.3584295 2.9940006e-14
-1.4044173e-12 6.143072e-13 -6.6819063e-12 2.7360518e-11 3.7640988e-11 0.031083604 -0.5667925 3.0821948e-10
5.948956e-14 -1.12142656e-10 -6.7156202e-12 0.1107845 0.34791413 0.5252727 0.1300983 4.0861613e-11
0.08192747 2.0118966e-11 0.21041402 -7.4782255e-12 -3.1245728e-13 -0.04040575 0.22332221 6.384653e-12
0.10370762 0.10240954 3.989703e-10 0.0658179 4.9382837e-12 6.0525634e-12 7.649974e-12 -0.28894967
-0.12422874 1.8984964e-10 2.5923243e-14 0.016233029 6.2898686e-11 -0.39671883 0.05229159 -6.4099945e-12
3.590197e-12 2.8738714e-13 -0.11687213 0.22228533 0.17049842 2.4676412e-11 -9.5898976e-11 3.146611e-12
-0.1629191 -0.4883072 2.0631349e-11 -7.806454e-12 0.15071832 -0.103681915 4.1979298e-12 0.047235306
1.0109102e-12 0.08810589 -0.0708202 -0.033147767 0.061059043 0.30165103 -9.916156e-12 3.755647e-12
0.4602879 4.7699375e-12 -4.460125e-12 -2.3512624e-12 -2.2609345e-11 -0.033863906 0.34269637 -0.21918212
7.5714093e-13 1.64926e-11 0.32998946 0.097945526 1.85638e-11 0.032993693 1.1615772e-12 2.7700734e-14
