Pruned_Models/EXTD/FPGM/EXTD20_FPGM.pth (torch, 710573 bytes, 134 tensors)

base.0.0.weight f4 [64, 3, 3, 3]
0	0x419755d3	18.916906
1	0x41a74763	20.909857
2	0x41b76d75	22.928446
3	0x419d5d07	19.670424
4	0x41b2eb6c	22.364952
5	0x41c1abe2	24.208927
6	0x41a1d710	20.230011
7	0x41b8588e	23.04324
8	0x41c73691	24.901644
9	0x4115e0ee	9.367414
10	0x4129fa50	10.623611
11	0x413a68f0	11.6506195
12	0x411a8fd1	9.660111
13	0x41399370	11.5984955
14	0x4146fb98	12.436424
15	0x4128ac8f	10.542129
16	0x41471e34	12.444874
17	0x4158fd35	13.561818
18	0x3f424f0d	0.7590187
19	0x401067ba	2.256331
20	0x403882d1	2.8829844
21	0x3fb40cc4	1.4066396
22	0x407029b2	3.7525449
23	0x40888ab0	4.2669296
24	0x3ff0e9c2	1.8821337
25	0x408b70f9	4.3575406
26	0x40a6837d	5.203551
27	0x00000000	0.0
28	0x00000000	0.0
29	0x00000000	0.0
30	0x00000000	0.0
31	0x00000000	0.0
32	0x00000000	0.0
33	0x00000000	0.0
34	0x00000000	0.0
35	0x00000000	0.0
36	0x00000000	0.0
37	0x00000000	0.0
38	0x00000000	0.0
39	0x00000000	0.0
40	0x00000000	0.0
41	0x00000000	0.0
42	0x00000000	0.0
43	0x00000000	0.0
44	0x00000000	0.0
45	0x00000000	0.0
46	0x00000000	0.0
47	0x00000000	0.0
48	0x00000000	0.0
49	0x00000000	0.0
50	0x00000000	0.0
51	0x00000000	0.0
52	0x00000000	0.0
53	0x00000000	0.0
54	0x80000000	-0.0
55	0x80000000	-0.0
56	0x80000000	-0.0
57	0x80000000	-0.0
58	0x80000000	-0.0
59	0x80000000	-0.0
60	0x80000000	-0.0
61	0x80000000	-0.0
62	0x80000000	-0.0
63	0x80000000	-0.0
64	0x80000000	-0.0
65	0x80000000	-0.0
66	0x80000000	-0.0
67	0x80000000	-0.0
68	0x80000000	-0.0
69	0x80000000	-0.0
70	0x80000000	-0.0
71	0x80000000	-0.0
72	0x80000000	-0.0
73	0x80000000	-0.0
74	0x80000000	-0.0
75	0x80000000	-0.0
76	0x80000000	-0.0
77	0x80000000	-0.0
78	0x80000000	-0.0
79	0x80000000	-0.0
80	0x80000000	-0.0
81	0xc2b9377e	-92.60838
82	0xc2243976	-41.056114
83	0xc1f4391b	-30.527884
84	0xc18a9efc	-17.32763
85	0x42133d10	36.80963
86	0x42107bc2	36.120857
87	0x428086d3	64.26333
88	0x42d931d2	108.597305
89	0x42c92191	100.56556
90	0xc2e63ce3	-115.11892
91	0xc2646654	-57.09993
92	0xc2072215	-33.783283
93	0xc1e57dd5	-28.686441
94	0x41e6ad6f	28.834684
95	0x421da27c	39.408676
96	0x426f9bbe	59.902092
97	0x42d7b57a	107.85445
98	0x42d73a0a	107.61336
99	0xc2ee738a	-119.22566
100	0xc285989f	-66.79809
101	0xc2279f64	-41.905655
102	0xc232fb5a	-44.74546
103	0x413ef998	11.935936
104	0x41e961ad	29.172693
105	0x42154197	37.314053
106	0x42ae189f	87.04809
107	0x42b7105d	91.53196
108	0x4172d801	15.177735
109	0x41870ac2	16.880253
110	0x418d9b7c	17.70092
111	0x4172c56f	15.173202
112	0x41849ba1	16.57599
113	0x41895e04	17.170906
114	0x4172067d	15.126584
115	0x41839e20	16.45221
116	0x418a16a8	17.261063
117	0x41a86f80	21.054443
118	0x41b2cfef	22.35153
119	0x41b85b36	23.044537
120	0x41aaafd0	21.335846
121	0x41b202ed	22.251429
122	0x41b6246a	22.76778
123	0x41ad2026	21.640697
124	0x41b44d04	22.537605
125	0x41b9bbee	23.216763
126	0x41dec7bc	27.847527
127	0x41e81c10	29.013702
128	0x41e935cd	29.15127
129	0x41df2182	27.891361
130	0x41e57c03	28.685553
131	0x41e4a021	28.578188
132	0x41e3b0ad	28.461267
133	0x41e92f5a	29.14812
134	0x41e92385	29.142344
135	0xc21d2bb2	-39.29267
136	0xc26d04df	-59.254757
137	0xc18462e0	-16.548279
138	0xc26e0970	-59.509216
139	0xc2e1c116	-112.87712
140	0xc2b205e0	-89.011475
141	0xc31ebae7	-158.73009
142	0xc35709e5	-215.03865
143	0xc3376bc7	-183.421
144	0x41f6d003	30.851568
145	0x3fd1f5e9	1.6403171
146	0x41e71527	28.885328
147	0x41d2e036	26.359478
148	0xc20bc962	-34.946663
149	0xc1edcf0a	-29.726093
150	0xc2ab6a67	-85.70782
151	0xc314e1e0	-148.88232
152	0xc3036933	-131.41093
153	0x422346fa	40.819313
154	0x417931b1	15.574632
155	0x4229cd9c	42.45079
156	0x4261f359	56.487644
157	0xc0a652f1	-5.1976247
158	0xc0749492	-3.821568
159	0xc22ea5b3	-43.661816
160	0xc2e34cfb	-113.65035
161	0xc2c355c5	-97.66752
162	0x41872f18	16.897995
163	0x418bc468	17.470901
164	0x418983ed	17.189417
165	0x418c9a2c	17.57528
166	0x4191a4fe	18.205563
167	0x418ebae0	17.841248
168	0x419147a5	18.159983
169	0x4196eb3a	18.864857
170	0x41935d69	18.42061
171	0x4143e99b	12.244533
172	0x4148bf7d	12.54675
173	0x4140a7ff	12.041015
174	0x415216c9	13.130563
175	0x41583c17	13.51467
176	0x414e6618	12.899925
177	0x415d8330	13.844528
178	0x4165a31b	14.352321
179	0x415c0470	13.751083
180	0x4199d174	19.227272
181	0x419cb769	19.589556
182	0x4198c88c	19.097923
183	0x41a0c5e6	20.09663
184	0x41a4e2b7	20.6107
185	0x41a0e375	20.111063
186	0x41a691ab	20.821127
187	0x41ab8771	21.441133
188	0x41a78968	20.942093
189	0x441fc2a5	639.0413
190	0x442a8b9a	682.1813
191	0x4442fc17	779.9389
192	0xc3001124	-128.06696
193	0xc38551ae	-266.63812
194	0xc3013460	-129.20459
195	0xc43321ba	-716.527
196	0xc4657884	-917.88306
197	0xc44e5231	-825.28424
198	0x44447576	785.8353
199	0x4426daba	667.4176
200	0x44468d0f	794.20404
201	0x43531959	211.09901
202	0xc214da5c	-37.21324
203	0x4331e346	177.88779
204	0xc321afca	-161.68668
205	0xc3d5fda9	-427.98172
206	0xc36e3c88	-238.23645
207	0x448f67ff	1147.2499
208	0x4488d8ec	1094.7788
209	0x449a1b6f	1232.8573
210	0x43ead599	469.66873
211	0x4388939a	273.15314
212	0x43eacd1e	469.60248
213	0xc28d1462	-70.53981
214	0xc395b738	-299.4314
215	0xc33b248e	-187.14279
216	0x80000000	-0.0
217	0x80000000	-0.0
218	0x80000000	-0.0
219	0x80000000	-0.0
220	0x80000000	-0.0
221	0x80000000	-0.0
222	0x80000000	-0.0
223	0x80000000	-0.0
224	0x80000000	-0.0
225	0x80000000	-0.0
226	0x80000000	-0.0
227	0x80000000	-0.0
228	0x80000000	-0.0
229	0x80000000	-0.0
230	0x80000000	-0.0
231	0x80000000	-0.0
232	0x80000000	-0.0
233	0x80000000	-0.0
234	0x80000000	-0.0
235	0x80000000	-0.0
236	0x80000000	-0.0
237	0x80000000	-0.0
238	0x80000000	-0.0
239	0x80000000	-0.0
240	0x80000000	-0.0
241	0x80000000	-0.0
242	0x80000000	-0.0
243	0x80000000	-0.0
244	0x80000000	-0.0
245	0x80000000	-0.0
246	0x80000000	-0.0
247	0x80000000	-0.0
248	0x80000000	-0.0
249	0x80000000	-0.0
250	0x80000000	-0.0
251	0x80000000	-0.0
252	0x80000000	-0.0
253	0x80000000	-0.0
254	0x80000000	-0.0
255	0x80000000	-0.0

base.0.1.weight f4 [64]
0	0x3e3cb12f	0.18426965
1	0x3d09c9a8	0.03363958
2	0x3dc5a950	0.096514344
3	0x3f310827	0.69153064
4	0x3e82f20e	0.25575298
5	0x3effb224	0.49940598
6	0x3df5f1ed	0.12009034
7	0x3f5984af	0.84968084
8	0x3d62b958	0.05535254
9	0x3e0974d6	0.13423476
10	0x3e3170d6	0.173282
11	0x3f8a737e	1.0816495
12	0x3e4754bf	0.19465922
13	0x3f12bee2	0.57322514
14	0x3dd72dc4	0.10506776
15	0x3d5e1198	0.054215997
16	0x3ed3ce7a	0.41368467
17	0x3f1bb280	0.60819244
18	0x3e7ec300	0.24879074
19	0x3dde2b02	0.10848047
20	0x3e00a279	0.12561978
21	0x3ecdbbc8	0.40182328
22	0x3eb2c47f	0.3491554
23	0x3eb01a1f	0.3439493
24	0x3d1a535c	0.037677154
25	0x3f03acc0	0.5143547
26	0x3e573303	0.21015553
27	0x3eae65f8	0.3406217
28	0x3e35b6d6	0.17745528
29	0x3ed3052f	0.41214892
30	0x3f7bc741	0.9835091
31	0x3ebbc6f6	0.36675233
32	0x3ef33114	0.4749838
33	0x3d9daacf	0.07698595
34	0x3e930049	0.28711155
35	0x3ec606ea	0.3867715
36	0x3e6ea8a4	0.23306519
37	0x3e7155cd	0.23567887
38	0x3f2d8632	0.6778289
39	0x3f1f8fa2	0.6232854
40	0x3f246759	0.64220196
41	0x3e9a4a96	0.3013503
42	0x3f0f5b18	0.55998373
43	0x3df2218d	0.118228056
44	0x3e7230df	0.23651455
45	0x3eb2050e	0.3476948
46	0x3e79b37e	0.24384877
47	0x3eba23e7	0.36355516
48	0x3ef853e8	0.48501515
49	0x3ede766e	0.4344973
50	0x3f199425	0.59991676
51	0x3cfa95ad	0.03058895
52	0x3ede310a	0.4339679
53	0x3f22189e	0.6331881
54	0x3ec14e43	0.3775502
55	0x3d8d942c	0.06913027
56	0x3f3b0009	0.7304693
57	0x3d85cf8d	0.06533728
58	0x3f17d371	0.5930701
59	0x3eafe0ed	0.34351292
60	0x3e34ce04	0.17656714
61	0x3e9d9d11	0.30783895
62	0x3e487782	0.19576839
63	0x3f2e137a	0.6799847

base.0.1.bias f4 [64]
0	0x3ded7b42	0.11595775
1	0xbd1e2d57	-0.03861746
2	0xbe00d058	-0.12579477
3	0x3e8aa81c	0.27081382
4	0xbdc1c8cb	-0.09462126
5	0xbe2f8277	-0.17139612
6	0xbdb321c5	-0.087466754
7	0x3d822692	0.06355013
8	0xbdb4ca13	-0.08827605
9	0xbe2220c4	-0.15832812
10	0xbccd3c3b	-0.025053134
11	0xbe5a1d8e	-0.21300337
12	0x3dfc4d6e	0.12319456
13	0xbd99a9f8	-0.07503122
14	0x3d857aac	0.065175384
15	0xbccf4149	-0.025299685
16	0x3e6f281f	0.23355149
17	0xbbc637c6	-0.006049129
18	0xbde4b350	-0.11167014
19	0xbdef2d5c	-0.116785735
20	0x3d707177	0.05870196
21	0x3d350686	0.044195674
22	0x3d65fb94	0.056148127
23	0x3e7e5c97	0.24840008
24	0xbda075f0	-0.07834995
25	0x3e13fbf7	0.14451586
26	0xbd45a252	-0.048250504
27	0x3e9ceb74	0.30648386
28	0x3db1d89b	0.08683892
29	0x3e4ac056	0.19799933
30	0x3ef2ce4a	0.4742301
31	0x3e35ec13	0.17765836
32	0xbcc4972b	-0.023997864
33	0xbdc0ed9e	-0.09420322
34	0x3b9a0f42	0.004701526
35	0x3dacc7f6	0.08436577
36	0xbd932fb3	-0.07186832
37	0xbd99b63f	-0.07505464
38	0xbdd747f7	-0.10511773
39	0xbec74665	-0.38920894
40	0xbd5575d3	-0.05211432
41	0xbe917338	-0.28408217
42	0x3de68246	0.112553164
43	0xbd92b5d0	-0.07163584
44	0x3d3146da	0.04328046
45	0xbe10dce5	-0.14146765
46	0x3de2a792	0.11067118
47	0x3d9a2f0a	0.07528503
48	0x3dcace56	0.09902637
49	0x3b58fad0	0.003310848
50	0xbe364c18	-0.17802465
51	0xbde0b339	-0.10971684
52	0xbdd2a58b	-0.10285481
53	0xbcb3925b	-0.021920374
54	0x3a8a22bf	0.001053892
55	0x3d785cb7	0.060635295
56	0x3e450848	0.1924144
57	0x3d6b626a	0.0574669
58	0xbe7535d9	-0.23946323
59	0x3d8a60e6	0.06756763
60	0xbd27a522	-0.040928967
61	0x3d88af9f	0.06674122
62	0x3e08354d	0.13301583
63	0xbe29e449	-0.1659099

base.0.1.running_mean f4 [64]
0	0xc4f817a0	-1984.7383
1	0xc0f6fd16	-7.7183943
2	0x40bd2b87	5.9115634
3	0xc4e1756b	-1803.6693
4	0xc56126ea	-3602.4321
5	0x45f97dda	7983.7314
6	0xc52032b2	-2563.1685
7	0xc6e0333e	-28697.621
8	0x41329acb	11.162791
9	0x41099c96	8.600729
10	0x479da1b9	80707.445
11	0xc74bb07f	-52144.496
12	0x44ba7b75	1491.858
13	0x48472101	203908.02
14	0x418a667a	17.300037
15	0x408de04b	4.4336295
16	0xc7bc47e8	-96399.81
17	0x444111f9	772.2808
18	0xc588fd5e	-4383.671
19	0xc626d1ab	-10676.417
20	0xc190d806	-18.10548
21	0xc5a03647	-5126.7847
22	0x45a8a820	5397.0156
23	0xc51e2f0e	-2530.941
24	0x417e2521	15.884065
25	0xc748b4f6	-51380.96
26	0xc6832240	-16785.125
27	0xc7190321	-39171.13
28	0x453d5946	3029.5796
29	0xc62d9874	-11110.113
30	0x44815080	1034.5156
31	0x45816b43	4141.4077
32	0x49063c0b	549824.7
33	0xc14f1a18	-12.943871
34	0x44b55757	1450.7294
35	0x4371747d	241.45503
36	0x468e29a7	18196.826
37	0x44a8dffd	1350.9996
38	0xc74741df	-51009.87
39	0x452bf7fd	2751.4993
40	0xc8bb16d0	-383158.5
41	0x44e8e7bd	1863.2418
42	0x45ddc5a1	7096.7036
43	0xc6736460	-15577.094
44	0x46288a01	10786.501
45	0xc61e71c6	-10140.443
46	0xc51f921c	-2553.1318
47	0xc60e91cd	-9124.45
48	0xc74a33df	-51763.87
49	0xc831e8b7	-182178.86
50	0xc53fbe87	-3067.908
51	0xbecbf37a	-0.39834195
52	0x46b11605	22667.01
53	0xc6910868	-18564.203
54	0xc59e1c7d	-5059.561
55	0x408398a9	4.1123853
56	0x44596c02	869.6876
57	0xc0b50044	-5.6562824
58	0x45cef34c	6622.412
59	0x44f6aaf7	1973.3427
60	0xc4ea9d02	-1876.9065
61	0x45d35afa	6763.372
62	0x4663739e	14556.904
63	0xc6926c49	-18742.143

base.0.1.running_var f4 [64]
0	0x4dca38d1	4.2409014e+08
1	0x45c39df8	6259.746
2	0x456032bc	3587.171
3	0x4dab9000	3.5979264e+08
4	0x4e9b0db5	1.3006834e+09
5	0x4feb308b	7.891654e+09
6	0x4e355be4	7.6067456e+08
7	0x51b8c175	9.918996e+10
8	0x464a2fc0	12939.9375
9	0x461efffe	10175.998
10	0x53103cb0	6.1949346e+11
11	0x51a03c4c	8.60258e+10
12	0x4d3159b4	1.8596538e+08
13	0x5423f987	2.8170642e+12
14	0x46eae5ac	30066.836
15	0x44ffcb4a	2046.3528
16	0x5311af9d	6.2571656e+11
17	0x4d80fb29	2.7049296e+08
18	0x4f21b427	2.7129382e+09
19	0x50321f84	1.1953639e+10
20	0x470a3fdc	35391.86
21	0x4f145afb	2.4889905e+09
22	0x4f392e0d	3.106803e+09
23	0x4e30aae4	7.409974e+08
24	0x46e85cb4	29742.352
25	0x52594c86	2.3332294e+11
26	0x50af67d1	2.3542532e+10
27	0x5223ae77	1.7575168e+11
28	0x4e4ef8b0	8.681011e+08
29	0x501a7ecd	1.0368005e+10
30	0x4d0bdf86	1.4666762e+08
31	0x4ec09c9b	1.6157444e+09
32	0x55fde901	3.4897148e+13
33	0x46833c29	16798.08
34	0x4d9a3ea7	3.2347466e+08
35	0x4d0dd5e6	1.4872534e+08
36	0x510ac197	3.7247087e+10
37	0x4d1fd3ef	1.6759166e+08
38	0x519ddc83	8.475118e+10
39	0x4e273807	7.013667e+08
40	0x554f4952	1.4244613e+13
41	0x4dad476d	3.6339242e+08
42	0x4f9f633c	5.3481615e+09
43	0x50a3861e	2.1947806e+10
44	0x50051348	8.930533e+09
45	0x4ffd815b	8.506226e+09
46	0x4dec0ba4	4.9502323e+08
47	0x4ff7e7a9	8.318309e+09
48	0x52831e01	2.8157205e+11
49	0x543d8da9	3.256502e+12
50	0x4dcc2d5f	4.281907e+08
51	0x42212a1f	40.291134
52	0x511bef8c	4.185868e+10
53	0x513b9dcf	5.0362905e+10
54	0x4f27ff8d	2.8185428e+09
55	0x449a3999	1233.7999
56	0x4d038451	1.3790542e+08
57	0x45733073	3891.028
58	0x4f971431	5.069366e+09
59	0x4dcdb8d1	4.3143018e+08
60	0x4d8671fd	2.8195216e+08
61	0x4f61c9c7	3.7880973e+09
62	0x507fb735	1.7160787e+10
63	0x50830386	1.758437e+10

base.1.conv.0.weight f4 [64, 1, 3, 3]
0	0x80000000	-0.0
1	0x80000000	-0.0
2	0x80000000	-0.0
3	0x80000000	-0.0
4	0x80000000	-0.0
5	0x80000000	-0.0
6	0x00000000	0.0
7	0x00000000	0.0
8	0x00000000	0.0
9	0x00000000	0.0
10	0x00000000	0.0
11	0x00000000	0.0
12	0x00000000	0.0
13	0x00000000	0.0
14	0x00000000	0.0
15	0x00000000	0.0
16	0x00000000	0.0
17	0x80000000	-0.0
18	0x00000000	0.0
19	0x80000000	-0.0
20	0x00000000	0.0
21	0x00000000	0.0
22	0x80000000	-0.0
23	0x80000000	-0.0
24	0x80000000	-0.0
25	0x80000000	-0.0
26	0x80000000	-0.0
27	0x3d5032f2	0.050829835
28	0x3e75936d	0.2398202
29	0x3beec7f9	0.007287022
30	0x3e7b20fd	0.24524303
31	0xbf2c4d31	-0.67305285
32	0xbd31d7e7	-0.04341879
33	0x3dc3af43	0.09554913
34	0xbe6df6ba	-0.2323865
35	0x3cd2cfd6	0.02573387
36	0xbda80429	-0.082039185
37	0xbdc317ab	-0.09525999
38	0xbe04074d	-0.1289341
39	0xbd0f89cd	-0.035043526
40	0xbd854020	-0.065063715
41	0xbda7d1aa	-0.08194287
42	0x3c6f577a	0.014608258
43	0xbc6524bf	-0.013985812
44	0xbcc1038a	-0.023561258
45	0xbe45602b	-0.19274966
46	0x3f35b8ba	0.70984995
47	0xbc725f81	-0.014793278
48	0xbd4b46b9	-0.049627993
49	0xbe5d682a	-0.21621767
50	0xbe11607e	-0.14196965
51	0xbb59d468	-0.0033238176
52	0xbdf127f7	-0.11775201
53	0x3cdd3b5e	0.027005848
54	0x3d143273	0.036180925
55	0x3d4eb92b	0.05046956
56	0x3d467f7a	0.048461415
57	0x3cf01802	0.029308323
58	0x3d6134bd	0.054981936
59	0x3b87219d	0.00412388
60	0x3d08cd5e	0.03339898
61	0x3ca91f69	0.02064486
62	0x3d2babbe	0.041911833
63	0xbe9b7ac5	-0.30367103
64	0xbed40449	-0.4140952
65	0xbeb4e1ad	-0.35328427
66	0xbdcbab11	-0.09944738
67	0xbe65a519	-0.22426261
68	0xbdbca639	-0.09211392
69	0x3cf01276	0.029305678
70	0x3e3f01da	0.1865305
71	0x3da54026	0.08068876
72	0x80000000	-0.0
73	0x80000000	-0.0
74	0x80000000	-0.0
75	0x80000000	-0.0
76	0x80000000	-0.0
77	0x80000000	-0.0
78	0x80000000	-0.0
79	0x80000000	-0.0
80	0x80000000	-0.0
81	0x00000000	0.0
82	0x80000000	-0.0
83	0x80000000	-0.0
84	0x00000000	0.0
85	0x80000000	-0.0
86	0x80000000	-0.0
87	0x80000000	-0.0
88	0x80000000	-0.0
89	0x80000000	-0.0
90	0xbd3cc978	-0.046090573
91	0xbdb2ac2f	-0.08724248
92	0xbdb67dda	-0.08910723
93	0xbd2c380a	-0.04204563
94	0xbd80caad	-0.06288657
95	0xbd861422	-0.06546809
96	0xbba8218f	-0.0051309536
97	0xbd22219c	-0.039582834
98	0xbc971b0d	-0.018445516
99	0xbe4ea1e3	-0.20178942
100	0xbea7bba0	-0.32760334
101	0xbe489f50	-0.19592023
102	0xbe49e739	-0.1971711
103	0xbee13565	-0.4398605
104	0xbe77febd	-0.24218269
105	0xbe0a7d84	-0.13524443
106	0xbea8021f	-0.32814118
107	0xbe630afd	-0.2217216
108	0xbd233a61	-0.039850596
109	0x3c7ea3a2	0.015541943
110	0xbd0027b8	-0.03128788
111	0x3c1481a3	0.009064111
112	0x3d76b6f2	0.060233064
113	0x3c342988	0.01099623
114	0xbc713b8a	-0.014723668
115	0x3d0c2423	0.03421415
116	0x39cfb61a	0.00039617793
117	0x3ddf22c8	0.10895306
118	0x3dd3e660	0.10346675
119	0x3ccbb07d	0.02486443
120	0x3e2bc190	0.16773057
121	0x3e69853b	0.2280473
122	0x3dddb195	0.10824887
123	0x3e046eab	0.12932841
124	0x3df91a19	0.12163181
125	0x3d5a573e	0.053305857
126	0x80000000	-0.0
127	0x80000000	-0.0
128	0x80000000	-0.0
129	0x80000000	-0.0
130	0x80000000	-0.0
131	0x80000000	-0.0
132	0x80000000	-0.0
133	0x80000000	-0.0
134	0x80000000	-0.0
135	0x80000000	-0.0
136	0x80000000	-0.0
137	0x80000000	-0.0
138	0x80000000	-0.0
139	0x80000000	-0.0
140	0x80000000	-0.0
141	0x80000000	-0.0
142	0x80000000	-0.0
143	0x80000000	-0.0
144	0x3de40bbf	0.11135053
145	0x3e64c238	0.22339714
146	0x3d2094b1	0.039204303
147	0x3e15c24c	0.146249
148	0xbf3bedd2	-0.7340976
149	0x3e25e089	0.16198935
150	0xbdc24dd0	-0.09487498
151	0x3e5d6e50	0.21624112
152	0xbd44e48e	-0.04806953
153	0x3e7818f6	0.24228272
154	0x3e96c0fe	0.29444116
155	0x3e2e954d	0.17049141
156	0x3e5b1ae2	0.21396974
157	0x3ea8362e	0.32853836
158	0x3e7bcf03	0.24590687
159	0x3e345286	0.17609605
160	0x3e892fce	0.26794285
161	0x3e5cd35b	0.21565
162	0x3d9076c1	0.070539005
163	0x3d8bb6cf	0.06821977
164	0x3dc167ca	0.09443624
165	0x3dc4e4b2	0.09613933
166	0x3e19a5bf	0.15004633
167	0x3de7e2b3	0.11322536
168	0x3dfde12c	0.12396464
169	0x3e0708be	0.13186929
170	0x3daaa98e	0.08333121
171	0x3cbba705	0.02290679
172	0x3d8d3932	0.06895675
173	0x3d2beac7	0.041971948
174	0x3cff5c14	0.031171836
175	0x3e4437d6	0.19161925
176	0x3e1ca6e2	0.15298036
177	0xbd0d3cbe	-0.034481756
178	0x3dad3fb8	0.08459419
179	0x3dc6340d	0.09677897
180	0x00000000	0.0
181	0x00000000	0.0
182	0x00000000	0.0
183	0x00000000	0.0
184	0x80000000	-0.0
185	0x80000000	-0.0
186	0x00000000	0.0
187	0x80000000	-0.0
188	0x80000000	-0.0
189	0xbdaabef3	-0.08337202
190	0xbdc3b3bd	-0.09555767
191	0xbd9357c7	-0.071944766
192	0xbd6f0253	-0.058351826
193	0xbe0dd4ea	-0.13850752
194	0xbe1b17ac	-0.15145749
195	0xbd95d326	-0.07315664
196	0xbdb3a992	-0.08772577
197	0xbda6e7a7	-0.08149653
198	0x3d68b3d8	0.056812137
199	0xbceb4c2d	-0.028722847
200	0x3c1a74c2	0.009427251
201	0xbad5b02d	-0.0016303115
202	0xbe324867	-0.17410432
203	0xbd758a38	-0.05994627
204	0xbd0626ce	-0.03275185
205	0x3c454946	0.0120413955
206	0x3d1c0efc	0.038100228
207	0xbe054d02	-0.13017657
208	0xbddfb1b8	-0.10922569
209	0xbdb176c3	-0.0866523
210	0xbddd0212	-0.107914105
211	0xbd6710cb	-0.0564125
212	0xbcb44dbe	-0.022009727
213	0xbcdb80a4	-0.026794739
214	0x3abab110	0.0014243443
215	0xbc97234c	-0.018449448
216	0x3d125141	0.03572202
217	0x3d2b9cc5	0.041897554
218	0x3d4b782b	0.049675148
219	0x3d469e96	0.048491083
220	0x3c96995a	0.01838367
221	0x3d1a496a	0.03766767
222	0x3cd52ba6	0.02602179
223	0x3d400319	0.046877954
224	0xbbfdcff5	-0.0077457377
225	0x3da4fd3e	0.080561146
226	0x3de36b8c	0.11104497
227	0x3e506d65	0.2035423
228	0x3d85b2e6	0.06528263
229	0x3dc20480	0.094735146
230	0x3e3c87f3	0.18411236
231	0x3cae2dd0	0.02126208
232	0x3de0872e	0.109632835
233	0x3d1b0eb7	0.03785583
234	0x3db5ac3e	0.08870743
235	0x3e6f6f00	0.23382187
236	0x3e099e63	0.13439326
237	0xbd3d54ff	-0.046223637
238	0x3d92f754	0.0717608
239	0x3d104e9c	0.035231218
240	0xbce72d09	-0.028219717
241	0x3cb4b7bb	0.022060266
242	0xbd1c5950	-0.038171113
243	0x3d6ac716	0.05731877
244	0xbf1352c8	-0.5754819
245	0x3dee3b7f	0.11632442
246	0x3c3fa54f	0.0116971275
247	0x3efd76b6	0.49504632
248	0xbd29945e	-0.04140126
249	0xbd1cf99e	-0.03832399
250	0xbc1ebc8a	-0.009688506
251	0xbc64442c	-0.013932269
252	0xbd0187f9	-0.031623814
253	0xbdaf989a	-0.08574028
254	0xbcdf3f17	-0.027251763
255	0xbd6dba63	-0.05803908

base.1.conv.0.bias f4 [64]
0	0x00000000	0.0
1	0x80000000	-0.0
2	0x00000000	0.0
3	0x3e804eae	0.25060028
4	0xbd55f0a2	-0.05223144
5	0x3f91e400	1.1397705
6	0xbd1f791a	-0.03893385
7	0x3dffdf45	0.12493757
8	0x00000000	0.0
9	0x00000000	0.0
10	0xbc9cc0d3	-0.019134915
11	0x3e769e13	0.24083738
12	0x3d943b41	0.07237864
13	0xbd3a2079	-0.045441125
14	0x00000000	0.0
15	0x80000000	-0.0
16	0x3f8f1303	1.1177677
17	0x3d885a53	0.06657853
18	0xbddaa40e	-0.10675822
19	0xbde8f893	-0.11375537
20	0x80000000	-0.0
21	0xbd56fe89	-0.052488837
22	0x3c4b5657	0.012410722
23	0xbd342b18	-0.04398641
24	0x3da3944c	0.0798727
25	0x3dd52f19	0.10409374
26	0x3e62deb4	0.22155267
27	0x3f8076d7	1.0036267
28	0x3c7d3906	0.01545549
29	0xbcb057fb	-0.021526327
30	0x3f0dba85	0.5536273
31	0xbd8cc600	-0.06873703
32	0x3e1605fd	0.14650722
33	0x00000000	0.0
34	0x3da9a585	0.082835235
35	0xbbc166e8	-0.00590216
36	0xbcc37f82	-0.023864511
37	0x3e800049	0.25000218
38	0x3e06c381	0.13160516
39	0xbe824d91	-0.25449803
40	0xbce8efa8	-0.02843459
41	0xbda10b7d	-0.07863519
42	0x3d82c1e0	0.06384635
43	0x3efbbd64	0.4916793
44	0x3d1e0971	0.038583223
45	0x3d9b9004	0.07595828
46	0x3b826fd1	0.0039806147
47	0x3d95655a	0.07294722
48	0x3ec8f798	0.392514
49	0x3dd104c1	0.10205985
50	0x3d9cea3b	0.076618634
51	0x80000000	-0.0
52	0x3dc6a01c	0.09698507
53	0x3eea452b	0.45755896
54	0xbed584d2	-0.41702896
55	0x00000000	0.0
56	0xbe65b37d	-0.2243175
57	0x00000000	0.0
58	0xbe2ac673	-0.16677265
59	0xbd58f591	-0.052968565
60	0x3cf839d9	0.030301021
61	0xbd7f03ac	-0.06225936
62	0x3e9182f8	0.28420234
63	0xbdeb60cd	-0.11493073

base.1.conv.1.weight f4 [64]
0	0x3df3f843	0.119125865
1	0x3e141fa2	0.14465192
2	0x3dacd30e	0.08438693
3	0x3f013788	0.5047536
4	0x3e86e764	0.26348412
5	0x3f0c699d	0.54848653
6	0x3e2c809d	0.16845937
7	0x3f056925	0.5211356
8	0x3d99a5a5	0.07502297
9	0x3df1bef9	0.11804003
10	0x3e9d616e	0.30738395
11	0x3f2e8c38	0.68182707
12	0x3e3f59e1	0.1868663
13	0x3ea94aa6	0.33064765
14	0x3e02ce52	0.12774017
15	0x3e04aa61	0.1295562
16	0x3ecf7eed	0.40526524
17	0x3f41c571	0.75691897
18	0x3e96454e	0.2934975
19	0x3e851a3a	0.25996572
20	0x3e15475c	0.14578003
21	0x3eb003e5	0.3437797
22	0x3e4af64d	0.19820519
23	0x3e958eee	0.2921061
24	0x3e515d1e	0.20445678
25	0x3ea0fc65	0.31442562
26	0x3ea40d4a	0.3204139
27	0x3ed8804b	0.4228538
28	0x3e75d9e7	0.24008904
29	0x3e819b67	0.25313875
30	0x3f5b9e17	0.857881
31	0x3e6f464a	0.23366657
32	0x3f04d2f2	0.51884377
33	0x3dbdf7f1	0.09275807
34	0x3e806e56	0.2508418
35	0x3e7a23a9	0.24427666
36	0x3e80d7fa	0.25164777
37	0x3e82125e	0.25404638
38	0x3f11e951	0.5699664
39	0x3f058349	0.5215345
40	0x3f01d023	0.50708216
41	0x3e6784f6	0.22609314
42	0x3eb5bb09	0.3549426
43	0x3ea5c74d	0.32378617
44	0x3e8757cb	0.26434168
45	0x3e806585	0.25077453
46	0x3e9bec82	0.3045388
47	0x3e837c33	0.25680694
48	0x3e53966c	0.2066285
49	0x3ef2773e	0.473566
50	0x3f16b16f	0.5886449
51	0x3e0ab62b	0.13546054
52	0x3ea2a67e	0.31767648
53	0x3f23f0fe	0.640396
54	0x3e558308	0.20850766
55	0x3da78bd9	0.08180971
56	0x3f3b2310	0.73100376
57	0x3da4c436	0.08045237
58	0x3ef04a47	0.4693167
59	0x3e7e74f9	0.24849309
60	0x3e85b5f8	0.26115394
61	0x3eaae64b	0.33378825
62	0x3e9f7954	0.31147254
63	0x3ed090f0	0.4073558

base.1.conv.1.bias f4 [64]
0	0x3cb67558	0.02227275
1	0xbbfe5f3f	-0.007762819
2	0x3c0f7bb4	0.0087575205
3	0x3e263f72	0.1623514
4	0xbd3ad19d	-0.04561006
5	0x3eb5c1dd	0.35499468
6	0xbc960315	-0.018312017
7	0x3d6ae68b	0.05734877
8	0x3c9787a8	0.018497303
9	0x3c8b76b2	0.017024372
10	0x3d7ff1fc	0.062486634
11	0x3eca2069	0.39477852
12	0xbac04444	-0.0014668782
13	0xbd724648	-0.059149057
14	0xbb4161db	-0.002950779
15	0xbd0aae39	-0.033857558
16	0x3ec6d6c3	0.38835725
17	0x3d4a2567	0.049352076
18	0xbe3d9dd2	-0.18517235
19	0xbe17a24c	-0.14808005
20	0xbd7d36a4	-0.061819687
21	0xbd6f8e4e	-0.05848532
22	0xbd09fdb9	-0.033689234
23	0xbc26097a	-0.010134095
24	0x3c9dc4f3	0.019258952
25	0x3dc8c553	0.098032616
26	0x3d6a53c9	0.05720881
27	0x3e971254	0.2950617
28	0x3b42b9b2	0.0029712734
29	0xbcc4ccec	-0.024023496
30	0x3f35abdc	0.7096536
31	0xbd9c1659	-0.0762145
32	0x3e99e7cd	0.30059662
33	0x3d782898	0.06058559
34	0x3da65b35	0.08122865
35	0xbce5730b	-0.028008958
36	0x3a843ffe	0.0010089872
37	0x3c5e546c	0.013569932
38	0x3e97bbf3	0.2963558
39	0xbecd75e8	-0.40129018
40	0x3dd36c96	0.103234455
41	0xbd8fbfce	-0.07019006
42	0x3bf1e3c8	0.00738189
43	0x3e0012a4	0.12507111
44	0x3c96846a	0.018373687
45	0x3c7cd73f	0.015432178
46	0xbb2fc500	-0.0026820302
47	0x3db3d213	0.08780303
48	0x3e812a06	0.25227374
49	0x3dfc6db4	0.12325612
50	0x3e1d7356	0.15376028
51	0xbb7c1684	-0.0038465569
52	0x3d7aa25d	0.061189998
53	0x3ea9ca1e	0.33162016
54	0xbe23fb14	-0.16013747
55	0x3ce02625	0.027361939
56	0xbce1cf0d	-0.02756455
57	0x3caf67b0	0.021411747
58	0xbe5e1540	-0.21687794
59	0xbd43140c	-0.04762654
60	0xbc2ee616	-0.010674974
61	0xbd146b64	-0.03623523
62	0x3e9c3154	0.30506384
63	0x3db853fa	0.09000392

base.1.conv.1.running_mean f4 [64]
0	0x3ac1bced	0.0014781036
1	0xba091fac	-0.0005230855
2	0xba97eb06	-0.0011590428
3	0x3e316350	0.17323041
4	0x3babcc20	0.0052428395
5	0x3f8eba07	1.1150521
6	0xbd9121e1	-0.0708654
7	0x3de1c24b	0.110233866
8	0xba02519c	-0.0004971267
9	0xbab3d394	-0.0013719671
10	0xbc21227c	-0.009834882
11	0x3f691186	0.91042364
12	0x3da1d562	0.07902028
13	0xbe2a92b6	-0.16657528
14	0x3a632b98	0.0008665859
15	0x3a040ff6	0.0005037779
16	0x3f8d2a52	1.102854
17	0xbce35382	-0.02774978
18	0xbe6d1791	-0.23153521
19	0xbe52cec9	-0.20586695
20	0x3aea80c1	0.0017891155
21	0xbd90adc9	-0.07064397
22	0x3bc6aa0c	0.0060627516
23	0xbe33f4f8	-0.17573917
24	0x3d5bab7e	0.053630345
25	0x3e5abde1	0.21361496
26	0x3e3fca58	0.18729532
27	0x3f7baf48	0.9831433
28	0xbcea4233	-0.02859602
29	0x3d883e78	0.0665254
30	0x3ffaaba6	1.9583633
31	0xbc3bf1d7	-0.011471233
32	0x3e6590c1	0.224185
33	0x3b1aadf8	0.0023602229
34	0x3db54ca8	0.08852512
35	0xbd1d0ccc	-0.038342282
36	0x3d140ddd	0.036146034
37	0x3e6d8f3b	0.2319917
38	0x3eb89c67	0.36056826
39	0xbf777435	-0.9666169
40	0xbde03c69	-0.10949022
41	0xbe997b03	-0.29976663
42	0x3c19bc8d	0.009383333
43	0x3efe5c90	0.49679995
44	0x3cad88a6	0.021183323
45	0x3dc116bb	0.094281636
46	0xbd7b2941	-0.06131864
47	0x3dd98690	0.10621369
48	0x3ec856a4	0.39128602
49	0x3e02be22	0.12767842
50	0x3eea1a41	0.45723155
51	0xba91ecc6	-0.0011133186
52	0x3e406b79	0.18790998
53	0x3efd2f52	0.49450165
54	0xbed5ce9a	-0.41759187
55	0x3a0a7517	0.000528173
56	0xbf0b5a04	-0.5443423
57	0xba0e407a	-0.0005426478
58	0xbef066e0	-0.46953487
59	0xbd870d5c	-0.06594345
60	0x3d1e4328	0.038638264
61	0xbde1d474	-0.1102685
62	0x3eb4814b	0.35254893
63	0xbe0a43f5	-0.13502486

base.1.conv.1.running_var f4 [64]
0	0x36dc6e09	6.5693207e-06
1	0x346bee8b	2.1972862e-07
2	0x35414516	7.1998636e-07
3	0x3db343cd	0.08753166
4	0x3ca0747a	0.01958679
5	0x3b66a936	0.0035196072
6	0x3aea3a8b	0.001787023
7	0x3f8f62df	1.1202048
8	0x33cf6e81	9.659289e-08
9	0x35b056a7	1.3138241e-06
10	0x3bfd63fc	0.0077328663
11	0x40d7f08b	6.748113
12	0x388f9805	6.847087e-05
13	0x3ed50a71	0.4160953
14	0x361984ef	2.2876154e-06
15	0x35856354	9.93818e-07
16	0x3a8402c6	0.0010071627
17	0x3fee1184	1.8599095
18	0x3d837434	0.06418648
19	0x3bda7663	0.006666945
20	0x37a41f10	1.9564788e-05
21	0x3e002170	0.12512755
22	0x3b9c73e3	0.004774557
23	0x3d186838	0.037208766
24	0x396938ed	0.00022241818
25	0x3e720a91	0.23636843
26	0x3c39cc48	0.011340208
27	0x3a54924c	0.0008108958
28	0x3c1baaee	0.009501202
29	0x3d294562	0.041325934
30	0x411d49b6	9.830496
31	0x3c8bfdd6	0.017088812
32	0x3f0b3b6c	0.54387546
33	0x367c3084	3.7579166e-06
34	0x3cb757d5	0.022380749
35	0x3d2341b2	0.039857574
36	0x3cd9a8e4	0.026569791
37	0x39a0a194	0.00030637963
38	0x3f926d93	1.1439689
39	0x3f8cab15	1.098971
40	0x3ea8a8ed	0.3294138
41	0x3d525d9e	0.05135881
42	0x3e0932a9	0.13398232
43	0x398b58ad	0.00026578215
44	0x3c84c88f	0.016208915
45	0x3b829153	0.003984609
46	0x3cdc6f24	0.026908465
47	0x3d49d102	0.04927159
48	0x3a777b64	0.0009440689
49	0x3e8255ab	0.25455984
50	0x3f92726e	1.1441171
51	0x33d2606b	9.7964254e-08
52	0x3dc89ac7	0.097951464
53	0x3e849dbe	0.25901598
54	0x3b6a8e8d	0.0035790533
55	0x34ece9da	4.4128575e-07
56	0x4010a6ed	2.2601883
57	0x34d4b885	3.9622333e-07
58	0x3ee441cd	0.44581452
59	0x3bfef493	0.0077806204
60	0x39c5817c	0.0003767124
61	0x3dad6a93	0.08467593
62	0x3c73cb9e	0.014880089
63	0x3c052c1c	0.008128192

base.1.conv.3.weight f4 [64, 64, 1, 1]
0	0x80000000	-0.0
1	0x00000000	0.0
2	0x80000000	-0.0
3	0x00000000	0.0
4	0x80000000	-0.0
5	0x00000000	0.0
6	0x80000000	-0.0
7	0x00000000	0.0
8	0x80000000	-0.0
9	0x80000000	-0.0
10	0x80000000	-0.0
11	0x80000000	-0.0
12	0x80000000	-0.0
13	0x80000000	-0.0
14	0x80000000	-0.0
15	0x00000000	0.0
16	0x80000000	-0.0
17	0x00000000	0.0
18	0x80000000	-0.0
19	0x00000000	0.0
20	0x00000000	0.0
21	0x80000000	-0.0
22	0x00000000	0.0
23	0x80000000	-0.0
24	0x80000000	-0.0
25	0x80000000	-0.0
26	0x80000000	-0.0
27	0x00000000	0.0
28	0x00000000	0.0
29	0x80000000	-0.0
30	0x00000000	0.0
31	0x80000000	-0.0
32	0x80000000	-0.0
33	0x80000000	-0.0
34	0x80000000	-0.0
35	0x00000000	0.0
36	0x80000000	-0.0
37	0x80000000	-0.0
38	0x80000000	-0.0
39	0x00000000	0.0
40	0x00000000	0.0
41	0x80000000	-0.0
42	0x80000000	-0.0
43	0x80000000	-0.0
44	0x80000000	-0.0
45	0x80000000	-0.0
46	0x80000000	-0.0
47	0x80000000	-0.0
48	0x80000000	-0.0
49	0x80000000	-0.0
50	0x00000000	0.0
51	0x00000000	0.0
52	0x80000000	-0.0
53	0x80000000	-0.0
54	0x00000000	0.0
55	0x80000000	-0.0
56	0x80000000	-0.0
57	0x80000000	-0.0
58	0x80000000	-0.0
59	0x00000000	0.0
60	0x00000000	0.0
61	0x80000000	-0.0
62	0x80000000	-0.0
63	0x00000000	0.0
64	0x80000000	-0.0
65	0x80000000	-0.0
66	0x80000000	-0.0
67	0x80000000	-0.0
68	0x00000000	0.0
69	0x80000000	-0.0
70	0x00000000	0.0
71	0x00000000	0.0
72	0x00000000	0.0
73	0x80000000	-0.0
74	0x00000000	0.0
75	0x80000000	-0.0
76	0x80000000	-0.0
77	0x80000000	-0.0
78	0x00000000	0.0
79	0x00000000	0.0
80	0x80000000	-0.0
81	0x00000000	0.0
82	0x00000000	0.0
83	0x00000000	0.0
84	0x00000000	0.0
85	0x80000000	-0.0
86	0x00000000	0.0
87	0x80000000	-0.0
88	0x80000000	-0.0
89	0x00000000	0.0
90	0x80000000	-0.0
91	0x80000000	-0.0
92	0x00000000	0.0
93	0x00000000	0.0
94	0x80000000	-0.0
95	0x80000000	-0.0
96	0x00000000	0.0
97	0x00000000	0.0
98	0x00000000	0.0
99	0x80000000	-0.0
100	0x00000000	0.0
101	0x80000000	-0.0
102	0x00000000	0.0
103	0x80000000	-0.0
104	0x00000000	0.0
105	0x80000000	-0.0
106	0x00000000	0.0
107	0x80000000	-0.0
108	0x00000000	0.0
109	0x80000000	-0.0
110	0x80000000	-0.0
111	0x00000000	0.0
112	0x00000000	0.0
113	0x80000000	-0.0
114	0x00000000	0.0
115	0x80000000	-0.0
116	0x00000000	0.0
117	0x80000000	-0.0
118	0x80000000	-0.0
119	0x00000000	0.0
120	0x00000000	0.0
121	0x00000000	0.0
122	0x80000000	-0.0
123	0x00000000	0.0
124	0x00000000	0.0
125	0x00000000	0.0
126	0x00000000	0.0
127	0x00000000	0.0
128	0xbc2c1b13	-0.010504502
129	0x3cb10afc	0.021611683
130	0x3c9453d0	0.018106371
131	0xbda68886	-0.081315085
132	0x3c7a3aac	0.0152727775
133	0x3d669cd3	0.056301903
134	0xbcc761ba	-0.024338592
135	0xbbe95ca0	-0.0071216375
136	0xbc6ef55f	-0.014584868
137	0xbba580e6	-0.0050507663
138	0xbcba3420	-0.022729933
139	0xbd65ae85	-0.056074638
140	0xbc2c81e8	-0.010529019
141	0xbda8bdae	-0.082393035
142	0xbd1a3473	-0.037647676
143	0x3c8a3220	0.016869605
144	0x3dcb3c58	0.09923619
145	0xbcf0ee36	-0.029410463
146	0xbc8b8c28	-0.017034605
147	0xbc9c9d92	-0.019118104
148	0xb8fa2227	-0.0001192729
149	0xbd86fa15	-0.06590668
150	0xbb92a531	-0.0044752588
151	0x3c66071b	0.01403978
152	0xbc7ab419	-0.015301728
153	0xbcaecf1a	-0.021338988
154	0xbd4ce6b6	-0.05002471
155	0xbda54e67	-0.08071595
156	0x3ca79c2d	0.020460213
157	0x3d375b32	0.044764705
158	0x3cee7ec9	0.02911319
159	0xbd5f62d3	-0.054537605
160	0xbdcdfee0	-0.10058379
161	0xbd1f3332	-0.038867183
162	0xbc8dba47	-0.017300738
163	0xbc551de7	-0.013007618
164	0xbd06c1b0	-0.03289956
165	0xbc46dbcb	-0.012137364
166	0xbdc06851	-0.09394897
167	0x3ce77fb4	0.028259136
168	0xbe02cc38	-0.12773216
169	0xbda07c98	-0.07836264
170	0xbcc81a91	-0.02442673
171	0xbd585860	-0.052818656
172	0xbd9641de	-0.07336782
173	0x3c9ac41c	0.01889234
174	0x3cd24499	0.025667476
175	0xbd1fe744	-0.03903891
176	0xbdd32fc6	-0.103118464
177	0xbddaae71	-0.10677803
178	0xbd0b2bc0	-0.03397727
179	0x3ca339af	0.019924967
180	0xbc3f597f	-0.011679052
181	0x3bab0d13	0.0052200644
182	0x3c105acb	0.008810709
183	0xbca8881f	-0.02057272
184	0x3cabf33a	0.020990003
185	0xbd145261	-0.036211375
186	0x3d858906	0.06520276
187	0x3cf33d0f	0.029692201
188	0x3bec7587	0.007216159
189	0xbc9eec22	-0.019399706
190	0xbd28773f	-0.041129347
191	0xbd728931	-0.059212867
192	0xbb81febc	-0.0039671343
193	0xbd264646	-0.04059436
194	0x3c928245	0.017884383
195	0xbd1619cf	-0.036645707
196	0xbe05c2ed	-0.1306264
197	0xbd5d71fe	-0.05406379
198	0xbcd0c184	-0.0254829
199	0xbd217196	-0.039414965
200	0x3dbd54b0	0.092446685
201	0xbc629a18	-0.013830684
202	0xbd39550d	-0.045247126
203	0xbe5d9b1b	-0.216412
204	0xbd83acb8	-0.06429428
205	0xbe08b973	-0.13351993
206	0xbbae0175	-0.0053102323
207	0x3c911083	0.017708069
208	0x3d6bd88a	0.057579555
209	0x3c617d00	0.0137627125
210	0xbe5f8b07	-0.21830378
211	0xbe5d4dea	-0.21611753
212	0xbd35b65d	-0.04436337
213	0xbe35aafe	-0.1774101
214	0x3d1a50a4	0.03767456
215	0xbdcd1553	-0.10013833
216	0x3c35ed31	0.011103914
217	0xbda488c4	-0.080338985
218	0xbd133a5d	-0.03594433
219	0xbe2ab1a8	-0.16669333
220	0xbd8cdcfc	-0.06878087
221	0xbcaa934d	-0.020822192
222	0xbe581d54	-0.21104938
223	0xbe08c4e6	-0.13356361
224	0xbe977ae0	-0.29585934
225	0x3d1b5d8f	0.03793102
226	0xbdb7a986	-0.08967881
227	0xbd0cc90e	-0.03437143
228	0xbdda7646	-0.1066709
229	0xbde247ca	-0.11048849
230	0xbe9d97e5	-0.3077995
231	0xbed5cae8	-0.41756368
232	0xbcf77315	-0.030206243
233	0xbe0a2196	-0.13489375
234	0xbdec545e	-0.11539529
235	0xbe44bb05	-0.19211967
236	0x3d82411e	0.06360076
237	0xbd597e8e	-0.053099208
238	0xbdd1be22	-0.10241343
239	0x3cc02d0c	0.02345898
240	0x3dbe0ec9	0.09280164
241	0x3e1e8c6a	0.15483251
242	0xbe31604c	-0.1732189
243	0xbca71004	-0.020393379
244	0xbdf98623	-0.12183788
245	0xbd29e437	-0.04147741
246	0xbd828e40	-0.06374788
247	0x3c86c048	0.016449109
248	0xbe2e919f	-0.17047738
249	0x3cd59cba	0.02607571
250	0xbe89ae32	-0.26890713
251	0xbe0abd0c	-0.13548678
252	0xbe1bdb14	-0.1522029
253	0xbd93cd63	-0.07216909
254	0xbe2d61b0	-0.16931796
255	0xbd1c91a5	-0.038224835

base.1.conv.4.weight f4 [64]
0	0x2230a79d	2.3941182e-18
1	0xb3a02dce	-7.4589124e-08
2	0x3e751d72	0.23937014
3	0x3f63afa4	0.8893988
4	0x3e28ed2d	0.16496725
5	0x3eafc20b	0.3432773
6	0x3a57c863	0.0008231459
7	0x3f4a3dff	0.7900085
8	0x3f1e1646	0.61752737
9	0x3ec1a96b	0.37824568
10	0x3eafa531	0.3430572
11	0x3f0fd175	0.5617898
12	0x3eda869d	0.42680827
13	0x3f271a21	0.65274245
14	0x3ebfd06e	0.37463707
15	0x3f0f3b29	0.55949646
16	0x3ef006dd	0.46880236
17	0x3f213fab	0.62987775
18	0x3ed1c7cf	0.40972754
19	0x3ee21ff1	0.44164994
20	0x3b1356a6	0.0022482066
21	0x3e834552	0.25638825
22	0x3ea2db16	0.31807774
23	0x3f126373	0.57183
24	0x3e7208eb	0.23636214
25	0x3eeb025a	0.45900232
26	0x3ec23b04	0.3793565
27	0x3ed07fd7	0.40722534
28	0x3ed51687	0.4161875
29	0x3ec8a7e9	0.39190605
30	0x3ec609cf	0.38679358
31	0x3f3b30ed	0.7312153
32	0x3ef2dfcf	0.47436377
33	0x3ec6b344	0.38808644
34	0x3e94d152	0.2906595
35	0x23369e32	9.899739e-18
36	0x3ea283c8	0.31741166
37	0xa90406ab	-2.931567e-14
38	0x3f0b915a	0.54518664
39	0x3ef7c5bf	0.48393056
40	0x3f434b26	0.7628654
41	0x3f1181f4	0.5683892
42	0x3ede338e	0.43398708
43	0x3f0db746	0.5535778
44	0x3e6336ea	0.22188917
45	0x3f2555b2	0.64583886
46	0x3e8e1ae3	0.27754888
47	0x3e88f99d	0.2675294
48	0x3f0d4bdc	0.5519388
49	0x3f131449	0.5745283
50	0x3f13f6c2	0.577984
51	0x3ea162db	0.31520733
52	0xb7fe3605	-3.0304314e-05
53	0x3def0b05	0.11672024
54	0x3eaf23f4	0.34207118
55	0x3e3212a7	0.17389928
56	0x3eddb79b	0.43304142
57	0x3ea4c68f	0.32182738
58	0x3d43a1b0	0.04776162
59	0x3e677124	0.22601753
60	0x2fb734fd	3.3325157e-10
61	0x3d34e665	0.044165034
62	0x3ec47d7b	0.38376984
63	0x3f014b55	0.5050557

base.1.conv.4.bias f4 [64]
0	0x3dc4cd33	0.09609451
1	0xbc2b35de	-0.010449855
2	0xbe0fb212	-0.14032772
3	0x3eb8a975	0.36066785
4	0xbe08d42e	-0.1336219
5	0xbd4264a2	-0.047459252
6	0xbd965343	-0.073401
7	0xbd3da2e6	-0.04629793
8	0xbdadc177	-0.08484166
9	0xbe204907	-0.15652858
10	0xbd2f6712	-0.042822905
11	0xbd7693f9	-0.06019971
12	0x3dc00cc1	0.093774326
13	0xbc98b2b7	-0.018639905
14	0x3d8c2cf6	0.06844513
15	0xbd0ea015	-0.034820635
16	0x3d63f31a	0.05565176
17	0xbd06f14b	-0.03294496
18	0x3cd24bd3	0.025670921
19	0x3d081a72	0.033228345
20	0x3d9a8e63	0.07546689
21	0x3cc78eea	0.024360139
22	0x3d8c3d3e	0.068476185
23	0x3e705228	0.2346884
24	0xbdbc02d2	-0.091802254
25	0x3da23991	0.07921136
26	0xbd579856	-0.052635513
27	0x3d441d87	0.047879722
28	0x3dd22a2d	0.10261951
29	0x3defd43a	0.11710401
30	0xbd3a6491	-0.045506064
31	0x3e3c83b8	0.18409622
32	0x3dab8b30	0.08376157
33	0xbdd94c63	-0.10610273
34	0x3d1ed109	0.03877357
35	0x3db091bb	0.08621546
36	0xbdb72c4b	-0.08943995
37	0xbd925c8a	-0.07146557
38	0xbccf77c5	-0.025325665
39	0xbd6acab1	-0.057322208
40	0x3b9fd0eb	0.0048772
41	0xbe7476c3	-0.23873429
42	0x3c2fa331	0.01072006
43	0xbd069a3f	-0.032861944
44	0x3d90170e	0.07035647
45	0xbdebcaee	-0.11513315
46	0x3d9346e7	0.07191258
47	0x3d3a01b8	0.045411795
48	0xbd741476	-0.059589826
49	0x3dc40109	0.0957051
50	0xbd88c566	-0.06678276
51	0xbe014861	-0.12625267
52	0xbd4cc0f1	-0.04998869
53	0x3d522d14	0.05131252
54	0xbd45b21d	-0.048265565
55	0x3c27282c	0.010202449
56	0xbdceffd5	-0.1010739
57	0x3d8d1068	0.06887895
58	0xbd92751a	-0.071512416
59	0x3d330469	0.043705378
60	0xbd24f06c	-0.040268347
61	0xbd0e328a	-0.034716167
62	0xbd593958	-0.053033203
63	0xbe476bb9	-0.19474687

base.1.conv.4.running_mean f4 [64]
0	0x237ea659	1.3804593e-17
1	0xb72df016	-1.0367503e-05
2	0xbe403ddf	-0.18773602
3	0xbf02e3d4	-0.5112889
4	0xbd655c1e	-0.055996053
5	0xbe7025af	-0.23451875
6	0xba3e1fe1	-0.0007252675
7	0xbeb7840d	-0.35842934
8	0x3ea059e5	0.31318584
9	0xbddb95f0	-0.10721958
10	0x3c8efc4c	0.017454289
11	0x3ed81580	0.42203903
12	0x3ed8cb8c	0.42342794
13	0xbe90c7c4	-0.2827741
14	0x3c12f3c3	0.00896925
15	0x3eea856f	0.45804927
16	0xbe1cb091	-0.1530173
17	0x3e818bec	0.25302064
18	0x3e3218e3	0.17392306
19	0x3e0818f4	0.13290769
20	0xb9c0ba04	-0.00036759686
21	0xbdfa9f3c	-0.12237403
22	0x3cdb81a2	0.026795212
23	0xbe0f378a	-0.1398603
24	0x3e293761	0.16525032
25	0x3e5c1872	0.214937
26	0x3c9cb821	0.019130768
27	0x3d2802d9	0.04101834
28	0xbd4e09e0	-0.050302386
29	0x3e9eec79	0.3103979
30	0xbe0df3ee	-0.13862583
31	0x3ea01b5e	0.3127088
32	0x3e8605c9	0.2617629
33	0xbdf01c72	-0.117241755
34	0x3df0115b	0.1172206
35	0x249c0f6a	6.768033e-17
36	0xbe229cfc	-0.15880197
37	0x2ad649db	3.8065284e-13
38	0xbe015762	-0.1263099
39	0xbe8383ce	-0.25686496
40	0xbf1cea8b	-0.61295384
41	0xbf0207e4	-0.5079329
42	0xbd8ab0d4	-0.067720085
43	0xbe162b48	-0.14664948
44	0xbdc00ff7	-0.09378045
45	0xbe1b22f3	-0.15150051
46	0xbc005eb8	-0.007835083
47	0xbe18e375	-0.14930518
48	0xbe50a954	-0.20377094
49	0x3e8564fa	0.26053602
50	0x3e31ab7e	0.17350575
51	0xbca43963	-0.020046895
52	0x3a9eeaf6	0.0012124467
53	0x3b946292	0.004528352
54	0xbeab66f3	-0.33476982
55	0xbc9bd1e4	-0.019020982
56	0xbe8f2e03	-0.27964792
57	0x3da74d4c	0.0816904
58	0x3b6723b5	0.0035269086
59	0xba986696	-0.0011627253
60	0x304e3f9f	7.5032774e-10
61	0x3b5a753d	0.003333404
62	0x3dffa778	0.12483114
63	0xbec55a19	-0.38545302

base.1.conv.4.running_var f4 [64]
0	0x0b4e6e9a	3.9757364e-32
1	0x2fe81469	4.2215056e-10
2	0x3c585217	0.0132031655
3	0x3e02bdff	0.1276779
4	0x3ba9708c	0.0051708873
5	0x3d020179	0.031739686
6	0x378e479e	1.6961068e-05
7	0x3ea5db71	0.32393983
8	0x3dd20864	0.10255507
9	0x3c178aba	0.009249384
10	0x3db1557e	0.086588845
11	0x3e3b5039	0.18292321
12	0x3cb813d4	0.022470392
13	0x3e0825bb	0.13295643
14	0x3ba7c545	0.005119952
15	0x3d380f4b	0.04493646
16	0x3da22c4e	0.07918607
17	0x3df25b8d	0.11833868
18	0x3dbedfbc	0.09320018
19	0x3e89c10c	0.26905096
20	0x379cd2eb	1.8694866e-05
21	0x3cd2861d	0.025698716
22	0x3cf5209d	0.029922778
23	0x3cc75ea3	0.024337118
24	0x3cf4ccbe	0.029882785
25	0x3e0ce2fb	0.13758461
26	0x3cd05397	0.025430484
27	0x3d5dd3e4	0.054157153
28	0x3d6305c7	0.05542543
29	0x3cb35181	0.02188945
30	0x3daec884	0.08534339
31	0x3f2b7297	0.66971725
32	0x3dc52b3d	0.09627388
33	0x3ca2e89e	0.019886311
34	0x3df92a4c	0.121662706
35	0x0c281577	1.2948709e-31
36	0x3c9ea684	0.01936651
37	0x1895ff37	3.87733e-24
38	0x3d2767fa	0.040870644
39	0x3d48e21c	0.04904376
40	0x3ee17c31	0.44040063
41	0x3e3a8512	0.18214825
42	0x3e31f960	0.17380285
43	0x3e5c85d2	0.21535423
44	0x3d6e5798	0.058189005
45	0x3e2ada54	0.16684848
46	0x3d978f20	0.07400346
47	0x3b910f54	0.004426876
48	0x3dc19e7c	0.094540566
49	0x3dcdeed8	0.100553215
50	0x3ec258ca	0.37958366
51	0x3b6442f9	0.0034829958
52	0x35ed3513	1.7673323e-06
53	0x3aac38e3	0.0013139512
54	0x3c85ab12	0.016316924
55	0x3c0f6ef4	0.008754481
56	0x3cab5bc2	0.020917777
57	0x3ce950d8	0.028480932
58	0x39a84482	0.000320945
59	0x3aceb0f1	0.0015769285
60	0x2400cb72	2.79279e-17
61	0x39982312	0.0002901783
62	0x3e13b387	0.14423953
63	0x3d3f3aa6	0.04668679

base.2.conv.0.weight f4 [128, 64, 1, 1]
0	0xbe035c94	-0.12828285
1	0xbe64e5f5	-0.22353347
2	0xbe321281	-0.17389871
3	0x3d135804	0.03597261
4	0x3d277533	0.040883254
5	0xbc279ab5	-0.010229756
6	0xbd733581	-0.059377197
7	0x3ddd3643	0.10801365
8	0x3d944d3c	0.07241294
9	0xbdbafecc	-0.0913063
10	0xbd669eeb	-0.0563039
11	0xbda1ff79	-0.07910056
12	0xbd49453c	-0.049138293
13	0x3bd66cf0	0.006543748
14	0x3c44a49a	0.012002135
15	0xbc67d053	-0.014148789
16	0xbcd558e9	-0.026043372
17	0xbe4f0a0a	-0.20218673
18	0x3d5163c4	0.051120535
19	0x3de70e42	0.11282016
20	0xbd41a81d	-0.047279466
21	0xbc9f9caa	-0.019483883
22	0x3dce8d01	0.10085488
23	0x3d09ea17	0.03367051
24	0xbdee7016	-0.116424724
25	0xbd137bd4	-0.036006764
26	0xbcde9ae4	-0.027173467
27	0xbdd734ed	-0.10508142
28	0xbd540db5	-0.051770885
29	0xbb9f7cc1	-0.0048671667
30	0x3de7e759	0.11323423
31	0x3d9a898f	0.075457685
32	0x3e190b98	0.14945829
33	0x3d49dcef	0.049282964
34	0x3c0b8165	0.008514737
35	0xbdaabae7	-0.0833643
36	0xbd29231d	-0.041293252
37	0xbd475ce5	-0.048672576
38	0xbd91ca26	-0.07118635
39	0x3de49b14	0.11162391
40	0xbd386da4	-0.045026436
41	0xbd3df84d	-0.046379376
42	0xbc22d8bc	-0.009939369
43	0x3bdc0179	0.0067140427
44	0x3d50487f	0.050850388
45	0xbe14cb4b	-0.14530675
46	0xbdae2d0a	-0.08504684
47	0x3c39bd86	0.01133669
48	0x3c49b023	0.012310061
49	0xbd61be6e	-0.05511325
50	0xbcb343a5	-0.021882841
51	0xbd6bc107	-0.057557132
52	0x3dbce4dd	0.0922334
53	0xbe1ce874	-0.15323049
54	0x3d24c3b7	0.04022571
55	0x3e888468	0.26663518
56	0xbe169800	-0.14706421
57	0xbda70111	-0.081545
58	0xbdae81d7	-0.08520859
59	0x3d66faa6	0.05639138
60	0x3d6fd38a	0.05855135
61	0xbd8950e6	-0.06704883
62	0x3d898b8d	0.0671607
63	0x3d941697	0.07230871
64	0x80000000	-0.0
65	0x80000000	-0.0
66	0x80000000	-0.0
67	0x80000000	-0.0
68	0x00000000	0.0
69	0x80000000	-0.0
70	0x00000000	0.0
71	0x80000000	-0.0
72	0x00000000	0.0
73	0x80000000	-0.0
74	0x80000000	-0.0
75	0x80000000	-0.0
76	0x00000000	0.0
77	0x00000000	0.0
78	0x80000000	-0.0
79	0x00000000	0.0
80	0x00000000	0.0
81	0x00000000	0.0
82	0x00000000	0.0
83	0x00000000	0.0
84	0x00000000	0.0
85	0x00000000	0.0
86	0x00000000	0.0
87	0x80000000	-0.0
88	0x80000000	-0.0
89	0x00000000	0.0
90	0x00000000	0.0
91	0x80000000	-0.0
92	0x80000000	-0.0
93	0x80000000	-0.0
94	0x80000000	-0.0
95	0x00000000	0.0
96	0x00000000	0.0
97	0x80000000	-0.0
98	0x80000000	-0.0
99	0x00000000	0.0
100	0x80000000	-0.0
101	0x80000000	-0.0
102	0x00000000	0.0
103	0x00000000	0.0
104	0x80000000	-0.0
105	0x00000000	0.0
106	0x00000000	0.0
107	0x00000000	0.0
108	0x80000000	-0.0
109	0x80000000	-0.0
110	0x80000000	-0.0
111	0x00000000	0.0
112	0x80000000	-0.0
113	0x80000000	-0.0
114	0x80000000	-0.0
115	0x80000000	-0.0
116	0x00000000	0.0
117	0x80000000	-0.0
118	0x00000000	0.0
119	0x00000000	0.0
120	0x80000000	-0.0
121	0x80000000	-0.0
122	0x00000000	0.0
123	0x00000000	0.0
124	0x00000000	0.0
125	0x80000000	-0.0
126	0x00000000	0.0
127	0x80000000	-0.0
128	0x3d097ae1	0.033564452
129	0xbde2b2e8	-0.1106928
130	0x3c6675bd	0.014066157
131	0xbd87d10c	-0.066316694
132	0x3e5678f4	0.20944577
133	0xbdd83e07	-0.10558706
134	0xbcf495b1	-0.029856535
135	0xbcc5c025	-0.024139473
136	0x3d6bc5fc	0.05756186
137	0x3e5f76dc	0.21822685
138	0x3e15309f	0.14569329
139	0xbd1c4cdf	-0.038159247
140	0x3dca77ec	0.098861545
141	0x3ce2fb4d	0.02770772
142	0xbe0d8426	-0.13819942
143	0x3d55e6a6	0.052221917
144	0xbdf9594d	-0.12175236
145	0x3e25a598	0.1617645
146	0x3c8601c1	0.016358258
147	0xbd394633	-0.045232963
148	0xbe9bde63	-0.30443105
149	0xbd84e6ba	-0.0648932
150	0x3d8ebe83	0.06969931
151	0x3decb026	0.11557035
152	0xbe65bad4	-0.2243455
153	0x3dd2a125	0.10284642
154	0xbdb99c71	-0.09063042
155	0xbe0a18ad	-0.13485976
156	0xbc889f85	-0.016677627
157	0xbdbe6d34	-0.092981726
158	0xbe2b46f8	-0.16726291
159	0x3def9b9b	0.11699601
160	0x3d40aa79	0.047037575
161	0x3e41a41b	0.18910258
162	0xbd9db6ac	-0.077008575
163	0xbc7f6f3b	-0.015590484
164	0xbdac8320	-0.084234476
165	0x3e9a8207	0.30177328
166	0xbe386827	-0.18008481
167	0xbdd55390	-0.10416329
168	0xba29998f	-0.00064697204
169	0xbd17ac3c	-0.03702949
170	0x3d283a41	0.04107118
171	0x3b11cefc	0.0022248616
172	0xbcc4cdf2	-0.024023984
173	0x3e13345e	0.14375445
174	0x3d016231	0.031587783
175	0x3d687a3f	0.056757208
176	0xbe024860	-0.12722921
177	0x3db0ed87	0.08639055
178	0xbc6f33da	-0.014599765
179	0x3d50350a	0.050831832
180	0xbd15bc60	-0.0365566
181	0x3e3a7875	0.18210013
182	0x3e493823	0.1965032
183	0xbcec53b8	-0.028848514
184	0xbe4f1783	-0.20223813
185	0xbd097381	-0.03355742
186	0xbac1c5a4	-0.0014783633
187	0xbdbd7bdd	-0.09252141
188	0x3e25c9b7	0.1619023
189	0xbd33c2c6	-0.043886922
190	0x3cd7ea23	0.026356762
191	0xbdcee799	-0.101027675
192	0x80000000	-0.0
193	0x80000000	-0.0
194	0x80000000	-0.0
195	0x80000000	-0.0
196	0x00000000	0.0
197	0x00000000	0.0
198	0x80000000	-0.0
199	0x80000000	-0.0
200	0x00000000	0.0
201	0x80000000	-0.0
202	0x80000000	-0.0
203	0x80000000	-0.0
204	0x00000000	0.0
205	0x80000000	-0.0
206	0x00000000	0.0
207	0x80000000	-0.0
208	0x80000000	-0.0
209	0x80000000	-0.0
210	0x80000000	-0.0
211	0x80000000	-0.0
212	0x00000000	0.0
213	0x80000000	-0.0
214	0x80000000	-0.0
215	0x80000000	-0.0
216	0x80000000	-0.0
217	0x00000000	0.0
218	0x00000000	0.0
219	0x00000000	0.0
220	0x00000000	0.0
221	0x00000000	0.0
222	0x00000000	0.0
223	0x00000000	0.0
224	0x00000000	0.0
225	0x80000000	-0.0
226	0x00000000	0.0
227	0x00000000	0.0
228	0x00000000	0.0
229	0x80000000	-0.0
230	0x80000000	-0.0
231	0x80000000	-0.0
232	0x00000000	0.0
233	0x80000000	-0.0
234	0x00000000	0.0
235	0x00000000	0.0
236	0x00000000	0.0
237	0x00000000	0.0
238	0x80000000	-0.0
239	0x00000000	0.0
240	0x00000000	0.0
241	0x80000000	-0.0
242	0x80000000	-0.0
243	0x00000000	0.0
244	0x00000000	0.0
245	0x80000000	-0.0
246	0x80000000	-0.0
247	0x00000000	0.0
248	0x00000000	0.0
249	0x80000000	-0.0
250	0x00000000	0.0
251	0x00000000	0.0
252	0x80000000	-0.0
253	0x00000000	0.0
254	0x80000000	-0.0
255	0x80000000	-0.0

base.2.conv.1.weight f4 [128]
0	0x3f26f4d2	0.65217316
1	0x3e6eca82	0.23319438
2	0x3f4de401	0.8042603
3	0x3e56ae93	0.20965032
4	0x3f0ab065	0.54175407
5	0x3e2b4f72	0.16729525
6	0x3f18e14f	0.59718794
7	0x3e481262	0.19538262
8	0x3f498965	0.7872527
9	0x3e602f71	0.21893097
10	0x3e568052	0.20947388
11	0x3f293acc	0.6610534
12	0x3f207712	0.62681687
13	0x3f8a17eb	1.0788549
14	0x3e71de9e	0.23620078
15	0x3ead1fba	0.33813268
16	0x3f1776b7	0.5916552
17	0x3f15cc9c	0.58515334
18	0x3ee195d0	0.4405961
19	0x3e4078ff	0.18796156
20	0x3f3b2c03	0.7311403
21	0x3eb86119	0.3601158
22	0x3ee8d00d	0.4547123
23	0x3e62d7a4	0.22152573
24	0x3f303e86	0.68845403
25	0x3e3538b0	0.17697406
26	0x3f8e4942	1.1116107
27	0x3f4142e2	0.7549268
28	0x3f0eb2f2	0.557418
29	0x3eca709f	0.39539048
30	0x3ee51b6d	0.44747487
31	0x3f3a3024	0.72729707
32	0x3f1cc674	0.61240315
33	0x3f556167	0.8335175
34	0x3f0866cb	0.5328185
35	0x3f3e4bed	0.74334604
36	0x3f0f1346	0.55888784
37	0x3e4ab0a8	0.19793952
38	0x3e5774b5	0.21040614
39	0x3f29ed25	0.6637748
40	0x3f814981	1.0100557
41	0x3f4ea99e	0.80727565
42	0x3f847e4c	1.0351043
43	0x3f4364b4	0.76325536
44	0x3f5396d4	0.8265202
45	0x3f2b31b2	0.66872704
46	0x3f9e6f9c	1.237781
47	0x3f211e8f	0.62937254
48	0x3e824e82	0.25450522
49	0x3e907cf0	0.2822032
50	0x3e504620	0.2033925
51	0x3e517ecd	0.20458527
52	0x3ecba2b3	0.39772567
53	0x3f16c4ff	0.5889434
54	0x3f7f85fd	0.99813825
55	0x3f01800b	0.50586003
56	0x3f350edd	0.70725805
57	0x3efd8879	0.49518183
58	0x3ed84b28	0.4224484
59	0x3f691bed	0.91058236
60	0x3f67ecdf	0.9059581
61	0x3f3462f2	0.7046348
62	0x3f4bca58	0.7960563
63	0x3ed7e781	0.4216881
64	0x3f2cd87d	0.67517835
65	0x3e43e379	0.19129743
66	0x3f2a35f3	0.6648857
67	0x3e8af4ab	0.27139792
68	0x3f088b7a	0.53337824
69	0x3f4de064	0.8042052
70	0x3f1291d2	0.57253754
71	0x3f01ca2f	0.5069913
72	0x3f226511	0.63435465
73	0x3f386111	0.7202311
74	0x3e7c62be	0.24647042
75	0x3f1b2eb6	0.6061815
76	0x3f064f80	0.5246506
77	0x3e480137	0.19531713
78	0x3e625943	0.22104363
79	0x3f633f1f	0.8876819
80	0x3f5e5f7a	0.86864436
81	0x3e8b05af	0.27152774
82	0x3eb0d0ee	0.345344
83	0x3f832a23	1.0247234
84	0x3e18d7b6	0.14926037
85	0x3f68540a	0.90753233
86	0x3f623785	0.88365966
87	0x3f27fa2f	0.65616125
88	0x3f081171	0.53151613
89	0x3e29f40e	0.16597006
90	0x3f3d03d6	0.7383398
91	0x3ef42e36	0.47691506
92	0x3f901194	1.1255364
93	0x3e61859f	0.22023629
94	0x3ebc7f3f	0.3681583
95	0x3eb72464	0.3576995
96	0x3f65710c	0.8962562
97	0x3f1b90d1	0.6076785
98	0x3ede0bde	0.4336843
99	0x3f12c78a	0.5733572
100	0x3f73b682	0.9520036
101	0x3f483cc6	0.7821773
102	0x3e649f98	0.22326505
103	0x3f577f10	0.84178257
104	0x3e998c7a	0.29989988
105	0x3f19c86d	0.6007145
106	0x3f48ac02	0.78387463
107	0x3f81a88d	1.0129563
108	0x3f3216a2	0.69565785
109	0x3f60dcc7	0.8783688
110	0x3eff5f80	0.49877548
111	0x3e691cf9	0.22764958
112	0x3f2f7703	0.6854097
113	0x3efe5908	0.496773
114	0x3efe4230	0.49659872
115	0x3f03ffbc	0.51562095
116	0x3ea085b5	0.3135201
117	0x3edd1685	0.43181244
118	0x3f28683b	0.65784043
119	0x3f35fd63	0.7108976
120	0x3f020d61	0.50801665
121	0x3ec5320e	0.3851475
122	0x3f2aaf4b	0.66673726
123	0x3f2e13f4	0.67999196
124	0x3e307963	0.17233805
125	0x3f6ca6e0	0.9244213
126	0x3e4823d0	0.19544911
127	0x3e326a24	0.17423302
