EResFD-main/weights/ERES.pth (torch, 522548 bytes, 400 tensors)

base.conv1.0.weight f4 [8, 3, 5, 5]
000000 74 25 29 be 1d 73 a5 3d 7a 71 f7 3c 45 ca cd bd
       -0.16518193 0.08078597 0.030205477 -0.100483455
000010 81 91 8a bd b1 96 a8 bd 6c ab 03 3e 40 4d 2e 3e
       -0.06766034 -0.08231867 0.12858361 0.17021656
000020 3d 3f f3 3d da 29 d8 3d 14 e5 ff bd 97 b1 28 bd
       0.11877296 0.105548576 -0.12494865 -0.041184988
000030 82 ec 99 3d b1 1f c6 3d 40 59 f1 3c f6 7f 0c be
       0.075158134 0.096740134 0.029461503 -0.13720688
000040 2b 49 06 be bc 3d 7b bb 86 10 30 3d 75 ef 43 bd
       -0.13113849 -0.0038336357 0.042984508 -0.047835786
000050 34 96 af 3c 80 98 49 3d af 1d 2c 3e a9 70 57 3e
       0.021433927 0.0492177 0.16808198 0.2103907
000060 ba 21 f0 3d 68 21 52 be a5 e7 5f 3c ea cd 86 bd
       0.11725183 -0.20520556 0.013666068 -0.06582244
000070 e1 d6 60 be 26 84 50 be 8a 41 e3 bd d5 40 32 3d
       -0.2195697 -0.2036291 -0.11096485 0.04351886
000080 15 34 49 3d d6 12 3f bd b3 ed ac bd 72 4a 1b be
       0.049121935 -0.046648823 -0.08443775 -0.15165117
000090 3c b1 1d be e0 9f b6 bd 9e b0 f8 bd bb b5 55 be
       -0.15399641 -0.089172125 -0.12143062 -0.20870106
0000a0 83 17 22 be 65 70 7f be be 49 45 be ff ab 51 be
       -0.15829282 -0.24945219 -0.19266412 -0.20475768
0000b0 2c 45 99 be 5f 4f e6 bc 44 32 bc bd 62 dc 2c bd
       -0.29935586 -0.028114019 -0.09189275 -0.04220236
0000c0 24 2b 25 bd 27 6e 0a be ec ab cf 3d dd 51 a1 3e
       -0.040324345 -0.13518582 0.10140213 0.3150777
0000d0 52 b9 60 3e b1 5f 63 3d 35 ee 20 3d 11 2b 33 3e
       0.21945694 0.05551118 0.039289672 0.17496897
0000e0 0f f0 a6 3e 3c 5a a0 3e c6 11 56 3e fa 9a 07 3e
       0.32605025 0.31318843 0.20905218 0.13242713
0000f0 54 62 d0 3d 66 57 da 3d 73 7a 26 3e 32 72 f8 3d
       0.101750046 0.10661201 0.16257648 0.12131156
000100 05 d6 7c bb 76 d0 d4 3c c3 61 43 bd 8b 38 26 3c
       -0.0038579714 0.025978308 -0.047700655 0.010145317
000110 23 2e a6 bb 36 ba 0e be 40 e9 6d 3d 2b b0 43 3c
       -0.005071418 -0.13938221 0.058083773 0.011943857
000120 86 df 82 3d 9f 23 7c 3d 2a 55 8b bd 7d 2d 66 3d
       0.0639029 0.06155741 -0.06803353 0.056195725
000130 8e 55 d2 3c 91 b2 8f 3c 64 f6 a3 bd 59 31 54 be
       0.025675561 0.017541202 -0.0800598 -0.2072195
000140 a8 e0 08 3c 2a 4b ec bd c2 b5 af bd f5 ef d0 bd
       0.0083543435 -0.11537774 -0.085795894 -0.10202018
000150 8f f3 4e be 59 3e 92 3d fa 2b de bd 0a a1 49 bd
       -0.20210098 0.07140798 -0.108482316 -0.049225844
000160 ed 93 93 bc 6e fe 14 be 1c cc 81 3d 1a 55 29 be
       -0.018014872 -0.14550182 0.06337759 -0.1653637
000170 78 8a 01 be 49 8d b6 bd d9 5c 8b be 38 4f ba 3d
       -0.12650478 -0.08913667 -0.27219275 0.09097141
000180 f5 42 3b be cf 15 07 be f5 bd a9 bc b4 ae 15 be
       -0.18287261 -0.13191913 -0.020720461 -0.14617425
000190 a5 7f 42 3d f5 60 33 bc 19 f6 ae bc 79 f5 fd bd
       0.047485013 -0.010948409 -0.021357583 -0.12400336
0001a0 bd 2f 61 be 8d c3 40 3d 75 e5 df bd a9 15 96 bd
       -0.21990867 0.04706149 -0.10932437 -0.0732835
0001b0 ef 35 a4 bd c8 23 2e be 5e 28 88 3d 97 db fe bd
       -0.080180995 -0.17005837 0.066483244 -0.12444227
0001c0 55 b1 87 bd e5 73 45 bd 00 4c 33 be d1 88 de 3d
       -0.0662562 -0.04820623 -0.1750946 0.108659394
0001d0 17 5f 00 be 52 bf d6 bd 40 92 b1 bd bd 45 7e be
       -0.12536274 -0.1048571 -0.08670473 -0.2483129
0001e0 9e 77 2e 3e b0 f6 dc bd 9a c6 26 bd 86 8e 66 3d
       0.17037818 -0.107892394 -0.040716745 0.056288265
0001f0 56 ea 87 bd 06 96 7f 3d 3a cd ad 3c 7e 47 de 3c
       -0.06636493 0.062398933 0.021216024 0.0271337
000200 36 7e 91 bd e3 4e 33 be a7 52 99 3d d5 82 79 bd
       -0.07104151 -0.17510562 0.07486468 -0.060915787
000210 4c 93 89 bc 16 73 b9 bc b6 60 06 be 61 46 a7 3d
       -0.01679387 -0.022637885 -0.1312283 0.081677206
000220 5d 02 9d bd 26 85 1a bc 25 05 3c 3c 14 bf 23 be
       -0.076664664 -0.009431159 0.011475836 -0.1599086
000230 ea 8e a6 3d eb 5f e4 bd e5 d2 c5 bd 14 f8 97 bd
       0.081327274 -0.111511074 -0.096593656 -0.07420364
000240 b4 8c 8a be 6c 07 57 3c 8f 7e 65 be a4 cb 2c be
       -0.27060473 0.013124328 -0.2241156 -0.16874558
000250 da d4 91 bd 64 bb 69 be 90 5c 41 be 3a 48 75 be
       -0.07120676 -0.2282539 -0.18882966 -0.23953333
000260 c2 9a 8b be 39 a2 82 be 1a 56 21 be 7a 56 7f be
       -0.27266508 -0.2551439 -0.15755501 -0.24935332
000270 16 f6 bb be ca 73 c9 be 23 8c ac be 08 12 1a be
       -0.36711186 -0.39346153 -0.33700666 -0.15045941
000280 59 bd 7e be 64 fe c7 be 20 db e7 be 5f 45 d7 be
       -0.24876918 -0.39061272 -0.45284367 -0.42045113
000290 12 e2 94 be 65 c7 35 be a8 f9 a2 be 1d be d2 be
       -0.29078728 -0.17751844 -0.31831098 -0.4116067
0002a0 b7 3b d1 be ca 37 b7 be 13 2c 14 be 76 e8 69 be
       -0.4086587 -0.3578475 -0.14469938 -0.22842583
0002b0 e5 71 8e be 21 8a 92 be 71 14 56 be f7 8b 2c 3e
       -0.2782127 -0.2862101 -0.20906235 0.16850267
0002c0 03 fa 81 3e b0 6d 87 3e 41 9b 52 3e 3d 47 22 3e
       0.25386056 0.26450872 0.20567037 0.15847488
0002d0 9f 18 31 3e 44 98 7b 3e ad 70 95 3e ed 67 92 3e
       0.17294548 0.24569803 0.29187527 0.28594914
0002e0 68 62 a1 3e 0d 8b 4c 3e e2 d5 92 3e 70 fb ae 3e
       0.3152039 0.19974919 0.28678805 0.34176207
0002f0 80 79 ac 3e cb e3 a5 3e be ac 59 3e 3f d1 92 3e
       0.33686447 0.32400355 0.21257302 0.28675267
000300 d5 43 a7 3e 1a 52 af 3e a1 96 93 3e ee 51 04 3e
       0.3266894 0.34242326 0.28825858 0.12921879
000310 2e 5c 7b 3e e2 a3 a6 3e fe 13 b6 3e ae 6b bc 3e
       0.24546883 0.32546908 0.35562128 0.36800903
000320 a7 05 51 3c 0c b6 8e 3d 79 7d 39 3d b8 79 54 bd
       0.012757695 0.069683164 0.045285676 -0.051873893
000330 05 68 19 be da bb b3 3c 21 d7 95 3d 83 df b7 3d
       -0.14981087 0.02194016 0.07316423 0.08978178
000340 e8 78 30 3d e0 22 ea 3c c6 c9 61 3c b7 1b bd 3d
       0.043084055 0.028581083 0.013781017 0.09233802
000350 a4 95 01 3e a0 be cb 3d 43 0a 2a 3d 81 e2 a1 bc
       0.1265474 0.09948468 0.041513693 -0.019761326
000360 d6 d2 94 3d f8 cb bd 3d 89 13 a0 3d 09 a7 af bb
       0.07266776 0.092674196 0.07816226 -0.0053604883
000370 2d 9d 1f be 02 6a 80 bc 6b a4 3a 3d 2b cc 81 3d
       -0.15587302 -0.015675548 0.045566957 0.0633777
000380 f9 ea 5d 3d 97 25 e1 bd 74 3c fb bd 6c 7d 59 3d
       0.054179166 -0.10993498 -0.1226739 0.053098127
000390 89 6c 43 3e 43 27 ec 3d 47 8b 1e be 95 97 53 3d
       0.19084372 0.11530926 -0.15482818 0.05165823
0003a0 34 85 27 3e ac bb 08 3e ea d1 03 be f8 c1 52 be
       0.16359407 0.13352841 -0.12873045 -0.20581806
0003b0 7b bb b5 3d ee ea 1b 3e e5 42 2c 3d 4d f1 a8 be
       0.0887365 0.15226337 0.042055983 -0.32996598
0003c0 e0 bd 50 be 15 4a 0d 3e a8 2d 10 3e d2 26 85 bc
       -0.20384932 0.13797791 0.14079916 -0.016253863
0003d0 a5 78 d2 be 27 9d 2c be 03 a6 3b 3e 4f dd 61 3e
       -0.4110767 -0.16856824 0.18325047 0.22057079
0003e0 44 37 0c 3e 96 7d 2d be 87 ad 10 bd a7 56 31 bd
       0.13692957 -0.16942438 -0.03532174 -0.04329553
0003f0 cc 33 19 3e 9c 9d 9a 3e 37 85 2d 3e 1c 6b a1 bc
       0.14961165 0.3019837 0.16945349 -0.019704394

base.conv1.1.weight f4 [8]
000000 6b f2 06 3e 80 ad 07 3e 95 e5 18 3e c3 b3 8b 3e
       0.13178413 0.13249779 0.14931329 0.27285585
000010 da 84 ba 3e 64 9b 73 3e de 9c da 3e 51 c9 8d 3e
       0.36429483 0.23789746 0.42697805 0.27692655

base.conv1.1.bias f4 [8]
000000 5c 5e 96 bd 3e 3a e6 be 97 d5 37 3e 2b e1 51 3d
       -0.07342216 -0.4496631 0.17952572 0.051240128
000010 a6 c3 94 bb eb de 9d 3d a1 9d 7a 3a cc a8 c9 3d
       -0.0045399247 0.07708534 0.00095602317 0.098466486

base.conv1.1.running_mean f4 [8]
000000 f1 03 d0 3f e5 ed 3f 40 62 1d 20 41 82 47 64 40
       1.6251203 2.998895 10.007174 3.5668645
000010 74 53 21 3f 00 ee 2b 3f 32 bd e6 40 4d f0 c0 40
       0.63017964 0.67160034 7.210595 6.0293336

base.conv1.1.running_var f4 [8]
000000 ab 50 9b 44 1a 1e 60 45 a2 94 6c 45 fd d0 a3 44
       1242.5209 3585.8813 3785.2896 1310.5309
000010 56 64 a5 45 2d 49 86 44 eb 20 92 45 57 09 c9 44
       5292.542 1074.2867 4676.1147 1608.2919

base.conv2.0.weight f4 [8, 8, 3, 3]
000000 fb f5 a8 bd 78 e3 b2 3d 5d 09 1d ba b9 34 f4 3d
       -0.08250042 0.087347925 -0.000599047 0.119241185
000010 01 1f 3e 3e 4a 91 47 be 3c 77 7d bc b0 59 3f be
       0.18566515 -0.19489017 -0.015470322 -0.18686557
000020 d3 a8 4a 3d 39 9d 4b 3d 25 77 6d bd 84 37 89 3d
       0.04947741 0.049710486 -0.057974953 0.06700042
000030 08 e5 11 3e e6 65 3f be 44 cf 29 3d 76 db 54 bc
       0.14247525 -0.18691215 0.04145743 -0.012991777
000040 6a eb 19 be 10 a5 37 3d ff 90 ee 3d 5b 00 db bd
       -0.1503121 0.04483515 0.116487496 -0.10693427
000050 04 f6 a7 3e c4 09 c5 3d fc 31 00 c0 7f 18 42 be
       0.32804883 0.09621003 -2.0030508 -0.18954657
000060 50 74 d0 3e b3 c3 06 bf 78 b4 f5 bc 12 0d 40 bb
       0.4071374 -0.52642363 -0.02999328 -0.0029304666
000070 4e 7a 53 3c e9 c6 8d ba dd 77 41 3d 75 26 30 bc
       0.012907578 -0.0010816726 0.04723345 -0.010751356
000080 76 df f5 bc a3 24 67 bc f6 c4 24 ba 43 17 33 bd
       -0.030013781 -0.014107856 -0.0006285453 -0.043723356
000090 fc c5 19 be 9e 9a ed 3d a7 ac c1 3c 48 08 2f 3e
       -0.15016931 0.116017565 0.023641897 0.17093003
0000a0 86 e8 ac 3e 39 b1 b9 be 74 de 64 3c 76 66 69 be
       0.3377115 -0.36268023 0.013969053 -0.22792992
0000b0 5d 0c 9d bd 3c 35 ea 3b 6e 82 2b bc f5 6d bc 3c
       -0.07668374 0.0071474593 -0.010468109 0.02300165
0000c0 ab 9a 85 bc 84 84 38 bd 2e f9 a1 3b 2c 21 6e 3b
       -0.016309103 -0.04504825 0.0049430346 0.003633569
0000d0 96 82 90 3b 57 09 0c 3d 35 6e bf 3c 1e 78 e1 bc
       0.0044100983 0.034188595 0.02336798 -0.027523097
0000e0 6a 5c af 3c 4e 95 20 bb 0f 06 37 bd bc 19 86 3c
       0.021406371 -0.0024503055 -0.044683512 0.016369693
0000f0 3d 11 3b bd c8 d3 b4 3d 87 ca 5e 3c 83 fa ca 3c
       -0.045670737 0.088294566 0.013598091 0.024777656
000100 bd 42 6c bd ee 3a 0d 3d 55 e1 2f bd 16 46 b5 bd
       -0.057680834 0.034480028 -0.042939503 -0.088512585
000110 61 62 a1 3d 67 10 f0 3c e9 8b cd 3d 2e a6 06 bd
       0.078800924 0.029304696 0.10036451 -0.032873325
000120 72 a2 37 3e d6 ef 3e 3d 2a 12 1a 3e ce 14 26 3e
       0.17933062 0.046615444 0.15045992 0.16218874
000130 1b a8 55 bd 4c 4e 08 3e a3 f2 9c be cd 1b e5 be
       -0.05216227 0.13311118 -0.30653867 -0.44747773
000140 53 f9 70 be a0 ba 8e 3d ad a2 d3 3c 5f ef 8a bd
       -0.2353261 0.0696919 0.025834406 -0.06783938
000150 4b 78 2a 3e a3 62 62 3e ef 54 a4 3c 81 c3 c9 bd
       0.1664745 0.2210794 0.02006003 -0.098517425
000160 49 7e 7e be 06 0a 3f be 25 dc dc bd 44 88 04 be
       -0.24852861 -0.18656167 -0.10784177 -0.12942606
000170 5d 98 ad 3c 89 13 a3 be b5 66 52 3e a6 c9 35 3e
       0.021190817 -0.31850842 0.20546992 0.17752704
000180 41 62 19 3d 38 66 9f 3e a4 04 c9 bc 52 41 06 3b
       0.037447218 0.31132674 -0.024538346 0.0020485711
000190 a9 84 f6 bc 0d e2 e7 bb 60 62 87 3e bd cb 36 bf
       -0.030092554 -0.007076508 0.26442242 -0.7140463
0001a0 d2 dc 08 3c 6e c8 b7 3c 7b 24 34 3f 01 a0 75 bd
       0.008353429 0.02243444 0.70368165 -0.059967045
0001b0 41 2e bb 3c 05 dc 5d bb cf 71 b8 bd 02 0a 50 3e
       0.022849204 -0.0033853066 -0.09006082 0.20316318
0001c0 0a 16 09 be 8a 4f 3e 3e ce f1 37 bd 64 08 00 bd
       -0.13387313 0.18585029 -0.044908337 -0.031258002
0001d0 3f c0 ab bc 41 05 4d bc ff c6 08 bd 6c df 33 3d
       -0.020965694 -0.01251346 -0.033392902 0.043914244
0001e0 3e 19 c0 bc 93 b5 67 3c 65 60 25 bd 62 39 92 3d
       -0.023449536 0.014142412 -0.040375132 0.07139851
0001f0 87 1c 13 bc 99 da 4b bc 25 1c d3 3c 31 95 ed bd
       -0.008978969 -0.012442254 0.025770256 -0.11600722
000200 1b 70 2f 3d 8a 97 b8 bd 93 5c d0 3e db 7f 95 bd
       0.04283152 -0.09013279 0.4069563 -0.07299777
000210 ad e3 ac bd 33 ff 70 be d3 ec 9c 3d e6 98 a7 3c
       -0.08441863 -0.23534851 0.07662358 0.02045865
000220 fe d7 c4 bc d5 61 61 bc 80 aa c9 bd be a8 9e bd
       -0.024028774 -0.013756235 -0.098469734 -0.07747029
000230 2e 2c ab bd 9c ad 9f 3d 06 7b 1d 3f ff 7a 1c be
       -0.08358036 0.07796785 0.61515844 -0.15281294
000240 ef 72 99 bc 96 6e 3c bd 61 80 3f bc a1 e1 27 be
       -0.018731562 -0.0460039 -0.011688323 -0.16394664
000250 c8 00 6a be 76 66 42 3e 71 9b 5a 3d a3 6f 8a 3e
       -0.2285186 0.18984398 0.053370897 0.27038297
000260 a3 b0 85 3d fc 2e e0 bc 11 bd 65 3e 23 a2 cc bd
       0.065278314 -0.027366154 0.22435404 -0.099918626
000270 f0 c4 3a be be 16 7a 3e 74 d2 4a bd 1d 41 2f be
       -0.18239188 0.24422738 -0.04951711 -0.17114682
000280 2a dc d7 3d 63 e2 58 bc c4 f7 89 3d 36 91 21 be
       0.1054004 -0.013237569 0.06736711 -0.1577805
000290 38 52 86 3d 18 60 46 3d 86 14 10 be 9f b4 b4 bc
       0.06558651 0.048431486 -0.14070329 -0.022058783
0002a0 21 9a 8b 3b 28 81 17 3d 0b 2f fe 3c b9 97 d1 ba
       0.004260317 0.036988407 0.031028291 -0.0015990651
0002b0 e3 ae 78 be c3 8f 0c 3d 46 5d a7 be 6b 44 9b 3e
       -0.24285464 0.03431679 -0.3268835 0.30325636
0002c0 9a ae ba 3e ad 98 15 bd 01 f4 f1 bd 77 ac fc 3c
       0.36461335 -0.036522556 -0.11814118 0.030843956
0002d0 be 2c f5 bc 95 c2 03 3e 0f 82 39 bd dd 4d 62 3e
       -0.029928561 0.12867196 -0.04529005 0.22100015
0002e0 cd ba 9a bd 36 35 70 be b5 e8 56 bd 62 ed 86 bd
       -0.07555161 -0.23457798 -0.05246802 -0.06588246
0002f0 b5 a2 ff 3b a3 a0 df 3c 99 23 b8 3c 9e 93 43 be
       0.0078013786 0.027298277 0.022477912 -0.1909928
000300 ec b9 97 bd 5e 67 6c 3e dc 7d 2c 3e d0 db 7d 3c
       -0.07408509 0.23086306 0.16844887 0.015494302
000310 f6 43 79 3d d1 69 d4 bd d0 4b 1f 3c 42 92 2b 3d
       0.06085583 -0.103717454 0.009722665 0.04188753
000320 a7 90 48 be 3e 6a b5 3d 5a 16 f5 3e 10 c5 9c be
       -0.1958643 0.08858155 0.47868615 -0.30619097
000330 b4 69 11 3d 8a 0e fd bd 1f 5d a7 bc 16 76 f9 3c
       0.035501197 -0.12356289 -0.020430146 0.030451816
000340 65 ff b4 3e 5d c1 4c 3d 87 97 8e 3e 97 85 a5 bf
       0.353511 0.049989093 0.2784998 -1.2931393
000350 f8 7e 85 3e 4c 3e 1b bd 60 6a 2e bd 1d a4 2f 3e
       0.26073432 -0.037901208 -0.042581916 0.17152448
000360 4a b7 6e bd a8 5a 90 bd de 48 94 bd c9 a9 a4 3d
       -0.058280267 -0.07048541 -0.07240461 0.080401964
000370 91 ee 9d bc ae 81 42 bd ce ce 1e 3b c6 bb 69 3e
       -0.019278796 -0.047486953 0.0024232152 0.22825536
000380 c6 04 82 3d 82 ea a7 bc 0f 5b 75 be 41 79 a2 be
       0.06348567 -0.020497564 -0.23960517 -0.31733134
000390 6c af 34 3f 04 98 90 3e 48 08 ce be 5a a8 d8 3e
       0.7058017 0.2824098 -0.40240693 0.42315942
0003a0 27 bc a4 3d aa d4 cf be d3 13 c9 bc d9 c2 99 bd
       0.080437 -0.40591937 -0.024545586 -0.07507867
0003b0 f4 90 8d 3d bd ee 44 bd 90 f1 86 bc 9c 44 66 bd
       0.06912413 -0.04807924 -0.016472608 -0.056217775
0003c0 35 ee 3f 3d 57 5d 6c bd 82 e0 8b 3c 47 7a f2 bc
       0.04685803 -0.057706203 0.017074827 -0.029599322
0003d0 81 74 2c bc 38 40 1a 3c 9a d9 b7 3e 95 56 00 bf
       -0.010525824 0.009414725 0.35908204 -0.50132114
0003e0 1c 98 f4 3d 82 d3 b3 3d a9 bc f2 bd 38 1c 11 3d
       0.11943075 0.08780576 -0.1185239 0.035427302
0003f0 ab 5a 7a 3d 1a 33 28 3e 51 d8 3a bd 40 d2 ab bd
       0.061121624 0.16425744 -0.04561645 -0.083897114

base.conv2.1.weight f4 [8]
000000 2e d8 c2 3e 57 95 49 3e ed b6 83 3e e4 2b 58 3e
       0.38055557 0.19685875 0.257255 0.21110493
000010 de 3f b1 3e 36 c6 1a 3e a2 c9 02 3e b2 72 09 3e
       0.3461904 0.15114674 0.1277223 0.13422659

base.conv2.1.bias f4 [8]
000000 53 7b ea 3e 86 a4 29 3d 82 1b d2 3c be 84 4f 3e
       0.45797214 0.041416667 0.025647882 0.20265481
000010 92 f2 85 3e b9 65 44 3e 28 2d 40 3e 7b 6e 8d 3e
       0.2616163 0.19179429 0.18767226 0.27623352

base.conv2.1.running_mean f4 [8]
000000 47 9e 47 3c fe 70 16 bc 6c c1 b6 3c 4b 40 10 3c
       0.012183732 -0.009182213 0.022309028 0.008804391
000010 3a 2d 97 3c 0a 20 9b 3b 2e 9f 12 bb 88 8d af 3b
       0.018454183 0.004734044 -0.002237271 0.005357448

base.conv2.1.running_var f4 [8]
000000 f4 e5 c6 3e ea f6 33 3d 68 c4 c2 3d 28 ac b7 3d
       0.38847315 0.043936647 0.09510118 0.08968383
000010 11 99 53 3e 47 2f 0f 3d 2b a4 ed 3c 21 a0 17 3d
       0.20663859 0.034957197 0.029008945 0.037017945

base.conv3.0.weight f4 [16, 8, 3, 3]
000000 7f 05 04 be f4 e9 0b 3e a2 84 c5 3d fa 1a 4f 3a
       -0.12892722 0.13663465 0.09644438 0.0007900443
000010 20 17 ab 3d 28 a1 67 3b 82 1d cc 3d 2b 87 37 bd
       0.0835402 0.003534386 0.09966566 -0.04480664
000020 74 99 35 bd 98 58 92 3c 66 73 6b be 23 d6 c5 bd
       -0.044335797 0.01786451 -0.2299324 -0.09659984
000030 04 22 52 bc 6a b1 67 be de 22 da bd c3 25 47 bd
       -0.012825493 -0.22626272 -0.10651182 -0.048619997
000040 ca d4 7f 3c 12 cd d0 3d 02 9c 34 bd 09 d1 9f be
       0.015614698 0.10195364 -0.044094093 -0.3121417
000050 69 3a 10 bd ca 66 6a b9 73 e2 e5 be 5f 4a 34 bd
       -0.035211954 -0.00022354271 -0.4489933 -0.04401624
000060 01 3c 0b 3e 27 44 56 be 71 47 b5 bc 1f 47 37 bc
       0.13597108 -0.20924436 -0.022128792 -0.01118639
000070 0f ac 11 3e 5a 81 63 3e 31 42 54 3e 73 4f 2c bd
       0.14225791 0.22217312 0.20728375 -0.042067956
000080 57 d6 75 3d 8b 18 a5 3d 5b ce c1 bd 8c 73 9c 3d
       0.060018864 0.08061322 -0.09463187 0.07639226
000090 29 9a da 3d 67 8e b3 3d 75 f4 cc 3c 0d 3f 27 be
       0.10673935 0.087673955 0.02501891 -0.16332646
0000a0 81 fa 33 3e 91 fc 46 3d ad 41 c4 be 2b 35 94 be
       0.17576028 0.04858071 -0.38331357 -0.28946814
0000b0 de 7c 90 3c 12 9a 9f be 1f fb 03 be 56 5b 28 3d
       0.017637666 -0.31172234 -0.12888764 0.04110273
0000c0 7e 2a 16 bf ea 7b bf be 0e f4 01 3e 12 1f 37 be
       -0.5865859 -0.37399226 0.12690756 -0.17882946
0000d0 61 d5 e6 be ab 1a 28 bd dd 16 ef 3c 1b 14 2a be
       -0.4508467 -0.041041058 0.029185707 -0.16609232
0000e0 5a 30 d7 bd cb 1e 86 be 6c b1 32 be dd 9e 3a bb
       -0.10507269 -0.26195368 -0.17450494 -0.0028476038
0000f0 c2 b5 1d be a0 b2 84 3d 9a a8 19 3e 9a 6a 0c be
       -0.15401366 0.064793825 0.15005723 -0.1371254
000100 77 f0 35 3e 33 09 28 3e 94 8c b9 be 8c 0f 39 be
       0.17767511 0.16409759 -0.36240065 -0.18072337
000110 9e 03 bb bc 6a e0 e3 3d 02 ff 90 be 95 4b 0a 3e
       -0.022828873 0.11126788 -0.28319556 0.13505395
000120 fc 86 84 3e cc 12 b0 3e ba fa 58 bd 84 08 34 3d
       0.25884235 0.3438934 -0.052973486 0.043953434
000130 37 06 ea 3d d3 1e 61 be 44 e5 ea bd 26 96 c5 bd
       0.11426967 -0.21984415 -0.1146951 -0.09647779
000140 d3 af 18 be 8c f5 89 bd 65 61 b6 be bb c2 ed 3d
       -0.14910822 -0.067362875 -0.3562118 0.116094075
000150 fe a9 f5 bd 69 41 9c be 15 53 1e 3e 9b 37 4b 3d
       -0.11995314 -0.30518654 0.15461381 0.049613576
000160 a9 cb c3 3d 28 9d 10 3c 79 77 26 3d 05 44 17 3c
       0.095603295 0.0088265315 0.04064128 0.009232526
000170 14 76 f5 3d e2 b2 18 3e 1e 9c c2 bd 98 3f 13 3e
       0.11985412 0.14911988 -0.09502433 0.14379728
000180 b9 33 df 3c 58 bb 8a 3d c6 03 d3 bc b9 5b 9c 3d
       0.027246343 0.06774014 -0.025758635 0.07634682
000190 d8 51 2e 3e 97 27 c2 bc 4b 67 48 3e 8b 21 86 bd
       0.17023408 -0.023700519 0.19570653 -0.065493666
0001a0 68 85 a6 3d 86 7b 27 3c c3 de bd 3c cb 16 53 3e
       0.08130914 0.010222321 0.02317751 0.20614164
0001b0 66 ae db 3d d9 7f 2c bd e2 90 16 3d 43 8f 9b be
       0.10726623 -0.042114113 0.036759265 -0.30382738
0001c0 1a f7 fc be 71 d7 fc bb 15 61 c9 bd 22 6a 48 bf
       -0.49407274 -0.0077161123 -0.0983297 -0.78286946
0001d0 8b fe 6e 3d b4 87 a3 bd df a6 d1 3d aa 2c a4 3d
       0.05834822 -0.07984868 0.10236906 0.080163315
0001e0 1a 68 ec 3d 09 bf 38 bd 01 43 27 3e 0c 1b 09 3e
       0.11543293 -0.04510406 0.16334154 0.13389224
0001f0 c4 70 0c be 25 2b 37 3d 47 40 0f 3e f0 0f 05 be
       -0.13714892 0.04471888 0.13989364 -0.12994361
000200 d6 e4 42 3d d0 8c c2 3c 81 52 db bd 67 91 81 3d
       0.047581516 0.023748785 -0.10709096 0.063265614
000210 18 1d 5a 3e ba 3e de 3d 45 41 04 bd d6 93 60 3d
       0.21300161 0.10851808 -0.03228881 0.054828487
000220 6b e9 30 bd 74 48 67 bd 57 76 45 be bf e4 6d bf
       -0.043191355 -0.05646558 -0.19283424 -0.92927164
000230 8c dc 7f be 02 18 59 3d 15 77 11 bd aa 1f de bd
       -0.24986476 0.05300141 -0.035513956 -0.10845883
000240 4a cf 1b 3a 57 da 0d 3e 24 9b 66 3d c6 a8 65 3b
       0.0005943669 0.13852821 0.056300297 0.0035043224
000250 16 9c 81 bd 4e 33 e7 bb f3 70 2f bd a7 bc 3e be
       -0.06328599 -0.0070556765 -0.042832326 -0.18626653
000260 99 ba 39 bd 9c 57 04 bb 76 59 6b 3c ae 1b 13 be
       -0.04534397 -0.002019382 0.014364591 -0.14366028
000270 a0 f8 3b bd b7 05 95 3d 70 d3 72 3e 97 47 cd bc
       -0.045891404 0.07276481 0.2371347 -0.02505855
000280 55 d3 75 be 53 43 10 3c c4 f7 20 bc ed f1 7d 3d
       -0.24006398 0.008805114 -0.009824697 0.061998297
000290 c7 11 b4 3b 2a 82 58 3d e7 1a a5 be be 31 6e 3d
       0.0054952833 0.05285851 -0.32247087 0.058152907
0002a0 0c e7 d5 bc c0 55 d4 3c 69 04 93 bc 66 fb 4e bc
       -0.026111148 0.025919795 -0.017946439 -0.01263318
0002b0 a6 c3 80 3d 4e 85 c0 3d 10 9b b0 3d cf d5 d7 bd
       0.06287317 0.09400426 0.08623326 -0.10538828
0002c0 ac 27 fa bd 7c fe 04 3c 3a 6e 38 bd a6 34 7b 3d
       -0.12214598 0.008117314 -0.045026995 0.061329506
0002d0 66 59 4b 3c 57 ea 47 3d 0f 03 29 bc 17 18 81 3e
       0.012411451 0.04880747 -0.010315671 0.25213692
0002e0 0a e7 39 3f d2 ae c8 3b 30 59 3f 3e e8 79 98 3e
       0.7261816 0.006124356 0.18686366 0.29780507
0002f0 27 22 dd bd 46 10 19 bc e2 66 ee bb 5a bc a3 3c
       -0.1079753 -0.009342259 -0.007275448 0.019987274
000300 47 8e 83 be d2 bf 7e be 6f 04 bd 3d 10 6d 9d 3d
       -0.25694486 -0.24877861 0.09229361 0.07686818
000310 68 3c 06 3e 40 58 aa bd 50 9a ac bd b8 0c 48 be
       0.1310898 -0.083176136 -0.0842787 -0.19536102
000320 3e 46 2e be 8e 88 61 3e ee 1d 52 3f 0e 04 de 3d
       -0.17018983 0.22024748 0.8207692 0.10840617
000330 32 71 4c be ba e8 ca be 98 67 95 bd cf 7e 4f 3d
       -0.19965056 -0.3963068 -0.072951496 0.050658043
000340 b2 bd e8 3c d3 cd 90 3c c4 c1 a2 be 08 c2 9b bf
       0.028410766 0.01767627 -0.31788456 -1.2168589
000350 d8 03 dd be 04 08 9e bd e5 65 bb 3e e3 73 00 3e
       -0.43166995 -0.077163726 0.36601177 0.12544207
000360 9f 31 36 3e ce 01 a2 3d 16 56 a8 3e 46 61 2c bd
       0.17792366 0.079105005 0.32878178 -0.042084955
000370 eb ec c1 bf 18 94 16 bf 73 46 ba 3d f7 9d 16 bf
       -1.5150427 -0.58819723 0.09095468 -0.58834785
000380 32 85 b3 bd ec 31 9a bd 7d 98 3a 3e 16 6d 38 3d
       -0.08765639 -0.07529053 0.18222232 0.045025907
000390 5f 43 a4 bb e7 0d d7 3d f7 f7 1a be dc 9e aa 3d
       -0.005012914 0.105006985 -0.15133654 0.08331081
0003a0 b0 4a 29 bd be db 2f bd e0 30 f3 3c d6 47 d9 3d
       -0.041330993 -0.04293417 0.029686391 0.10609405
0003b0 20 50 4f 3b 91 5d ba bc 7e b3 41 3b 95 6d 71 bd
       0.0031633452 -0.022749694 0.0029556449 -0.058942396
0003c0 f9 54 9d 3c d0 64 19 bc cb a3 75 3c 25 38 5e 3d
       0.019205557 -0.0093624145 0.014992665 0.054252762
0003d0 09 e2 5b 3c 8b df b2 39 4c 84 7c 3d 2c a5 da bc
       0.01342059 0.00034117358 0.061649606 -0.026690088
0003e0 ee 3c 5e 3c 0a 06 00 3d 25 36 89 3d 79 93 05 3d
       0.013564331 0.03125576 0.066997804 0.032611344
0003f0 10 62 3c bd b9 cb 1e bd 01 87 f2 3c 7e 62 b0 3d
       -0.045991957 -0.038768504 0.02960539 0.08612536

base.conv3.1.weight f4 [16]
000000 6d 72 92 3e a8 6d 31 3e 70 9f 70 3e 21 c2 9e 3e
       0.28602925 0.17326987 0.2349832 0.31007484
000010 f8 f3 3b 3e 7b 26 2d 3e cd 2a 82 3e 1c 44 54 3e
       0.18354785 0.1690921 0.2542328 0.20729107
000020 10 56 20 3e 06 7c 31 3e 30 e4 13 3e 4d 81 eb 3d
       0.1565783 0.17332467 0.14442515 0.114992715
000030 62 b0 81 3e f9 7a 3f 3e dc 7f 66 3e 57 93 23 3e
       0.25329882 0.18699254 0.22509712 0.15974174

base.conv3.1.bias f4 [16]
000000 57 55 02 3f 69 6b e9 3e 07 30 97 bd 72 24 21 3f
       0.5091147 0.4558976 -0.07382207 0.62946236
000010 e6 b8 a0 3d 13 84 44 3e 18 91 db bd 2f 03 67 3d
       0.078477666 0.19191007 -0.10721034 0.05639952
000020 8d 12 0f 3f 87 08 e7 3d f0 b8 fc 3d 65 b8 6f bc
       0.5588768 0.11280923 0.123399615 -0.014631365
000030 77 fd eb 3d 5b d1 c8 3e 40 6d b2 3e e6 67 87 3d
       0.11522954 0.39222226 0.34848976 0.06611614

base.conv3.1.running_mean f4 [16]
000000 9a 79 70 be 40 c9 5e be 10 48 8a be eb 80 ea bd
       -0.23483887 -0.21756458 -0.27008104 -0.114503704
000010 6f 4e 78 3c 86 d8 ac bd 09 b3 5a be 91 e2 7d bd
       0.015155419 -0.08439736 -0.21357359 -0.06198365
000020 53 56 80 be 77 8a 0c be 33 ab 51 bd f9 cd 03 bd
       -0.2506586 -0.13724695 -0.05118866 -0.032178853
000030 c1 aa a3 3a 17 65 7e bd 6d f6 ed 3e 08 cf c4 bc
       0.0012486802 -0.062108126 0.4647707 -0.024024501

base.conv3.1.running_var f4 [16]
000000 bf 95 b2 3d 29 56 0a 3d b7 e8 5a 3d 59 bc c5 3d
       0.08719968 0.033773575 0.05344459 0.09655065
000010 cf 87 3e 3d 34 f5 f2 3c d9 57 52 3d 61 4f 56 3d
       0.046516236 0.029657938 0.05135331 0.052321795
000020 ce ee e0 3c f1 a6 1b 3d 51 6e cd 3c af 1a 7f 3c
       0.027457621 0.038001005 0.025077017 0.015570327
000030 4e 03 c0 3d aa 70 27 3d a9 43 c0 3d c0 8e 38 3d
       0.0937563 0.04087893 0.09387905 0.045058012

base.conv4.res_layer.0.weight f4 [16, 16, 3, 3]
000000 1a 16 ea bd 12 6c 2a be 3c 4e 69 be dd fd bb 3e
       -0.11429997 -0.16642788 -0.2278375 0.3671712
000010 ed 39 ac bc 23 9c 0e be e8 8f e4 3d 5b 95 73 3e
       -0.021023715 -0.13926749 0.111602604 0.23787443
000020 ba 43 5f be 7e 2e 88 bc e0 8d a2 3d 44 bc a0 bd
       -0.2180318 -0.016623732 0.07937217 -0.07848409
000030 0f ec e9 bc 13 a6 11 be c8 c1 db bd 5c e5 06 bd
       -0.028554944 -0.14223509 -0.1073032 -0.032933578
000040 42 e8 04 be a5 71 91 bd aa 5c d6 3d 55 1d a6 3d
       -0.12979224 -0.07101754 0.10466893 0.081110634
000050 ac 2c c1 3d e7 e0 28 bd 24 94 8c 3d c5 be b4 3c
       0.094323486 -0.04123011 0.06864193 0.022063622
000060 5b eb 87 bc 59 50 86 3d 70 c2 39 3b 4f 82 a8 3d
       -0.016591718 0.06558294 0.0028344654 0.082279794
000070 f9 56 63 bd 7c 2e 1e be 41 c5 e6 3b 4c a3 d6 3d
       -0.055502865 -0.1544742 0.0070425575 0.10480365
000080 04 01 42 be 09 79 f1 3d d1 da 78 3d fb 0f 94 bc
       -0.189457 0.11790664 0.060755555 -0.018074026
000090 06 26 46 3c 02 fd 03 bd 0e e0 e5 bd 89 e8 36 be
       0.012094026 -0.03222371 -0.11224376 -0.17862143
0000a0 46 4d 65 3d 1e 4d ed bd 7e 33 d7 3c af ed 92 3e
       0.055981897 -0.115869746 0.02626967 0.28696963
0000b0 a1 0d bb 3a 08 16 1b 3e 0a 06 cf bc a2 32 93 3d
       0.001427103 0.15145123 -0.025271434 0.07187392
0000c0 4b e1 c4 3d 7a 32 35 3e e4 bb c0 3d 82 b8 6b bc
       0.09613284 0.17695037 0.09410837 -0.014387252
0000d0 df f3 81 bd f5 e6 32 3d 44 d3 38 be fb ec 0a be
       -0.06345343 0.04367729 -0.18049341 -0.13566963
0000e0 77 61 39 bd 5e 3a dd 3b 70 53 9d bd 17 01 de bd
       -0.045258965 0.0067513427 -0.0768193 -0.108400516
0000f0 c9 1c eb 3d 8a fc 54 3e 21 bc 94 3d f5 f0 2f 3d
       0.114801 0.20799461 0.07262445 0.042954404
000100 05 e6 00 3e 57 40 e3 3d 44 d7 51 bd 9f 26 72 3c
       0.12587745 0.11096256 -0.051230684 0.014779716
000110 d3 3e 91 bc 85 d9 eb 3c 46 89 7b bd f1 6f 49 be
       -0.017730152 0.028790245 -0.06141021 -0.19671609
000120 a6 22 13 3e 4f 9c 7a bd 67 63 95 3d a8 7e ae 3d
       0.14368686 -0.061184224 0.0729435 0.085202515
000130 b1 56 dd 3d cf 45 bf 3d 90 ae 70 bd 47 fb f2 3d
       0.10807551 0.09339487 -0.058760226 0.118643336
000140 d6 04 41 be 92 0a f3 3c b0 40 a3 3b b0 ac 27 3c
       -0.18849501 0.029668126 0.0049820766 0.010234043
000150 d8 cb 8c bc a6 64 d4 3c c7 e2 23 bd 39 d0 f6 bc
       -0.017187044 0.0259269 -0.040011194 -0.030128585
000160 cf 26 a0 be 48 a9 16 bd c7 ae db bc c6 8d c4 bc
       -0.3127961 -0.036782533 -0.026816739 -0.023993384
000170 89 29 0a bd 5a 0e 67 bb 30 f2 0b be 08 f2 36 be
       -0.033731017 -0.0035256357 -0.13666606 -0.17865765
000180 f9 0a 42 3d fc d6 3f be 88 a8 75 be 1c f2 97 bc
       0.047373746 -0.18734354 -0.23990071 -0.018548064
000190 4a cd 89 3d cc e3 0c 3e 03 1a c3 be cf e3 0d be
       0.06728609 0.13758773 -0.38105783 -0.13856433
0001a0 a4 c8 ba 3d f6 a5 c9 be 8c 72 2b be 3d ba 14 3d
       0.091203004 -0.3938443 -0.16742915 0.036310423
0001b0 75 70 6b bd b2 6f 7f be 31 3b 1f bd 13 e5 8f be
       -0.057480294 -0.24944952 -0.03887481 -0.28104457
0001c0 7e 1a fa be 20 64 18 be 69 3a 89 bc 6b 5c 21 bf
       -0.48848337 -0.14881945 -0.016751485 -0.63031644
0001d0 d4 cd 2f be 3f c9 10 3e 0c 17 8a 3c 88 bc ba bd
       -0.17168361 0.1413927 0.016856693 -0.09117991
0001e0 51 1e 16 3e e5 ee a9 3c 40 6c 20 3e e3 2a 93 bd
       0.14660002 0.020743797 0.15666294 -0.07185914
0001f0 69 2b 06 be de 80 c3 3d 31 a3 9c 3d 25 e9 c8 bd
       -0.13102497 0.09546064 0.07648314 -0.09810094
000200 dd aa a4 3d f4 e0 92 bd 69 7a a0 bd 38 10 3b 3d
       0.08040402 -0.07171813 -0.07835848 0.045669764
000210 13 a2 04 bd 1b f9 86 3c 2b 80 1a 3c 5c 19 9c 3d
       -0.03238113 0.016476205 0.009429972 0.076220244
000220 a2 86 27 bb c6 95 45 3e 31 a6 ab 3d 81 2e f5 3c
       -0.0025562425 0.19295415 0.08381308 0.029929401
000230 fd 11 80 bd b4 7c 06 3e 42 21 f8 3d bd 71 74 3d
       -0.06253431 0.13133508 0.121157184 0.05967878
000240 4c 06 48 be 42 dd 10 3e f8 cb e6 bd 90 8c 39 3e
       -0.19533652 0.14146903 -0.11269373 0.18120027
000250 a0 9b 86 be d5 6e 69 bd 9f 24 e8 bd 1f 49 89 bd
       -0.26290607 -0.056990463 -0.1133511 -0.067034
000260 bb 55 d7 3e 63 83 3a 3c 40 d5 8b 3e 00 5e 7e 3d
       0.42057595 0.011383864 0.27311134 0.062101364
000270 45 62 31 3e 91 42 6d 3d a5 0d 91 be 35 5f 16 3d
       0.17322643 0.05792481 -0.28330722 0.03671189
000280 d5 9d f6 be 74 b0 9d 3c 21 06 3e 3d 33 1b 58 be
       -0.4816729 0.019249178 0.046392564 -0.21104126
000290 cb 1c 09 3e 70 35 c2 bc 64 ef 80 3e cb 35 1c be
       0.1338989 -0.023707122 0.2518264 -0.15254895
0002a0 a2 11 47 3d 59 70 bd be 61 1f 21 3e be 8b e7 3c
       0.0486008 -0.36999777 0.15734626 0.028264876
0002b0 c8 6a 82 bc 60 e5 45 bc 60 15 b8 bc fa 01 eb bd
       -0.015920058 -0.012078613 -0.02247113 -0.114749864
0002c0 cb 56 2a be 0b 1d ac 3d 87 1e 27 bd 54 1a 3c 3e
       -0.16634671 0.08403977 -0.040800598 0.18369418
0002d0 22 92 d8 bd 12 52 51 3d 55 38 3d 3d 56 29 be bd
       -0.105747476 0.05110366 0.0461963 -0.09285228
0002e0 0e 09 8b bc 1f c9 09 3d f0 e5 04 be 87 df 99 3e
       -0.016972091 0.03363907 -0.12978339 0.3005335
0002f0 36 91 52 be 52 bc ae 3d 58 3f a7 3d 26 8b 3e 3d
       -0.20563206 0.08532013 0.08166379 0.04651942
000300 0e 71 d7 bd 5e a0 d5 3d 2e 81 32 3e ad 21 92 3e
       -0.1051961 0.10430978 0.1743209 0.28541318
000310 fe 4c d3 be 95 f4 05 be cb 02 a6 bd cc b4 b2 bd
       -0.41269678 -0.13081582 -0.081060015 -0.087258905
000320 98 42 2f bd e7 91 b8 3c 7e 1e d0 bd 06 21 2a bc
       -0.042788118 0.02253051 -0.10162066 -0.01038385
000330 8c 9f 18 3d 5d 97 22 bc 4b 4f e8 3d eb cd d8 bb
       0.03726153 -0.009923783 0.11343249 -0.006616344
000340 cd 74 b9 bd 56 49 30 bd 02 44 bd bd 2a 61 01 3d
       -0.09055481 -0.04303869 -0.09241487 0.031586803
000350 f4 af fa bd 8f 87 27 3d 6a 4d 98 bc 38 67 f4 3d
       -0.12240592 0.040900763 -0.018591601 0.1193375
000360 d6 77 c5 3e 1b cf 04 3e 8c cd 0f be ca 96 43 3d
       0.3856799 0.1296963 -0.14043254 0.047751226
000370 6e 4d 24 bf 2b 56 d3 bd e3 9b 90 be ac 7b 03 3e
       -0.6418065 -0.103191696 -0.28243932 0.12840146
000380 a0 0b 48 bd 15 d0 1d 3d 86 2a db bd 09 22 91 bc
       -0.04883921 0.03852852 -0.1070147 -0.017716425
000390 c3 3b 08 be e2 83 9f bc 5e d0 96 be 2c e4 c9 3d
       -0.13304047 -0.019472066 -0.29455847 0.098579735
0003a0 fc d4 b2 be 54 3d 45 3d 1f 3d 60 bc 0d 9a 05 be
       -0.3492812 0.04815419 -0.013686447 -0.13047047
0003b0 7d 51 4d bd 13 50 81 3c e4 73 d7 be 1d 65 5b be
       -0.05012654 0.015785253 -0.42080605 -0.2142529
0003c0 de 22 e5 3c 69 00 df bd b2 a3 2f be 40 bb fc 3d
       0.027970728 -0.1088875 -0.17152289 0.123404026
0003d0 08 22 83 be 62 e8 74 bc cb db 7d be 3c ed 71 3e
       -0.256119 -0.0149479825 -0.24790876 0.23625654
0003e0 df 94 8e 3d 7b cd e0 bc 86 7c b5 ba 4d ca 56 3d
       0.06961989 -0.02744173 -0.0013846315 0.052439023
0003f0 c5 31 92 3d f2 a0 04 bd 8e f6 2d bd bf de c3 bd
       0.07138399 -0.032380052 -0.04247146 -0.0956397

base.conv4.res_layer.1.weight f4 [16]
000000 c3 fb 84 3e 78 4e b6 3e 62 0d d8 3e a3 7e 6e 3e
       0.2597333 0.35606742 0.4219771 0.23290496
000010 f3 64 d9 3e d5 26 9a 3e e2 f4 6a 3e 69 3d 4f 3e
       0.4245983 0.3010775 0.22944978 0.2023827
000020 0c c0 bd 3e 2b 4a 97 3e 41 2b 77 3e 02 7c 5d 3e
       0.37060583 0.29548773 0.24137594 0.21629336
000030 cf b9 83 3e f8 c0 d9 3e 40 67 88 3e 37 77 3d 3e
       0.25727698 0.42530036 0.26641273 0.18502508

base.conv4.res_layer.1.bias f4 [16]
000000 1d 49 bf 3e 4f c3 95 3e 00 84 44 3e 30 c4 c0 3e
       0.37360469 0.2925057 0.19190979 0.3764968
000010 01 0d 2a 3e 26 dc 0c bd 06 78 fe 3e e0 80 e7 3e
       0.16606523 -0.034389637 0.49700946 0.4521551
000020 d4 19 e4 bc 97 20 a1 3d 70 de dd 3d 9a 35 fe 3e
       -0.027844347 0.07867544 0.10833442 0.4965027
000030 44 40 16 be ed ed fd 3c bf 6f 8c 3e 48 1a b1 3e
       -0.14672953 0.03099724 0.27429006 0.34590364

base.conv4.res_layer.1.running_mean f4 [16]
000000 ea 83 07 be d2 30 33 be 13 ed 5a bf fa 11 50 3f
       -0.13233915 -0.17499092 -0.85517997 0.8127743
000010 32 bb b4 be 57 8b 02 bf 23 07 0d bf 89 6e 81 be
       -0.3529907 -0.50993866 -0.55089015 -0.25279644
000020 11 94 0a bf 9a c3 b0 be d6 51 56 be 20 b7 2d bd
       -0.5413218 -0.34524232 -0.20929655 -0.04241097
000030 db 9c c9 be 7c 50 c6 be b3 a9 df be 65 7c 04 bf
       -0.39377484 -0.3873328 -0.43684158 -0.5175231

base.conv4.res_layer.1.running_var f4 [16]
000000 2e 17 06 3e dc ea e9 3d 3e 60 62 3e fa b2 f4 3d
       0.1309478 0.11421749 0.22107026 0.119481996
000010 b5 48 1b 3e 62 33 0c 3e 85 27 1b 3e 15 40 8a 3d
       0.15164454 0.13691476 0.15151794 0.06750504
000020 55 30 fb 3d a2 a9 14 3e 83 ef b0 3d fc a0 f1 3d
       0.12265078 0.14517835 0.08639433 0.117982835
000030 23 37 57 3e c4 06 48 3e ca 07 f3 3d 83 cb c7 3d
       0.21017127 0.19533831 0.1186672 0.09755614

base.conv4.res_layer.3.weight f4 [16, 16, 3, 3]
000000 d6 01 4d 3c 0b 65 d8 3d 0f ee 89 3e 71 ac 24 be
       0.012512645 0.105661474 0.26939437 -0.16081406
000010 0f 9e 97 3c ea ed 23 3e fe e7 51 be e3 a1 c4 bd
       0.018507985 0.16008726 -0.20498654 -0.0960119
000020 8c 32 0a 3e cd fb f6 bd b5 e8 71 3c 9a 44 86 bd
       0.13495845 -0.12059746 0.014764954 -0.065560535
000030 72 a9 09 3d 96 a7 2f bc bc 5d 9c bd 04 39 22 3a
       0.03360886 -0.010721108 -0.07635066 0.00061883056
000040 d0 d9 de bb 4f f0 91 3b a2 8a 76 3d 29 b9 7b 3e
       -0.0068008676 0.004453696 0.060190804 0.24582352
000050 4f 47 d5 3d 99 d9 52 be 62 34 17 bd a4 54 08 3e
       0.10413992 -0.2059082 -0.03691519 0.13313538
000060 81 92 9b bd ca 6d 29 3d 92 61 dc 3d 6b 13 86 bd
       -0.07596303 0.04136447 0.107607976 -0.065466724
000070 3a 93 97 bd ac 22 f2 bc 32 12 66 be fe ea f5 bd
       -0.07401128 -0.029557548 -0.22467878 -0.12007712
000080 8e 19 ef 3c 73 ff a8 3c 0b 40 d7 3c a4 0d ca 3d
       0.02918699 0.02062962 0.026275655 0.09865883
000090 09 dc 39 3a 68 63 e7 3d bb 68 2d 3e db b3 76 bd
       0.0007089978 0.11298257 0.16934483 -0.060230117
0000a0 bb 5e 8c 3b 06 81 fa b9 15 9d 91 3b 99 10 f9 bd
       0.0042837537 -0.00047779846 0.0044437745 -0.12161369
0000b0 16 63 a2 bd 82 18 ff 3c 3b 3d 47 3d be bd 85 3d
       -0.079290554 0.031139616 0.04864238 0.06530331
0000c0 15 c7 97 bd c2 b7 fd bd 97 08 9f 3a b5 7e dd bd
       -0.07411019 -0.12388565 0.0012133297 -0.10815183
0000d0 54 0b cd bd 2c f6 51 bd 8f b3 fc 3d 73 15 44 3e
       -0.10011926 -0.05126016 0.123389356 0.19148807
0000e0 be 51 b3 bd 73 e4 8d 3e a8 28 b2 3e 0f be c5 3c
       -0.087558255 0.27713355 0.34796643 0.024138479
0000f0 74 e0 0b 3d 7f f5 34 3e 68 9e e9 bd 21 3d 51 bd
       0.034149602 0.17671774 -0.11407167 -0.051083688
000100 be 5e 98 3c d6 31 75 3c ae 96 8b bd 0e 23 71 3d
       0.018599864 0.014965495 -0.06815849 0.05887132
000110 41 52 81 bd 9c da a7 3d 93 ec ca 3d 3f 77 de bd
       -0.06314517 0.08195993 0.09908404 -0.10862588
000120 13 d1 81 bd e6 62 28 be 10 7a 63 be d6 32 05 be
       -0.06338706 -0.16443977 -0.22214532 -0.13007674
000130 d5 68 ff bd 05 7f 4d 3c b5 06 db bd 60 e8 9d 3d
       -0.12471167 0.012542491 -0.10694639 0.07710338
000140 3b 11 50 3d c1 6f 83 3e e2 66 10 3c ae 51 b1 bd
       0.050797682 0.256712 0.008813592 -0.08658157
000150 b6 73 4d 3d 34 c9 be 3c c1 12 ed 3d 83 d2 02 be
       0.05015918 0.0232893 0.11575843 -0.12775616
000160 be 0f 06 be 58 f2 25 bd a8 6e 02 3c fa ad e1 bc
       -0.13091943 -0.04051432 0.007960953 -0.027548779
000170 86 86 ec bd fb cc 4d 3d f6 8e a0 3d ba a9 4f 3d
       -0.11549096 0.050244313 0.07839768 0.050698973
000180 db 5b c5 3d 15 7e bc 3e 04 31 93 3e 60 17 a2 be
       0.09636661 0.36814943 0.28748333 -0.3165846
000190 86 14 95 be 11 53 06 be b7 af f1 bd 90 f4 a1 3d
       -0.2911722 -0.13117625 -0.11801093 0.07907975
0001a0 36 cb 1d 3e c8 a8 f2 3d 0e e1 a7 3e 86 3a 3d 3e
       0.1540955 0.11848599 0.3278889 0.18479356
0001b0 85 4b 7c bd f4 47 98 bd 47 46 37 bd 3f 66 9a bc
       -0.06159546 -0.07435599 -0.044744756 -0.018847583
0001c0 53 95 fa 3d ed 65 1a 3d 7b 10 9b bd 65 d8 3b bb
       0.122355126 0.03769486 -0.07571503 -0.0028662917
0001d0 f8 8f 28 bd 82 69 71 3d ca a5 4a 3d 02 6f 54 3d
       -0.041152924 0.05893851 0.049474515 0.051863678
0001e0 b4 04 f1 3d e0 3a 87 3e 69 84 0f 3e e5 0c 25 3e
       0.11768475 0.26412106 0.14015354 0.161182
0001f0 9d ae ab 3e 1e 23 31 3e f4 e1 4d be 7f 0f a8 3d
       0.33531657 0.17298552 -0.20105726 0.08206081
000200 59 50 05 3d c3 5c 68 bd 22 05 42 3e b8 2e 3b 3d
       0.03254733 -0.05672909 0.1894727 0.04569885
000210 8a 64 64 bd 5c f3 f2 bd 00 28 ff bd 25 85 81 bd
       -0.055759944 -0.11862823 -0.12458801 -0.063242234
000220 ff aa ba bb f6 5f 6d 3e 9e 4f 28 be e6 4a c2 3d
       -0.005696654 0.23181137 -0.16436622 0.09486942
000230 25 71 69 bc d4 e6 2d be ee 5b 84 bd 83 4b 7c bd
       -0.014248167 -0.16982585 -0.06462847 -0.06159545
000240 85 f6 6c b9 0f 43 69 b9 18 f1 b0 b9 92 b9 85 b9
       -0.0002259855 -0.00022245593 -0.00033748965 -0.00025505997
000250 f2 47 91 b9 ce 97 c1 b9 a7 c3 2c b9 7f 92 47 b9
       -0.0002771016 -0.00036924932 -0.00016476084 -0.00019032693
000260 df 44 8a b9 d3 97 bb b8 03 1a 52 b9 25 bc 37 37
       -0.00026372724 -8.945134e-05 -0.00020036851 1.0951456e-05
000270 b8 38 18 b9 a7 39 2e 38 15 ca 87 39 2e 8d ab b8
       -0.00014516979 4.1538526e-05 0.0002589977 -8.180212e-05
000280 e5 32 32 b9 40 d6 74 38 5d 37 73 b9 c2 89 e2 b9
       -0.00016994363 5.837367e-05 -0.0002319491 -0.00043208717
000290 b3 ba ce b9 3c 6c 5e b9 da f9 ab b9 89 a2 5c b9
       -0.00039430484 -0.0002121189 -0.00032801816 -0.00021041384
0002a0 05 c1 a5 b9 05 f9 e4 b9 30 6c 2f ba e7 41 71 39
       -0.00031615063 -0.00043673083 -0.00066918414 0.00023008102
0002b0 e4 1b 37 39 61 c2 09 39 a5 99 a7 39 f7 0f 9b 39
       0.0001746263 0.0001313775 0.00031967196 0.00029575799
0002c0 03 4e 58 39 a2 21 0d 3a e2 c1 9d 39 3c 5a ff 38
       0.00020628427 0.0005383735 0.00030089827 0.00012176155
0002d0 4a de a3 b8 20 4b 8d b9 36 1b 8d b9 d7 2c 92 b9
       -7.81385e-05 -0.00026949588 -0.0002691389 -0.00027880698
0002e0 57 cb c0 b9 f2 24 bc b9 d8 d5 52 b9 59 79 88 b9
       -0.00036772594 -0.0003588568 -0.00020106824 -0.00026030352
0002f0 d1 fe 43 b8 4e db 36 b9 e2 29 db 37 35 f8 19 b9
       -4.672894e-05 -0.0001743857 2.6126338e-05 -0.00014683681
000300 75 9c 1b 37 59 fb 14 b9 ca b2 72 b9 36 34 0a b8
       9.275148e-06 -0.00014208014 -0.00023145523 -3.295039e-05
000310 69 dc 8a b8 65 10 55 b9 5b 12 ab b9 2f 70 da b9
       -6.6214074e-05 -0.0002031937 -0.00032629338 -0.00041663783
000320 5b ef c9 b9 26 d6 22 b9 71 d4 bc b9 14 2f d5 b9
       -0.0003851604 -0.000155293 -0.00036016435 -0.00040661602
000330 56 e2 98 b8 73 92 59 b9 8f 08 84 b9 39 2f 25 b8
       -7.290083e-05 -0.00020749289 -0.0002518338 -3.9383045e-05
000340 2d b0 2f 39 46 58 99 38 5d d8 bb 38 cd 87 2a 39
       0.00016754931 7.312051e-05 8.957156e-05 0.00016263053
000350 02 ae bc 38 23 1a a0 38 3d 0a c4 39 12 89 9a 39
       8.99695e-05 7.634263e-05 0.0003739166 0.00029475294
000360 5a 12 9b b8 23 49 81 38 1b e6 9e 37 52 1e 6a b8
       -7.394394e-05 6.164822e-05 1.8942219e-05 -5.5818186e-05
000370 15 27 da 37 b7 55 de 36 e4 19 a6 b9 78 f1 80 b9
       2.6005824e-05 6.626094e-06 -0.00031681277 -0.0002459397
000380 ae bf 5c b9 08 a0 55 39 96 66 98 39 63 08 cc 38
       -0.00021052241 0.00020372879 0.00029068132 9.72904e-05
000390 c4 14 24 39 40 26 88 39 5b b6 3b 38 f2 a6 f5 38
       0.00015647995 0.0002596844 4.4754106e-05 0.00011713606
0003a0 9a b2 4c 39 dc d1 45 38 4f 43 ed 36 2e 97 8e 39
       0.0001952149 4.7163907e-05 7.070986e-06 0.00027196988
0003b0 3f 3a 32 39 9d ff 21 b8 f9 fa 12 39 62 d4 c8 37
       0.00016997101 -3.862345e-05 0.0001401714 2.3940756e-05
0003c0 4a 8f 82 b7 be 46 78 39 89 e3 5e 39 0c a1 c3 b5
       -1.5563932e-05 0.00023677477 0.00021256333 -1.4575503e-06
0003d0 5e 7d ed 34 03 48 a4 b8 6f d4 27 b8 e6 81 90 b7
       4.4235907e-07 -7.8335426e-05 -4.0013747e-05 -1.7226626e-05
0003e0 dc ca 07 b9 7b 35 88 38 39 da d9 38 42 30 fe b8
       -0.00012950174 6.494947e-05 0.000103880135 -0.000121206525
0003f0 2e a6 4d 39 93 35 9e 38 5b 26 83 b8 c5 b9 68 39
       0.0001961223 7.544006e-05 -6.253711e-05 0.00022194449

base.conv4.res_layer.4.weight f4 [16]
000000 dc e6 cc 3e b5 71 d2 39 84 5b 0d 3e f9 12 70 3e
       0.40019882 0.0004013904 0.13804442 0.23444737
000010 aa e3 87 3e 96 43 aa 3e f8 1f 9b 3e 4e d9 df 3e
       0.2654088 0.3325469 0.30297828 0.43720478
000020 f8 64 ca 3e 58 dd a0 3a 61 0e c0 bc 00 ec a7 3e
       0.39530158 0.0012272997 -0.023444356 0.3279724
000030 8d 2b c4 3e 4b fd 91 3e 1c 95 8b 3e 50 56 90 3e
       0.38314477 0.2851356 0.272622 0.2819085

base.conv4.res_layer.4.bias f4 [16]
000000 df 72 d8 be 9d ea a9 be 4b 34 52 be a7 ba fa be
       -0.4227514 -0.33186808 -0.2052776 -0.4897053
000010 35 0c 4c be b7 2e b4 3d dd 48 8f be 33 92 af bc
       -0.19926532 0.08797973 -0.27985278 -0.021432018
000020 5b 12 92 bd 60 37 8b be 70 a3 74 be d1 6b 6d be
       -0.07132407 -0.27190685 -0.23890471 -0.2318566
000030 67 09 e2 be b8 3d 82 be 1c c4 11 bf ce 10 4e 3d
       -0.44147798 -0.25437713 -0.56939864 0.050308995

base.conv4.res_layer.4.running_mean f4 [16]
000000 3e 55 b3 3e 7d 92 0a be 85 a3 67 bc a1 f4 91 3d
       0.35025972 -0.13532443 -0.014138107 0.071267374
000010 b1 05 ce 3e 07 de 50 be f7 96 d0 3e 75 6e 27 3d
       0.40238717 -0.20397197 0.40740177 0.040876824
000020 c0 13 50 3d 92 7b 16 3e c9 99 99 be 2a 66 72 be
       0.050800085 0.14695576 -0.3000014 -0.23671785
000030 cc 72 d8 be a0 4f 04 3d ba 83 75 bd b4 15 1d 3e
       -0.42275083 0.0323025 -0.059940077 0.1534031

base.conv4.res_layer.4.running_var f4 [16]
000000 fd e8 dc 3d ea 70 11 3e 22 78 d4 3d ac 27 b5 3d
       0.107866265 0.1420323 0.10374476 0.088454574
000010 ce a9 59 3d 0f 53 b4 3d 87 10 c5 3d 0e 48 c1 3d
       0.053140454 0.08804905 0.09622293 0.094375715
000020 85 35 be 3d 67 62 c0 3d e6 ee fd 3d fa 07 ff 3d
       0.09287552 0.09393769 0.12399082 0.12452693
000030 ed 4b 0c 3e 46 0f 92 3d 98 a3 8d 3d 1e 25 6f 3d
       0.13700838 0.071318194 0.06915969 0.058385007

base.m0.b2_1.0.shortcut_layer.0.weight f4 [16, 16, 1, 1]
000000 92 14 72 3e ff f2 79 3e 39 dd bf bc 49 36 43 3e
       0.2364066 0.24409102 -0.023420917 0.19063677
000010 c6 b4 a2 be 44 8a 55 3c ed b9 fc 3d 2a 27 32 be
       -0.31778544 0.013033453 0.1234015 -0.17397752
000020 07 e3 d4 bd e6 15 9c 3d 94 20 32 3e 7b 45 24 bd
       -0.103948645 0.07621364 0.1739524 -0.040105324
000030 63 2e 97 3e a1 6f ec bd 57 d1 79 3e a2 38 00 3e
       0.29527578 -0.11544729 0.24396263 0.12521604
000040 91 0e bc bd 69 27 a7 bd 6e e6 cc 3c a2 22 00 be
       -0.09182466 -0.08161814 0.025012221 -0.12513211
000050 9d ff 84 be 4b ea 8e be dc a8 8a 3b b0 f9 de bd
       -0.25976267 -0.27913126 0.0042315554 -0.10887468
000060 2d a2 a3 3c a4 9e a2 3d 70 55 61 bd 8e 8f a5 bd
       0.019974792 0.079404145 -0.05501312 -0.080840215
000070 97 ef 6a be f9 f9 32 be b1 de 5f be ed 0b b8 bd
       -0.22942959 -0.1747817 -0.21862294 -0.0898665
000080 b5 41 f4 3c 82 e0 e0 3d 67 68 a8 3d a7 ff 16 3f
       0.029816488 0.109803215 0.08223038 0.58983845
000090 e2 01 b8 bd 4f ea 88 3c f1 92 be 3d 04 0a 8d 3d
       -0.08984734 0.01671329 0.093053706 0.06886676
0000a0 82 7d c7 bc fa 69 e2 bc a3 42 4a bd b7 60 d5 bd
       -0.024351839 -0.027638424 -0.049379956 -0.104188375
0000b0 20 70 c1 be 13 53 cf 3c aa 6a fd bd a1 d9 06 bd
       -0.37780857 0.025308168 -0.1237386 -0.03292239
0000c0 8f 23 35 3d 00 45 44 3e bd b2 bd bc 5d 37 84 3e
       0.044223364 0.19166946 -0.023156518 0.2582349
0000d0 fc 13 f6 bb d6 59 47 bc 78 10 fc bd d7 03 5d be
       -0.0075097065 -0.012167415 -0.12307829 -0.21583496
0000e0 0f 61 b6 bd c3 41 ac 3d e0 59 2b 3c d6 62 1b 3e
       -0.08905231 0.084109806 0.01045844 0.15174422
0000f0 d8 61 2d 3e 00 05 91 bd 3c 1d 28 be 4a 96 9d be
       0.16931856 -0.07081032 -0.16417402 -0.30778724
000100 be 82 31 3e e0 de 76 be 72 c1 3d be 92 ff 4c be
       0.1733503 -0.24108458 -0.18530825 -0.20019367
000110 68 77 22 3e fa 62 96 be c8 43 6d bd c9 61 69 3e
       0.15865862 -0.29372388 -0.05792597 0.22791208
000120 62 af 7f bd ef b3 23 bd 1d 48 7a bd de d4 8c bd
       -0.062423117 -0.03996652 -0.06110393 -0.06876539
000130 d2 90 46 bc 23 fd 97 be 17 9d 02 3d fa 4e 03 3e
       -0.012119489 -0.29685315 0.031888094 0.12823096
000140 d8 1f a6 3d 79 39 2d 3d ac 14 23 3d 66 9a 3c be
       0.081115425 0.04229114 0.039814636 -0.18418273
000150 4d f8 9c be f0 64 16 3e 98 a5 54 bd 00 ff 5e 3d
       -0.30658188 0.14686942 -0.051915735 0.054442406
000160 c4 6b 72 3e 88 04 3a bd e0 44 b3 bd 94 1d 95 b9
       0.23673922 -0.045414478 -0.08753371 -0.00028441532
000170 6b c4 99 be c3 00 82 bc 05 e5 09 3e 32 29 98 3d
       -0.30032668 -0.015869504 0.1346627 0.074297324
000180 2c 39 2a 3e a6 7f 04 be d0 d5 1d be a1 fd b4 3c
       0.16623372 -0.12939319 -0.15413594 0.022093596
000190 9b c3 ae 3d 90 8a 57 be 82 c7 75 3c 23 67 4b bd
       0.085334025 -0.21048951 0.01500118 -0.049658906
0001a0 c7 2b 09 3e 6d 92 de bd bd 83 cc bd f6 4b aa bc
       0.13395606 -0.10867772 -0.099860646 -0.020788174
0001b0 01 2c c8 3d 0f 8a c3 bd d7 d2 02 be 07 56 76 be
       0.09774018 -0.09547817 -0.12775742 -0.24056254
0001c0 be 79 5b bc 04 58 7a 3d 21 05 6b bd 4f 95 82 be
       -0.013395725 0.061119094 -0.05737794 -0.25504538
0001d0 3a b8 0f be 61 56 69 bd ca e3 7b 3b d5 a8 76 3e
       -0.1403512 -0.056967143 0.0038435333 0.24087842
0001e0 55 58 e2 3d af a7 06 bd 32 9b 5a 3c cb 58 63 3d
       0.11052004 -0.03287476 0.0133426655 0.0555046
0001f0 7e c0 d6 3c 9f d9 24 3e 65 4f d1 bc 86 57 46 3a
       0.026214834 0.16098641 -0.025550554 0.00075661426
000200 b8 d0 14 be b4 37 49 be 76 59 ce bc 8b 0d 46 be
       -0.14532745 -0.19650155 -0.025189143 -0.19341104
000210 f2 ce 46 3e 4d 92 eb bc 7c 2a 95 3d dc 2b 55 be
       0.19414881 -0.028756285 0.07283494 -0.20817512
000220 76 0d 57 3e 5e 5e 1c 3a 55 7d 8d bd f9 66 06 bd
       0.21001229 0.00059649895 -0.06908671 -0.032813046
000230 23 61 fe 3b cd 20 55 be 32 dc c9 3c ce 54 13 bd
       0.0077630444 -0.20813294 0.02464113 -0.035969548
000240 31 93 c1 be 00 5c f5 bb d8 66 11 bd ba 65 a4 3d
       -0.3780761 -0.007487774 -0.03549847 0.08027215
000250 07 a4 33 be 4a e1 f1 bd c0 b8 91 bd cc f7 10 be
       -0.1754304 -0.118105486 -0.071153164 -0.14157027
000260 3c c3 42 be b1 c2 ef 3b fc 66 f2 3a e0 72 c2 3c
       -0.19019789 0.00731691 0.0018493827 0.023736417
000270 bd 4d 7b 3d 47 57 4d 3e a0 77 8b 3e 6d c6 d9 3d
       0.061353434 0.20052825 0.27239704 0.1063355
000280 a5 e8 85 be 6c 44 1c 3e f7 8d 69 bd f5 b7 c1 3d
       -0.26154056 0.15260476 -0.057020154 0.09458915
000290 d9 a1 6b 3e 8c a6 ef bd 84 86 31 3d 81 28 24 bb
       0.23010959 -0.11701688 0.043341175 -0.0025048556
0002a0 3c da 87 3e c1 2e b3 bc b7 4d 1d 3e 02 83 79 bd
       0.26533687 -0.02187288 0.15361677 -0.060915954
0002b0 6f 07 99 3d d2 95 c1 3d 5a 7c a9 bc b6 73 87 3e
       0.07472121 0.09452404 -0.020689178 0.26455468
0002c0 e0 15 dd 3c 2e 27 a7 3d e7 ed 70 bd 62 88 22 be
       0.02698797 0.0816177 -0.05882063 -0.15872338
0002d0 6c a9 b4 3c a0 2c a1 bd 98 ba 2d 3d 28 a5 f5 3d
       0.022053443 -0.0786984 0.042414278 0.11994392
0002e0 78 3d a8 bd fb 5b 76 bd fb 31 f9 bd 6c b3 5c 3c
       -0.08214849 -0.060146313 -0.12167736 0.013470512
0002f0 b9 fa a7 3d cb d3 71 3e 76 4d bf be 64 d3 c8 bd
       0.082021184 0.23615949 -0.37363786 -0.098059446
000300 cb 6a ff 3c 54 17 2c bd 4a ca 17 3e 61 b2 99 be
       0.031178853 -0.042014435 0.14823261 -0.30018905
000310 fd fe 39 3e 11 ce 5b 3e d7 64 71 3e 3c 78 24 3d
       0.18163677 0.21465327 0.23573624 0.040153727
000320 57 04 bf 3c 4a cd 45 3c ee 42 72 bb 1c 98 f5 bc
       0.0233175 0.0120728705 -0.0036966163 -0.029979758
000330 3b 1b 2b be 3a 71 aa bc e2 03 b7 3d 0a 36 c1 3b
       -0.16709606 -0.020805944 0.089362875 0.0058963345
000340 c0 f1 4f bd 26 06 2e bc 4a 75 e0 3c 8f 56 a0 be
       -0.05076766 -0.010621583 0.027399678 -0.3131604
000350 9f d1 7e bd 28 c7 df 3d dc 16 3c 3d b3 dd 1a 3e
       -0.06221163 0.10926658 0.045920238 0.15123634
000360 d6 95 5e be 90 29 30 bd 5f 7a 7d bc e4 02 4c 3e
       -0.21736845 -0.043008387 -0.01547107 0.19922978
000370 58 1a 38 be ee 86 d3 bd 37 71 99 3e ad 0b 2d 3d
       -0.179788 -0.1032847 0.2996919 0.042247463
000380 30 3e 90 be dc d5 25 be de fc f9 3d 6e 35 6d 3e
       -0.28172445 -0.16194862 0.12206434 0.23164913
000390 ec 7d 97 3d 4f c4 10 3e f3 ce cb bd 28 ef 94 3e
       0.073970646 0.14137386 -0.09951582 0.29088712
0003a0 2d f4 99 3b b8 f7 7d bc 99 3f 90 3d c8 c4 a8 bd
       0.0046982975 -0.015500955 0.0704338 -0.08240658
0003b0 76 d8 14 3e 93 2d 4d be a1 ca 80 be 48 f5 70 3e
       0.14535698 -0.20036916 -0.25154594 0.23531067
0003c0 00 3f 19 3d c1 62 6e 3e 7d cb fe 3d bd db b1 3e
       0.037413597 0.23279859 0.12441156 0.3473796
0003d0 e2 14 8e 3d 70 88 7b bc f7 c8 11 be f4 f7 72 3b
       0.06937577 -0.015352353 -0.14236818 0.003707406
0003e0 07 61 c2 3c 2c 54 00 3e ff a6 d0 3d eb d9 56 3e
       0.023727907 0.12532109 0.10188102 0.20981567
0003f0 d4 29 4d bd 0e 25 66 3e d6 2e 9e 3e 60 1c 61 3a
       -0.05008872 0.22475073 0.30895108 0.0008587297

base.m0.b2_1.0.shortcut_layer.1.weight f4 [16]
000000 a7 1f 42 3e 70 44 02 3e d6 c5 27 3e f3 a2 1b 3e
       0.18957387 0.1272142 0.16384062 0.15198879
000010 fd 4e 37 3e 84 91 05 3e ed c9 02 3e e9 94 e3 3d
       0.17901225 0.13043791 0.12772341 0.11112387
000020 ed 02 0c 3e e6 a5 17 3e 83 76 08 3e 93 65 18 3e
       0.13672991 0.14809379 0.13326459 0.14882497
000030 f9 a0 c1 3d 39 94 1d 3e 1e 0b 4b 3e 92 a5 05 3e
       0.09454531 0.15388574 0.1982846 0.13051441

base.m0.b2_1.0.shortcut_layer.1.bias f4 [16]
000000 9f 5c 06 be 67 bd 05 bd 5a be e5 bd 92 00 0a 3e
       -0.1312127 -0.03265133 -0.11217947 0.1347678
000010 12 fc a8 3c 66 55 33 3e 69 24 98 be 82 00 20 3e
       0.020628009 0.17513046 -0.2971528 0.15625194
000020 fb 10 c5 bc fb ba 8c 3d 33 ef 03 be 61 be 82 bb
       -0.024055948 0.06871601 -0.12884216 -0.00398998
000030 7a 26 7b 3d 16 34 37 bd dd 24 0a 3d cb 3f 63 bd
       0.06131599 -0.044727407 0.03372656 -0.05548076
