Pruned Models/ERESFD/FPGM/ERES20_FPGM.pth (torch, 540968 bytes, 400 tensors)

base.conv1.0.weight f4 [8, 3, 5, 5]
0	0xbde65893	-0.11247363
1	0x3df13217	0.11777132
2	0x3ccce537	0.025011642
3	0xbdcbd843	-0.09953358
4	0xbd742c52	-0.05961258
5	0xbd373a5a	-0.044733383
6	0x3e4137bc	0.18868917
7	0x3e3ecf13	0.1863368
8	0x3de790c3	0.11306908
9	0x3dc8b543	0.09800198
10	0xbe17972e	-0.14803764
11	0xbb3f3a53	-0.002917905
12	0x3da00541	0.07813502
13	0x3db18be2	0.08669259
14	0x3da5f5d3	0.08103528
15	0xbe5891dc	-0.21149391
16	0xbe03da3e	-0.12876222
17	0xbcfe9e10	-0.03108123
18	0x3d11e1de	0.035615794
19	0x3d798c4f	0.060924824
20	0xbcf15618	-0.029459998
21	0x3d95369a	0.07285805
22	0x3e385026	0.17999324
23	0x3e6309cf	0.2217171
24	0x3e40f067	0.18841706
25	0xbe2fb71a	-0.17159691
26	0x3cbb8c0f	0.022893934
27	0xbdb6f306	-0.08933072
28	0xbe743d83	-0.2385159
29	0xbe55ae17	-0.20867191
30	0xbdaf3e2a	-0.08556779
31	0x3d9fcd74	0.07802859
32	0x3c79cf07	0.015247113
33	0xbde1187d	-0.10990999
34	0xbe191a0d	-0.14951344
35	0xbe1c817a	-0.15283766
36	0xbddfdddb	-0.109309874
37	0xbde1fc2b	-0.11034425
38	0xbe376b71	-0.1791208
39	0xbe57102d	-0.21002264
40	0xbe4443de	-0.19166514
41	0xbe69ac80	-0.2281971
42	0xbe6a875c	-0.22903198
43	0xbe7c557a	-0.24641982
44	0xbe7254e9	-0.23665203
45	0xbd384c0c	-0.0449944
46	0xbd8db22e	-0.06918751
47	0xbd63ac48	-0.055584222
48	0xbda351ad	-0.07974563
49	0xbdd901ff	-0.10596084
50	0x3d110fd1	0.035415474
51	0x3e64ae72	0.2233217
52	0x3df6c773	0.12049761
53	0xbc7e7061	-0.015529723
54	0xbb7b09e7	-0.0038305463
55	0x3e11c3b5	0.14234813
56	0x3e9b7f6f	0.30370662
57	0x3e81e242	0.25367934
58	0x3e065be8	0.13120997
59	0x3d9d8052	0.07690491
60	0x3dc60692	0.09669222
61	0x3e13cefe	0.1443443
62	0x3e1e381b	0.1545109
63	0x3daa5268	0.08316499
64	0x3d08b9fd	0.033380497
65	0x3c894cee	0.016760316
66	0xbaf8d13a	-0.0018983253
67	0x3ba27ca5	0.0049587064
68	0xbc863b15	-0.016385594
69	0xbd0909a1	-0.03345645
70	0x3d9df9f1	0.07713688
71	0x3da4f181	0.08053876
72	0x3dd85047	0.10562187
73	0x3da31fcd	0.0796505
74	0x3d1b1b65	0.037867922
75	0x80000000	-0.0
76	0x80000000	-0.0
77	0x80000000	-0.0
78	0x80000000	-0.0
79	0x80000000	-0.0
80	0x80000000	-0.0
81	0x80000000	-0.0
82	0x80000000	-0.0
83	0x80000000	-0.0
84	0x80000000	-0.0
85	0x80000000	-0.0
86	0x80000000	-0.0
87	0x80000000	-0.0
88	0x80000000	-0.0
89	0x80000000	-0.0
90	0x80000000	-0.0
91	0x80000000	-0.0
92	0x80000000	-0.0
93	0x80000000	-0.0
94	0x80000000	-0.0
95	0x80000000	-0.0
96	0x80000000	-0.0
97	0x80000000	-0.0
98	0x80000000	-0.0
99	0x80000000	-0.0
100	0x80000000	-0.0
101	0x80000000	-0.0
102	0x80000000	-0.0
103	0x80000000	-0.0
104	0x80000000	-0.0
105	0x80000000	-0.0
106	0x80000000	-0.0
107	0x80000000	-0.0
108	0x80000000	-0.0
109	0x80000000	-0.0
110	0x80000000	-0.0
111	0x80000000	-0.0
112	0x80000000	-0.0
113	0x80000000	-0.0
114	0x80000000	-0.0
115	0x80000000	-0.0
116	0x80000000	-0.0
117	0x80000000	-0.0
118	0x80000000	-0.0
119	0x80000000	-0.0
120	0x80000000	-0.0
121	0x80000000	-0.0
122	0x80000000	-0.0
123	0x80000000	-0.0
124	0x80000000	-0.0
125	0x80000000	-0.0
126	0x80000000	-0.0
127	0x80000000	-0.0
128	0x80000000	-0.0
129	0x80000000	-0.0
130	0x80000000	-0.0
131	0x80000000	-0.0
132	0x80000000	-0.0
133	0x80000000	-0.0
134	0x80000000	-0.0
135	0x80000000	-0.0
136	0x80000000	-0.0
137	0x80000000	-0.0
138	0x80000000	-0.0
139	0x80000000	-0.0
140	0x80000000	-0.0
141	0x80000000	-0.0
142	0x80000000	-0.0
143	0x80000000	-0.0
144	0x80000000	-0.0
145	0x80000000	-0.0
146	0x80000000	-0.0
147	0x80000000	-0.0
148	0x80000000	-0.0
149	0x80000000	-0.0
150	0xbe29b620	-0.16573381
151	0xbe574789	-0.21023382
152	0xbe81cb60	-0.25350475
153	0xbe8f7750	-0.28020716
154	0xbe38349e	-0.17988822
155	0xbe8e7a35	-0.27827612
156	0xbeb795c9	-0.35856465
157	0xbebdf8ed	-0.37103978
158	0xbebad20d	-0.3648838
159	0xbe202977	-0.15640818
160	0xbe635ee2	-0.22204164
161	0xbeb34210	-0.3501134
162	0xbec9e188	-0.3942988
163	0xbec62cca	-0.38706046
164	0xbe86e889	-0.26349285
165	0xbe3b4687	-0.18288623
166	0xbea89260	-0.32924175
167	0xbecd1772	-0.4005695
168	0xbecd193c	-0.40058315
169	0xbeb812dc	-0.3595189
170	0xbe3695eb	-0.17830627
171	0xbe8966dd	-0.2683629
172	0xbea526b2	-0.32256085
173	0xbea0bfe7	-0.3139641
174	0xbe6ac845	-0.2292796
175	0x3e1111c4	0.14166933
176	0x3e6e44a4	0.23268372
177	0x3e5f3bbd	0.21800132
178	0x3e135130	0.1438644
179	0x3dcb9cb4	0.09941998
180	0x3df7d9c4	0.12102082
181	0x3e7296e7	0.23690377
182	0x3e90c40a	0.28274566
183	0x3e82add7	0.25523254
184	0x3e93a6f3	0.2883831
185	0x3e3bb7a0	0.18331766
186	0x3e917d73	0.28416023
187	0x3eb28c4b	0.3487266
188	0x3eac70a1	0.3367968
189	0x3ea0e2f5	0.31423154
190	0x3e4cbc44	0.19993693
191	0x3e91bc0b	0.28463778
192	0x3ea944b0	0.33060217
193	0x3eb79911	0.35858968
194	0x3e9614a4	0.29312623
195	0x3ddf15b7	0.10892814
196	0x3e688934	0.22708589
197	0x3e930baa	0.28719836
198	0x3eb68097	0.3564498
199	0x3ec0e92e	0.37677902
200	0x3dca282c	0.098709434
201	0x3e0b0161	0.13574745
202	0x3d772426	0.06033721
203	0xbd318b29	-0.043345604
204	0xbe1c6344	-0.15272242
205	0x3d8f9b71	0.0701207
206	0x3e02c716	0.12771258
207	0x3dfcb4e1	0.123391874
208	0x3d6fcfe4	0.05854787
209	0x3d092f33	0.03349228
210	0x3d4500f7	0.048096623
211	0x3dd6f9e9	0.10496885
212	0x3df106f9	0.11768908
213	0x3da8b37a	0.082373574
214	0x38c5993b	9.4222334e-05
215	0x3cae25ac	0.021258198
216	0x3da554a2	0.08072783
217	0x3d9ae208	0.07562643
218	0x3d8ed93c	0.06975028
219	0xbd144bef	-0.03620523
220	0xbdff0b5f	-0.12453341
221	0xbcf0efce	-0.029411223
222	0xbca96fce	-0.020683195
223	0x3ce111bd	0.027474279
224	0x3c3cbb7e	0.011519311
225	0xbdff14ca	-0.12455137
226	0xbd8b21d9	-0.06793565
227	0x3dc3fe68	0.095700085
228	0x3e2c95bf	0.16853999
229	0x3e1de42d	0.15419073
230	0xbe19474f	-0.14968608
231	0x3d08010e	0.03320413
232	0x3e3d3521	0.18477298
233	0x3dc87537	0.09787982
234	0xbde040c8	-0.10949856
235	0xbe22b271	-0.15888382
236	0x3d041153	0.032243084
237	0x3e02bbbb	0.12766926
238	0xbd35a625	-0.0443479
239	0xbeb98a3e	-0.36238283
240	0xbe024f51	-0.1272557
241	0x3dcdce4d	0.100491144
242	0x3e005e3d	0.12535949
243	0xbd6dbace	-0.05803948
244	0xbed31463	-0.4122649
245	0xbe00c5fa	-0.12575522
246	0x3e0f015a	0.1396536
247	0x3e84b665	0.25920406
248	0x3dd92196	0.10602109
249	0xbe4c19de	-0.19931743
250	0xbc0bd231	-0.008534
251	0x3d7acb51	0.061229054
252	0x3e3d43dc	0.18482918
253	0x3e9e832f	0.3095946
254	0x3e8d39c3	0.2758313
255	0xbceabdf4	-0.02865503

base.conv1.1.weight f4 [8]
0	0x3dd188c4	0.10231164
1	0x8000255f	-1.3406e-41
2	0x3e97310c	0.29529607
3	0x3e5bc886	0.21463212
4	0x3deafb27	0.11473685
5	0x3eb5d770	0.35515928
6	0x3ec52dea	0.38511592
7	0x3ebbd4dc	0.36685836

base.conv1.1.bias f4 [8]
0	0xbece5cfc	-0.40305316
1	0xbe5f4298	-0.21802747
2	0xbe7666a2	-0.24062589
3	0xbf059399	-0.5217834
4	0x3dec7be3	0.11547067
5	0x3e25ece1	0.16203643
6	0x3df7c302	0.12097742
7	0x3dc4fd2e	0.09618603

base.conv1.1.running_mean f4 [8]
0	0x4192a6e9	18.3315
1	0x00000004	6e-45
2	0xc1502efb	-13.01147
3	0xc119d550	-9.614578
4	0x40c8fda9	6.2809644
5	0xc147420e	-12.453627
6	0x413b028d	11.688123
7	0xc117142e	-9.442427

base.conv1.1.running_var f4 [8]
0	0x4581e9b6	4157.214
1	0x00000004	6e-45
2	0x4774be84	62654.516
3	0x456a2d36	3746.8257
4	0x44810014	1032.0024
5	0x4608268d	8713.638
6	0x45e37c1c	7279.5137
7	0x45bb370b	5990.8804

base.conv2.0.weight f4 [8, 8, 3, 3]
0	0xbe0808e6	-0.13284644
1	0x3da4980c	0.08036813
2	0x3ce7d1e0	0.028298318
3	0x3d97cc3a	0.07412
4	0x3e582d92	0.21111134
5	0xbe5a32f2	-0.21308497
6	0xbb8145ad	-0.0039450736
7	0xbe20c233	-0.15699081
8	0x3e1355b3	0.1438816
9	0xbb8e3a5e	-0.004340454
10	0xbd9f83c1	-0.07788802
11	0x3c5c173e	0.013433276
12	0x3e14df40	0.14538288
13	0xbd64862c	-0.05579202
14	0x3d0c7272	0.03428883
15	0xbcc4b94b	-0.024014136
16	0xbd31a246	-0.043367647
17	0x3d42f764	0.04759921
18	0x3dedb4f3	0.11606779
19	0xbd3716ca	-0.044699468
20	0x3e6bf09f	0.23041008
21	0x3e4e086a	0.20120397
22	0xbff5d6ae	-1.920614
23	0xbe4644c1	-0.19362165
24	0x3ea56294	0.32301772
25	0xbefe21af	-0.49635074
26	0x3d9613ce	0.07327996
27	0xbcad0254	-0.021119274
28	0x3d1baa32	0.038004108
29	0xbc6a0503	-0.014283421
30	0x3d8afff9	0.06787104
31	0xbd8f0a92	-0.06984438
32	0xbcd24bce	-0.025670912
33	0xbc36dc03	-0.011160853
34	0xbc8663c0	-0.016404986
35	0xbc9585de	-0.01825231
36	0xbe071d68	-0.13194811
37	0x3dd7868f	0.10523712
38	0xbcbb14da	-0.022837091
39	0x3d6077b5	0.05480166
40	0x3e92d40f	0.28677413
41	0xbe910173	-0.28321418
42	0x3b949538	0.00453439
43	0xbe3ffaa2	-0.18747953
44	0x3d83fc8d	0.064446546
45	0xbb97de73	-0.0046346723
46	0xbc3d0ea4	-0.011539135
47	0x3c401165	0.011722897
48	0x3c357179	0.011074417
49	0xbbc32306	-0.005955103
50	0x3c8c40a8	0.017120674
51	0xbc2a73fe	-0.010403631
52	0x3c8c3680	0.017115831
53	0x3c462fab	0.012096326
54	0x3c6ebb7a	0.014571065
55	0xbd0056ea	-0.031332888
56	0x3bcd4cb0	0.0062652454
57	0x3c9c50b4	0.019081451
58	0xbc144dde	-0.009051768
59	0x3b5431b1	0.0032378251
60	0xbcfafd1b	-0.030638268
61	0x3cb8f2e7	0.022576762
62	0xbc162ec4	-0.009166423
63	0x3cebc693	0.028781211
64	0xbd23efb6	-0.040023528
65	0x3c6d8baa	0.014498631
66	0x3bf4fb77	0.007476266
67	0xbdcade0c	-0.09905633
68	0x3d5190dd	0.051163543
69	0x3c73ad76	0.014872899
70	0x3dbda34d	0.09259663
71	0xbd12cc44	-0.035839334
72	0x80000000	-0.0
73	0x80000000	-0.0
74	0x80000000	-0.0
75	0x80000000	-0.0
76	0x80000000	-0.0
77	0x80000000	-0.0
78	0x80000000	-0.0
79	0x80000000	-0.0
80	0x80000000	-0.0
81	0x00000000	0.0
82	0x00000000	0.0
83	0x00000000	0.0
84	0x00000000	0.0
85	0x00000000	0.0
86	0x00000000	0.0
87	0x00000000	0.0
88	0x80000000	-0.0
89	0x80000000	-0.0
90	0x00000000	0.0
91	0x00000000	0.0
92	0x00000000	0.0
93	0x00000000	0.0
94	0x00000000	0.0
95	0x00000000	0.0
96	0x00000000	0.0
97	0x00000000	0.0
98	0x80000000	-0.0
99	0x00000000	0.0
100	0x00000000	0.0
101	0x80000000	-0.0
102	0x00000000	0.0
103	0x80000000	-0.0
104	0x00000000	0.0
105	0x00000000	0.0
106	0x00000000	0.0
107	0x00000000	0.0
108	0x80000000	-0.0
109	0x80000000	-0.0
110	0x80000000	-0.0
111	0x80000000	-0.0
112	0x80000000	-0.0
113	0x80000000	-0.0
114	0x80000000	-0.0
115	0x00000000	0.0
116	0x80000000	-0.0
117	0x00000000	0.0
118	0x80000000	-0.0
119	0x00000000	0.0
120	0x00000000	0.0
121	0x80000000	-0.0
122	0x00000000	0.0
123	0x00000000	0.0
124	0x80000000	-0.0
125	0x00000000	0.0
126	0x00000000	0.0
127	0x80000000	-0.0
128	0x00000000	0.0
129	0x00000000	0.0
130	0x80000000	-0.0
131	0x80000000	-0.0
132	0x00000000	0.0
133	0x80000000	-0.0
134	0x80000000	-0.0
135	0x00000000	0.0
136	0x00000000	0.0
137	0x80000000	-0.0
138	0x00000000	0.0
139	0x00000000	0.0
140	0x80000000	-0.0
141	0x00000000	0.0
142	0x00000000	0.0
143	0x00000000	0.0
144	0xbc8a6277	-0.016892655
145	0xbd2cc09f	-0.042175885
146	0x3db3b2b0	0.08774316
147	0xbe560492	-0.20900181
148	0xbe68ef1e	-0.22747466
149	0x3e186e5c	0.14885849
150	0x3b3257b7	0.0027212927
151	0x3e41fedf	0.18944882
152	0x3d999c1e	0.0750048
153	0xbe05cf32	-0.1306732
154	0x3e7e6299	0.248423
155	0xbcbc496b	-0.022984227
156	0xbe8c009f	-0.27344224
157	0x3e4adecc	0.19811553
158	0xbce4969f	-0.027903853
159	0xbe31b260	-0.17353201
160	0x3decef89	0.11569125
161	0x3d2d0310	0.04223925
162	0x3d3d3261	0.046190623
163	0xbcdf1a58	-0.027234241
164	0xbc0af14d	-0.008480382
165	0x3cac0c64	0.021002002
166	0xbcdab161	-0.026695909
167	0xbda547fe	-0.08070372
168	0x3cc19130	0.023628801
169	0x3db72ca5	0.08944062
170	0x382c54fe	4.108715e-05
171	0xbc70b3f8	-0.014691345
172	0xbe65b21d	-0.22431226
173	0x3d502bb0	0.050822914
174	0xbe9aa7a9	-0.3020604
175	0x3e2334ff	0.15938185
176	0x3eb74c18	0.35800242
177	0x3d2b80bc	0.041870818
178	0xbdc1f721	-0.09470964
179	0x3d0a05e6	0.03369703
180	0xbb444ba2	-0.0029952307
181	0x3dd31e29	0.10308487
182	0xbd56a7b0	-0.052406013
183	0x3e4283c6	0.1899558
184	0xbd09ba63	-0.033625018
185	0xbe20b93e	-0.15695664
186	0xbd936b25	-0.071981706
187	0xbd089e9c	-0.033354387
188	0x3bba40c5	0.0056839907
189	0x3d457ee6	0.048216723
190	0xbcfa9b65	-0.030591676
191	0xbe557fd8	-0.2084955
192	0xbdef30d4	-0.11679235
193	0x3edd9a01	0.43281558
194	0x3e1ded63	0.15422587
195	0x3cd8f3ec	0.026483499
196	0x3d21231f	0.039340135
197	0xbddfc044	-0.10925344
198	0xbd991b88	-0.07475954
199	0x3e03777e	0.12838551
200	0xbe54df5a	-0.20788327
201	0x3e152f28	0.1456877
202	0x3f16dff9	0.58935505
203	0xbeb4d0e8	-0.35315633
204	0x3c634493	0.01387133
205	0xbd7c218a	-0.061555423
206	0xbc361424	-0.0111132
207	0x3d2388d9	0.03992543
208	0x3e6470e4	0.2230869
209	0x3d24a0ac	0.04019229
210	0x3e9d8c23	0.30770978
211	0xbf96abdc	-1.1771197
212	0x3e5427f3	0.20718364
213	0x3a94c193	0.0011349194
214	0xbd8e0e7e	-0.06936358
215	0x3e1834e4	0.14863926
216	0xbd1b9176	-0.03798052
217	0xbe169a3f	-0.14707278
218	0xbdc1ce41	-0.09463168
219	0x3dcaf056	0.09909122
220	0xbde2389a	-0.11045952
221	0x3cb563fc	0.022142403
222	0x3d85a15f	0.0652492
223	0x3e24c5f6	0.16091141
224	0x3df670e4	0.12033251
225	0xbd9098b4	-0.07060376
226	0xbe28e2e1	-0.16492797
227	0xbea4d38d	-0.3219265
228	0x3f13ef6c	0.57787204
229	0x3ece4e69	0.40294197
230	0xbed28087	-0.41113684
231	0x3ea97a03	0.331009
232	0x3e0a1fa9	0.1348864
233	0xbeb74fd6	-0.35803097
234	0xbcaf5caf	-0.0214065
235	0xbdc63ee0	-0.09679961
236	0x3d85e1c8	0.06537205
237	0xbc11e8ce	-0.008905603
238	0xbcef94d2	-0.029245768
239	0xbd56e5c0	-0.0524652
240	0x3d0dd6d1	0.034628693
241	0xbc8bccae	-0.017065372
242	0x3d5bf885	0.053703804
243	0xbc971aba	-0.018445361
244	0xbcbbba8e	-0.022916105
245	0x3cf4a285	0.029862652
246	0x3ecc00da	0.398444
247	0xbed7c4ae	-0.42142242
248	0x3d561ff9	0.052276585
249	0x3d925cca	0.07146604
250	0xbd3d5e46	-0.046232484
251	0x3cde9e5b	0.02717512
252	0x3d7e5cb3	0.062100124
253	0x3e344353	0.17603807
254	0xbe23eb8d	-0.16007824
255	0xbd3d6c92	-0.04624612

base.conv2.1.weight f4 [8]
0	0x3ed35c47	0.4128134
1	0x000027d7	1.4292e-41
2	0x3ed5cc4e	0.41757435
3	0x3ea94267	0.33058473
4	0x3e8dfd00	0.27732086
5	0x3eaeac94	0.34116042
6	0x3ea47d00	0.32126617
7	0x3ec3ee87	0.3826792

base.conv2.1.bias f4 [8]
0	0x3e8a7c1a	0.27047807
1	0x3dedf801	0.116195686
2	0xbccd5bf8	-0.025068268
3	0x3e81e54b	0.2537025
4	0x3f2b00e0	0.6679821
5	0x3e16be72	0.14721087
6	0x3e350968	0.1767937
7	0x3e4f6c89	0.20256247

base.conv2.1.running_mean f4 [8]
0	0x3ed8810b	0.42285952
1	0x00000004	6e-45
2	0x3c6fe26f	0.014641388
3	0xbe1b66d6	-0.15175948
4	0xbd9bf31b	-0.07614728
5	0xbe68e652	-0.2274411
6	0x3e09a69d	0.13442464
7	0x3e05ede8	0.13079035

base.conv2.1.running_var f4 [8]
0	0x3e8d48c9	0.27594593
1	0x00000004	6e-45
2	0x3e625ebd	0.22106452
3	0x3df17c24	0.11791256
4	0x3dde7c14	0.1086351
5	0x3dbfb30f	0.093603246
6	0x3e0b3594	0.13594657
7	0x3e3f8f4b	0.18707006

base.conv3.0.weight f4 [16, 8, 3, 3]
0	0x80000000	-0.0
1	0x00000000	0.0
2	0x00000000	0.0
3	0x00000000	0.0
4	0x00000000	0.0
5	0x00000000	0.0
6	0x00000000	0.0
7	0x00000000	0.0
8	0x00000000	0.0
9	0x00000000	0.0
10	0x80000000	-0.0
11	0x80000000	-0.0
12	0x00000000	0.0
13	0x00000000	0.0
14	0x80000000	-0.0
15	0x80000000	-0.0
16	0x80000000	-0.0
17	0x80000000	-0.0
18	0x80000000	-0.0
19	0x80000000	-0.0
20	0x80000000	-0.0
21	0x00000000	0.0
22	0x80000000	-0.0
23	0x80000000	-0.0
24	0x00000000	0.0
25	0x80000000	-0.0
26	0x80000000	-0.0
27	0x80000000	-0.0
28	0x00000000	0.0
29	0x00000000	0.0
30	0x00000000	0.0
31	0x00000000	0.0
32	0x00000000	0.0
33	0x00000000	0.0
34	0x00000000	0.0
35	0x00000000	0.0
36	0x80000000	-0.0
37	0x00000000	0.0
38	0x00000000	0.0
39	0x80000000	-0.0
40	0x80000000	-0.0
41	0x00000000	0.0
42	0x00000000	0.0
43	0x80000000	-0.0
44	0x80000000	-0.0
45	0x80000000	-0.0
46	0x80000000	-0.0
47	0x80000000	-0.0
48	0x80000000	-0.0
49	0x80000000	-0.0
50	0x80000000	-0.0
51	0x80000000	-0.0
52	0x80000000	-0.0
53	0x80000000	-0.0
54	0x00000000	0.0
55	0x80000000	-0.0
56	0x80000000	-0.0
57	0x80000000	-0.0
58	0x80000000	-0.0
59	0x80000000	-0.0
60	0x80000000	-0.0
61	0x80000000	-0.0
62	0x00000000	0.0
63	0x80000000	-0.0
64	0x00000000	0.0
65	0x00000000	0.0
66	0x80000000	-0.0
67	0x80000000	-0.0
68	0x80000000	-0.0
69	0x00000000	0.0
70	0x00000000	0.0
71	0x80000000	-0.0
72	0x3e01bfe0	0.12670851
73	0x3e9e5aa1	0.3092852
74	0xbd9b2a37	-0.07576411
75	0x3cc27ef7	0.023742182
76	0x3e224eb8	0.15850341
77	0xbe47ecff	-0.19524
78	0xbdeed894	-0.11662403
79	0xbd0a1f68	-0.033721358
80	0xbd9e24d8	-0.07721871
81	0xbd14233d	-0.03616642
82	0xbea941b1	-0.3305793
83	0xbddd8fc4	-0.10818437
84	0xbe82b7f7	-0.2553098
85	0xbe96c312	-0.29445702
86	0xbdc35ad2	-0.09538807
87	0xbb88c644	-0.0041740257
88	0x3cd69e51	0.026198538
89	0x3cc9201e	0.024551447
90	0x3d704758	0.05866179
91	0xbd73385b	-0.059379917
92	0x3d7c654a	0.061620034
93	0x3de15f6b	0.11004528
94	0xbe5eaac1	-0.21744825
95	0x3d5d059c	0.053960428
96	0x3c45729b	0.01205125
97	0x3c5edbcd	0.013602209
98	0xbc66ead5	-0.014094074
99	0x3df4466f	0.11927497
100	0x3cac204a	0.02101149
101	0x3c7bc5b8	0.015366964
102	0x3e26dc75	0.16295035
103	0xbe355a3c	-0.17710203
104	0x3e386161	0.18005897
105	0x3c919ac4	0.017773993
106	0xbcf22329	-0.029557781
107	0x3e305e11	0.17223383
108	0x3da2e850	0.07954466
109	0xbc8f3646	-0.017481934
110	0x3d37475e	0.044745795
111	0xbe70e0fe	-0.23523328
112	0xbea99dd2	-0.3312822
113	0x3cbe9b86	0.023267519
114	0xbdd56afc	-0.10420796
115	0xbf30bcad	-0.69037896
116	0x3d8bbfe9	0.06823713
117	0xbe09e490	-0.13466096
118	0x3cf7bd23	0.030241555
119	0x3d11c28d	0.03558593
120	0xbcca3469	-0.024683194
121	0xbdfd6ddc	-0.1237447
122	0x3e0820e6	0.132938
123	0x3de40243	0.11133244
124	0xbe29fb0d	-0.16599675
125	0x3c4d4389	0.012528309
126	0x3cc5fdc1	0.02416885
127	0xbe1a7da9	-0.15086998
128	0x3c2bffd5	0.010498007
129	0xbd6e4e66	-0.058180235
130	0xbce2613d	-0.027634257
131	0x3d0d47e0	0.034492373
132	0x3db02f95	0.086028256
133	0x3e04821b	0.12940256
134	0x3c5edb24	0.013602052
135	0xbcb98bb4	-0.022649623
136	0x3d140b72	0.036143728
137	0xbc42f6fc	-0.011899706
138	0xbe283d3a	-0.16429606
139	0xbf8170c3	-1.0112537
140	0xbe2a03d1	-0.16603018
141	0x3b3810cc	0.0028086184
142	0xbdda023d	-0.10644958
143	0xbcbbc721	-0.0229221
144	0xbcfecc14	-0.031103171
145	0x3d99a54b	0.0750223
146	0x3d77066a	0.06030885
147	0xbba0494c	-0.00489155
148	0xbd8f8b5e	-0.07009004
149	0x3bf23554	0.007391611
150	0xbd0d1357	-0.034442272
151	0xbe0570d8	-0.13031328
152	0xbd881151	-0.06643928
153	0x3d48e75d	0.04904877
154	0xbde6a945	-0.11262754
155	0xbdaeeb7f	-0.08541011
156	0x3caf8d52	0.021429691
157	0x3af516fe	0.0018698869
158	0x3d235fc2	0.039886244
159	0xbd0c8d8f	-0.03431469
160	0xbe30ee5e	-0.1727843
161	0x3d74f5a7	0.059804585
162	0x3cf97dbd	0.030455464
163	0x3c8076ce	0.01568165
164	0xbc145d84	-0.009055499
165	0x3d268d77	0.040662255
166	0xbe8255af	-0.25455996
167	0x3c9e8707	0.019351495
168	0xbce4b8fd	-0.02792024
169	0x3d6418c1	0.05568767
170	0xbd01a782	-0.03165389
171	0x3d97d247	0.07413154
172	0x3d8cbfcc	0.0687252
173	0x3d39abed	0.045329977
174	0x3d5c1607	0.053731944
175	0xbcd3b442	-0.02584279
176	0xbcbcb683	-0.023036247
177	0xbd946b87	-0.07247072
178	0xbdea702d	-0.11447177
179	0x3ca75977	0.020428402
180	0xbc12a7c9	-0.008951136
181	0x3adc9355	0.0016828576
182	0xbc88f813	-0.016719854
183	0x3d94dbad	0.07268462
184	0x3f35bc90	0.7099085
185	0xbc8543ad	-0.016267622
186	0x3de8fd8d	0.11376486
187	0x3f0493b5	0.51787883
188	0xbd58dc4c	-0.052944466
189	0xbd297349	-0.04136971
190	0xbcbb0131	-0.022827717
191	0x3bb5da4b	0.005549704
192	0xbe6f23d6	-0.23353514
193	0xbe8dd99d	-0.27705088
194	0x3d51de1b	0.051237207
195	0x3e0ec143	0.13940911
196	0x3e258dd8	0.1616739
197	0x39ae82f2	0.00033285428
198	0xbd9163cd	-0.070991136
199	0xbe2ef01f	-0.17083786
200	0xbe49af27	-0.19695722
201	0x3eafeb4e	0.3435921
202	0x3f77ae17	0.96750015
203	0xbb900db7	-0.004396166
204	0xbe184edb	-0.14873831
205	0xbe7c4acc	-0.24637908
206	0xbde07908	-0.10960585
207	0x3c28549d	0.01027408
208	0x3d921ff9	0.071350046
209	0xbaeed04f	-0.001822004
210	0xbe6e5c88	-0.23277485
211	0xbf839a51	-1.0281469
212	0xbe9333e8	-0.2875054
213	0xbd8a1ec4	-0.06744149
214	0x3e44b484	0.19209486
215	0x3da96e60	0.082730055
216	0x3e10b5b1	0.1413181
217	0x3e35b45e	0.17744586
218	0x3e854d57	0.26035568
219	0xbd3e4013	-0.046447825
220	0xbfabd5f6	-1.3424671
221	0xbe745b92	-0.23863056
222	0x3d9d10a8	0.076691926
223	0xbf037bd7	-0.5136084
224	0x3d0d96c4	0.03456761
225	0x3db685c6	0.08912234
226	0x3e9bd8fd	0.30438986
227	0x3d9b5cf9	0.075860925
228	0xbda8fb2e	-0.08251034
229	0x3d717cf8	0.05895707
230	0xbe5933dd	-0.2121119
231	0x3dc705e5	0.09717921
232	0xbd9d9689	-0.07694728
233	0xbe1ded7a	-0.15422621
234	0xbc86a570	-0.016436309
235	0x3d739e4a	0.059477128
236	0x3d67b94a	0.05657319
237	0xbc89ff40	-0.016845345
238	0x3cb3202d	0.021865929
239	0xbd6732de	-0.056444995
240	0x3d2b0f61	0.041762713
241	0x3c83e422	0.016099993
242	0xbba5dd96	-0.0050618155
243	0xbbddbed4	-0.0067671333
244	0x3cfacd50	0.030615479
245	0xbd0e92fc	-0.034808144
246	0x3d8964c6	0.06708674
247	0x3c102f88	0.008800395
248	0xbd36de8c	-0.04464583
249	0x3dd7d15d	0.1053798
250	0x3d981aa7	0.074269585
251	0x3d857d66	0.065180585
252	0xbd0ed269	-0.03486863
253	0xbd03edc0	-0.032209158
254	0x3c018dbf	0.00790733
255	0x3d997648	0.074932635

base.conv3.1.weight f4 [16]
0	0x8000199e	-9.19e-42
1	0x3efaaa87	0.48958227
2	0x3f0045ac	0.5010631
3	0x3f007f67	0.501944
4	0x3eca7845	0.39544883
5	0x3edce6fe	0.43144983
6	0x00002027	1.1534e-41
7	0x3e49713b	0.196721
8	0x800000e0	-3.14e-43
9	0x3eb8c9e5	0.36091533
10	0x3eb608b4	0.35553515
11	0x3e9fd2cd	0.31215516
12	0x3e87469e	0.26421064
13	0x3ebb66ff	0.36602017
14	0x3e8e1fb1	0.27758554
15	0x3ec1f2e0	0.3788061

base.conv3.1.bias f4 [16]
0	0x3d928d8b	0.071559034
1	0x3e927b34	0.28609622
2	0x3daab0fc	0.08334538
3	0x3e840eba	0.25792485
4	0xbd93e3c7	-0.072211795
5	0x3b8c8bc4	0.0042891223
6	0xb6486ae2	-2.9864536e-06
7	0xbc2b2ff7	-0.010448447
8	0xb9e6fd8a	-0.0004405792
9	0x3cb01421	0.021493973
10	0x3d0e0ef6	0.034682237
11	0xbc2aaf94	-0.010417838
12	0x3e37ac2b	0.1793677
13	0x3e55a3ff	0.20863341
14	0x3df529d9	0.119708724
15	0xbd09d7e6	-0.033653162

base.conv3.1.running_mean f4 [16]
0	0x80000004	-6e-45
1	0xbf8cd2ac	-1.1001792
2	0x3f056e34	0.5212128
3	0xbddb9c02	-0.107231155
4	0x3e65425c	0.22388595
5	0xbf8be1d5	-1.0928293
6	0x00000004	6e-45
7	0xbe2493a3	-0.16071944
8	0x80000004	-6e-45
9	0xbebbb9fc	-0.36665332
10	0xb94f8e41	-0.00019794052
11	0x3e1a6511	0.15077616
12	0x3d8da97a	0.06917091
13	0xbf1f75e8	-0.62289286
14	0xbc469a5c	-0.012121763
15	0x3d7127fb	0.05887602

base.conv3.1.running_var f4 [16]
0	0x00000004	6e-45
1	0x3e42a025	0.19006403
2	0x3eb49031	0.3526626
3	0x3e834c5a	0.2564419
4	0x3e1e3542	0.15450004
5	0x3e8ef72e	0.27922958
6	0x00000004	6e-45
7	0x3dc78bd7	0.09743469
8	0x00000004	6e-45
9	0x3e80a96e	0.25129265
10	0x3e8724d0	0.26395273
11	0x3e70ad24	0.23503548
12	0x3dd7203a	0.105041936
13	0x3e1c960e	0.15291616
14	0x3dc55b1b	0.096365176
15	0x3e52af8e	0.20574781

base.conv4.res_layer.0.weight f4 [16, 16, 3, 3]
0	0x80000000	-0.0
1	0x80000000	-0.0
2	0x80000000	-0.0
3	0x00000000	0.0
4	0x80000000	-0.0
5	0x80000000	-0.0
6	0x00000000	0.0
7	0x80000000	-0.0
8	0x80000000	-0.0
9	0x80000000	-0.0
10	0x80000000	-0.0
11	0x80000000	-0.0
12	0x80000000	-0.0
13	0x80000000	-0.0
14	0x80000000	-0.0
15	0x00000000	0.0
16	0x80000000	-0.0
17	0x80000000	-0.0
18	0x00000000	0.0
19	0x00000000	0.0
20	0x00000000	0.0
21	0x80000000	-0.0
22	0x00000000	0.0
23	0x00000000	0.0
24	0x80000000	-0.0
25	0x80000000	-0.0
26	0x00000000	0.0
27	0x00000000	0.0
28	0x80000000	-0.0
29	0x80000000	-0.0
30	0x00000000	0.0
31	0x80000000	-0.0
32	0x80000000	-0.0
33	0x00000000	0.0
34	0x00000000	0.0
35	0x00000000	0.0
36	0x80000000	-0.0
37	0x80000000	-0.0
38	0x00000000	0.0
39	0x80000000	-0.0
40	0x00000000	0.0
41	0x00000000	0.0
42	0x80000000	-0.0
43	0x00000000	0.0
44	0x00000000	0.0
45	0x00000000	0.0
46	0x00000000	0.0
47	0x00000000	0.0
48	0x00000000	0.0
49	0x00000000	0.0
50	0x00000000	0.0
51	0x80000000	-0.0
52	0x80000000	-0.0
53	0x80000000	-0.0
54	0x80000000	-0.0
55	0x80000000	-0.0
56	0x80000000	-0.0
57	0x80000000	-0.0
58	0x80000000	-0.0
59	0x80000000	-0.0
60	0x80000000	-0.0
61	0x80000000	-0.0
62	0x80000000	-0.0
63	0x80000000	-0.0
64	0x80000000	-0.0
65	0x80000000	-0.0
66	0x80000000	-0.0
67	0x80000000	-0.0
68	0x80000000	-0.0
69	0x80000000	-0.0
70	0x80000000	-0.0
71	0x80000000	-0.0
72	0x80000000	-0.0
73	0x80000000	-0.0
74	0x80000000	-0.0
75	0x80000000	-0.0
76	0x80000000	-0.0
77	0x80000000	-0.0
78	0x80000000	-0.0
79	0x80000000	-0.0
80	0x80000000	-0.0
81	0x00000000	0.0
82	0x00000000	0.0
83	0x00000000	0.0
84	0x80000000	-0.0
85	0x00000000	0.0
86	0x00000000	0.0
87	0x80000000	-0.0
88	0x80000000	-0.0
89	0x80000000	-0.0
90	0x80000000	-0.0
91	0x80000000	-0.0
92	0x80000000	-0.0
93	0x80000000	-0.0
94	0x80000000	-0.0
95	0x80000000	-0.0
96	0x00000000	0.0
97	0x80000000	-0.0
98	0x80000000	-0.0
99	0x00000000	0.0
100	0x00000000	0.0
101	0x00000000	0.0
102	0x80000000	-0.0
103	0x00000000	0.0
104	0x00000000	0.0
105	0x80000000	-0.0
106	0x80000000	-0.0
107	0x80000000	-0.0
108	0x80000000	-0.0
109	0x80000000	-0.0
110	0x80000000	-0.0
111	0x80000000	-0.0
112	0x80000000	-0.0
113	0x80000000	-0.0
114	0x80000000	-0.0
115	0x80000000	-0.0
116	0x80000000	-0.0
117	0x00000000	0.0
118	0x00000000	0.0
119	0x80000000	-0.0
120	0x00000000	0.0
121	0x00000000	0.0
122	0x80000000	-0.0
123	0x00000000	0.0
124	0x00000000	0.0
125	0x80000000	-0.0
126	0x00000000	0.0
127	0x80000000	-0.0
128	0x80000000	-0.0
129	0x80000000	-0.0
130	0x80000000	-0.0
131	0x80000000	-0.0
132	0x80000000	-0.0
133	0x00000000	0.0
134	0x00000000	0.0
135	0x00000000	0.0
136	0x00000000	0.0
137	0x00000000	0.0
138	0x00000000	0.0
139	0x00000000	0.0
140	0x00000000	0.0
141	0x00000000	0.0
142	0x00000000	0.0
143	0x00000000	0.0
144	0xbc9f9197	-0.019478602
145	0xbda74db3	-0.08169117
146	0xbe8881b3	-0.26661453
147	0xbc83cd27	-0.016089035
148	0xbe06fa0b	-0.13181321
149	0x3d86a1ce	0.065738305
150	0xbe4c8c7c	-0.19975466
151	0x3deaccfc	0.11464879
152	0x3ee54ecb	0.44786677
153	0xbd8091d9	-0.06277818
154	0x3eb15be4	0.3464042
155	0x3d70d264	0.058794394
156	0x3e161345	0.14655788
157	0x3e560658	0.20900857
158	0xbe741038	-0.23834312
159	0x3ca8a713	0.02058748
160	0xbef642f3	-0.48097953
161	0x3d85786e	0.06517111
162	0x3bee5f9c	0.007274581
163	0xbe90bb00	-0.2826767
164	0x3def1bc0	0.11675215
165	0x3cd0982b	0.025463184
166	0x3e5fb870	0.21847701
167	0xbe33f098	-0.17572248
168	0x3dcca9a4	0.09993294
169	0xbeb26bc4	-0.34847844
170	0x3d66f92f	0.056389984
171	0xbcccd692	-0.025004659
172	0xbd3a0393	-0.045413565
173	0x3aa830d9	0.001283194
174	0x391b1c7b	0.00014792562
175	0xbd9a9286	-0.075474784
176	0xbe2f1783	-0.17098813
177	0x3e4a3956	0.19748434
178	0x3b9f1a6e	0.0048554456
179	0x3e4d82fc	0.20069498
180	0x3d8a16d9	0.06742639
181	0x3bfa53f2	0.0076394016
182	0x3cb21ddf	0.02174276
183	0xbe2c34e8	-0.16817057
184	0x3ca29cb9	0.019850122
185	0x3e26e705	0.16299064
186	0xbde8569b	-0.11344644
187	0x3e677928	0.22604811
188	0xbe0523b3	-0.130019
189	0x3ced66e8	0.028979734
190	0x3cb55d82	0.022139315
191	0xbc8add3e	-0.0169512
192	0xbe7cd7f5	-0.24691756
193	0x3d499d9c	0.049222574
194	0x3ddc7bf3	0.10765829
195	0x3ea0ad71	0.31382325
196	0xbeef5b2f	-0.46749255
197	0xbdf588f5	-0.11989013
198	0x8000296a	-1.4857e-41
199	0x00002255	1.2316e-41
200	0x800014f6	-7.52e-42
201	0x80000d6c	-4.815e-42
202	0x00001aef	9.662e-42
203	0x00000a81	3.768e-42
204	0x00001b8e	9.885e-42
205	0x80000d09	-4.676e-42
206	0x8000230c	-1.2572e-41
207	0xbe1ea392	-0.15492085
208	0xbe31ea07	-0.1737443
209	0xbc8e0bd3	-0.017339623
210	0xbd4918fc	-0.049096093
211	0x3dc46b3d	0.095907666
212	0x3d0d8125	0.03454699
213	0x3d3619aa	0.04445807
214	0x3e0d6e53	0.13811617
215	0xbb81acc3	-0.0039573624
216	0xbbe8bcd9	-0.0071025905
217	0xbbb45090	-0.005502768
218	0xbaa0cf35	-0.0012268784
219	0xbba0dae6	-0.004908907
220	0xbb8e2237	-0.004337575
221	0xbab7ec72	-0.0014032258
222	0xbb351db3	-0.002763611
223	0x3aff3026	0.0019469305
224	0x3b82c43a	0.003990677
225	0x3cec2f17	0.028831048
226	0xbde94e2f	-0.113918655
227	0x3c99294d	0.018696452
228	0xbe050b6d	-0.1299264
229	0x3e16eca4	0.14738709
230	0xbe53b12f	-0.20673059
231	0x3e1d0fe2	0.1533809
232	0xbdc9c348	-0.098517
233	0x3c897375	0.016778687
234	0xbe1350ac	-0.14386243
235	0xbe168feb	-0.14703338
236	0xbca88e8f	-0.02057579
237	0xbd6652d0	-0.05623132
238	0xbed82caf	-0.4222159
239	0xbe4715a1	-0.19441845
240	0xbd87c85e	-0.06630014
241	0xbd7e483f	-0.062080618
242	0xbe18b1c2	-0.14911559
243	0x3dcc52fc	0.099767655
244	0xbe417bde	-0.18894908
245	0xbd303510	-0.043019354
246	0x3d357238	0.04429838
247	0x3ed9d63f	0.4254627
248	0xbc761f79	-0.015022152
249	0x3d93fd4a	0.072260454
250	0xbcac4dec	-0.02103325
251	0x3c9e0f3f	0.01929438
252	0xbcc76f81	-0.024345161
253	0xbaf7a9ea	-0.0018895243
254	0xbc965422	-0.018350665
255	0xbda942e8	-0.082647145

base.conv4.res_layer.1.weight f4 [16]
0	0x000040bb	2.3221e-41
1	0x3f129e28	0.5727258
2	0x3ecf9e74	0.40550578
3	0x3ecfdcdb	0.40598187
4	0x3f00cd62	0.5031339
5	0x3ed61c6b	0.41818556
6	0x3eebd7a6	0.46062964
7	0x3ea6967f	0.32536694
8	0x3eed8d99	0.46397093
9	0x3eacc2a0	0.33742237
10	0x3ea650d4	0.32483542
11	0x3ef7d57c	0.48405063
12	0x0000229f	1.242e-41
13	0x3ee61046	0.4493429
14	0x3ece2121	0.4025965
15	0x80000534	-1.867e-42

base.conv4.res_layer.1.bias f4 [16]
0	0x3ccec6eb	0.025241336
1	0xbd486f01	-0.048933987
2	0x3de95d5f	0.11394762
3	0xbe53c43e	-0.20680329
4	0x3de0ea64	0.109822065
5	0xbe09d4a8	-0.13460028
6	0x3ead9dc5	0.3390943
7	0xbdac2e52	-0.084072724
8	0xbd1c260f	-0.038122233
9	0xbcf0c241	-0.029389502
10	0x3d9f28a3	0.07771423
11	0x3e876607	0.26445028
12	0x80001032	-5.81e-42
13	0xbdbd80b1	-0.092530616
14	0x3d94c6fa	0.07264514
15	0xba7a65c9	-0.00095519103

base.conv4.res_layer.1.running_mean f4 [16]
0	0x80000004	-6e-45
1	0xbebb48c6	-0.3657896
2	0xbefe72b8	-0.49696898
3	0xbe108047	-0.14111434
4	0xbf285976	-0.65761507
5	0xbe844402	-0.25833136
6	0xbeb1b962	-0.34711748
7	0xbed97bb9	-0.42477205
8	0xbea67acb	-0.3251556
9	0xbef06dc2	-0.4695874
10	0xbe55f6ab	-0.20894878
11	0xbec05af8	-0.37569404
12	0x00000004	6e-45
13	0xbe995c33	-0.29953155
14	0xbf3e3a02	-0.7430726
15	0x80000004	-6e-45

base.conv4.res_layer.1.running_var f4 [16]
0	0x00000004	6e-45
1	0x3e8bfb5c	0.2734021
2	0x3e0caf5c	0.1373877
3	0x3e11d7dd	0.14242502
4	0x3e2fa920	0.1715436
5	0x3de99342	0.1140504
6	0x3e9c736c	0.3055681
7	0x3dd99c45	0.10625509
8	0x3e3bbcc0	0.18333721
9	0x3e0ac36c	0.1355111
10	0x3e2a0b6b	0.16605918
11	0x3ee685e6	0.4502403
12	0x00000004	6e-45
13	0x3e8180bd	0.25293532
14	0x3e9bd043	0.3043233
15	0x00000004	6e-45

base.conv4.res_layer.3.weight f4 [16, 16, 3, 3]
0	0xbc1b3d96	-0.009475132
1	0x3e56b80b	0.20968644
2	0x3e147b9c	0.14500278
3	0xbdd16535	-0.10224382
4	0x3db81fe2	0.08990456
5	0x3d8c906f	0.06863486
6	0xbe1b36ab	-0.15157573
7	0xbd441e0b	-0.047880214
8	0x3dbed948	0.09318787
9	0xbc9bf2db	-0.019036701
10	0x3d66e61c	0.056371793
11	0x3d3aaf9d	0.045577634
12	0x3d53c16f	0.051698145
13	0x3caf5229	0.021401482
14	0x3c77fbeb	0.0151357455
15	0xbc4fec2b	-0.012690584
16	0xbcf7cbdc	-0.030248575
17	0xbb9fcbd1	-0.0048765917
18	0x3dae66c9	0.085156985
19	0x3e6df96e	0.23239681
20	0x3e05a761	0.13052131
21	0xbe30d359	-0.17268123
22	0x3d95935d	0.07303498
23	0x3de73f1b	0.11291333
24	0x3c566e78	0.013087861
25	0x3dbeff82	0.09326078
26	0x3da33034	0.079681784
27	0xbd7a56c8	-0.061117917
28	0x3d33ef49	0.043929372
29	0x3d3fdb1a	0.04683981
30	0xbe49315c	-0.19647735
31	0xbe2c4bd8	-0.16825807
32	0xbca5c7ef	-0.020236937
33	0x3d63aac6	0.055582784
34	0x3cc29f3e	0.023757573
35	0x3dae829d	0.08521006
36	0xbc05739a	-0.008145237
37	0x3d81962a	0.0632747
38	0x3e0a63f9	0.13514699
39	0xbb81c483	-0.0039601936
40	0xbdf30b6a	-0.118674114
41	0xbd5aca0a	-0.053415336
42	0x3d880eb6	0.06643431
43	0xbe2eab48	-0.17057526
44	0xbe44524a	-0.19172016
45	0xbd19200b	-0.037384074
46	0x3dacd208	0.08438498
47	0xbc7fdcd1	-0.015616612
48	0xbdad8372	-0.08472337
49	0xbd8569a5	-0.06514291
50	0xbd4a97c4	-0.04946114
51	0xbdcd34c9	-0.100198336
52	0xbdbceda9	-0.092250176
53	0xbd70d0fa	-0.058793046
54	0x3e6836c3	0.2267714
55	0x3e30ba47	0.17258559
56	0xbd13f969	-0.036126528
57	0x3eaeab39	0.34115008
58	0x3e9c7c83	0.30563745
59	0x3cf1886b	0.029483994
60	0x3d5f2271	0.054476205
61	0x3dbc2464	0.091866285
62	0xbe16e1ef	-0.14734624
63	0x3cbcd739	0.023051845
64	0x3d68a882	0.056801327
65	0x3d29e7f6	0.04148098
66	0xbcd7d364	-0.026345916
67	0x3d105392	0.03523595
68	0xbd08c5a2	-0.033391602
69	0xbe05c4e7	-0.13063394
70	0x3cae145a	0.021249939
71	0xbdfedb22	-0.1244414
72	0xbdf69a36	-0.12041132
73	0xbe83a841	-0.25714305
74	0xbe752033	-0.23938064
75	0xbde6c1dc	-0.112674445
76	0xbe2ca707	-0.16860591
77	0xbde8820d	-0.1135293
78	0xbd52f183	-0.051499855
79	0x3d805e08	0.06267935
80	0x3d85bf63	0.06530645
81	0x3e2a7d0c	0.16649264
82	0x3c023f46	0.007949656
83	0xbdbf391e	-0.09337066
84	0x3d0e9aab	0.03481547
85	0xbdf7ae07	-0.1209374
86	0x3df4aa88	0.11946589
87	0xbd48d054	-0.049026802
88	0xbe0edc2e	-0.1395118
89	0x3d496bdc	0.04917513
90	0xbd93e179	-0.0722074
91	0xbdc00655	-0.09376208
92	0xbcdfef07	-0.027335657
93	0xbc2562be	-0.010094343
94	0x3da20e0c	0.079128355
95	0x3d9c8da2	0.07644202
96	0x3ded97d0	0.116012216
97	0x3e5f396c	0.21799248
98	0x3e786679	0.2425784
99	0xbe57f94f	-0.21091197
100	0xbe97f9e1	-0.2968283
101	0xbdaf3114	-0.08554283
102	0xbe7376a6	-0.2377573
103	0x3ce9ee1f	0.028555928
104	0x3e0ec541	0.13942434
105	0xbd81a641	-0.063305385
106	0x3e925ef2	0.28588063
107	0x3e609b6d	0.2193429
108	0x80001f7d	-1.1296e-41
109	0x000017ea	8.579e-42
110	0x000008be	3.136e-42
111	0x8000072b	-2.571e-42
112	0x00001003	5.744e-42
113	0x80000f2a	-5.44e-42
114	0x00000580	1.973e-42
115	0x80000163	-4.97e-43
116	0x80000318	-1.11e-42
117	0xbd0ca5b9	-0.034337733
118	0x3d65859a	0.056035616
119	0x3da5a0a8	0.080872834
120	0x3d867316	0.0656492
121	0x3e5cf1da	0.21576634
122	0x3e0f259c	0.1397919
123	0x3e20c72e	0.15700981
124	0x3e7d8abd	0.24759956
125	0x3de8475f	0.11341738
126	0xbe203c46	-0.15647992
127	0x3da770b8	0.08175796
128	0x3dd2491c	0.10267851
129	0xbdbea3e9	-0.09308607
130	0x3de08beb	0.10964187
131	0xbdc1d45a	-0.09464331
132	0xbdd32575	-0.10309879
133	0xbdb9d54e	-0.09073888
134	0xbd4dc179	-0.050233338
135	0xbc9ab9b8	-0.018887386
136	0x3d004ae8	0.031321436
137	0x3e115934	0.14194185
138	0xbd660ac0	-0.056162596
139	0xbbe91f69	-0.00711434
140	0x3b39a69e	0.0028328071
141	0xbc993849	-0.018703597
142	0x3aabf715	0.0013119901
143	0x3c68b804	0.014204029
144	0x80000000	-0.0
145	0x00000000	0.0
146	0x00000000	0.0
147	0x80000000	-0.0
148	0x00000000	0.0
149	0x00000000	0.0
150	0x80000000	-0.0
151	0x80000000	-0.0
152	0x00000000	0.0
153	0x00000000	0.0
154	0x00000000	0.0
155	0x00000000	0.0
156	0x80000000	-0.0
157	0x00000000	0.0
158	0x00000000	0.0
159	0x00000000	0.0
160	0x00000000	0.0
161	0x80000000	-0.0
162	0x00000000	0.0
163	0x00000000	0.0
164	0x00000000	0.0
165	0x00000000	0.0
166	0x00000000	0.0
167	0x80000000	-0.0
168	0x00000000	0.0
169	0x80000000	-0.0
170	0x80000000	-0.0
171	0x80000000	-0.0
172	0x80000000	-0.0
173	0x80000000	-0.0
174	0x80000000	-0.0
175	0x80000000	-0.0
176	0x80000000	-0.0
177	0x80000000	-0.0
178	0x80000000	-0.0
179	0x00000000	0.0
180	0x00000000	0.0
181	0x00000000	0.0
182	0x80000000	-0.0
183	0x80000000	-0.0
184	0x80000000	-0.0
185	0x80000000	-0.0
186	0x80000000	-0.0
187	0x00000000	0.0
188	0x00000000	0.0
189	0x80000000	-0.0
190	0x80000000	-0.0
191	0x80000000	-0.0
192	0x00000000	0.0
193	0x80000000	-0.0
194	0x80000000	-0.0
195	0x80000000	-0.0
196	0x80000000	-0.0
197	0x00000000	0.0
198	0x00000000	0.0
199	0x00000000	0.0
200	0x00000000	0.0
201	0x00000000	0.0
202	0x80000000	-0.0
203	0x80000000	-0.0
204	0x00000000	0.0
205	0x80000000	-0.0
206	0x80000000	-0.0
207	0x00000000	0.0
208	0x80000000	-0.0
209	0x80000000	-0.0
210	0x80000000	-0.0
211	0x80000000	-0.0
212	0x80000000	-0.0
213	0x80000000	-0.0
214	0x80000000	-0.0
215	0x80000000	-0.0
216	0x00000000	0.0
217	0x00000000	0.0
218	0x00000000	0.0
219	0x00000000	0.0
220	0x00000000	0.0
221	0x00000000	0.0
222	0x80000000	-0.0
223	0x80000000	-0.0
224	0x80000000	-0.0
225	0x80000000	-0.0
226	0x80000000	-0.0
227	0x80000000	-0.0
228	0x80000000	-0.0
229	0x80000000	-0.0
230	0x80000000	-0.0
231	0x80000000	-0.0
232	0x80000000	-0.0
233	0x80000000	-0.0
234	0x80000000	-0.0
235	0x80000000	-0.0
236	0x00000000	0.0
237	0x80000000	-0.0
238	0x00000000	0.0
239	0x00000000	0.0
240	0x80000000	-0.0
241	0x00000000	0.0
242	0x00000000	0.0
243	0x00000000	0.0
244	0x00000000	0.0
245	0x00000000	0.0
246	0x00000000	0.0
247	0x00000000	0.0
248	0x00000000	0.0
249	0x00000000	0.0
250	0x00000000	0.0
251	0x00000000	0.0
252	0x00000000	0.0
253	0x80000000	-0.0
254	0x80000000	-0.0
255	0x00000000	0.0

base.conv4.res_layer.4.weight f4 [16]
0	0x3ee2208f	0.44165465
1	0xb6f24feb	-7.2214657e-06
2	0x3e3615a9	0.177817
3	0x3e3c8771	0.18411042
4	0x3eedcf22	0.46447092
5	0x3f0fdad1	0.5619326
6	0x3ed77709	0.42083004
7	0x3ee3ab7c	0.4446677
8	0x3ed38950	0.413157
9	0x24cbd7e1	8.840293e-17
10	0x309e24d3	1.1506479e-09
11	0x3eda0b41	0.4258671
12	0x3ef294f5	0.4737927
13	0x3ec5d33f	0.3863773
14	0x3edf2ce3	0.43588933
15	0x3ed96427	0.42459223

base.conv4.res_layer.4.bias f4 [16]
0	0x3dd8c822	0.10585047
1	0xbc05cc12	-0.00816633
2	0xbca3379a	-0.019923974
3	0xbc005b98	-0.007834338
4	0xbcfce0f4	-0.030868985
5	0xbd630cc1	-0.055432085
6	0x3d7ae033	0.06124897
7	0xbe682364	-0.2266975
8	0x3ca33826	0.019924235
9	0x3a9925df	0.001168426
10	0xbcbe910f	-0.023262529
11	0x3e06a0e9	0.1314732
12	0xbe5d3737	-0.21603094
13	0xbe18948c	-0.14900416
14	0xbe14b5ed	-0.14522524
15	0x3d7d2d6b	0.061810892

base.conv4.res_layer.4.running_mean f4 [16]
0	0x3ed0dd31	0.40793756
1	0x80000004	-6e-45
2	0xbdef8085	-0.11694435
3	0xbda42cd9	-0.080163665
4	0x3f210c43	0.62909335
5	0xbf07b288	-0.5300679
6	0x3eda0347	0.42580625
7	0xbe6d73d8	-0.23188722
8	0x3c849c16	0.016187709
9	0x00000004	6e-45
10	0x80000004	-6e-45
11	0xbe2ba2dc	-0.16761345
12	0x3e3e000b	0.18554704
13	0x3ef34b17	0.47518227
14	0x3f1d471c	0.6143663
15	0x3e0f9bf4	0.14024335

base.conv4.res_layer.4.running_var f4 [16]
0	0x3d99153f	0.074747555
1	0x00000004	6e-45
2	0x3cded827	0.027202679
3	0x3da9b45b	0.08286353
4	0x3e07736f	0.13227628
5	0x3e2511bb	0.16120045
6	0x3db60339	0.088873334
7	0x3dc0f480	0.09421635
8	0x3d9beb3f	0.07613229
9	0x00000004	6e-45
10	0x00000004	6e-45
11	0x3e07352b	0.13203876
12	0x3e3f6f2b	0.18694751
13	0x3da8d8b4	0.08244458
14	0x3d994102	0.074831024
15	0x3dde09e6	0.10841732

base.m0.b2_1.0.shortcut_layer.0.weight f4 [16, 16, 1, 1]
0	0x3e35beae	0.1774852
1	0x3e38eace	0.18058321
2	0xbd0a5a4a	-0.033777513
3	0x3e157bfe	0.1459808
4	0xbea61123	-0.3243495
5	0x3c084fa2	0.008319767
6	0x3e39dee0	0.18151426
7	0xbe4ff3db	-0.20307867
8	0x3d0b3125	0.033982415
9	0x3db717a8	0.08940059
10	0x3e28a3e4	0.1646877
11	0xbd9519f9	-0.072803445
12	0x3eb1d695	0.34734026
13	0xbcf7db49	-0.03025593
14	0x3da2ea9a	0.07954903
15	0x3e86b213	0.26307735
16	0x3d1449c0	0.036203146
17	0xbe000bb5	-0.12504466
18	0x3d81b17e	0.06332682
19	0xbe4af2b9	-0.19819154
20	0xbe14f30d	-0.14545842
21	0xbe946c80	-0.2898903
22	0xbc252224	-0.010078941
23	0xbe6595a3	-0.22420363
24	0xbdbd56c9	-0.092450686
25	0xbd7dce45	-0.061964292
26	0xbdc8f9ae	-0.098132476
27	0xbe3b6ccc	-0.18303221
28	0xbe3ec518	-0.18629873
29	0xbe503bc5	-0.203353
30	0xbe5d9811	-0.2164004
31	0xbe0b9784	-0.13632017
32	0x3d756d67	0.059918787
33	0x3e759525	0.23982675
34	0x3cbe29c6	0.023213279
35	0x3f01c0e3	0.50684947
36	0xbe363d87	-0.17796908
37	0x3c8178d6	0.01580469
38	0x3e735b9e	0.23765418
39	0x3d24e0d5	0.04025348
40	0xbd726c47	-0.059185293
41	0xbd9049fd	-0.07045362
42	0xbd21be55	-0.039488155
43	0xbe114e04	-0.14189917
44	0xbed2913c	-0.4112643
45	0x3e12127a	0.14264861
46	0x3d40b0d5	0.04704364
47	0x3cd33e2f	0.025786487
48	0x3e19eb6b	0.15031211
49	0x3e06e3dd	0.1317286
50	0xbc93806e	-0.018005576
51	0x3e916a6e	0.28401512
52	0x3dd093a1	0.10184408
53	0x3c0fa130	0.008766457
54	0xbc93406b	-0.017975053
55	0xbe6b9387	-0.23005496
56	0xbd9b7f14	-0.075925976
57	0x3d48c8e9	0.049019728
58	0x3e0af752	0.13570908
59	0x3e6678fb	0.22507088
60	0x3e1419cf	0.1446297
61	0xbda40e0b	-0.08010491
62	0xbe9d5dec	-0.3073572
63	0xbe5f8977	-0.21829782
64	0x3e260783	0.16213803
65	0xbe521098	-0.20514143
66	0xbe2947b9	-0.16531266
67	0xbe406426	-0.18788204
68	0x3e128a38	0.14310539
69	0xbe94663e	-0.28984255
70	0xbe45db25	-0.19321878
71	0x3e29f6c7	0.16598044
72	0xbda16aaf	-0.078816764
73	0xbdc4fda1	-0.096186884
74	0xbd00fb2b	-0.031489532
75	0xbe12c11a	-0.14331475
76	0x3cefdc50	0.029279858
77	0xbe8a462e	-0.27006668
78	0x3dfc4176	0.12317173
79	0x3e49cb84	0.19706541
80	0x3d9b1406	0.075721785
81	0x3b6ec37e	0.003643244
82	0x3da93269	0.08261568
83	0xbe8a74e8	-0.27042317
84	0xbe868654	-0.2627436
85	0xbc68c859	-0.014207923
86	0xbe0c055a	-0.13673916
87	0xbd2e4fd6	-0.042556606
88	0x3e8a9c56	0.270724
89	0xbdb6bcdd	-0.089227416
90	0xbda2d404	-0.07950595
91	0x3c8c5d3a	0.017134298
92	0xbe7b2978	-0.24527538
93	0xba85b852	-0.0010202026
94	0x3dbdfa02	0.09276201
95	0xbe0e3526	-0.13887462
96	0x00000000	0.0
97	0x00000000	0.0
98	0x80000000	-0.0
99	0x00000000	0.0
100	0x80000000	-0.0
101	0x80000000	-0.0
102	0x80000000	-0.0
103	0x80000000	-0.0
104	0x00000000	0.0
105	0x80000000	-0.0
106	0x80000000	-0.0
107	0x80000000	-0.0
108	0x00000000	0.0
109	0x00000000	0.0
110	0x80000000	-0.0
111	0x80000000	-0.0
112	0x00000000	0.0
113	0x00000000	0.0
114	0x80000000	-0.0
115	0x80000000	-0.0
116	0x80000000	-0.0
117	0x80000000	-0.0
118	0x80000000	-0.0
119	0x00000000	0.0
120	0x00000000	0.0
121	0x80000000	-0.0
122	0x80000000	-0.0
123	0x80000000	-0.0
124	0x80000000	-0.0
125	0x00000000	0.0
126	0x80000000	-0.0
127	0x80000000	-0.0
128	0x00000000	0.0
129	0x80000000	-0.0
130	0x80000000	-0.0
131	0x80000000	-0.0
132	0x00000000	0.0
133	0x80000000	-0.0
134	0x00000000	0.0
135	0x80000000	-0.0
136	0x80000000	-0.0
137	0x00000000	0.0
138	0x80000000	-0.0
139	0x00000000	0.0
140	0x80000000	-0.0
141	0x00000000	0.0
142	0x00000000	0.0
143	0x00000000	0.0
144	0xbec400ce	-0.38281864
145	0xbe1d700a	-0.15374771
146	0x3b1ff05a	0.0024404735
147	0x3d970e1e	0.073757395
148	0xbd9d24c9	-0.07673032
149	0xbdfbfe08	-0.12304312
150	0xbe4f3cf4	-0.20238096
151	0xbe6634e2	-0.2248111
152	0xbe7d0414	-0.24708587
153	0x3d47cbcb	0.048778336
154	0xbd19cd82	-0.037549503
155	0x3d98a5e5	0.07453517
156	0x3bf42cc1	0.007451624
157	0x3e338439	0.17530908
158	0x3e373e64	0.17894894
159	0x3e044d68	0.12920153
160	0xbe4893f5	-0.19587691
161	0x3ce3c204	0.027802475
162	0xbca166cc	-0.019702338
163	0xbd0b405d	-0.03399693
164	0x3e7b5b5b	0.24546568
165	0xbe149542	-0.14510062
166	0x3dce5c05	0.10076145
167	0x3ce7a585	0.028277168
168	0x3e984f0f	0.29747817
169	0x399fde3a	0.00030492415
170	0x3d9c3f56	0.07629268
171	0x3b35d096	0.0027742735
172	0x3d7bc8cb	0.061470788
173	0x3d459b6a	0.048243918
174	0xbe29f093	-0.16595678
175	0x3ec68488	0.38772988
176	0xbda9e371	-0.08295334
177	0x3dfd5bc1	0.12371016
178	0xbdbde728	-0.09272605
179	0xbe684911	-0.22684123
180	0x3e00bbf8	0.12571704
181	0xbe334e3e	-0.17510316
182	0x3d3550b7	0.04426643
183	0x3e83c0f0	0.25733137
184	0xbd7761b6	-0.06039592
185	0xbe1186d0	-0.14211583
186	0xbe1f301e	-0.15545699
187	0xbda34e6f	-0.079739444
188	0xbd49c8a5	-0.049263615
189	0x3e0b2266	0.1358734
190	0xbe6180de	-0.22021815
191	0xbe3f7fdd	-0.1870112
192	0x3d818c62	0.06325604
193	0xbdf8c64f	-0.12147199
194	0x3dbe913a	0.093050435
195	0xbeafb8ae	-0.34320587
196	0x3e5093ac	0.20368832
197	0x3e595f23	0.21227698
198	0x3e36a512	0.17836407
199	0x3e8078ae	0.2509207
200	0xbdebf970	-0.11522186
201	0x3d5e3b5d	0.054255832
202	0x3d89f47a	0.06736083
203	0xbdacee4d	-0.0844389
204	0xbd66f4d5	-0.056385834
205	0xbd7ba794	-0.06143911
206	0x3e15a57d	0.1461391
207	0x3d941361	0.07230259
208	0x3c03d6ce	0.008046819
209	0xbd157591	-0.036489073
210	0x3d1f46af	0.03888577
211	0xbe80c859	-0.25152853
212	0xbe439c9d	-0.19102712
213	0x3e6b51aa	0.22980371
214	0x3decaa33	0.115559004
215	0x3e8196ae	0.25310272
216	0xbdd423fd	-0.10358427
217	0x3d3e7055	0.046493847
218	0x3ca88cfe	0.020575043
219	0x3e9497ef	0.29022166
220	0xbe4dd8ad	-0.20102187
221	0xbd3516b2	-0.044211097
222	0x3e3e6b02	0.18595508
223	0xb9d69854	-0.00040930754
224	0xbe1bc9c1	-0.15213682
225	0xbe4b3d7f	-0.19847678
226	0x3e7baab9	0.24576844
227	0x3e9abf5b	0.30224118
228	0x3defeb20	0.117147684
229	0x3dd39328	0.10330802
230	0xbe26c30c	-0.16285342
231	0x3e8ab54f	0.27091452
232	0x3ded6f2f	0.11593472
233	0x3b8d412e	0.0043107485
234	0x3dc45e7c	0.09588334
235	0xbe1d6e77	-0.1537417
236	0x3daa6b8b	0.083212934
237	0xbe822c47	-0.25424406
238	0xbcc93e59	-0.024565862
239	0x3e1f9004	0.15582281
240	0x3d46aaca	0.04850272
241	0x3d93862b	0.07203325
242	0x3d7868b4	0.060646728
243	0x3e980558	0.29691577
244	0xbcf406e9	-0.029788451
245	0x3dc198fc	0.094530076
246	0xbe0dc02e	-0.13842842
247	0xbd514a94	-0.051096514
248	0x3d0bffe3	0.03417958
249	0x3e73544c	0.23762625
250	0x3e375310	0.1790278
251	0x3e816fbb	0.25280556
252	0x3d71d62e	0.05904215
253	0x3e75d3ba	0.24006549
254	0x3da3f18b	0.08005055
255	0x3d9809bf	0.07423734

base.m0.b2_1.0.shortcut_layer.1.weight f4 [16]
0	0x3ee61519	0.4493797
1	0x3e48863c	0.19582456
2	0x3ef92bb4	0.48666155
3	0x3ead01fb	0.33790573
4	0x3e8fbe53	0.28074893
5	0x3e07b7f4	0.13253766
6	0x80c7534d	-1.8305146e-38
7	0x0000bd16	6.7831e-41
8	0x80001ba0	-9.91e-42
9	0x3e8ad917	0.2711875
10	0x3e63946e	0.2222459
11	0x3e44dac7	0.19224082
12	0x3e5da84b	0.2164623
13	0x3e8a64db	0.27030072
14	0x3ebfe293	0.3747755
15	0x3e073104	0.13202292

base.m0.b2_1.0.shortcut_layer.1.bias f4 [16]
0	0x3e29cb85	0.16581543
1	0xbd1567a1	-0.03647578
2	0xbdbfa7ca	-0.09358175
3	0xbd3cd249	-0.04609898
4	0xbe2fec83	-0.17180066
5	0x3e3d7f0f	0.185055
6	0xbc504eae	-0.012714071
7	0xbc54b761	-0.012983174
8	0x3c8d1caf	0.017225591
9	0x3de9b03b	0.114105664
10	0xbdd70083	-0.104981445
11	0xbdc9b3e0	-0.098487616
12	0xbb022022	-0.0019855578
13	0xbe4d6599	-0.20058288
14	0xbd403b51	-0.04693157
15	0x3d385384	0.04500152

base.m0.b2_1.0.shortcut_layer.1.running_mean f4 [16]
0	0x3e5f7ae7	0.21824227
1	0xbe35ba70	-0.17746902
2	0x3e8463eb	0.2585748
3	0x3e6b4d7c	0.22978777
4	0xbe6c9026	-0.23101863
5	0xbdd911c1	-0.105990894
6	0x00000004	6e-45
7	0x80000004	-6e-45
8	0x00000004	6e-45
9	0xbce7a079	-0.028274762
10	0x3d2ce25b	0.042208057
11	0xbe2d2eb5	-0.16912349
12	0xbe1d9763	-0.1538978
13	0xbd8e7343	-0.06955578
14	0xbcadfe9d	-0.021239573
15	0x3e9082ec	0.28224885

base.m0.b2_1.0.shortcut_layer.1.running_var f4 [16]
0	0x3e3f852f	0.1870315
1	0x3df69df7	0.12041848
2	0x3e0633c0	0.13105679
3	0x3dc9cb49	0.09853227
4	0x3db3158a	0.087443426
5	0x3d91977a	0.0710897
6	0x00000004	6e-45
7	0x00000004	6e-45
8	0x00000004	6e-45
9	0x3db72b7b	0.0894384
10	0x3da3dd28	0.080011666
11	0x3dc730da	0.097261146
12	0x3dff9fec	0.124816746
13	0x3df63b74	0.120230585
14	0x3de655aa	0.11246808
15	0x3d8992da	0.06717463
