Pruned Models/ERESFD/FPGM/ERES10_FPGM.pth (torch, 541445 bytes, 400 tensors)

base.conv1.0.weight f4 [8, 3, 5, 5]
00000000: 26fa 00be 0c86 d63d 194f 813c 9c82 11be
00000010: 7fa4 87bd 71bf 27bd 880f 243e 3e2d 3f3e
00000020: d544 d33d b727 9e3d 5e10 04be a90e fbbc
00000030: 3ce1 ae3d 0139 c83d 8d8e 673d 2cf5 39be
00000040: e288 2ebe 24f2 1fbd 6e24 253d 1cf3 583c
00000050: 035b 0b3a 6fe8 043c 5ab0 143e ca9e 4c3e
00000060: f895 ef3d a9a8 4cbe 223b ac3b 6984 e6bd
00000070: 1d1e 9abe be6c 7bbe 07ec 95bd d5e5 9f3d
00000080: e07c 363d e482 c5bd dfd1 1dbe 20a9 e9bd
00000090: 461c c2bd c62b 8abd f8a9 fcbd 404c 4bbe
000000a0: fa3c 20be e73c 6cbe bf2d 4dbe 030c 43be
000000b0: b268 7dbe d394 aa3b 8284 97bd d193 e7bc
000000c0: e12c e7bc 57d5 ffbd 7480 823d 9cac 853e
000000d0: 2d87 1f3e 2b90 9fbc c130 7d3c 82be 233e
000000e0: 5585 9d3e 91bf 8f3e d271 203e 13c4 a43d
000000f0: 66bf cb3d e415 043e cb7a 293e 2af2 f93d
00000100: 03a5 b43c 8ccc 443c 7b0a 34bd 60b8 6cbb
00000110: 3d18 013c de60 97bd af82 9b3d de11 a43c
00000120: f0eb a83d ac01 a33d c5b6 18bd 8015 0b3e
00000130: a784 7b3d 5f62 8c3d 8b44 45bc 642d 19be
00000140: e4a1 503d c44d ccbd c5f3 40bd 8c39 7cbd
00000150: e192 17be 0abe ed3c 7521 23be 7d42 b4bd
00000160: 0e8d 4bbd 5284 30be 4503 8e3d 94dd 24be
00000170: 8b6a bfbd fd54 a6bd 6660 5cbe afa7 0f3e
00000180: f825 00be f25b 2abd 4e87 5d3d 2e09 abbd
00000190: 46ae 313d 92d5 6bbd f6fc 60bd 76f6 f4bd
000001a0: 1af1 6ebe ffae bd3c bc1c 1cbe 0560 ffbd
000001b0: c8e4 06be ce09 38be 3979 573d bfcc 20be
000001c0: a6ef ffbd b4e5 8fbd 32b3 28be aa29 f03d
000001d0: 9d3e 16be c794 f6bd 7a22 ebbd b7dc 4cbe
000001e0: abb0 6c3e f7b4 47bd 2952 e73b c6d8 c03d
000001f0: 36c8 42bc 78e2 483d f8a6 803c e9fd b83c
00000200: 1299 ddbc ac09 1bbe c04c 443c b5fa d1bd
00000210: 5f08 91bd d07f 83bd 623d 16be 2ba4 e03d
00000220: de68 34bd dcb6 02bc f1dd 233d e6bb a6bd
00000230: 72a5 d23d 648c c5bd 7eb3 c0bd 68b3 adbd
00000240: 1954 44be ad8c 9d3d 541c 20be 1180 fabd
00000250: 2b73 52bd 219f 2abe 4038 23be 6bfa 6bbe
00000260: bde8 7ebe e11b 83be f775 2bbe 1fc0 7ebe
00000270: 2149 abbe 4747 bbbe 7965 b0be aa7c 1cbe
00000280: 5ff0 69be 9c2b abbe de95 c7be 2b1c c7be
00000290: eab1 96be 2faf 33be 60a3 9fbe 66aa c1be
000002a0: e52e cbbe 6aa7 b5be fccd 37be de74 89be
000002b0: e2c4 9abe 887e 9abe b776 6abe e9b9 153e
000002c0: 640c 633e 3a12 5a3e 2887 143e 75ef b93d
000002d0: bc5a 163e b21a 833e 931d 8d3e 539e 7d3e
000002e0: dd1d 8e3e 3bf4 423e 058b a43e 9515 b73e
000002f0: 445c b03e b931 963e 141d 553e 3280 9b3e
00000300: 8b45 b83e c02d ba3e 6b74 9d3e 2d41 d63d
00000310: 0e52 653e d05f 9f3e b660 b83e 4eca c23e
00000320: b8d1 753d f9aa ce3d 0b51 453d eecf 2dbd
00000330: e9d7 1bbe 9958 343d 8d49 f93d 19b0 ca3d
00000340: baaa 443d 8872 003d eb5c 733c 1575 eb3d
00000350: 940f 003e a836 cc3d 64b7 ccba 985f 0cbc
00000360: 5367 8b3d 3aa8 bf3d a742 a33d a917 b8bc
00000370: 3339 22be 0b89 75bd 6670 85bc 6b7b 2d3c
00000380: 0b05 143c 8474 24be 5d13 f9bd 50d3 c23d
00000390: 5d01 563e 9a0c e73d 6604 34be 8fde 513c
000003a0: c5d6 353e 89d9 db3d 1df5 13be 4074 43be
000003b0: 10ef 5b3d 1875 243e c925 1abc 6ac2 bbbe
000003c0: bffc 40be fa76 ea3d d345 123e 0f40 95bd
000003d0: 001e d9be 5d97 2abe d392 2e3e 6829 613e
000003e0: 174f 933d 18f8 64be 0318 fabc 9588 553c
000003f0: 8666 463e ddd5 ac3e f71f 5e3e 3782 34bd
-0.12595424 0.10474786 0.015784787 -0.1420998 -0.06623172 -0.040954057 0.1602155 0.18669602
0.10315863 0.07722419 -0.12896869 -0.030646639 0.08539054 0.09776498 0.05653243 -0.18159932
-0.17044404 -0.039049283 0.040317945 0.013241556 0.0005315991 0.008112057 0.14520398 0.19982448
0.11698526 -0.19986214 0.0052560726 -0.11255724 -0.301011 -0.245532 -0.07320409 0.07807509
0.044552684 -0.09644106 -0.1541209 -0.11409211 -0.09478049 -0.0674663 -0.123371065 -0.19853306
-0.1564826 -0.23070107 -0.20036982 -0.19047551 -0.2474697 0.0052057295 -0.07398321 -0.028268727
-0.028219642 -0.12491863 0.06372157 0.26108253 0.15578909 -0.019477924 0.015453518 0.15990642
0.30765787 0.2807584 0.15668419 0.08045211 0.09948616 0.12898976 0.16550748 0.12204392
0.02205134 0.012011658 -0.043955307 -0.0036120638 0.007879314 -0.07391523 0.07593285 0.020028051
0.082481265 0.07959303 -0.037283678 0.1358242 0.061405804 0.068547 -0.012040268 -0.14958721
0.05093564 -0.0997577 -0.047107477 -0.06157832 -0.14802124 0.029021282 -0.15930732 -0.08801744
-0.049695067 -0.17237976 0.06934217 -0.1610015 -0.09346493 -0.08121679 -0.21521148 0.1402881
-0.12514484 -0.041591592 0.054084115 -0.0835136 0.04337909 -0.057576723 -0.054928742 -0.11961071
-0.2333416 0.023154734 -0.15245336 -0.12469486 -0.1317321 -0.1797249 0.05260584 -0.15703104
-0.12496881 -0.07026234 -0.16474608 0.11726697 -0.14672323 -0.12040096 -0.11481185 -0.20006071
0.23114268 -0.048756566 0.007059355 0.09416346 -0.011888554 0.049044102 0.015704617 0.022582011
-0.027050529 -0.15140408 0.011981189 -0.10252897 -0.07081675 -0.06420863 -0.14671853 0.109688126
-0.04404532 -0.007978167 0.04000658 -0.081413075 0.102854624 -0.09645918 -0.094092354 -0.08481485
-0.19172706 0.076928474 -0.15635806 -0.12231458 -0.051379364 -0.16662265 -0.15939426 -0.23044746
-0.2489347 -0.25607207 -0.16744219 -0.24877976 -0.3345423 -0.36577818 -0.34452417 -0.1528193
-0.228456 -0.3343171 -0.38981527 -0.38888678 -0.29432613 -0.17547296 -0.31179333 -0.37825316
-0.39684215 -0.3547929 -0.1794967 -0.26846975 -0.30228335 -0.3017466 -0.22896849 0.146217
0.22172695 0.21296015 0.14504683 0.09078876 0.1468305 0.25606304 0.27561626 0.24767427
0.2775716 0.19038479 0.32137313 0.35758653 0.34445393 0.2933481 0.20811874 0.30371243
0.35990557 0.3636303 0.30752882 0.1046165 0.22394583 0.31127787 0.36011285 0.3804497
0.060014457 0.10091204 0.04817299 -0.042434625 -0.15219082 0.044029806 0.12172232 0.09896869
0.04801438 0.031359226 0.014853696 0.11496941 0.12505943 0.09971362 -0.001561862 -0.008567713
0.06806817 0.093582585 0.07971697 -0.02247222 -0.15842132 -0.059945147 -0.016288947 0.010588507
0.009034405 -0.16060072 -0.121618964 0.09512961 0.20898958 0.112817004 -0.17579803 0.01280941
0.1775771 0.10734851 -0.14448972 -0.19087315 0.053694785 0.16060293 -0.009408423 -0.36671764
-0.18846415 0.11448474 0.14284448 -0.07287609 -0.424057 -0.16659303 0.17048196 0.21988451
0.071928196 -0.22360265 -0.030529028 0.013033052 0.19375047 0.33756915 0.21691881 -0.044069495

base.conv1.1.weight f4 [8]
00000000: ccff 333e 06c8 dc3e 122b ab3e a945 7e3e
00000010: ca2e f73d 88b9 8f3e b723 ab3e 90bc a53e
0.17578048 0.43121356 0.33431298 0.2483126 0.12069471 0.28071237 0.33425686 0.32370424

base.conv1.1.bias f4 [8]
00000000: a5f1 b0be 05e1 d9be 9c24 24be 1d5b 99be
00000010: e4ca 0a3e f4a6 b3bd a4ba 59bd 31bf 263e
-0.3455936 -0.4255449 -0.1602959 -0.29952326 0.13553959 -0.08772078 -0.05315651 0.16283871

base.conv1.1.running_mean f4 [8]
00000000: b2fc 9641 2991 8841 74ad 1142 0fb6 a03f
00000010: e483 cb3f 31e4 7bc0 924c e940 f583 aec0
18.873386 17.070879 36.419388 1.255556 1.5899625 -3.9358027 7.290597 -5.453608

base.conv1.1.running_var f4 [8]
00000000: 7812 9a45 7ea3 8047 c6f1 6847 4188 3445
00000010: b9c8 7944 400b 9945 3fca d345 9216 ab45
4930.3086 65862.984 59633.773 2888.5159 999.1363 4897.4062 6777.281 5474.8213

base.conv2.0.weight f4 [8, 8, 3, 3]
00000000: 9630 e0bd c31f cc3d c2b0 b939 e51f 053e
00000010: 421a 393e ea99 69be 8874 00bc 5c9e 40be
00000020: 22d8 d33d de8c 573c a308 7fbd 12a2 d83c
00000030: 636c f43d 8043 94bd 7fc3 253d 1c5b 60bc
00000040: d2dd ddbc 70ae 3d3d bf43 aa3d 1c97 debd
00000050: dc33 8e3e 6a8e 443e 3942 eebf b8d1 60be
00000060: cc82 983e 9806 e8be a95e 06bc 2440 9ebb
00000070: 6060 4b3c a289 28bc 72e5 803c 2dd7 b7bc
00000080: 432c 8ebc cb2c 50ba c975 883c dbac 08bd
00000090: b2dd 0fbe d6fc ec3d 6826 ebbc ed65 d33d
000000a0: ec8c a53e bf06 a4be 14f2 1e3b 03f9 5bbe
000000b0: 7747 d53c 4f9b a7bb 1a2a ee3b fd95 5ebc
000000c0: 2efe 57bc f00d ca3c f725 f43b 000b 653b
000000d0: 1a0e 7d3b 0a16 5b3c 8262 3d3c d6f0 6cbc
000000e0: c3db 053c e844 d43b 1bd6 7ebc 9687 50bc
000000f0: cb07 b3bc 9c6d dc3c 4dbb e0bb 0f6d 1e3c
00000100: 0311 c5bc bb1e d33c 4010 223a cb85 7ebd
00000110: 8653 0f3d c092 de3c 2d57 b73d 976f efbc
00000120: 1a51 0c3e c6fa 943d d06a 4d3d cb00 853d
00000130: e137 aa3c a07c eabd f128 42be 72ae c8be
00000140: 03e0 80be 9f1c d93d cb21 c73d 9321 3fbd
00000150: b7a4 d83d 8fb8 463e a767 30bc 8bf5 9cbd
00000160: cbf4 9cbe e7d5 00be 4708 6bbd 8df1 a7bd
00000170: acb4 3f3d ab96 1ebe 31f6 5d3e 88d0 213e
00000180: 69fd 9bbc 3df1 1f3e abe0 d8bd 46a3 8a3b
00000190: 4d38 0d3d df3b 9a3c 417e 8d3e f044 32bf
000001a0: e760 afbc 821a 56bd b722 2f3f 381b 8abd
000001b0: e3c8 543d af29 173d 5a58 29bb 4b92 c03d
000001c0: 04ff 77bd 0797 153e 97b6 67bd d6f5 053e
000001d0: 5638 b1bd 006b d13c 7a76 f03c 1f94 723d
000001e0: 4b37 a23c 6175 95bd 10fc 1ebc ce83 613d
000001f0: a76a e4bd 834f a4bc 3822 8e3c 370c 00bd
00000200: 15b5 1c3d 1c77 a5bd 6dee ef3e 12a0 2b3c
00000210: 0e39 91bd 7c99 c4be c5af 403d 660a cbb9
00000220: 6659 81bc d4d1 49bd 2204 f5bd 61cd 4e3c
00000230: 1f4e 3ebd 9788 8d3d 1cb5 223f c6b0 2ebe
00000240: 62da c2bd c7a0 babc d72c 453d 57a0 59be
00000250: 0715 3ebe d82c 193e 0bcc d4bc 634a 833e
00000260: 6a41 083e ddfd 7dbd a5c2 853e 1ee0 33bd
00000270: 7825 92be a815 543e a5f3 b0bd 4c7c 43be
00000280: 6f0e 153e 1662 723d 524d 873d a563 62bd
00000290: 812f 99ba 8503 843c 1c96 93bd 1184 02bd
000002a0: de88 4c3c c597 083d 6a69 063d 8ea8 a2bc
000002b0: 85f5 66be afd9 873b 77f0 cfbe 627d 823e
000002c0: 6e5e 8b3e 6f9b 7d3c 064f 00be bd7b 293d
000002d0: e6aa dbbc e40b 443d ea1b 5fbd 264a 113e
000002e0: 2d85 bebd e926 05be 9e6d 57bd 69dc 16bd
000002f0: afe5 3b3c 6ad9 3f3d 2bf5 82bd b55d 47be
00000300: b090 34be fe29 d13e 75af 003e b349 caba
00000310: 2b30 863d 2191 f9bd 3295 63bd 3a79 6d3d
00000320: 9816 23be 437a e83d 6d13 f03e 2c84 acbe
00000330: c407 1d3d 95e1 babd 9dda f1bc 1890 133d
00000340: cc04 893e d357 413c 9572 9f3e fe19 9cbf
00000350: 487b 623e 936e 65bc b06a 0abd f8f3 3c3e
00000360: 7d3a aabc 7210 06be b223 9ebd 5b68 dd3d
00000370: 5683 a5bd 8205 ba3c 833e 14bc 6d8f 583e
00000380: e6cf d63d 87fb 9fbd 52dc 6bbe a813 94be
00000390: 7fd3 273f 1c5e c03e af83 dcbe 940d c03e
000003a0: 8326 3e3e 1bd6 b1be 1b7c 25bc 9a9b 86bd
000003b0: 6f71 a63a 9fb2 4c3b f446 32bd ffa9 3dbd
000003c0: 1207 2a3d 8c9d 8fbd 38c3 8d3d 6604 b03b
000003d0: 8da1 053c 3bdd 2b3d f425 963e c80e b2be
000003e0: f43a e13d 46db bd3d 7194 11be 2fd2 713d
000003f0: 2759 4b3d 0dec 3c3e 03f3 b7bd 00f4 5abd
-0.10946767 0.099669956 0.00035417645 0.13000448 0.18076423 -0.2281262 -0.007840283 -0.1881041
0.103439584 0.013156144 -0.062264096 0.026444469 0.119347356 -0.07239437 0.040469643 -0.013693597
-0.027083311 0.046308935 0.08313703 -0.108686656 0.2777394 0.19194952 -1.861396 -0.21955001
0.2978729 -0.4531753 -0.00820128 -0.0048294235 0.012413114 -0.0102867205 0.015734408 -0.022441471
-0.01735509 -0.0007941245 0.016657727 -0.033367973 -0.14049414 0.11571662 -0.028704837 0.10322175
0.32334077 -0.32036397 0.0024253177 -0.21481709 0.026035054 -0.00511495 0.0072682025 -0.013585565
-0.01318316 0.024664849 0.007450815 0.0034949183 0.0038613142 0.013371954 0.011559131 -0.014461717
0.008170071 0.006477941 -0.015553976 -0.012727639 -0.021854302 0.026907735 -0.0068582655 0.009669556
-0.024055963 0.02577149 0.0006182231 -0.062139314 0.034991764 0.027169585 0.08952174 -0.029228015
0.13702813 0.07274394 0.050150692 0.06494292 0.020778598 -0.114495516 -0.1896093 -0.3919559
-0.25170907 0.10601162 0.09723242 -0.04666288 0.10578292 0.19406341 -0.0107669 -0.07664021
-0.30655512 -0.12581597 -0.05738094 -0.08200369 0.04680316 -0.15487163 0.21675946 0.15802205
-0.019041734 0.15619369 -0.10589727 0.0042308895 0.03447752 0.018827377 0.27635387 -0.6963644
-0.021408511 -0.052271374 0.68412346 -0.06743473 0.051949393 0.036904987 -0.0025840015 0.09402903
-0.060545936 0.14608394 -0.056570616 0.1308206 -0.08653323 0.025563717 0.029353369 0.05922329
0.019801756 -0.07297779 -0.009703651 0.05505734 -0.11153155 -0.020057445 0.017350301 -0.03126165
0.03825863 -0.08079359 0.46861592 0.010475175 -0.070909604 -0.3839835 0.047042627 -0.00038726925
-0.015789699 -0.049272373 -0.11963679 0.012622208 -0.04646122 0.06910818 0.635576 -0.17059621
-0.095143095 -0.022781743 0.048138466 -0.21252571 -0.18562709 0.14958513 -0.025976202 0.2564269
0.13306203 -0.06200968 0.26125064 -0.043914907 -0.2854421 0.20711386 -0.086402215 -0.19090384
0.14556287 0.059175573 0.066065446 -0.05527081 -0.0011687131 0.01611496 -0.072063655 -0.03186423
0.012483804 0.033347864 0.032815374 -0.019855764 -0.22554596 0.004145823 -0.40613148 0.25486284
0.27220482 0.015478953 -0.12530145 0.04137777 -0.02681489 0.047862902 -0.05446998 0.14188442
-0.09302745 -0.13003124 -0.052594773 -0.036831293 0.011468335 0.0468382 -0.06394418 -0.1946934
-0.17633319 0.4085235 0.12566932 -0.0015433341 0.06552156 -0.12185884 -0.055562206 0.05797694
-0.15926588 0.113514446 0.4688982 -0.3369459 0.038337484 -0.091250576 -0.029523188 0.03602609
0.26761472 0.011800724 0.31142107 -1.2195432 0.2211734 -0.014003414 -0.03379315 0.18452442
-0.020779843 -0.13092211 -0.07721652 0.1081092 -0.08081691 0.022707704 -0.009048107 0.21148463
0.10488872 -0.07811647 -0.23033264 -0.28921247 0.6555709 0.375718 -0.43069217 0.3751036
0.18569379 -0.34733662 -0.01010039 -0.065726474 0.0012698601 0.0031234396 -0.043524697 -0.0463047
0.04151065 -0.070124716 0.06922001 0.005371618 0.0081561925 0.04195903 0.2932583 -0.34776902
0.109975725 0.09270339 -0.14216782 0.059038337 0.04964557 0.18449421 -0.08981898 -0.053455353

base.conv2.1.weight f4 [8]
00000000: 183c e03e e20e 943e 6700 b53e 42fe a33e
00000010: cbe8 ba3e 21ae b13e 1606 a83e 1c08 c43e
0.43795848 0.28917605 0.3535187 0.3202992 0.36505732 0.34703162 0.32817143 0.38287437

base.conv2.1.bias f4 [8]
00000000: 5d57 8c3e 22bf b43d b18d 3bba 5a34 023e
00000010: 6828 d63e 138b 393e 894e 2d3e 4fe2 343e
0.27410403 0.08825518 -0.00071545976 0.12715283 0.41827703 0.18119459 0.1692449 0.17664455

base.conv2.1.running_mean f4 [8]
00000000: c8f7 8a3e e49e 753e 7a87 11bd da2d e9bd
00000010: 3f68 b7bd 1ea3 c2bd 4634 d1bd 91ae 87bb
0.27142167 0.23986393 -0.03552959 -0.113856986 -0.0895543 -0.095037684 -0.102150485 -0.004140683

base.conv2.1.running_var f4 [8]
00000000: 2879 c53e 5eb7 c93d 1143 5e3e 7b64 433e
00000010: 60e6 313e c2b1 433e 7311 6a3e 6191 9e3e
0.38568997 0.09849428 0.21705271 0.19081299 0.17373037 0.19110778 0.22858219 0.3097029

base.conv3.0.weight f4 [16, 8, 3, 3]
00000000: fedf 88bd 380f 003e 4c10 ca3d 49ac ec3c
00000010: e3be 1c3d 87aa 58bd e5b3 9f3d 213c 15bc
00000020: de06 18bd dae3 8a3d 3740 76be 7c3f 11be
00000030: 184b 88bd 21ac 80be c260 b4bd 9246 8a3b
00000040: 5fe1 b53b 99f9 a63d 2892 61bd e809 d2be
00000050: 604c 74bd ffaf 9e3d 721f 22bf 4f28 92bd
00000060: c84a 673d 6d4b 5ebe 3030 9cbd d29e b23c
00000070: c264 263e 2cd6 453e f744 233e 589d 43bd
00000080: daf2 b3bc ce04 2a3d b809 ccbd e68d 0a3e
00000090: 8c97 113d a0c8 b83d 0a66 ccbc 20eb 04be
000000a0: 6036 183e c8d4 4b3d 5fe4 d4bd 5422 4fbe
000000b0: bd82 babb ef14 48be fef7 1abe 7039 4abc
000000c0: 6e0e dcbe 51b7 abbe 643e 9f3d a397 f4bd
000000d0: 890e ccbe 11ee a7bc f477 843d d651 17be
000000e0: d15e 2ebe e0ea 9bbe e6b4 61be 7c18 88bc
000000f0: 841a 05be 2e84 fabb 57a0 d13d f414 e7bd
00000100: 1c14 303e e3e4 d53d ed0c 6ebe 31b2 18be
00000110: 8a7d cc3c 49ee bf3d e5ab 03be 6304 b23d
00000120: bf8a 133e 67ba 733e f6e3 ecbd bf3e 1c3d
00000130: 1b5f 203e deee 1cbe 9ec1 a3bd ab6f 77bd
00000140: c193 babd 633e 65bd 4e39 efbe 600e ae3d
00000150: 5d1a 18be 08f0 9cbe 0bb5 eb3d 9ec7 cfba
00000160: 36a0 fe3c bc72 303c e685 903c 47bf a1bc
00000170: c5c5 cf3d a30f 033e 48b6 4cbe 29ef 2f3e
00000180: 1b63 c43c 453b 3f3b 8799 013c 2f2d 603d
00000190: 2383 b03d 21a4 053c 3929 3e3e cdff 08be
000001a0: a456 9d3d 3531 0c3d 1f19 b73c 492c 373e
000001b0: ab81 843d cae8 89bd 930b 1f3d 6137 89be
000001c0: 5348 b2be bd35 ff3c af7d f3bd 5ee8 18bf
000001d0: 8a4a 5c3d b221 bdbd c3c3 0b3d 1fef 543d
000001e0: b6cb b63d 9db8 20bd 1df5 053e 3b72 da3d
000001f0: 78f2 f2bd 80f7 1f3d 4093 fc3d 612a 29be
00000200: e8e2 2ebb c190 523b 2f3d 9c3c f272 06bd
00000210: c00d eb3d 73a5 163e ae33 11bd 8372 8e3d
00000220: 5d9b f9bc da38 43bc 839c 72be d8fc 75bf
00000230: 066c 29be e74a 03bc 5cd1 9ebd 7404 23bd
00000240: 99f2 ddbc 7639 b03d 5cc7 d13c 6cb3 2abc
00000250: 8a41 8abd f932 6e3c c67e 67bc 0a85 e0bd
00000260: 17b0 21bd 195e 9fbc a509 a53c e76e 1abe
00000270: 14d9 2abd d174 dd3c 87f6 083e 77c1 0dbd
00000280: d9db c2bd 4b0b a23c 240e 4b3b a9f9 f6bb
00000290: c179 1f3d d74b da3c fc32 96be d04e 803c
000002a0: 4c39 23bd e40e 4d3d 1dcf eabc c896 693d
000002b0: 1f33 7b3d fda5 913d ac39 a23d 58b8 5dbd
000002c0: fcf2 abbd 0f39 10bd 304f 84bd 57f2 073d
000002d0: 3f69 023c 5f4a dc3c 073e bcbc e28b cc3d
000002e0: 2fc0 2f3f a78f 843b 3cb8 ff3d f903 e33e
000002f0: 37bc 84bd 44e0 063a 6d7c 0a3b 82b6 573b
00000300: 4ab6 81be 66f0 95be 3095 283d af20 cc3d
00000310: dcc5 4c3e 17ec 51bd 3fd0 4abd 67ca 24be
00000320: cdf9 d5bd 4e5c 8a3e 29e2 823f 6042 813d
00000330: 7b3b 2dbe 8a63 a9be 5235 0dbe 4f57 733c
00000340: 5b58 3d3d ea03 ea3b dfd5 65be 84f9 72bf
00000350: 5f08 a4be fe14 6bbd 3759 7b3e 0518 7b3d
00000360: a42b 0a3e 42b1 d83d c531 6b3e 4af9 f33a
00000370: be0d afbf 102c b4be 5b3a 123e 7972 f0be
00000380: 7a3f 1e3d 47d9 a8bd b5b1 193e 4afd 7e3d
00000390: e244 713b 1fd0 3c3e 0f34 8dbd e8c3 003e
000003a0: 6834 17bc f633 dabc f067 023d a10c d33d
000003b0: 7f52 d13c 9827 febc 53e3 e33c 4ab8 a8bd
000003c0: 29e7 0a3d ccb6 7fbc 0146 1ebc b658 fb3c
000003d0: b5bf 253c 6bd2 3fbc 5855 ae3d c079 09bd
000003e0: 2b54 52bc 2454 773d 5d74 6f3d e867 813d
000003f0: 913e 01bc 6e5f 30bd 7499 0fba 49de ad3d
-0.06683348 0.12505805 0.0986639 0.028890746 0.03826798 -0.052897003 0.07797984 -0.009108574
-0.037115924 0.067817405 -0.24047934 -0.14184374 -0.06654948 -0.25131324 -0.088075176 0.0042198384
0.005550548 0.08153076 -0.055071026 -0.41023183 -0.05964315 0.07748412 -0.6332923 -0.071365945
0.0564678 -0.2170846 -0.076263785 0.021804247 0.16249374 0.19319981 0.15944277 -0.047757477
-0.021966387 0.04150849 -0.09962791 0.13530692 0.035544917 0.09022641 -0.024951 -0.12980318
0.14864492 0.04976347 -0.10395121 -0.20227939 -0.0056918547 -0.19539236 -0.15133664 -0.012342796
-0.4297976 -0.33538297 0.07775572 -0.11942985 -0.3985484 -0.020499261 0.06468192 -0.14777312
-0.17028357 -0.30452633 -0.22041664 -0.016613238 -0.12998396 -0.0076451516 0.102356605 -0.11283293
0.17195171 0.10444047 -0.23247118 -0.14911725 0.024962205 0.09371621 -0.12858541 0.08692243
0.14408396 0.23801576 -0.115669176 0.038145777 0.1566128 -0.15325496 -0.07995914 -0.06040923
-0.09110213 -0.0559677 -0.46723408 0.084988356 -0.14853807 -0.3065188 0.115091406 -0.0015852337
0.031082254 0.010769542 0.017641973 -0.019744528 0.101451434 0.12798934 -0.1999141 0.17181076
0.023973038 0.0029179615 0.007910139 0.05473059 0.08618762 0.008156807 0.18570413 -0.1337883
0.07682541 0.034226615 0.022350846 0.17887987 0.06470045 -0.06733854 0.038829397 -0.26800063
-0.34820804 0.031153554 -0.118892066 -0.59729564 0.053782023 -0.092349425 0.03412224 0.051985856
0.089255735 -0.03923856 0.13081785 0.10666319 -0.118626535 0.039054394 0.12332773 -0.16520073
-0.002668554 0.0032129737 0.019072143 -0.032824464 0.11477232 0.14711551 -0.035449676 0.06955435
-0.03046959 -0.01191541 -0.23692517 -0.96088934 -0.16545114 -0.008013464 -0.07754776 -0.03979917
-0.027093219 0.0860471 0.025607757 -0.010418754 -0.06750782 0.01453852 -0.014129346 -0.10962875
-0.039474573 -0.019454049 0.0201462 -0.15081368 -0.041710928 0.027033241 0.13375293 -0.03460833
-0.09514589 0.019780776 0.003098377 -0.007537086 0.038934473 0.026647491 -0.29335773 0.01566258
-0.039849564 0.05006303 -0.028663212 0.05702856 0.06132805 0.07111738 0.07921156 -0.054130882
-0.08395955 -0.035210665 -0.06460416 0.033190098 0.007959663 0.026890932 -0.022978796 0.09987618
0.68652624 0.004045445 0.12486312 0.44338968 -0.06481212 0.00051451125 0.0021131292 0.003291518
-0.25334388 -0.29284972 0.0411579 0.099671714 0.19997352 -0.051250543 -0.049515005 -0.16092835
-0.10448036 0.27023548 1.0225269 0.06311488 -0.16917221 -0.33083755 -0.13789871 0.014852359
0.04622684 0.00714158 -0.22444867 -0.9491198 -0.32037637 -0.057393067 0.24545752 0.061302204
0.1349321 0.10580684 0.22968204 0.0018613723 -1.3676069 -0.35189867 0.14280073 -0.46962336
0.038634755 -0.08244567 0.15009196 0.062253274 0.003681474 0.18438767 -0.06894695 0.12574732
-0.009228803 -0.026636105 0.031837404 0.10305143 0.025552033 -0.03102474 0.027818358 -0.08238275
0.033911858 -0.015607547 -0.009660245 0.03068195 0.010116507 -0.011707882 0.08512372 -0.033563375
-0.01283745 0.060382977 0.058460582 0.06318647 -0.007888452 -0.04305976 -0.00054778834 0.08489663

base.conv3.1.weight f4 [16]
00000000: f733 fb3e b8f9 f53e 16e2 e43e 06c6 f73e
00000010: f3dd a83e 7bbd de3e a8a7 ac3e 9e74 803e
00000020: 4f20 0000 a4e3 b23e 989b bb3e 9e01 b03e
00000030: 7f1b 7d3e 5f7d c03e 1332 743e 6c25 b43e
0.49063084 0.48042083 0.4470374 0.48393267 0.32981834 0.43503937 0.33721662 0.25088972
1.159e-41 0.349393 0.36642146 0.34376234 0.2471752 0.3759565 0.23847227 0.351848

base.conv3.1.bias f4 [16]
00000000: c1d0 843d e011 b73d d337 893b d978 693e
00000010: 934c 093d ec6c 13bd 1b49 17be 2006 5ebb
00000020: 6ab4 4bae 8b7c 84bb 9e17 ea3c 88cd 3ebd
00000030: 763f e43d 5524 1f3e 1d7b cc3d bd68 10bb
0.06485129 0.08938956 0.004187563 0.22800006 0.033520292 -0.035992548 -0.14773981 -0.0033878163
-4.6317096e-11 -0.004043167 0.028575715 -0.04658273 0.11144917 0.15541203 0.099844195 -0.0022035085

base.conv3.1.running_mean f4 [16]
00000000: 0dbc 27bf 4a90 40bf 3762 883e 4dc3 30be
00000010: 2784 f63d f88e 42bf 736f b6be 0d9a 69be
00000020: 0400 0080 0f2a 4abe e7e4 e4bd 527a 56bd
00000030: e8e9 803b a57f c1be a255 683c d123 973d
-0.6552132 -0.7522017 0.26637432 -0.17262001 0.12036925 -0.75999403 -0.35631904 -0.22812672
-6e-45 -0.19742607 -0.11176472 -0.052362747 0.003934134 -0.37792698 0.014180573 0.07379878

base.conv3.1.running_var f4 [16]
00000000: cd46 8c3e 91ba a73e fca1 833e 8eec 943e
00000010: a334 6c3e df2d 893e e90e fa3d 4106 1d3e
00000020: 0400 0000 a8fa 403e fafd 443e ef0b 613e
00000030: fde5 f13d 9e95 6a3e 901e f63d 5ea4 883e
0.27397767 0.32759526 0.25709522 0.29086727 0.23066954 0.2679281 0.12209875 0.15334417
6e-45 0.18845618 0.1923751 0.21977209 0.11811445 0.22908637 0.12017548 0.26687902

base.conv4.res_layer.0.weight f4 [16, 16, 3, 3]
00000000: c1ea ecbd f9b3 5fbe 03b3 e1bd 1339 c03e
00000010: 8a5c 9ebd 0a09 debd adee 0d3d 0407 e03c
00000020: 09fe 0ebe f397 34bc 6652 6a3d 0a78 c83a
00000030: bbcc 233d 4dcc 8cbd 27d3 c23c d13f b4bc
00000040: f0e2 9dbd b0e6 79be b7ee 823d 0fd0 033e
00000050: 8614 4f3d e889 34bd e7d5 f43c 22c8 d53c
00000060: 036f 623c 865b e13c c9cd 0bbc 8486 e03d
00000070: cff4 f9bd a176 f1bd 1ad1 27bb 23a7 56bd
00000080: 8039 23be 9fe5 233e 1f9f 8c3d bb95 453c
00000090: abac 043c 0110 babc 72fb 3cbc 70fd 8cbe
000000a0: d6b9 01bd d30f f1bc a3e5 e63c 6b17 633e
000000b0: 0fe5 44bd 0cd1 0d3e 341c 883d 6b55 263d
000000c0: a5cc f13d 8113 2f3e f8e0 f93d 7ed8 12bd
000000d0: c9d8 8fbc 7ae7 873d 327c 01be eeb4 7c3c
000000e0: b0d8 983c fa1a 35bd a33f c6bd a095 b9bd
000000f0: 793c 953d 8690 bf3d a520 993d 158c e7bb
00000100: c02c ca3d a1bc 02be ce00 74bd db71 c3bd
00000110: a729 0fbe 26fe e4bd 3448 a9bd b97f 95bd
00000120: dc1e 0080 003d 0080 4c2f 0080 833b 0080
00000130: 3012 0080 9923 0080 4330 0080 3839 0080
00000140: 9e3d 0080 0f51 0d3d 6976 eebd 4539 823d
00000150: b728 723c de1c 273d d092 3e3d efb0 d3bd
00000160: 6ca3 4abe 2409 743d 9e79 14be 8be5 61bd
00000170: e4ea 513d 4059 afbd 7990 28be 8444 653c
00000180: 9544 8c3c ef12 dbbe 2dd6 35be 23a4 f13d
00000190: 57a0 1f3e dda6 963d a92f 4bbe 6d65 483d
000001a0: 00fb c73d e36b 9ebe 40a1 48bd ae37 e5bc
000001b0: 6ccf 3fbd bfb3 b3bd 4283 fbbc d228 2fbe
000001c0: ad86 efbe 9405 1cbe e0a0 533d d11a f7be
000001d0: 1100 d0bc 052f 263e 8bf7 8ebb 22fc 253c
000001e0: bea5 2f3e af51 1d3d 6f68 153e fa57 573d
000001f0: a71b 05bd 0656 41bd 3381 bd3c 7fff 41be
00000200: 8f86 e93b 9bb1 b9bc e483 e6bd 7564 15bd
00000210: c71a 91bd 0b50 6d3c 83ff 203a 761b 173c
00000220: 37a7 063d 6914 913d 8c33 dc3d 824b 3ebd
00000230: 4208 c7bd 4441 183e dfe4 b2bc a705 273c
00000240: 78d2 a3bd c372 c93d 6bf7 83be 231c 113e
00000250: dcc7 96be d87c d9bb 6886 43be c01d 2c3c
00000260: 0be8 003f 5c70 bdbd 0495 993e 5256 cb3d
00000270: ed95 e03d 1322 5a3e a439 06be befa 8d3d
00000280: ff96 d8be d406 abbd 52c4 853d ccde 88be
00000290: b1dc b53d f615 763c b5a7 693e fd54 04be
000002a0: f6f0 893d dd2f c0be a2c2 993d fdc9 15bd
000002b0: 0b43 bd3b 5bf0 023c eff3 163d 2922 bbbd
000002c0: 6597 28be 155a 233e f89f 4fbd bcdd 253e
000002d0: 3c04 10bd e7a2 c63b 97ec d43c 5d71 ebbd
000002e0: 76dc 2b3d 6455 50bd 93cc eebd 3470 9b3e
000002f0: a890 95bd 14de 8c3c 1a6e 023d 15dd 39bc
00000300: 8a76 08be 29c7 a03c 118e d13d c6d4 9c3e
00000310: d7ca c5be 9808 14be f347 f0bd 91d3 cabd
00000320: 957f 3ebd e1c4 edbc 3e9c 1ebe 014d b83c
00000330: 18a7 3fbd fc85 a73c bf37 0a3e b2e1 e7bd
00000340: 278f ecbd 4c39 e9bc cace a1bd 7ce4 ee3c
00000350: f82c dbbb 9d57 313d a2c8 073d 4c3a 123d
00000360: 4730 0000 0c0f 0000 fb28 0000 c124 0000
00000370: 541f 0000 2c14 0000 683e 0080 b33d 0080
00000380: 6a23 0080 386e 383d a34b 3bbd 4a3c 91bc
00000390: 2166 03be f22e b83d 648b 91bd c2cd b43d
000003a0: 6879 1bbe bcd5 333d 1cf0 f4bd bbbd 13be
000003b0: 06b6 b8bc ba71 44bc 7044 c7be 5e89 34be
000003c0: 6d0d 73bd c7d2 e4bd a689 ecbd c77a ea3d
000003d0: 0e32 16be a810 07bd be2a 66bc 228c b73e
000003e0: 205a 483d cb2d c43d 5701 2fbc 597c cdbb
000003f0: dd97 113d deb9 38ba f6e7 08bd 8e0c b6bd
-0.11568213 -0.21845998 -0.11020472 0.37543544 -0.07732494 -0.10841568 0.034651447 0.027347095
-0.13964094 -0.011022556 0.057207488 0.0015294563 0.039990168 -0.06874905 0.023782326 -0.022003086
-0.077093005 -0.24404407 0.063931875 0.12872337 0.050556682 -0.04407683 0.029887153 0.026096407
0.013820413 0.027509462 -0.00853295 0.10963157 -0.12204897 -0.11790205 -0.0025606812 -0.052405488
-0.15939903 0.16005562 0.068662874 0.012059624 0.008097808 -0.02271271 -0.011534559 -0.27537107
-0.031671368 -0.02942649 0.028185671 0.22176902 -0.04807001 0.13849276 0.06646004 0.040608805
0.11806611 0.17097284 0.122011125 -0.035850994 -0.017559426 0.066359475 -0.12645033 0.015423996
0.018658012 -0.04421518 -0.096801065 -0.09061742 0.07286925 0.093537375 0.074769296 -0.0070662596
0.09871817 -0.12767269 -0.05957108 -0.095432006 -0.13980733 -0.111812875 -0.08265725 -0.07299752
-1.107e-41 -2.1883e-41 -1.6967e-41 -2.1349e-41 -6.524e-42 -1.277e-41 -1.7313e-41 -2.0526e-41
-2.2104e-41 0.03450113 -0.11643679 0.063585795 0.014780215 0.040799014 0.04652673 -0.10336482
-0.19788903 0.05957903 -0.14499518 -0.05515055 0.0512494 -0.08561945 -0.16461362 0.013993386
0.017122546 -0.42787883 -0.17757483 0.11798885 0.15588509 0.073560454 -0.198424 0.048924852
0.09764671 -0.30941686 -0.048981905 -0.027980652 -0.046828672 -0.08774518 -0.030702237 -0.17105415
-0.46782437 -0.15236503 0.051667094 -0.48262647 -0.025390657 0.16228874 -0.0043630055 0.010130914
0.1715307 0.038407978 0.1459062 0.052574135 -0.032497074 -0.04720118 0.023132896 -0.1894512
0.0071266363 -0.022667697 -0.11255625 -0.036472756 -0.070851855 0.014484416 0.000614159 0.009222856
0.032874312 0.07083971 0.10752019 -0.04645873 -0.09718372 0.14868647 -0.02183765 0.010194219
-0.07999128 0.09836342 -0.25774702 0.1417089 -0.29449356 -0.006637197 -0.1909424 0.01050514
0.5035407 -0.092499465 0.29996502 0.09928574 0.10966096 0.21302061 -0.13107926 0.06932591
-0.423027 -0.08350912 0.06531586 -0.2673248 0.08879984 0.015019884 0.22817881 -0.12923045
0.06735413 -0.37536517 0.075078264 -0.036569584 0.0057758144 0.0079918755 0.036853727 -0.09137375
-0.16464002 0.15952332 -0.050689667 0.16197866 -0.03516029 0.0060619 0.025991721 -0.11496232
0.041958295 -0.050862685 -0.11660113 0.30359042 -0.073029816 0.017195739 0.031843282 -0.011344214
-0.13326469 0.019626217 0.10232175 0.30631083 -0.38631317 -0.14456403 -0.11732473 -0.09903634
-0.04650839 -0.029024543 -0.15489289 0.022497656 -0.046790212 0.02044963 0.13497828 -0.11322345
-0.11550742 -0.028469704 -0.0790077 0.029161684 -0.0066887103 0.043296445 0.033150323 0.035700127
1.7319e-41 5.398e-42 1.4701e-41 1.3185e-41 1.1238e-41 7.236e-42 -2.2387e-41 -2.2134e-41
-1.2704e-41 0.045026988 -0.04572643 -0.017728943 -0.12831928 0.08993329 -0.07106665 0.08828308
-0.15183032 0.043905005 -0.1195986 -0.14427845 -0.022547733 -0.011990005 -0.389194 -0.17630526
-0.059338976 -0.11173015 -0.11549692 0.11449199 -0.14667532 -0.03297487 -0.0140482765 0.358491
0.048914075 0.09579047 -0.010681472 -0.006270927 0.03554522 -0.00070467393 -0.03342434 -0.08889113

base.conv4.res_layer.1.weight f4 [16]
00000000: dfda 993e 358d fe3e 370c ed3e 7692 ad3e
00000010: 9b52 de3e 0332 b63e c443 ce3e a771 a43e
00000020: ee27 003f 79c2 9f3e cfeb c03e bbc1 f03e
00000030: 9022 0080 47ee f23e 88e2 de3e 837e c43e
0.30049798 0.49717107 0.46298382 0.33900803 0.43422398 0.3558503 0.40286076 0.3211796
0.5006093 0.31203058 0.37679908 0.47022805 -1.2399e-41 0.47447416 0.43532205 0.3837777

base.conv4.res_layer.1.bias f4 [16]
00000000: 1cad ea3d fb7e 22be f29a dfbd d77c 0fbe
00000010: 3f72 69bd db1e 28be 02fb 973e b569 54bd
00000020: 2062 32be 6241 c0bd b750 d73c b88d 4d3e
00000030: 77fb 3e00 5b7e 30be 11ba f7bd 1e5b 813d
0.11458799 -0.15868752 -0.10918225 -0.14012466 -0.05699372 -0.1641802 0.2968369 -0.051858623
-0.17420244 -0.09387471 0.026283605 0.20073593 5.78401e-39 -0.17235701 -0.12096036 0.06316207

base.conv4.res_layer.1.running_mean f4 [16]
00000000: 2d8c bebe c8ea a5be f1dc ddbe 76a7 98be
00000010: e648 bdbe a0b7 9fbe f631 9bbe 0b02 35bf
00000020: a023 e2be f995 bdbe 12b6 ebbd 080a 80be
00000030: 0400 0000 4975 b3be d9dc 1ebf 0a72 1abf
-0.3721632 -0.32405686 -0.43332627 -0.29815263 -0.3696968 -0.31194782 -0.30311555 -0.7070624
-0.44167805 -0.37028483 -0.115093365 -0.25007653 6e-45 -0.3505042 -0.62055737 -0.6033026

base.conv4.res_layer.1.running_var f4 [16]
00000000: 3577 083e f3ab 3b3e e23f 223e 6832 f63d
00000010: de13 043e 143f fb3d 6759 893e 6a48 da3d
00000020: 31f4 2f3e 00d5 e83d f756 153e 11e4 c53e
00000030: 0400 0000 85d9 303e 02a3 7b3e 77f7 743e
0.13326724 0.18327312 0.15844682 0.12021333 0.12898204 0.122678906 0.2682602 0.10658343
0.17182995 0.113687515 0.14583956 0.38650563 6e-45 0.17270477 0.24573901 0.23922525

base.conv4.res_layer.3.weight f4 [16, 16, 3, 3]
00000000: 19c4 b93c db1f 433e 34aa 553e 7efd 41be
00000010: 7817 e73d 851e 093e 8424 e1bd 73ad ccbc
00000020: c2b4 233e 447a fcbd 324e 2a3d 3ba8 fbbc
00000030: 667a 4cbc 0140 23bd f546 58bd 8ec3 033d
00000040: b7f3 b3bc c5fc a23b 9275 d83d d4f6 653e
00000050: c9f3 9a3d 45ec 66be 8d17 26ba 4635 723d
00000060: 618b d7bd 978c 753d 6e44 c33d 8c62 c33a
00000070: 2daf 173d aca0 513d a3e9 12be 35d9 31be
00000080: 5ff0 603c a63d 023c ddbb 823d f4e3 c43d
00000090: 1acd ee3d 64be d13d 2559 2c3e 6ec8 babd
000000a0: 9a32 0dbe b8df 00be 33f8 88bd cae5 27be
000000b0: cf0f ebbd d372 9b3d fed6 2f3e 2b53 853d
000000c0: c22a 9ebd df6d 1dbd f6a3 edbb 780f a7bd
000000d0: e369 18be 4754 acbd 3f84 543e 0793 583e
000000e0: e81f 913c 040b a93e 3626 683e 3e04 1e3c
000000f0: b97e 743d 7df1 643c b68e 34be 8e9c 023c
00000100: 36ea 293d c2c3 813d b3b5 87bd ba94 313d
00000110: d956 9bbd 3476 ce3c 00da 003e 5828 a5bd
00000120: e3ce 15be 2915 59be 42d3 56be 13c9 a1bd
00000130: 5101 b6bd 7d9f 27bd 8c5c 10bd 20d3 a33c
00000140: 2870 5f3d 336d 303e 1319 093c 3d5e e7bd
00000150: 14d3 953d 9cd2 0dbd 0ad1 b33c 6bdf 90bd
00000160: 3153 05be c7bb 60bd 0dd3 b3bc bf3d 03be
00000170: c239 09bd b7e5 ac3d b747 703d 1e8b 293d
00000180: aac6 9f3d ba17 763e ed51 763e bf8a 77be
00000190: cf66 90be cce2 f0bc 9af9 4fbe f8d9 bbbc
000001a0: 1c59 393e 03d6 2bbd 9477 953e 4aa6 663e
000001b0: aa16 0000 4d13 0000 8d00 0000 1c0c 0080
000001c0: d611 0080 3a1f 0000 8b06 0000 f210 0080
000001d0: b117 0080 5105 03bc d566 7a3d 60a1 873d
000001e0: d188 d03d 3817 583e 982f 123e dc46 f33d
000001f0: 169a 843e 85e4 173e 4776 0bbe ab8f f73c
00000200: dc13 843c 6218 6abc f8f9 e43d ba0e 87bd
00000210: 614f 71bc 7df4 84bd 38c5 5fba 2249 05bc
00000220: a7e2 933d adcc 873e 6a83 d6bd f9c3 043e
00000230: d28d 073d 8503 6fbd dac3 73bd 709e 44bd
00000240: a64a 69ba c6c0 2d3d c796 833c 53d0 813d
00000250: b418 883d d61a 2f3d 83f5 273c c229 043d
00000260: 4277 913c 172c 163d 378a 4c3c 4c67 013c
00000270: 2dff a73c cb97 6b3b 989a 743b 572b 853c
00000280: 8581 e73c 3ee7 0b3d 3774 e93c ddfe 283d
00000290: c10d 1cbc cd01 463c e87f 6dbb 34de aebc
000002a0: 6ee4 f5ba a211 763c eb76 7a3d 996e 17bd
000002b0: 5255 9dbc 622c 993b 7027 45bc 163c 2dbc
000002c0: af74 4e3c 8be4 0cbc 68d4 c9bc 80e6 33bc
000002d0: 877b 5f3d 0a34 3d3d 7827 0f3c 2675 723d
000002e0: 3369 c43a 5ca2 52bc b8ac 9b3c 35a9 e23c
000002f0: daf4 d03a 363e d73c 0ea7 fe3b 527f ad3b
00000300: fbaf 85bb a4e3 303b d0de 0e3c 7a24 96bc
00000310: 4b0b 733c 7678 d03c dc20 54bc b488 25bd
00000320: f26a 4dbc 07ff dabb 72db 0a3c cce2 4dbc
00000330: 8521 e33c c2e4 b4b8 451c 893c 9c0f d2bb
00000340: afdd 80ba ad39 913b 8a7f 993a 8472 1d3c
00000350: 13cf 6dbc 2600 0dbd 7467 c1bb f1d8 1ebc
00000360: 5b93 a03c 23ca c4bc 6d74 b3bc c96b 063d
00000370: af58 2bbb e22c 7abd d8da 8a3c 4d49 f0bb
00000380: 849b 09bc 731a eabc 2184 28bd 75b9 2c3c
00000390: 1c74 1bbd 6de7 b4bc e9cf 9a3c 7487 46bd
000003a0: be58 5abc c1b1 963c 71a5 8cbc a044 dfbc
000003b0: ff94 3a3c fc9f 16bb 7b8b debc bff6 053c
000003c0: 63ae b03c 5174 6bbc fcc2 71bc 08bf c53c
000003d0: 21b2 293c ed7f 8fbc 5217 cb3b ee1d 503b
000003e0: 7cf6 7cbc 76e9 d5bb 8044 1cbd ba28 c6bc
000003f0: 4711 0080 3507 0080 3e04 0080 1816 0080
0.022676514 0.1905512 0.20865709 -0.18944356 0.11283773 0.13390549 -0.10993293 -0.02498505
0.15986922 -0.12328008 0.04157848 -0.030719867 -0.012480354 -0.03985596 -0.052802045 0.032168917
-0.021966798 0.00497398 0.105693 0.22457439 0.075660296 -0.22551067 -0.0006335907 0.059132837
-0.10524631 0.05994853 0.09534536 0.0014906689 0.037032295 0.05117862 -0.14346938 -0.17368014
0.013729184 0.007949268 0.06383488 0.09613791 0.11660214 0.10241392 0.16830881 -0.0912026
-0.13788834 -0.12585342 -0.06687965 -0.16396251 -0.114776246 0.0759026 0.17171857 0.06510004
-0.07722999 -0.03843486 -0.0072522117 -0.08157247 -0.14884143 -0.08414512 0.20753573 0.21149836
0.01771541 0.33016217 0.22670826 0.009644566 0.059691165 0.013973591 -0.17632565 0.007971896
0.041483127 0.06336166 -0.06626453 0.043354727 -0.07584924 0.025202848 0.1258316 -0.080643356
-0.14629702 -0.21199478 -0.20979026 -0.0789968 -0.0888697 -0.040923584 -0.03524451 0.019998133
0.05455032 0.17229156 0.008367795 -0.112972714 0.073156506 -0.03462468 0.021950264 -0.070738636
-0.13020016 -0.05486658 -0.021951223 -0.12816523 -0.033502348 0.08442252 0.058662143 0.041392438
0.07801564 0.24032488 0.2405469 -0.24174021 -0.28203437 -0.02940502 -0.20310059 -0.022931084
0.18100399 -0.041952144 0.29192793 0.22524372 8.13e-42 6.924e-42 1.98e-43 -4.344e-42
-6.398e-42 1.1202e-41 2.347e-42 -6.079e-42 -8.499e-42 -0.007996873 0.061133225 0.06622577
0.10182346 0.21102607 0.14275968 0.1187875 0.25898808 0.14833267 -0.13619338 0.030219873
0.016122751 -0.01428804 0.1118049 -0.06594606 -0.014728398 -0.06491945 -0.0008536163 -0.008135112
0.07220965 0.26523343 -0.10474284 0.12965383 0.033094235 -0.058352966 -0.05951295 -0.04800266
-0.0008899368 0.04242017 0.016063107 0.06338563 0.06645337 0.042750202 0.010251406 0.032266386
0.017757062 0.03666314 0.012484125 0.007898163 0.02050742 0.003594863 0.003732359 0.016256018
0.028260002 0.034156077 0.028497798 0.04125868 -0.009524764 0.01208539 -0.0036239568 -0.02134619
-0.0018760094 0.015018852 0.061148565 -0.03697071 -0.019205723 0.0046744803 -0.012033328 -0.010573408
0.012601062 -0.008599411 -0.024637416 -0.010980248 0.054561164 0.046192206 0.008737437 0.059193753
0.0014984965 -0.012856092 0.019003257 0.027668575 0.0015942112 0.026274782 0.0077713793 0.005294719
-0.0040798164 0.0026991153 0.008720115 -0.01832794 0.014834235 0.025448065 -0.012947287 -0.040413573
-0.012537705 -0.0066832337 0.008475171 -0.01256628 0.027725944 -8.625678e-05 0.016737113 -0.006410552
-0.0009831692 0.0044319243 0.0011710983 0.009609822 -0.014514702 -0.03442397 -0.005902225 -0.009695278
0.019601515 -0.024022168 -0.021906102 0.032817636 -0.002614539 -0.06107796 0.016950056 -0.007332957
-0.008398894 -0.028577065 -0.041141633 0.010542263 -0.037952527 -0.022083009 0.018897967 -0.048469022
-0.013326822 0.018395307 -0.017168732 -0.027254403 0.0113880625 -0.0022983542 -0.027166119 0.008176505
0.021567529 -0.014370994 -0.014755961 0.024138942 0.010357411 -0.017517054 0.0061978484 0.003175612
-0.015439626 -0.006528075 -0.038151264 -0.024189342 -6.198e-42 -2.585e-42 -1.522e-42 -7.926e-42

base.conv4.res_layer.4.weight f4 [16]
00000000: 394d e73e 4471 aebd c161 143e 229e 7e3e
00000010: e705 003f 8487 073f 4029 c73e e676 f43e
00000020: f7f9 de3e 8d77 08bd 81cf 62b9 5c13 dc3e
00000030: 7bd7 093f c42e c03e e591 e03e 1e59 b83e
0.45176104 -0.085176975 0.14490415 0.2486501 0.50009006 0.52941155 0.3889866 0.47746962
0.43550083 -0.033317138 -0.00021630341 0.4298352 0.5384442 0.3753568 0.4386131 0.3600549

base.conv4.res_layer.4.bias f4 [16]
00000000: fba7 8f3d c350 a63b 4f93 fbbb 81cc e43d
00000010: 4266 033e 25fb b33d 283f 933c 452b c4bd
00000020: 6996 01bd 84a6 633c 4163 f0bc c3b7 833d
00000030: f711 4abe 3842 003d d0db cebc 6e30 0cbd
0.070144616 0.0050755455 -0.0076774727 0.111718185 0.12831977 0.087881364 0.017974451 -0.095785655
-0.031637583 0.013894681 -0.029344203 0.06431534 -0.19733416 0.03131315 -0.0252513 -0.034225874

base.conv4.res_layer.4.running_mean f4 [16]
00000000: 27c1 f63e 54c4 9c3d 5824 01be 27a8 45bc
00000010: 19cc c13e b86e 15bf bab9 203f 8fc7 27be
00000020: 7f25 f53c 9916 62bc 85db a43b d369 48be
00000030: fea0 823d 88b4 9c3e 083a 043f d942 bbbc
0.4819424 0.07654634 -0.1261152 -0.012064016 0.37851027 -0.5837207 0.62783396 -0.1638472
0.029925106 -0.013799333 0.0050310516 -0.19571619 0.06378363 0.30606484 0.5165105 -0.022859024

base.conv4.res_layer.4.running_var f4 [16]
00000000: 450d 8f3d 3f71 693b 1df8 753c 07f2 833d
00000010: e441 f13d 1d9c 183e 8543 bf3d e27a 963d
00000020: 26cd 8d3d 072a cf39 e8e4 4437 e3b5 c83d
00000030: 12ff 203e 9026 733d 1d42 a13d a17e 823d
0.06984953 0.0035620478 0.015012768 0.064426474 0.11780146 0.14903302 0.0933905 0.07347657
0.069238946 0.0003951343 1.1735807e-05 0.09800317 0.15722302 0.059362948 0.07873938 0.06371809

base.m0.b2_1.0.shortcut_layer.0.weight f4 [16, 16, 1, 1]
00000000: 4041 2f3e d5fc a13d 2994 9dbc a3e0 fa3d
00000010: d61d a5be beda 8dbd 8503 e23d c6e0 84be
00000020: 7e1c c7bc efbf ef3d 9f7d 333e 39dd 8bbc
00000030: 0de9 ad3e c1dd f3bc c46f 3b3e 59da 553e
00000040: 4410 5a3d 11b4 3dbe 6cce aa3d 3dea 29be
00000050: 0d49 e2bd 14cd 78be 930f 2cbc 8345 9bbd
00000060: ba42 9fbd bd1d 733c 1243 bbbd 2208 31be
00000070: 43b9 89be 9a7d 4fbe 0b8d 58be e162 81bd
00000080: f470 533d 02cc 373e 24b4 8e3d eeb6 053f
00000090: 70d5 26be d97c 5ebc b45e 0b3e b5e1 4fbb
000000a0: 456b 7ebd 769c 3fbd f66a f1bc ec8f 0cbe
000000b0: 8baf eabe 2816 953d 3ca9 853d 161a 7d3c
000000c0: a295 2c3e 75bb ee3d b0f4 03bd 9b89 a93e
000000d0: 76f5 9c3d 7cea 563d 1a84 85bd 2222 6fbe
000000e0: 5030 16be bf11 0d3d 80ba b63d 95a5 093e
000000f0: 7ca6 213e 6fce 7cbd 11cb 81be 8743 87be
00000100: b01e 323e b4a9 8abe fc9b 1bbe c35d 26be
00000110: de8a 633e 2e90 9cbe 5042 d3bd 4795 0d3e
00000120: 5f2f 4abc 30d1 ddbd 3b46 8dbd 6477 f9bd
00000130: d89c 043a 6e5e 9cbe 20e8 093e 317c 593d
00000140: 5597 b63d 8d5b 3ebc 9fa8 8f3c 251b 5bbe
00000150: 163b 87be fe25 103d 7799 b2bd bc9c babd
00000160: 1685 6a3e 33ce 67bd 80a7 e3bd d7e7 36bc
00000170: 35b5 a9be 9184 cf3c 4be3 e73d 8e2a c6bc
00000180: ea37 443e 0760 d5bd 5609 19be 592c dd3d
00000190: a446 9d3d eb42 6abe 1e8b 813d 5470 a8bd
000001a0: 5d1e 023e 4b9f c0bd 7658 05bd f907 23bd
000001b0: fb56 363e ec9f 0c3c eda9 56bd 96f5 2bbe
000001c0: 0000 0000 0000 0080 0000 0000 0000 0000
000001d0: 0000 0000 0000 0000 0000 0000 0000 0080
000001e0: 0000 0080 0000 0080 0000 0080 0000 0000
000001f0: 0000 0000 0000 0080 0000 0080 0000 0080
00000200: bf1a 7fbd 857d 50be ade0 2c3c 9cc8 4ebe
00000210: 1db2 703e c7f0 1cbd aa11 87bc a79b 73be
00000220: 7557 543e de04 03bd 87a8 96bd e787 8bbc
00000230: 819b 01bc 87f4 65be 829c ae3d 653b cb3d
00000240: e6b4 cbbe 2594 e0bd 2eb7 a63c 492b bf3d
00000250: 99ed dbbc 2c11 35be 3835 3dbe 9e4e 62be
00000260: 6e9b 46be f958 683d 1d68 ab3b fdfe 753d
00000270: ee9f 2c3d c65f 063e 496c 473e 5cb7 043e
00000280: 4042 59be 331e 033e b771 e9bc 16f0 e43d
00000290: 98fb 753e ff34 0abe 078a 133d 2d89 9bbc
000002a0: acd5 7f3e b8a4 963c 7e0e 133e 20cb 92bd
000002b0: 1fd5 d83d 996d a43d 5de8 57bd 63bf af3e
000002c0: b3c4 bbbd 09a7 103d d867 0fbe 4863 93be
000002d0: 7d3e a73d a83c cfbd 09db 523d b8c4 8a3e
000002e0: 09ea 1fbe a16e cabd 0b88 22be b061 91bd
000002f0: f474 33bd 6158 413e b48c 5abe 7a9e 00be
00000300: 0f43 133e cc78 2fbd 0f95 193e 204f abbe
00000310: 1e8a 573e b196 263e 7dee 1b3e 284e 263e
00000320: 91be ccbd c329 963c c2c6 693d eaf5 9cbd
00000330: debd 88bd aec4 5dbd 2dae 353e 1334 bb3c
00000340: 9295 04bd 2b42 82bd ab0a b43c 1760 82be
00000350: 786e fcbd ee23 243e 6bb0 283d 1f02 7b3e
00000360: 5c6a 16be 7200 d6bc 61e1 edbc a831 a83e
00000370: 1985 cebd 3422 73bd c753 2b3e 472b 143c
00000380: 6a4d 7bbe 9ddd 57be e58a 633e 03c7 9a3e
00000390: bcf8 123e a320 023e c07f 433d f6c9 a13e
000003a0: 5a00 de3b 1a22 2cbd 1e26 893d 84d1 10be
000003b0: 794e 013d ba97 eabd 55c8 14bd 01ad 213e
000003c0: e351 bf3c 4fa2 603e 437f 833d b359 c03e
000003d0: d02e 8bbd c5d9 723d 58e6 2abe ebdb 98bd
000003e0: 8a60 2d3c 97c9 4a3e c5cb 2f3e f5ef 5b3e
000003f0: c66b 1bbc db98 643e f216 503e d91a 313d
0.17114735 0.07909552 -0.019235687 0.12249877 -0.32249326 -0.069264874 0.110358275 -0.2595274
-0.024305578 0.1170653 0.1752839 -0.01707326 0.33966866 -0.029768826 0.18304354 0.20884074
0.05323817 -0.18525721 0.08340153 -0.16593261 -0.110490896 -0.24296981 -0.01050176 -0.07581618
-0.07776399 0.014838633 -0.09143652 -0.17288259 -0.26899156 -0.20262757 -0.21147554 -0.06317688
0.051621392 0.17948917 0.06967953 0.52232254 -0.16292357 -0.013579571 0.13610345 -0.0031720225
-0.06211402 -0.046780072 -0.029469948 -0.13726777 -0.45837054 0.072796166 0.065264195 0.015448114
0.16853955 0.11656848 -0.032215774 0.33112797 0.076640055 0.052469715 -0.06519337 -0.23352864
-0.14666867 0.034440752 0.08922291 0.13442071 0.15786165 -0.061720308 -0.2535024 -0.26418707
0.17394519 -0.27082598 -0.15196222 -0.16246705 0.22220942 -0.3057875 -0.103153825 0.13826476
-0.012340396 -0.10830915 -0.06898161 -0.12180975 0.0005058772 -0.30540794 0.13467455 0.053096954
0.08915583 -0.011618507 0.01753646 -0.21397074 -0.26412266 0.035192482 -0.08720677 -0.09111926
0.22902331 -0.05659313 -0.111159325 -0.011163673 -0.33146062 0.025331767 0.113226496 -0.024190214
0.19161955 -0.104187064 -0.14944968 0.10799474 0.07679489 -0.2287709 0.063253626 -0.0822455
0.12706895 -0.09405383 -0.032555066 -0.039802525 0.17806618 0.00858305 -0.052408148 -0.16792902
0.0 -0.0 0.0 0.0 0.0 0.0 0.0 -0.0
-0.0 -0.0 -0.0 0.0 0.0 -0.0 -0.0 -0.0
-0.062281366 -0.20360382 0.010551614 -0.20193714 0.23505445 -0.03831556 -0.016487915 -0.23789845
0.20736487 -0.031987064 -0.07356363 -0.017032577 -0.00791061 -0.22456561 0.08525945 0.09923438
-0.39786452 -0.10965756 0.020351019 0.09334428 -0.026846694 -0.17682332 -0.18477333 -0.22100303
-0.19395229 0.056725476 0.005230917 0.06005763 0.04214471 0.13122472 0.19474901 0.12960571
-0.21216679 0.12804489 -0.028496606 0.11178605 0.24021757 -0.13496779 0.036020305 -0.018986309
0.24983853 0.01838909 0.14360997 -0.07167649 0.105875246 0.080287166 -0.052711833 0.34325704
-0.09168377 0.035315547 -0.14004457 -0.28786683 0.081662156 -0.10118991 0.05147842 0.2710321
-0.15616621 -0.09884382 -0.15872209 -0.070987105 -0.043812707 0.1888137 -0.21342736 -0.12560454
0.1438105 -0.04283981 0.14998268 -0.33458805 0.21048781 0.16268422 0.15227695 0.16240752
-0.09997285 0.01833046 0.057074316 -0.07664092 -0.06676839 -0.054142646 0.17742224 0.02285198
-0.032369204 -0.06360277 0.021977743 -0.25463936 -0.12325758 0.16029331 0.04118387 0.24512528
-0.1468901 -0.02612326 -0.029038133 0.32850385 -0.1008398 -0.05935879 0.16731177 0.009043521
-0.2454125 -0.21080633 0.22220953 0.3022996 0.14352697 0.12707762 0.047729254 0.31599396
0.0067749443 -0.04202471 0.066967234 -0.14142424 0.031568978 -0.11454721 -0.036323864 0.15788652
0.023354476 0.21936916 0.064207576 0.37568435 -0.06796038 0.059289712 -0.16689432 -0.07463821
0.010582099 0.19803463 0.17167576 0.21478255 -0.009486144 0.22323935 0.20321253 0.043238495

base.m0.b2_1.0.shortcut_layer.1.weight f4 [16]
00000000: ada8 9a3e f901 493e c5b2 be3e 781a 993e
00000010: 1276 953e 6056 093e 69a6 093e 2575 acb9
00000020: f053 3c3e 352f 853e dc93 5a3e 9c91 543e
00000030: e4d5 1e3e 7ad8 433e 5b3e b33e 5d8d 243e
0.30206814 0.19629659 0.37245765 0.29903007 0.29191643 0.13411856 0.13442387 -0.00032893676
0.18391395 0.2601258 0.21345466 0.2075867 0.1551128 0.19125548 0.3500851 0.16069551

base.m0.b2_1.0.shortcut_layer.1.bias f4 [16]
00000000: 4758 943b 180f 27bd b7cf fcbd c20c 483e
00000010: 2003 503c d402 283e dbe5 923c 8e6e 12bd
00000020: 547f 033e 6e6a a23d 2c77 9a3b 4d3a 43bd
00000030: 9bc6 163e b22b e9bd 85f3 05bd c065 283e
0.004527125 -0.04078588 -0.12344306 0.19536117 0.012696058 0.16407329 0.01793187 -0.035749964
0.1284154 0.07930456 0.0047139134 -0.04766302 0.147242 -0.11385287 -0.03270294 0.16445065

base.m0.b2_1.0.shortcut_layer.1.running_mean f4 [16]
00000000: cf12 883d 7709 7ebe 05ce 8d3e 0869 543e
00000010: 62d0 4abe 8984 fcbd 9708 a23b da76 08b8
00000020: 6ee6 18be 5636 5dbd ebd2 a83d ceae 29be
00000030: 2f08 a5bb da20 b6bd b0b4 723d 1127 b33e
0.066442125 -0.24808298 0.27696243 0.20743191 -0.19806054 -0.123299666 0.0049448716 -3.2535616e-05
-0.14931652 -0.054006897 0.082433544 -0.16570589 -0.005036376 -0.08892985 0.05925435 0.34990743

base.m0.b2_1.0.shortcut_layer.1.running_var f4 [16]
00000000: 4945 3a3e f863 db3d fc56 2b3e 6448 b63d
00000010: e7f9 e83d daa1 9a3d 336a 893d deef 9b35
00000020: 5d6a a23d 0307 d03d 8391 813d bb17 9f3d
00000030: 2954 d93d c79a 9d3d a52e 0c3e 7098 a93d
0.18190493 0.10712427 0.167324 0.08900526 0.1137579 0.07550402 0.06709709 1.161821e-06
0.079304434 0.101575874 0.06326582 0.07768198 0.106117554 0.07695537 0.13689668 0.08281028
