Pruned Models/ERESFD/FPGM/ERES50_FPGM.pth (torch, 542876 bytes, 400 tensors)

base.conv1.0.weight f4 [8, 3, 5, 5]
0.0 0.0 0.0 0.0 -0.0 0.0 0.0 0.0
0.0 -0.0 0.0 0.0 0.0 0.0 -0.0 0.0
-0.0 0.0 0.0 -0.0 -0.0 -0.0 0.0 0.0
-0.0 0.0 0.0 0.0 0.0 0.0 0.0 0.0
0.0 0.0 0.0 0.0 0.0 0.0 0.0 0.0
0.0 0.0 0.0 0.0 0.0 0.0 0.0 0.0
0.0 0.0 0.0 0.0 0.0 0.0 0.0 0.0
0.0 0.0 0.0 0.0 0.0 0.0 0.0 0.0
0.0 0.0 0.0 0.0 0.0 0.0 0.0 0.0
0.0 0.0 0.0 0.0 0.0 0.0 0.0 0.0
-0.0 -0.0 -0.0 -0.0 -0.0 -0.0 -0.0 -0.0
-0.0 -0.0 -0.0 0.0 0.0 0.0 0.0 -0.0
0.0 0.0 0.0 0.0 0.0 0.0 0.0 0.0
0.0 -0.0 -0.0 -0.0 -0.0 -0.0 -0.0 -0.0
-0.0 -0.0 -0.0 -0.0 -0.0 0.0 -0.0 -0.0
-0.0 -0.0 0.0 -0.0 -0.0 0.0 0.0 0.0
0.0 0.0 -0.0 0.0 0.0 -0.0 0.0 -0.0
0.0 0.0 0.0 0.0 0.0 0.0 0.0 0.0
0.0 0.0 0.0 0.0 0.0 0.0 -0.1886126 -0.23588187
-0.206176 -0.18431091 -0.10998119 -0.19427429 -0.2995906 -0.30522963 -0.30947012 -0.19059789
-0.22937024 -0.3541257 -0.39876157 -0.37590778 -0.31222153 -0.21753345 -0.34461004 -0.39019063
-0.398475 -0.34803388 -0.21166144 -0.32556427 -0.3920375 -0.41370946 -0.35328582 0.21569918
0.26594996 0.29427412 0.28411347 0.26828948 0.25787562 0.31540212 0.32941082 0.28607276
0.2847992 0.28727725 0.3686409 0.37076226 0.35594416 0.29233617 0.2696496 0.3230137
0.33431882 0.31321236 0.26475525 0.21368244 0.24492072 0.23281494 0.21561496 0.21376702
-0.16892244 -0.1156588 -0.11168979 -0.117428236 -0.1504328 -0.09051016 -0.007712125 -0.0045182044
-0.038665522 -0.063693024 -0.038952816 0.08390844 0.085132845 0.09272288 0.0028626681 -0.01591238
0.10195566 0.122793995 0.117531516 0.051149704 0.010230305 0.122918054 0.1277182 0.12776762
0.11342886 0.08413172 0.13472793 -0.034318276 -0.1539056 -0.2586432 0.09330746 0.20899212
0.05103236 -0.16520946 -0.42058805 0.018631719 0.2138021 0.028924663 -0.21161026 -0.54452807
0.012842097 0.22667558 0.10664754 -0.10657581 -0.44461757 0.15500896 0.36627007 0.37635276
0.27043042 -0.028939197 -0.001544747 0.008894967 -0.12604316 -0.23774649 -0.39826986 0.089229144
00000000: 0000 0000 0000 0000 0000 0000 0000 0000
00000010: 0000 0080 0000 0000 0000 0000 0000 0000
00000020: 0000 0000 0000 0080 0000 0000 0000 0000
00000030: 0000 0000 0000 0000 0000 0080 0000 0000
00000040: 0000 0080 0000 0000 0000 0000 0000 0080
00000050: 0000 0080 0000 0080 0000 0000 0000 0000
00000060: 0000 0080 0000 0000 0000 0000 0000 0000
00000070: 0000 0000 0000 0000 0000 0000 0000 0000
00000080: 0000 0000 0000 0000 0000 0000 0000 0000
00000090: 0000 0000 0000 0000 0000 0000 0000 0000
000000a0: 0000 0000 0000 0000 0000 0000 0000 0000
000000b0: 0000 0000 0000 0000 0000 0000 0000 0000
000000c0: 0000 0000 0000 0000 0000 0000 0000 0000
000000d0: 0000 0000 0000 0000 0000 0000 0000 0000
000000e0: 0000 0000 0000 0000 0000 0000 0000 0000
000000f0: 0000 0000 0000 0000 0000 0000 0000 0000
00000100: 0000 0000 0000 0000 0000 0000 0000 0000
00000110: 0000 0000 0000 0000 0000 0000 0000 0000
00000120: 0000 0000 0000 0000 0000 0000 0000 0000
00000130: 0000 0000 0000 0000 0000 0000 0000 0000
00000140: 0000 0080 0000 0080 0000 0080 0000 0080
00000150: 0000 0080 0000 0080 0000 0080 0000 0080
00000160: 0000 0080 0000 0080 0000 0080 0000 0000
00000170: 0000 0000 0000 0000 0000 0000 0000 0080
00000180: 0000 0000 0000 0000 0000 0000 0000 0000
00000190: 0000 0000 0000 0000 0000 0000 0000 0000
000001a0: 0000 0000 0000 0080 0000 0080 0000 0080
000001b0: 0000 0080 0000 0080 0000 0080 0000 0080
000001c0: 0000 0080 0000 0080 0000 0080 0000 0080
000001d0: 0000 0080 0000 0000 0000 0080 0000 0080
000001e0: 0000 0080 0000 0080 0000 0000 0000 0080
000001f0: 0000 0080 0000 0000 0000 0000 0000 0000
00000200: 0000 0000 0000 0000 0000 0080 0000 0000
00000210: 0000 0000 0000 0080 0000 0000 0000 0080
00000220: 0000 0000 0000 0000 0000 0000 0000 0000
00000230: 0000 0000 0000 0000 0000 0000 0000 0000
00000240: 0000 0000 0000 0000 0000 0000 0000 0000
00000250: 0000 0000 0000 0000 a923 41be 048b 71be
00000260: cd1f 53be 00bc 3cbe d13d e1bd d7ef 46be
00000270: f063 99be 0f47 9cbe de72 9ebe 182c 43be
00000280: 08e0 6abe f74f b5be 7a2a ccbe fc76 c0be
00000290: 80db 9fbe 17c1 5ebe ba70 b0be 11c7 c7be
000002a0: ea04 ccbe 7f31 b2be c7bd 58be 5cb0 a6be
000002b0: 24b9 c8be bad1 d3be e1e1 b4be 3fe0 5c3e
000002c0: 982a 883e 19ab 963e 5277 913e 3d5d 893e
000002d0: 4608 843e 637c a13e 89a8 a83e 2178 923e
000002e0: 33d1 913e 0116 933e 80be bc3e 8dd4 bd3e
000002f0: 503e b63e 16ad 953e 830f 8a3e 0d62 a53e
00000300: d62b ab3e 5f5d a03e 008e 873e 92cf 5a3e
00000310: 7fcc 7a3e 0a67 6e3e 2bca 5c3e bee5 5a3e
00000320: 01fa 2cbe 85de ecbd 9ebd e4bd 377e f0bd
00000330: 0e0b 1abe 645d b9bd feb5 fcbb 720d 94bb
00000340: bd5f 1ebd 7d71 82bd fd8c 1fbd 30d8 ab3d
00000350: 215a ae3d 7ee5 bd3d 9a9b 3b3b ae5a 82bc
00000360: 21ce d03d 6b7b fb3d 5db4 f03d 5a82 513d
00000370: 029d 273c 76bc fb3d 8fc8 023e 84d5 023e
00000380: 644d e83d 404d ac3d 1ef6 093e 5291 0cbd
00000390: 6e99 1dbe e26c 84be fb17 bf3d 0802 563e
000003a0: 4f07 513d ab2c 29be 5157 d7be 8ca1 983c
000003b0: f0ee 5a3e 6af3 ec3c 5cb0 58be 3166 0bbf
000003c0: a967 523c a51d 683e 076a da3d 6b44 dabd
000003d0: eaa4 e3be abba 1e3e c087 bb3e 4fb1 c03e
000003e0: db75 8a3e e511 edbc 1c79 caba 32bc 113c
000003f0: 7511 01be d173 73be 07ea cbbe c5bd b63d

base.conv1.1.weight f4 [8]
1.4221815e-09 1.104135e-10 0.12258718 0.6368653 -8.423104e-09 0.45294458 0.40784442 -1.8648654e-15
00000000: 9076 c330 46cd f22e fd0e fb3d 9b09 233f
00000010: 34b5 10b2 5ae8 e73e fcd0 d03e b260 06a7

base.conv1.1.bias f4 [8]
-0.5847787 -0.04211073 0.084924415 -0.33824244 0.0112101175 0.08669273 0.014497385 -0.0070015993
00000000: 0fb4 15bf 4d7c 2cbd daec ad3d 1d2e adbe
00000010: a4aa 373c f58b b13d 7186 6d3c ac6d e5bb

base.conv1.1.running_mean f4 [8]
-6e-45 6e-45 -26.269167 5.8899474 6e-45 -8.804161 11.085796 -6e-45
00000000: 0400 0080 0400 0000 4127 d2c1 737a bc40
00000010: 0400 0000 d8dd 0cc1 6c5f 3141 0400 0080

base.conv1.1.running_var f4 [8]
6e-45 6e-45 71998.87 11126.786 6e-45 9378.886 16596.219 6e-45
00000000: 0400 0000 0400 0000 6f9f 8c47 25db 2d46
00000010: 0400 0000 8b8b 1246 70a8 8146 0400 0000

base.conv2.0.weight f4 [8, 8, 3, 3]
0.016845908 -0.032110304 -0.040561233 0.05854023 0.015712734 -0.0027397757 -0.019307263 -0.07248786
-0.07923644 -0.028410796 -0.050046768 0.007057012 0.062027007 -0.031131683 0.063753285 0.02255143
-0.040361833 0.010250706 0.26178697 -0.09107126 0.17553121 0.2375017 -2.1693687 -0.35700387
0.31508255 -0.33271617 0.241223 -0.0065932116 0.0022416187 -0.0025173565 0.007953114 0.010586765
0.0030470844 0.010969718 -0.025640633 0.017467089 -0.003858883 -0.0009644044 0.001194427 -0.0008514976
0.0011953956 0.003748448 -0.00082008605 0.00070191285 0.00375564 -0.00018164066 -0.0029633252 0.0069309026
-0.012391107 0.018450493 -0.008696979 -0.011684503 0.01920396 -0.010070865 -0.0069675893 0.004733022
-0.0057592136 -0.010866726 -0.020808784 0.0042277095 -0.002615132 -0.010813026 -0.0050304346 -0.0016071671
-0.0003355521 -0.00047959574 7.242142e-05 0.0016514508 0.001151902 -0.00025332734 0.00056533876 0.0018208935
-0.0 -0.0 -0.0 0.0 -0.0 -0.0 0.0 0.0
-0.0 0.0 0.0 0.0 0.0 0.0 0.0 0.0
0.0 0.0 0.0 0.0 0.0 0.0 -0.0 0.0
0.0 0.0 -0.0 0.0 0.0 0.0 0.0 -0.0
0.0 -0.0 -0.0 0.0 -0.0 0.0 0.0 0.0
0.0 -0.0 0.0 -0.0 0.0 -0.0 0.0 -0.0
0.0 -0.0 0.0 -0.0 0.0 -0.0 0.0 0.0
0.0 0.0 -0.0 0.0 -0.0 -0.0 0.0 0.0
0.0 0.0 0.0 -0.0 0.0 -0.0 -0.0 0.0
0.0 0.0 0.0 0.0 0.0 0.0 0.0 -0.0
0.0 0.0 0.0 0.0 0.0 0.0 0.0 0.0
0.0 0.0 0.0 0.0 0.0 -0.0 0.0 0.0
-0.0 0.0 0.0 -0.0 -0.0 -0.0 -0.0 -0.0
-0.0 -0.0 -0.0 -0.0 0.0 0.0 0.0 0.0
0.0 0.0 0.0 0.0 0.0 0.0 0.0 0.0
0.0 0.0 0.0 0.0 0.0 0.0 0.0 -0.0
-0.0 -0.0 -0.0 -0.0 -0.0 -0.0 -0.0 0.0
0.0 0.0 0.0 0.0 0.0 0.0 0.0 0.0
-0.0 -0.0 0.0 -0.0 -0.0 0.0 0.0 0.0
0.0 0.0 0.0 0.0 0.0 0.0 0.0 0.0
0.0 -0.0 -0.0 -0.0 0.0 -0.0 -0.0 0.0
-0.0 0.0 0.0 -0.0 -0.0 -0.0 0.0 -0.0
0.0 0.0 -0.0 -0.0 -0.0 0.0 0.0 -0.0
00000000: 6e00 8a3c 1886 03bd 8923 26bd e1c7 6f3d
00000010: feb7 803c cf8d 33bb 442a 9ebc 8474 94bd
00000020: b746 a2bd c2bd e8bc d7fd 4cbd 823e e73b
00000030: 0810 7e3d df07 ffbc 1591 823d c7bd b83c
00000040: 7352 25bd 94f2 273c f108 863e 9283 babd
00000050: 74be 333e a533 733e f0d6 0ac0 36c9 b6be
00000060: 8052 a13e c659 aabe 2a03 773e de0b d8bb
00000070: 1fe8 123b 3cfa 24bb c74d 023c 1c74 2d3c
00000080: 98b1 473b 55ba 333c 4e0c d2bc 2417 8f3c
00000090: 50e5 7cbb 15d0 7cba 528e 9c3a 0937 5fba
000000a0: d2ae 9c3a 86a8 753b 0bfb 56ba 9300 383a
000000b0: 2f21 763b cb76 3eb9 5934 42bb a01c e33b
000000c0: 1204 4bbc 7d25 973c c67d 0ebc 5c70 3fbc
000000d0: a051 9d3c 4500 25bc 6050 e4bb 7717 9b3b
000000e0: c9b7 bcbb 5a0a 32bc 2f77 aabc 9988 8a3b
000000f0: a262 2bbb 1e29 31bc 58d6 a4bb 94a7 d2ba
00000100: 0aed afb9 4072 fbb9 f4e0 9738 7e75 d83a
00000110: 6bfb 963a 05d1 84b9 3e33 143a 0cab ee3a
00000120: 0000 0080 0000 0080 0000 0080 0000 0000
00000130: 0000 0080 0000 0080 0000 0000 0000 0000
00000140: 0000 0080 0000 0000 0000 0000 0000 0000
00000150: 0000 0000 0000 0000 0000 0000 0000 0000
00000160: 0000 0000 0000 0000 0000 0000 0000 0000
00000170: 0000 0000 0000 0000 0000 0080 0000 0000
00000180: 0000 0000 0000 0000 0000 0080 0000 0000
00000190: 0000 0000 0000 0000 0000 0000 0000 0080
000001a0: 0000 0000 0000 0080 0000 0080 0000 0000
000001b0: 0000 0080 0000 0000 0000 0000 0000 0000
000001c0: 0000 0000 0000 0080 0000 0000 0000 0080
000001d0: 0000 0000 0000 0080 0000 0000 0000 0080
000001e0: 0000 0000 0000 0080 0000 0000 0000 0080
000001f0: 0000 0000 0000 0080 0000 0000 0000 0000
00000200: 0000 0000 0000 0000 0000 0080 0000 0000
00000210: 0000 0080 0000 0080 0000 0000 0000 0000
00000220: 0000 0000 0000 0000 0000 0000 0000 0080
00000230: 0000 0000 0000 0080 0000 0080 0000 0000
00000240: 0000 0000 0000 0000 0000 0000 0000 0000
00000250: 0000 0000 0000 0000 0000 0000 0000 0080
00000260: 0000 0000 0000 0000 0000 0000 0000 0000
00000270: 0000 0000 0000 0000 0000 0000 0000 0000
00000280: 0000 0000 0000 0000 0000 0000 0000 0000
00000290: 0000 0000 0000 0080 0000 0000 0000 0000
000002a0: 0000 0080 0000 0000 0000 0000 0000 0080
000002b0: 0000 0080 0000 0080 0000 0080 0000 0080
000002c0: 0000 0080 0000 0080 0000 0080 0000 0080
000002d0: 0000 0000 0000 0000 0000 0000 0000 0000
000002e0: 0000 0000 0000 0000 0000 0000 0000 0000
000002f0: 0000 0000 0000 0000 0000 0000 0000 0000
00000300: 0000 0000 0000 0000 0000 0000 0000 0000
00000310: 0000 0000 0000 0000 0000 0000 0000 0080
00000320: 0000 0080 0000 0080 0000 0080 0000 0080
00000330: 0000 0080 0000 0080 0000 0080 0000 0000
00000340: 0000 0000 0000 0000 0000 0000 0000 0000
00000350: 0000 0000 0000 0000 0000 0000 0000 0000
00000360: 0000 0080 0000 0080 0000 0000 0000 0080
00000370: 0000 0080 0000 0000 0000 0000 0000 0000
00000380: 0000 0000 0000 0000 0000 0000 0000 0000
00000390: 0000 0000 0000 0000 0000 0000 0000 0000
000003a0: 0000 0000 0000 0080 0000 0080 0000 0080
000003b0: 0000 0000 0000 0080 0000 0080 0000 0000
000003c0: 0000 0080 0000 0000 0000 0000 0000 0080
000003d0: 0000 0080 0000 0080 0000 0000 0000 0080
000003e0: 0000 0000 0000 0000 0000 0080 0000 0080
000003f0: 0000 0080 0000 0000 0000 0000 0000 0080

base.conv2.1.weight f4 [8]
0.42148963 3.384e-42 2.1189488e-15 9.156217e-11 0.37066987 -8.162632e-07 0.36184195 0.36337852
00000000: 7dcd d73e 6f09 0000 b5af 1827 eb58 c92e
00000010: 71c8 bd3e 2e1d 5bb5 5943 b93e c00c ba3e

base.conv2.1.bias f4 [8]
0.35906804 0.37098956 -4.9369223e-08 -7.751052e-06 0.52689505 -0.00059759256 0.33745378 0.22707237
00000000: c4d7 b73e 58f2 bd3e 090a 54b3 840a 02b7
00000010: 98e2 063f c2a7 1cba bec6 ac3e a985 683e

base.conv2.1.running_mean f4 [8]
-0.06867513 -6e-45 -6e-45 -6e-45 0.25353366 6e-45 0.55911404 -0.21246682
00000000: 8ca5 8cbd 0400 0080 0400 0080 0400 0080
00000010: 2acf 813e 0400 0000 1922 0f3f e790 59be

base.conv2.1.running_var f4 [8]
0.046623904 6e-45 6e-45 6e-45 0.21360347 6e-45 0.161297 0.28289002
00000000: b5f8 3e3d 0400 0000 0400 0000 0400 0000
00000010: deba 5a3e 0400 0000 0a2b 253e f6d6 903e

base.conv3.0.weight f4 [16, 8, 3, 3]
0.0 0.0 0.0 0.0 0.0 -0.0 0.0 0.0
-0.0 -0.0 -0.0 -0.0 -0.0 0.0 -0.0 -0.0
0.0 -0.0 -0.0 0.0 0.0 -0.0 0.0 0.0
0.0 0.0 0.0 -0.0 0.0 0.0 0.0 0.0
0.0 0.0 0.0 0.0 -0.0 0.0 0.0 -0.0
0.0 0.0 -0.0 -0.0 0.0 -0.0 -0.0 -0.0
-0.0 -0.0 -0.0 -0.0 -0.0 0.0 0.0 -0.0
-0.0 0.0 -0.0 -0.0 -0.0 -0.0 -0.0 -0.0
0.0 0.0 -0.0 -0.0 -0.0 -0.0 0.0 0.0
-0.048054036 0.06976505 -0.07213571 0.124281265 0.19822577 -0.06865144 -0.018141935 0.021136045
-0.045336623 0.00062687224 -0.000769802 0.0011947859 0.0031579793 -7.2101146e-05 0.003364436 0.013893337
0.010537529 0.013945426 0.018837625 0.033290684 -0.046341904 -0.1755503 -0.049453147 -0.07105085
-0.15135367 0.020471038 -0.0030433899 0.15724213 -0.02795798 0.012763212 0.028033894 -0.24072665
0.25920585 -0.08349984 -0.06234283 0.10292331 0.025479654 0.03560068 0.029367644 -0.18748151
-0.36146122 0.0754848 -0.09230475 -0.67055476 0.064660475 -0.12947156 -0.010601989 0.06674214
0.14461699 -0.31553233 0.117057495 0.111467235 -0.0978967 -0.17079325 0.14402087 -0.025499005
-0.009648434 -0.012969762 0.13226053 -0.056392837 0.15192197 0.17367798 0.16794446 0.08240175
0.051736042 0.027606638 -0.20095114 -1.0012099 -0.25649062 -0.013319682 -0.4267304 -0.051682204
-0.025130114 0.15910073 0.0077366405 -0.00868967 0.024293909 -0.048771497 -0.033111345 -0.085097216
0.0023948334 0.021150876 0.01473512 0.040709518 0.013068008 -0.00033192706 0.03554977 0.01879963
0.008433905 0.04137585 0.035987783 0.0013074267 -0.009694206 -0.009150677 -0.13455026 -0.044612046
-0.061316203 0.033178315 0.05180351 0.17447524 0.070648976 0.0036841028 0.008743469 -0.20047072
-0.14315459 -0.086224616 0.008932278 0.16281821 0.01333409 -0.028157981 0.0032143984 0.16615134
0.7862876 -0.009498782 0.18051562 0.36686513 -0.11821442 -0.06717648 0.022979658 0.10798955
-0.2175215 -0.39298922 -0.011574026 0.06719627 0.22232132 -0.05434698 0.028454846 -0.37289822
-0.04803956 0.2906578 0.7724695 0.16443199 -0.14429326 -0.24365439 -0.13239372 -0.09180723
0.13327517 -0.11069834 -0.3224225 -0.8943502 -0.31141624 -0.005213467 0.36959857 0.064533345
0.0 -0.0 -0.0 -0.0 -0.0 -0.0 0.0 -0.0
-0.0 0.0 0.0 -0.0 -0.0 0.0 -0.0 -0.0
-0.0 -0.0 0.0 0.0 0.0 0.0 0.0 0.0
0.0 0.0 0.0 -0.0 -0.0 -0.0 0.0 0.0
-0.0 0.0 0.0 -0.0 -0.0 -0.0 0.0 0.0
00000000: 0000 0000 0000 0000 0000 0000 0000 0000
00000010: 0000 0000 0000 0080 0000 0000 0000 0000
00000020: 0000 0080 0000 0080 0000 0080 0000 0080
00000030: 0000 0080 0000 0000 0000 0080 0000 0080
00000040: 0000 0000 0000 0080 0000 0080 0000 0000
00000050: 0000 0000 0000 0080 0000 0000 0000 0000
00000060: 0000 0000 0000 0000 0000 0000 0000 0080
00000070: 0000 0000 0000 0000 0000 0000 0000 0000
00000080: 0000 0000 0000 0000 0000 0000 0000 0000
00000090: 0000 0080 0000 0000 0000 0000 0000 0080
000000a0: 0000 0000 0000 0000 0000 0080 0000 0080
000000b0: 0000 0000 0000 0080 0000 0080 0000 0080
000000c0: 0000 0080 0000 0080 0000 0080 0000 0080
000000d0: 0000 0080 0000 0000 0000 0000 0000 0080
000000e0: 0000 0080 0000 0000 0000 0080 0000 0080
000000f0: 0000 0080 0000 0080 0000 0080 0000 0080
00000100: 0000 0000 0000 0000 0000 0080 0000 0080
00000110: 0000 0080 0000 0080 0000 0000 0000 0000
00000120: 4fd4 44bd fbe0 8e3d e3bb 93bd 2d87 fe3d
00000130: b2fb 4a3e 2099 8cbd 659e 94bc 8025 ad3c
00000140: e5b2 39bd af54 243a 8acc 49ba 5d9a 9c3a
00000150: 1af6 4e3b 0235 97b8 df7d 5c3b e1a0 633c
00000160: 9aa5 2c3c 5b7b 643c 5d51 9a3c d05b 083d
00000170: 02d1 3dbd 75c3 33be 628f 4abd 1c83 91bd
00000180: 75fc 1abe e1b2 a73c 9c73 47bb 1504 213e
00000190: 2208 e5bc cb1c 513c 56a7 e53c 0c81 76be
000001a0: a1b6 843e f701 abbd 325b 7fbd 75c9 d23d
000001b0: b5ba d03c 05d2 113d 6a94 f03c 27fb 3fbe
000001c0: 7211 b9be c697 9a3d 460a bdbd 7aa9 2bbf
000001d0: b66c 843d 3194 04be f7b3 2dbc 1ab0 883d
000001e0: 7a16 143e 748d a1be d7bb ef3d ef48 e43d
000001f0: 117e c8bd 6de4 2ebe 357a 133e 4ae3 d0bc
00000200: 7714 1ebc 207f 54bc 4e6f 073e 2dfc 66bd
00000210: 6f91 1b3e a4d8 313e a2f9 2b3e 40c2 a83d
00000220: 2ce9 533d 5127 e23c 23c6 4dbe a527 80bf
00000230: bd52 83be cc3a 5abc 687c dabe b8b0 53bd
00000240: abdd cdbc 4deb 223e a583 fd3b 1e5f 0ebc
00000250: 0504 c73c 9fc4 47bd c39f 07bd 7347 aebd
00000260: a3f2 1c3b 9a44 ad3c 936b 713c 06bf 263d
00000270: 331b 563c 7f06 aeb9 a39c 113d af01 9a3c
00000280: 5d2e 0a3c b979 293d ed67 133d f65d ab3a
00000290: 72d4 1ebc b9ec 15bc 8bc7 09be 1fbb 36bd
000002a0: b326 7bbd fce5 073d eb2f 543d a3a9 323e
000002b0: 69b0 903d fd70 713b c440 0f3c 3248 4dbe
000002c0: 1e97 12be 8896 b0bd b058 123c d1b9 263e
000002d0: 3a77 5a3c 91ab e6bc a8a8 523b 9423 2a3e
000002e0: 254a 493f c8a0 1bbc 16d9 383e bfd5 bb3e
000002f0: 671a f2bd d393 89bd d63f bc3c a029 dd3d
00000300: f5bd 5ebe e235 c9be fca0 3dbc 339e 893d
00000310: 33a8 633e f09a 5ebd 231a e93c 84ec bebe
00000320: 21c5 44bd 19d1 943e 90c0 453f dc60 283e
00000330: 9dc1 13be 8980 79be 3892 07be 6e05 bcbd
00000340: 4979 083e d0b5 e2bd 9014 a5be 22f4 64bf
00000350: f371 9fbe bbd5 aabb 063c bd3e 0f2a 843d
00000360: 0000 0000 0000 0080 0000 0080 0000 0080
00000370: 0000 0080 0000 0080 0000 0000 0000 0080
00000380: 0000 0080 0000 0000 0000 0000 0000 0080
00000390: 0000 0080 0000 0000 0000 0080 0000 0080
000003a0: 0000 0080 0000 0080 0000 0000 0000 0000
000003b0: 0000 0000 0000 0000 0000 0000 0000 0000
000003c0: 0000 0000 0000 0000 0000 0000 0000 0080
000003d0: 0000 0080 0000 0080 0000 0000 0000 0000
000003e0: 0000 0080 0000 0000 0000 0000 0000 0080
000003f0: 0000 0080 0000 0080 0000 0000 0000 0000

base.conv3.1.weight f4 [16]
-1.4034224e-05 0.5895178 0.3504952 -3.3630154e-13 7.6112555e-10 0.3964346 5.1096528e-08 -3.7827792e-08
8.3083355e-16 0.38750085 0.27503917 -6.24074e-09 0.468335 6.059159e-07 0.60244256 0.26320443
00000000: 8874 6bb7 a3ea 163f 1b74 b33e 2952 bdaa
00000010: 7337 5130 7af9 ca3e 3a75 5b33 1978 22b3
00000020: b278 6f26 8366 c63e efd1 8c3e 216e d6b1
00000030: 9bc9 ef3e 39a6 2235 ad39 1a3f bbc2 863e

base.conv3.1.bias f4 [16]
-0.010822495 0.39264187 0.049723838 -5.2283395e-09 -1.19962956e-26 -0.014734353 0.1908906 0.025848366
-0.023805918 0.055558797 -0.022977082 -1.2906263e-06 0.42515934 -1.633953e-06 0.56712246 0.054648202
00000000: d650 31bc 5b08 c93e 39ab 4b3d f6a4 b3b1
00000010: 729c 6d94 5b68 71bc d378 433e f4bf d33c
00000020: a104 c3bc 9f91 633d 6f3a bcbc 9539 adb5
00000030: 7cae d93e 334e dbb5 f02e 113f cbd6 5f3d

base.conv3.1.running_mean f4 [16]
-6e-45 -0.743713 0.61535436 -6e-45 6e-45 -0.9894888 -6e-45 6e-45
-6e-45 -0.3272602 -0.2214381 6e-45 -0.13298911 -6e-45 0.079086564 -0.038355544
00000000: 0400 0080 fa63 3ebf dd87 1d3f 0400 0080
00000010: 0400 0000 234f 7dbf 0400 0080 0400 0000
00000020: 0400 0080 a68e a7be abc0 62be 0400 0000
00000030: 4c2e 08be 0400 0080 23f8 a13d b41a 1dbd

base.conv3.1.running_var f4 [16]
6e-45 0.36826074 0.2220951 6e-45 6e-45 0.24448356 6e-45 6e-45
6e-45 0.09855155 0.070732065 6e-45 0.10964639 6e-45 0.0969972 0.138901
00000000: 0400 0000 ac8c bc3e e66c 633e 0400 0000
00000010: 0400 0000 e659 7a3e 0400 0000 0400 0000
00000020: 0400 0000 65d5 c93d f9db 903d 0400 0000
00000030: 498e e03d 0400 0000 78a6 c63d 103c 0e3e

base.conv4.res_layer.0.weight f4 [16, 16, 3, 3]
-0.0 0.0 0.0 -0.0 -0.0 0.0 -0.0 -0.0
0.0 -0.0 -0.0 -0.0 -0.0 -0.0 -0.0 -0.0
0.0 -0.0 0.0 0.0 0.0 -0.0 -0.0 -0.0
-0.0 -0.0 -0.0 0.0 -0.0 -0.0 -0.0 -0.0
-0.0 0.0 -0.0 0.0 -0.0 -0.0 -0.0 -0.0
-0.0 -0.0 -0.0 -0.0 0.0 0.0 0.0 0.0
-0.0 -0.0 -0.0 -0.0 -0.0 -0.0 0.0 -0.0
-0.0 -0.0 -0.0 -0.0 0.0 -0.0 -0.0 -0.0
-0.0 -0.0 -0.0 -0.0 -0.0 -0.0 -0.0 -0.0
-0.0 -0.0 -0.0 -0.0 -0.0 -0.0 -0.0 -0.0
-0.0 0.0 -0.0 0.0 0.0 -0.0 0.0 0.0
0.0 0.0 0.0 0.0 0.0 0.0 -0.0 0.0
0.0 0.0 -0.0 -0.0 -0.0 -0.0 -0.0 -0.0
-0.0 -0.0 -0.0 -0.0 0.0 0.0 -0.0 -0.0
-0.0 -0.0 0.0 -0.0 -0.0 0.0 -0.0 -0.0
0.0 0.0 -0.0 0.0 -0.0 -0.0 -0.0 -0.0
-0.0 -0.0 -0.0 -0.0 0.0 -0.0 0.0 -0.0
-0.0 -0.0 0.0 -0.0 0.0 0.0 -0.0 -0.0
-0.3008286 -0.14224131 0.110373266 -0.13134028 0.058262724 0.16407222 -0.24145025 0.09981575
0.44991237 -0.012761057 0.21320936 -0.01792663 0.2149518 0.22350037 -0.19351502 0.07914828
-0.44011235 -0.04427953 0.017297454 -0.22800098 0.14426394 -0.012012393 0.13073759 -0.15046148
0.012823645 -0.43397182 0.11408858 -0.13828054 -0.105109215 0.008305192 0.011064198 -0.016075928
-0.054812055 0.109569155 0.12089192 0.16116697 -0.013888091 0.020767711 -0.018313864 -0.11052084
0.06978204 -0.06494258 -0.0733405 0.26592526 -0.26218572 0.023129327 0.011033262 -0.022207472
-0.21828297 -0.02164871 0.11908191 0.26221997 -0.43141574 -0.13809308 0.04484511 -0.11646165
-0.2669556 -0.1274723 0.20355119 0.15734296 0.19875161 -0.25960577 -0.21631597 -0.007356227
-0.010814976 -0.018388538 -0.0031244936 -0.0071231322 -0.013664597 -0.005051059 0.005119199 0.0034352196
0.17666264 0.09653247 -0.26608697 0.34315944 -0.86186945 0.03120106 -0.42269838 0.29676437
0.02306839 0.030854098 -0.11539549 -0.1296462 -0.107928924 0.20381561 -0.35997653 0.04964822
-0.25326857 0.010962602 -0.03822851 -0.17148304 0.045943636 -0.09855123 -0.18888977 -0.15651266
-0.1194708 0.00663116 -0.07626991 -0.0040963823 -0.0033608577 -0.0035470382 -0.00087399455 -0.0027350744
-0.0037787734 -0.0020913847 -0.0050311876 -0.0051468355 0.0262674 0.062538296 -0.06885679 -0.020486997
00000000: 0000 0080 0000 0000 0000 0000 0000 0080
00000010: 0000 0080 0000 0000 0000 0080 0000 0080
00000020: 0000 0000 0000 0080 0000 0080 0000 0080
00000030: 0000 0080 0000 0080 0000 0080 0000 0080
00000040: 0000 0000 0000 0080 0000 0000 0000 0000
00000050: 0000 0000 0000 0080 0000 0080 0000 0080
00000060: 0000 0080 0000 0080 0000 0080 0000 0000
00000070: 0000 0080 0000 0080 0000 0080 0000 0080
00000080: 0000 0080 0000 0000 0000 0080 0000 0000
00000090: 0000 0080 0000 0080 0000 0080 0000 0080
000000a0: 0000 0080 0000 0080 0000 0080 0000 0080
000000b0: 0000 0000 0000 0000 0000 0000 0000 0000
000000c0: 0000 0080 0000 0080 0000 0080 0000 0080
000000d0: 0000 0080 0000 0080 0000 0000 0000 0080
000000e0: 0000 0080 0000 0080 0000 0080 0000 0080
000000f0: 0000 0000 0000 0080 0000 0080 0000 0080
00000100: 0000 0080 0000 0080 0000 0080 0000 0080
00000110: 0000 0080 0000 0080 0000 0080 0000 0080
00000120: 0000 0080 0000 0080 0000 0080 0000 0080
00000130: 0000 0080 0000 0080 0000 0080 0000 0080
00000140: 0000 0080 0000 0000 0000 0080 0000 0000
00000150: 0000 0000 0000 0080 0000 0000 0000 0000
00000160: 0000 0000 0000 0000 0000 0000 0000 0000
00000170: 0000 0000 0000 0000 0000 0080 0000 0000
00000180: 0000 0000 0000 0000 0000 0080 0000 0080
00000190: 0000 0080 0000 0080 0000 0080 0000 0080
000001a0: 0000 0080 0000 0080 0000 0080 0000 0080
000001b0: 0000 0000 0000 0000 0000 0080 0000 0080
000001c0: 0000 0080 0000 0080 0000 0000 0000 0080
000001d0: 0000 0080 0000 0000 0000 0080 0000 0080
000001e0: 0000 0000 0000 0000 0000 0080 0000 0000
000001f0: 0000 0080 0000 0080 0000 0080 0000 0080
00000200: 0000 0080 0000 0080 0000 0080 0000 0080
00000210: 0000 0000 0000 0080 0000 0000 0000 0080
00000220: 0000 0080 0000 0080 0000 0000 0000 0080
00000230: 0000 0000 0000 0000 0000 0080 0000 0080
00000240: 3506 9abe b5a7 11be 610b e23d 117e 06be
00000250: e5a4 6e3d 8c02 283e bc3e 77be 336c cc3d
00000260: ea5a e63e c113 51bc 8e53 5a3e deda 92bc
00000270: 531c 5c3e 48dd 643e cd28 46be 7e18 a23d
00000280: 6856 e1be 745e 35bd 64b3 8d3c 1779 69be
00000290: edb9 133e a1cf 44bc 13e0 053e 9312 1abe
000002a0: 441a 523c 8e31 debe 46a7 e93d 6a99 0dbe
000002b0: 8043 d7bd 8012 083c 9c46 353c aab1 83bc
000002c0: 9b82 60bd cb65 e03d 2f96 f73d f408 253e
000002d0: e08a 63bc 0c21 aa3c f506 96bc c058 e2bd
000002e0: e3e9 8e3d 9e00 85bd 8b33 96bd 5b27 883e
000002f0: 353d 86be b779 bd3c dbc4 343c 72ec b5bc
00000300: 9285 5fbe a358 b1bc 37e1 f33d b241 863e
00000310: 86e2 dcbe 4668 0dbe 82af 373d 7283 eebd
00000320: 68ae 88be 1988 02be b96f 503e 831e 213e
00000330: 8b85 4b3e 0ceb 84be ef81 5dbe 810c f1bb
00000340: 4c31 31bc 8fa3 96bc 4ec4 4cbb 2a69 e9bb
00000350: 79e1 5fbc 5b83 a5bb f4be a73b 6c21 613b
00000360: 0de7 343e d1b2 c53d 8d3c 88be 98b2 af3e
00000370: 7aa3 5cbf 5e99 ff3c ec6b d8be 80f1 973e
00000380: ecf9 bc3c bcc1 fc3c 7854 ecbd f9c1 04be
00000390: d709 ddbd 0ab5 503e d84e b8be ef5b 4b3d
000003a0: 6bac 81be 7c9c 333c 8095 1cbd 4099 2fbe
000003b0: 652f 3c3d 3ad5 c9bd 526c 41be db44 20be
000003c0: 1bad f4bd 344a d93b 6633 9cbd f23a 86bb
000003d0: d641 5cbb 6d75 68bb c81c 65ba ef3e 33bb
000003e0: 4ca5 77bb 9d0f 09bb a9dc a4bb c9a6 a8bb
000003f0: bb2e d73c 1414 803d ca04 8dbd 59d4 a7bc

base.conv4.res_layer.1.weight f4 [16]
-6.2966285e-17 0.57741725 0.29559985 3.8164895e-13 8.4139293e-07 0.35027456 0.35092622 6.336427e-08
0.6664055 4.0762944e-07 0.4171905 0.3523097 1.2005618e-06 0.4798695 1.7627847e-15 -2.524414e-10
00000000: bc30 91a4 9ed1 133f dd58 973e 69d9 d62a
00000010: 15dc 6135 3057 b33e 9aac b33e e012 8833
00000020: 8d99 2a3f 2ad8 da34 fe99 d53e f061 b43e
00000030: fd22 a135 75b1 f53e 470b fe26 f8c7 8aaf

base.conv4.res_layer.1.bias f4 [16]
0.124308005 -0.24329016 0.11407564 -1.5638506e-16 -0.0011421684 -0.100999966 0.28505206 -1.0616652e-20
0.015085334 0.24362396 -0.2628736 0.108415306 -4.9454786e-07 -0.23117943 -0.0065330104 -0.003941535
00000000: 3295 fe3d 0e21 79be 7da0 e93d b94c 34a5
00000010: d0b4 95ba 12d9 cebd 58f2 913e fb8a 489e
00000020: 7a28 773c 8f78 793e 5e97 86be d808 de3d
00000030: 12c1 04b5 4dba 6cbe dd12 d6bb fe27 81bb

base.conv4.res_layer.1.running_mean f4 [16]
-6e-45 -0.40636247 -0.7552812 6e-45 6e-45 -0.22238967 -0.24936557 -6e-45
-0.8981401 -6e-45 -0.9752514 -0.28493488 6e-45 -0.3528427 6e-45 6e-45
00000000: 0400 0080 be0e d0be 1c5a 41bf 0400 0000
00000010: 0400 0000 1eba 63be b059 7fbe 0400 0080
00000020: 82ec 65bf 0400 0080 13aa 79bf fce2 91be
00000030: 0400 0000 cca7 b4be 0400 0000 0400 0000

base.conv4.res_layer.1.running_var f4 [16]
6e-45 0.12660979 0.08500221 6e-45 6e-45 0.1234848 0.18236287 6e-45
0.13918364 6e-45 0.31218454 0.33688626 6e-45 0.1606386 6e-45 6e-45
00000000: 0400 0000 ffa5 013e a415 ae3d 0400 0000
00000010: 0400 0000 99e5 fc3d 55bd 3a3e 0400 0000
00000020: 2886 0e3e 0400 0000 a7d6 9f3e 5b7c ac3e
00000030: 0400 0000 727e 243e 0400 0000 0400 0000

base.conv4.res_layer.3.weight f4 [16, 16, 3, 3]
0.0 0.0 0.0 -0.0 0.0 -0.0 0.0 0.0
-0.0 -0.0 -0.0 -0.0 -0.0 -0.0 -0.0 -0.0
-0.0 -0.0 0.0 0.0 0.0 0.0 0.0 0.0
0.0 0.0 0.0 -0.0 -0.0 0.0 -0.0 0.0
0.0 0.0 0.0 0.0 -0.0 -0.0 -0.0 -0.0
0.0 0.0 0.0 0.0 0.0 -0.0 -0.0 -0.0
-0.0 -0.0 0.0 -0.0 0.0 0.0 0.0 0.0
0.0 0.0 0.0 -0.0 0.0 0.0 -0.0 -0.0
-0.0 -0.0 -0.0 -0.0 -0.0 -0.0 -0.0 -0.0
-0.0 -0.0 -0.0 -0.0 -0.0 -0.0 -0.0 -0.0
0.0 0.0 0.0 0.0 -0.0 -0.0 0.0 0.0
0.0 0.0 -0.0 0.0 0.0 -0.0 0.0 0.0
0.0 0.0 0.0 -0.0 -0.0 -0.0 -0.0 -0.0
0.0 -0.0 -0.0 -0.0 0.0 0.0 -0.0 0.0
0.0 -0.0 0.0 0.0 -0.0 -0.0 0.0 0.0
-0.0 0.0 0.0 0.0 0.0 -0.0 -0.0 -0.0
-0.0 -0.0 -0.0 -0.0 -0.0 -0.0 -0.0 -0.0
-0.0 0.0 -0.0 -0.0 -0.0 -0.0 -0.0 -0.0
-0.0 -0.0 -0.0 0.0 0.0 0.0 0.0 0.0
0.0 -0.0 -0.0 -0.0 -0.0 -0.0 -0.0 -0.0
-0.0 -0.0 0.0 0.0 0.0 -0.0 -0.0 0.0
-0.0 0.0 0.0 0.0 0.0 0.0 0.0 0.0
0.0 0.0 0.0 0.0 0.0 0.0 0.0 0.0
0.0 0.0 0.0 0.0 0.0 -0.0 0.0 0.0
-0.0 0.0 0.0 -0.0 -0.0 -0.0 -0.0 -0.0
0.0 -0.0 0.0 0.0 -0.0 -0.0 -0.0 -0.0
-0.0 -0.0 -0.0 -0.0 -0.0 0.0 -0.0 -0.0
0.0 0.0 0.0 0.0 0.0 0.0 -0.0 -0.0
-0.0 0.0 0.0 0.0 0.0 0.0 0.0 0.0
0.0 0.0 -0.0 -0.0 -0.0 -0.0 -0.0 -0.0
-0.0 -0.0 -0.0 -0.0 -0.0 -0.0 -0.0 -0.0
-0.0 -0.0 -0.0 -0.0 -0.0 0.0 0.0 -0.0
00000000: 0000 0000 0000 0000 0000 0000 0000 0080
00000010: 0000 0000 0000 0080 0000 0000 0000 0000
00000020: 0000 0080 0000 0080 0000 0080 0000 0080
00000030: 0000 0080 0000 0080 0000 0080 0000 0080
00000040: 0000 0080 0000 0080 0000 0000 0000 0000
00000050: 0000 0000 0000 0000 0000 0000 0000 0000
00000060: 0000 0000 0000 0000 0000 0000 0000 0080
00000070: 0000 0080 0000 0000 0000 0080 0000 0000
00000080: 0000 0000 0000 0000 0000 0000 0000 0000
00000090: 0000 0080 0000 0080 0000 0080 0000 0080
000000a0: 0000 0000 0000 0000 0000 0000 0000 0000
000000b0: 0000 0000 0000 0080 0000 0080 0000 0080
000000c0: 0000 0080 0000 0080 0000 0000 0000 0080
000000d0: 0000 0000 0000 0000 0000 0000 0000 0000
000000e0: 0000 0000 0000 0000 0000 0000 0000 0080
000000f0: 0000 0000 0000 0000 0000 0080 0000 0080
00000100: 0000 0080 0000 0080 0000 0080 0000 0080
00000110: 0000 0080 0000 0080 0000 0080 0000 0080
00000120: 0000 0080 0000 0080 0000 0080 0000 0080
00000130: 0000 0080 0000 0080 0000 0080 0000 0080
00000140: 0000 0000 0000 0000 0000 0000 0000 0000
00000150: 0000 0080 0000 0080 0000 0000 0000 0000
00000160: 0000 0000 0000 0000 0000 0080 0000 0000
00000170: 0000 0000 0000 0080 0000 0000 0000 0000
00000180: 0000 0000 0000 0000 0000 0000 0000 0080
00000190: 0000 0080 0000 0080 0000 0080 0000 0080
000001a0: 0000 0000 0000 0080 0000 0080 0000 0080
000001b0: 0000 0000 0000 0000 0000 0080 0000 0000
000001c0: 0000 0000 0000 0080 0000 0000 0000 0000
000001d0: 0000 0080 0000 0080 0000 0000 0000 0000
000001e0: 0000 0080 0000 0000 0000 0000 0000 0000
000001f0: 0000 0000 0000 0080 0000 0080 0000 0080
00000200: 0000 0080 0000 0080 0000 0080 0000 0080
00000210: 0000 0080 0000 0080 0000 0080 0000 0080
00000220: 0000 0080 0000 0000 0000 0080 0000 0080
00000230: 0000 0080 0000 0080 0000 0080 0000 0080
00000240: 0000 0080 0000 0080 0000 0080 0000 0000
00000250: 0000 0000 0000 0000 0000 0000 0000 0000
00000260: 0000 0000 0000 0080 0000 0080 0000 0080
00000270: 0000 0080 0000 0080 0000 0080 0000 0080
00000280: 0000 0080 0000 0080 0000 0000 0000 0000
00000290: 0000 0000 0000 0080 0000 0080 0000 0000
000002a0: 0000 0080 0000 0000 0000 0000 0000 0000
000002b0: 0000 0000 0000 0000 0000 0000 0000 0000
000002c0: 0000 0000 0000 0000 0000 0000 0000 0000
000002d0: 0000 0000 0000 0000 0000 0000 0000 0000
000002e0: 0000 0000 0000 0000 0000 0000 0000 0000
000002f0: 0000 0000 0000 0080 0000 0000 0000 0000
00000300: 0000 0080 0000 0000 0000 0000 0000 0080
00000310: 0000 0080 0000 0080 0000 0080 0000 0080
00000320: 0000 0000 0000 0080 0000 0000 0000 0000
00000330: 0000 0080 0000 0080 0000 0080 0000 0080
00000340: 0000 0080 0000 0080 0000 0080 0000 0080
00000350: 0000 0080 0000 0000 0000 0080 0000 0080
00000360: 0000 0000 0000 0000 0000 0000 0000 0000
00000370: 0000 0000 0000 0000 0000 0080 0000 0080
00000380: 0000 0080 0000 0000 0000 0000 0000 0000
00000390: 0000 0000 0000 0000 0000 0000 0000 0000
000003a0: 0000 0000 0000 0000 0000 0080 0000 0080
000003b0: 0000 0080 0000 0080 0000 0080 0000 0080
000003c0: 0000 0080 0000 0080 0000 0080 0000 0080
000003d0: 0000 0080 0000 0080 0000 0080 0000 0080
000003e0: 0000 0080 0000 0080 0000 0080 0000 0080
000003f0: 0000 0080 0000 0000 0000 0000 0000 0080

base.conv4.res_layer.4.weight f4 [16]
2.418581e-10 3.3249e-05 4.8509423e-16 0.28849164 0.56242776 0.40696535 -1.3269222e-15 0.48047498
0.31214595 1.22321815e-14 4.0176088e-11 0.66019225 0.33330822 9.82945e-06 -7.1800994e-12 0.43225354
00000000: 80f6 842f d874 0b38 a3d1 0b26 2db5 933e
00000010: 44fb 0f3f c35d d03e ca3a bfa6 d100 f63e
00000020: 98d1 9f3e fb5a 5c28 41b2 302e 5c02 293f
00000030: 60a7 aa3e 2be9 2437 96a0 fcac 5650 dd3e

base.conv4.res_layer.4.bias f4 [16]
-0.14190903 0.021845367 -0.058158685 -0.11958344 0.24808638 -0.19517125 -0.058985356 0.068823
0.054704275 -0.19298415 -0.12393382 -0.49729607 -0.34197375 0.09343884 -0.1410656 -0.31491292
00000000: 9a50 11be 0ef5 b23c cd37 6ebd 2ae8 f4bd
00000010: 5b0a 7e3e f9da 47be a19a 71bd 13f3 8c3d
00000020: 9711 603d a39d 45be 04d1 fdbd 979d febe
00000030: 2f17 afbe dd5c bf3d 8073 10be 443c a1be

base.conv4.res_layer.4.running_mean f4 [16]
6e-45 6e-45 6e-45 0.10219314 0.3194237 -0.49568188 6e-45 -0.14313371
0.22471635 6e-45 6e-45 0.07829208 0.27463704 6e-45 6e-45 0.033463657
00000000: 0400 0000 0400 0000 0400 0000 a34a d13d
00000010: 818b a33e 04ca fdbe 0400 0000 a591 12be
00000020: 0b1c 663e 0400 0000 0400 0000 9957 a03d
00000030: 3a9d 8c3e 0400 0000 0400 0000 3011 093d

base.conv4.res_layer.4.running_var f4 [16]
6e-45 6e-45 6e-45 0.07407039 0.08523467 0.17880496 6e-45 0.065481335
0.06236282 6e-45 6e-45 0.08211201 0.07628341 6e-45 6e-45 0.087947264
00000000: 0400 0000 0400 0000 0400 0000 37b2 973d
00000010: 848f ae3d a618 373e 0400 0000 141b 863d
00000020: 2870 7f3d 0400 0000 0400 0000 572a a83d
00000030: 7a3a 9c3d 0400 0000 0400 0000 b21d b43d

base.m0.b2_1.0.shortcut_layer.0.weight f4 [16, 16, 1, 1]
0.07465229 0.1013411 0.024795873 0.16913825 -0.32646102 -0.03519818 -0.08566707 -0.40267155
0.02288727 0.03077611 0.0747983 -0.07926057 0.2963619 0.13139816 0.1309969 0.16346037
0.0 -0.0 -0.0 -0.0 -0.0 -0.0 0.0 -0.0
-0.0 -0.0 -0.0 -0.0 -0.0 0.0 -0.0 -0.0
-0.1307321 0.26584205 0.00080191647 0.73023903 -0.07587657 -0.002807243 -0.012836946 -0.07410169
-0.005598043 -0.093513094 -0.10498912 -0.08447789 -0.074920356 0.055510487 0.08542196 -0.2943109
0.3442039 0.11987246 -0.1290795 0.072057806 0.10728446 -0.12547669 -0.18580432 -0.29178745
-0.11746049 -0.012689293 0.067773856 0.2729337 0.13193937 -0.16937791 -0.05968571 -0.16494307
0.12923361 -0.2871152 -0.15498972 -0.28715655 0.024903728 -0.19898959 0.19300275 0.06717328
-0.13886017 0.02357774 -0.0155353 0.06925971 -0.11497224 0.03783076 0.062698565 0.35109207
0.0 -0.0 -0.0 -0.0 -0.0 -0.0 0.0 -0.0
0.0 -0.0 0.0 -0.0 -0.0 0.0 -0.0 -0.0
0.0 -0.0 -0.0 -0.0 -0.0 -0.0 0.0 0.0
0.0 -0.0 -0.0 -0.0 0.0 -0.0 -0.0 -0.0
0.0 -0.0 -0.0 -0.0 -0.0 -0.0 0.0 0.0
-0.0 -0.0 0.0 -0.0 0.0 -0.0 -0.0 -0.0
0.0 -0.0 0.0 0.0 -0.0 -0.0 -0.0 -0.0
-0.0 0.0 -0.0 -0.0 -0.0 0.0 0.0 0.0
-0.42535675 -0.21344571 -0.024395542 -0.056134485 -0.1000932 -0.14821985 -0.18195647 -0.05090177
-0.0028345292 0.009273232 -0.032817278 0.10840963 0.16635741 0.36779273 0.020899763 -0.15993091
-0.43117058 -0.013034683 -0.12633915 -0.04330379 0.21826424 -0.28228173 0.007414223 -0.14981213
0.107885174 -0.01892728 -0.012070113 -0.2270615 0.048648607 -0.14108746 -0.0071711913 0.23491293
-0.0 0.0 -0.0 -0.0 0.0 0.0 0.0 0.0
0.0 -0.0 -0.0 0.0 -0.0 0.0 0.0 -0.0
-0.0 -0.0 -0.0 0.0 -0.0 -0.0 -0.0 -0.0
-0.0 -0.0 -0.0 -0.0 -0.0 0.0 -0.0 0.0
-0.0 0.0 0.0 -0.0 -0.0 0.0 0.0 -0.0
-0.0 -0.0 -0.0 0.0 -0.0 0.0 0.0 -0.0
0.01554504 -0.4439629 0.15908845 0.04592351 0.16672164 0.2191217 -0.20610504 0.22496814
-0.05927678 0.0022352166 0.081395805 -0.21331982 0.06263277 -0.0070451912 0.05914526 0.17653279
-0.023594385 0.15662284 0.085873686 0.43720102 0.060078006 0.079504594 0.07551826 0.1566304
0.2243599 0.13714187 0.055115294 0.13699141 0.118822396 0.21464013 0.13183129 -0.14954522
00000000: 4de3 983d ec8b cf3d b720 cb3c 9432 2d3e
00000010: e625 a7be f72b 10bd 3772 afbd f72a cebe
00000020: 167e bb3c 2e1e fc3c da2f 993d 5e53 a2bd
00000030: bfbc 973e 3d8d 063e 0d24 063e 2862 273e
00000040: 0000 0000 0000 0080 0000 0080 0000 0080
00000050: 0000 0080 0000 0080 0000 0000 0000 0080
00000060: 0000 0080 0000 0080 0000 0080 0000 0080
00000070: 0000 0080 0000 0000 0000 0080 0000 0080
00000080: a3de 05be 731c 883e b437 523a f2f0 3a3f
00000090: 2d65 9bbd b9f9 37bb 0e52 52bc a0c2 97bd
000000a0: ca6f b7bb cb83 bfbd 8904 d7bd be02 adbd
000000b0: d86f 99bd f75e 633d b5f1 ae3d ebaf 96be
000000c0: 7e3b b03e b17f f53d 6b2d 04be 0b93 933d
000000d0: f4b7 db3d f67c 00be 7d43 3ebe 2a65 95be
000000e0: 208f f0bd c1e6 4fbc 05cd 8a3d f7bd 8b3e
000000f0: 1d1b 073e 6771 2dbe 0179 74bd d6e6 28be
00000100: d155 043e c300 93be a0b5 1ebe 2f06 93be
00000110: e702 cc3c edc3 4bbe 83a2 453e 2592 893d
00000120: 5c31 0ebe 1b26 c13c c587 7ebc 09d8 8d3d
00000130: 9176 ebbd 6df4 1a3d 1b68 803d 57c2 b33e
00000140: 0000 0000 0000 0080 0000 0080 0000 0080
00000150: 0000 0080 0000 0080 0000 0000 0000 0080
00000160: 0000 0000 0000 0080 0000 0000 0000 0080
00000170: 0000 0080 0000 0000 0000 0080 0000 0080
00000180: 0000 0000 0000 0080 0000 0080 0000 0080
00000190: 0000 0080 0000 0080 0000 0000 0000 0000
000001a0: 0000 0000 0000 0080 0000 0080 0000 0080
000001b0: 0000 0000 0000 0080 0000 0080 0000 0080
000001c0: 0000 0000 0000 0080 0000 0080 0000 0080
000001d0: 0000 0080 0000 0080 0000 0000 0000 0000
000001e0: 0000 0080 0000 0080 0000 0000 0000 0080
000001f0: 0000 0000 0000 0080 0000 0080 0000 0080
00000200: 0000 0000 0000 0080 0000 0000 0000 0000
00000210: 0000 0080 0000 0080 0000 0080 0000 0080
00000220: 0000 0080 0000 0000 0000 0080 0000 0080
00000230: 0000 0080 0000 0000 0000 0000 0000 0000
00000240: 5cc8 d9be 8391 5abe 29d9 c7bc 46ed 65bd
00000250: aafd ccbd f2c6 17be cc52 3abe 607e 50bd
00000260: 82c3 39bb c1ee 173c 696b 06bd de05 de3d
00000270: 9959 2a3e 544f bc3e fb35 ab3c eec4 23be
00000280: 64c2 dcbe 6c8f 55bc 0d5f 01be 515f 31bd
00000290: a980 5f3e 3b87 90be 03f3 f23b 5a68 19be
000002a0: e7f2 dc3d 620d 9bbc b9c1 45bc cf82 68be
000002b0: c343 473d 3b79 10be 50fc eabb 048d 703e
000002c0: 0000 0080 0000 0000 0000 0080 0000 0080
000002d0: 0000 0000 0000 0000 0000 0000 0000 0000
000002e0: 0000 0000 0000 0080 0000 0080 0000 0000
000002f0: 0000 0080 0000 0000 0000 0000 0000 0080
00000300: 0000 0080 0000 0080 0000 0080 0000 0000
00000310: 0000 0080 0000 0080 0000 0080 0000 0080
00000320: 0000 0080 0000 0080 0000 0080 0000 0080
00000330: 0000 0080 0000 0000 0000 0080 0000 0000
00000340: 0000 0080 0000 0000 0000 0000 0000 0080
00000350: 0000 0080 0000 0000 0000 0000 0000 0080
00000360: 0000 0080 0000 0080 0000 0080 0000 0000
00000370: 0000 0080 0000 0000 0000 0000 0000 0080
00000380: a0b0 7e3c 1b4f e3be 15e8 223e 4a1a 3c3d
00000390: 14b9 2a3e 7061 603e 330d 53be 0c5e 663e
000003a0: 35cc 72bd b67c 123b d8b2 a63d 8370 5abe
000003b0: 9c45 803d 59db e6bb 4d42 723d 03c5 343e
000003c0: 0349 c1bc bd61 203e 8bde af3d d0d8 df3e
000003d0: 5b14 763d 4ed3 a23d 51a9 9a3d b863 203e
000003e0: 9abe 653e eb6e 0c3e 93c0 613d 7a47 0c3e
000003f0: 2859 f33d 9fca 5b3e c8fe 063e 6222 19be

base.m0.b2_1.0.shortcut_layer.1.weight f4 [16]
0.47367728 1.11205285e-17 0.6091976 0.45517492 0.26103047 8.20965e-14 -6.5703922e-09 2.014047e-06
2.2017225e-06 0.18426417 0.3221378 -1.9193325e-17 1.1119516e-12 -1.1626081e-12 0.53950995 0.24374074
00000000: d485 f23e 3623 4d23 60f4 1b3f b00c e93e
00000010: c9a5 853e 69dd b829 c8c1 e1b1 1029 0736
00000020: 4ec1 1336 bfaf 3c3e 3fef a43e f506 b1a3
00000030: 477e 9c2b 5f9f a3ab 531d 0a3f 2c97 793e

base.m0.b2_1.0.shortcut_layer.1.bias f4 [16]
-0.010360929 -0.026921004 0.0013460253 0.103916004 -0.056267027 0.018782048 -0.16029976 -0.03679829
0.023666013 0.3930341 -0.01520169 -0.26822516 -0.098489664 -0.005585626 0.065582715 0.04801269
00000000: e3c0 29bc 7089 dcbc 1d6d b03a ead1 d43d
00000010: 4178 66bd cfdc 993c 9f25 24be ceb9 16bd
00000020: 3adf c13c c43b c93e 8210 79bc cf54 89be
00000030: f3b4 c9bd a007 b7bb 3b50 863d f4a8 443d

base.m0.b2_1.0.shortcut_layer.1.running_mean f4 [16]
0.0097465925 -6e-45 0.18307467 -0.15390036 -0.17723392 -6e-45 -6e-45 -6e-45
6e-45 -0.032655295 0.1853836 6e-45 -6e-45 6e-45 -0.109688215 0.13126314
00000000: 2cb0 1f3c 0400 0080 ed77 3b3e 0e98 1dbe
00000010: cf7c 35be 0400 0080 0400 0080 0400 0080
00000020: 0400 0000 8fc1 05bd 33d5 3d3e 0400 0000
00000030: 0400 0080 0400 0000 37a4 e0bd d869 063e

base.m0.b2_1.0.shortcut_layer.1.running_var f4 [16]
0.12531677 6e-45 0.08418723 0.090156674 0.055887215 6e-45 6e-45 6e-45
6e-45 0.048636667 0.05456356 6e-45 6e-45 6e-45 0.13323933 0.04369457
00000000: 0a53 003e 0400 0000 5b6a ac3d 10a4 b83d
00000010: fee9 643d 0400 0000 0400 0000 0400 0000
00000020: 0400 0000 3e37 473d 0a7e 5f3d 0400 0000
00000030: 0400 0000 0400 0000 e46f 083e 14f9 323d

base.m0.b2_1.0.res_layer.0.weight f4 [16, 16, 3, 3]
0.1991666 0.12654759 0.058956694 -0.021708911 -0.0031937878 0.010788589 -0.05492858 -0.007537119
0.066221364 -0.06618772 -0.074338004 -0.012749989 0.06800237 0.3809201 0.2677653 0.014037861
-0.009462724 0.07595486 -0.010599767 -0.06292661 -0.08207051 0.06668309 0.17611589 0.21097013
0.09115103 0.2827569 0.21610911 -0.079009704 -0.04571223 -0.09428101 0.047970887 -0.011241427
-0.018808568 -0.060376585 -0.16807728 -0.24669275 0.019507963 -0.010872361 -0.07135019 -0.07033437
-0.090493664 -0.08878765 0.14187577 0.13412218 0.05063668 -0.04473227 0.01257194 -0.016069451
-0.16981371 -0.22771667 -0.15359637 0.14523996 0.32052395 0.28063104 -0.0028349617 0.03321931
0.05193868 -0.0001452004 -0.0033608032 -0.031199902 0.0791366 0.0898141 0.0008750182 -0.042377483
0.15922777 0.08128838 0.05378206 0.21355517 0.14327595 -0.21736906 -0.26550266 -0.22407769
-0.01980421 0.05334411 0.085663095 0.0034151054 0.04766904 -0.004413872 -0.21244055 -0.37118116
-0.17188756 -0.069841534 -0.115201056 -0.01414517 0.00607807 -0.049445067 -0.031288147 0.07535967
0.060311615 -0.09095578 0.061958548 -0.036886845 -0.07109852 -0.0022499678 -0.056334198 -0.012352511
-0.0035011626 0.08139267 0.06223328 0.07722098 -0.092827104 -0.16907254 -0.060810287 -0.11525571
-0.11434983 0.02129728 0.11907461 0.13653436 -0.023267644 0.0073828143 0.08536908 -0.023399994
-0.065277755 -0.13077065 0.07632035 0.06427525 0.07487036 0.063900985 0.032848142 0.011631861
0.049343586 0.050066933 0.028799733 0.052018203 -0.007951536 -0.008093411 0.02262831 0.0308066
0.08548459 -0.10102133 -0.04985956 -0.0295144 -0.04688404 -0.011280584 -0.018243045 0.023174943
0.004487772 -0.0670019 0.043938123 0.01932495 -0.009421401 -0.13782476 -0.11040639 -0.055745497
0.06329762 -0.020574518 -0.037400443 -0.03520577 -0.035282746 -0.011393491 0.074298255 0.033304535
0.001995785 0.15142205 0.27307555 0.32210678 0.097608805 0.12477841 -0.02510017 -0.10879342
-0.33737233 -0.22209245 0.090307005 0.20969339 0.20020829 0.1101358 0.23483627 0.15147771
-0.067798905 -0.0396846 -0.10825469 0.15683801 0.026283363 -0.027954653 0.01590799 -0.14921737
-0.27761394 -0.075029425 -0.22871548 -0.40551138 -0.018808233 -0.108532175 -0.054774564 0.1123286
0.13435724 0.045089778 0.047515545 0.20634633 0.06450926 -0.137848 -0.14220959 -0.13388276
0.1227289 0.30868617 0.16498835 -0.006906364 0.1489846 -0.064357154 0.05469089 0.119958475
0.08411735 0.005489982 0.06754955 -0.0098839095 0.07590173 0.008173235 -0.044118132 0.16523826
0.23401083 0.09802205 -0.19067931 -0.2271749 -0.27014163 -0.121799186 -0.095563546 0.056052037
0.008804422 0.018652909 0.104983084 -0.25812352 -0.321866 -0.088664286 0.019499393 -0.102920525
0.0077072615 0.018673526 -0.056743167 -0.027739672 0.12521842 0.12044725 -0.016710527 -0.006594787
0.103156574 0.06943726 0.0026666305 -0.018961783 -0.009304619 0.051262897 0.09784147 0.058662254
0.032603085 0.019080333 0.04204083 -0.09802378 -0.10605083 -0.054975793 -0.106461324 0.061190683
0.1069181 -0.13044682 -0.03937168 0.046676498 0.020536583 -0.07659805 -0.09068415 0.14200902
00000000: 54f2 4b3e b195 013e 937c 713d e3d6 b1bc
00000010: de4e 51bb 9fc2 303c cafc 60bd f0f9 f6bb
00000020: 119f 873d 6d8d 87bd 863e 98bd 54e5 50bc
00000030: d444 8b3d f607 c33e 8918 893e 0eff 653c
00000040: 8b09 1bbc 398e 9b3d a5aa 2dbc abdf 80bd
00000050: 9514 a8bd 2591 883d b957 343e 8e08 583e
00000060: 64ad ba3d 83c5 903e b54b 5d3e d7cf a1bd
00000070: bf3c 3bbd 6716 c1bd 1f7d 443d f62d 38bc
00000080: 6d14 9abc 704d 77bd 731c 2cbe 069d 7cbe
00000090: 2acf 9f3c fd21 32bc 0c20 92bd 770b 90bd
000000a0: be54 b9bd 4dd6 b5bd e247 113e 5357 093e
000000b0: 6868 4f3d 2f39 37bd 8afa 4d3c 15a4 83bc
000000c0: a5e3 2dbe 8f2e 69be 5e48 1dbe c9b9 143e
000000d0: b71b a43e dfae 8f3e c4ca 39bb f910 083d
000000e0: a7bd 543d f040 18b9 ec40 5cbb f096 ffbc
000000f0: 5f12 a23d 74f0 b73d 7a61 653a 0394 2dbd
00000100: 9b0c 233e 867a a63d 944a 5c3d 35ae 5a3e
00000110: eeb6 123e ff95 5ebe f7ef 87be 9f74 65be
00000120: 703c a2bc 5a7f 5a3d 2270 af3d f6cf 5f3b
00000130: 9c40 433d 3ea2 90bb 048a 59be 750b bebe
00000140: 4b03 30be 1409 8fbd 88ee ebbd 25c1 67bc
00000150: 8c2a c73b e986 4abd 0028 00bd 2c56 9a3d
00000160: 5009 773d 0647 babd 3fc8 7d3d a916 17bd
00000170: 1a9c 91bd 3274 13bb b0be 66bd 3062 4abc
00000180: c373 65bb 33b1 a63d 53e8 7e3d 0826 9e3d
00000190: 231c bebd 5a21 2dbe 3514 79bd 300b ecbd
000001a0: 3e30 eabd a277 ae3c 64dd f33d aacf 0b3e
000001b0: c99b bebc 89eb f13b fcd5 ae3d 58b1 bfbc
000001c0: 58b0 85bd bee8 05be d84d 9c3d bea2 833d
000001d0: a255 993d 85de 823d c68b 063d 9093 3e3c
000001e0: 801c 4a3d fc12 4d3d 6bed eb3c 0a11 553d
000001f0: 2947 02bc 3a9a 04bc 015f b93c 1f5e fc3c
00000200: 8b12 af3d 45e4 cebd 8a39 4cbd 2fc8 f1bc
00000210: 7b09 40bd 33d2 38bc 7072 95bc 61d9 bd3c
00000220: 290e 933b 4b38 89bd 76f8 333d 5c4f 9e3c
00000230: 385c 1abc ef21 0dbe bf1c e2bd 6455 64bd
00000240: 2fa2 813d e48b a8bc 3531 19bd ed33 10bd
00000250: a484 10bd c4ab 3abc af29 983d 566a 083d
00000260: b7cb 023b 620e 1b3e 8fd0 8b3e 2eeb a43e
00000270: 20e7 c73d d38b ff3d df9e cdbc 16cf debd
00000280: 11bc acbe 346c 63be e1f2 b83d ddb9 563e
00000290: 6703 4d3e e18e e13d eb78 703e f91c 1b3e
000002a0: 27da 8abd 528c 22bd a3b4 ddbd 259a 203e
000002b0: 3550 d73c 2801 e5bc 7951 823c 70cc 18be
000002c0: 6a23 8ebe 07a9 99bd 6434 6abe 309f cfbe
000002d0: b913 9abc 1e46 debd 4b5b 60bd 890c e63d
000002e0: f294 093e 0fb0 383d a99f 423d 744c 533e
000002f0: 6e1d 843d 0728 0dbe 649f 11be 9018 09be
00000300: 4a59 fb3d 1d0c 9e3e b5f2 283e c84e e2bb
00000310: 6b8f 183e afcd 83bd 8e03 603d caac f53d
00000320: b845 ac3d 4fe5 b33b 6b57 8a3d 1ff0 21bc
00000330: 5e72 9b3d 08e9 053c 37b5 34bd 3834 293e
00000340: 89a0 6f3e c9bf c83d 7041 43be 89a0 68be
00000350: 0150 8abe da71 f9bd d2b6 c3bd d296 653d
00000360: 6c40 103c fccd 983c 5f01 d73d c428 84be
00000370: 9fcb a4be 9f95 b5bd 31bd 9f3c ffc7 d2bd
00000380: 328d fc3b 39f9 983c 866b 68bd 4f3e e3bc
00000390: 4239 003e 0cad f63d 84e4 88bc 1519 d8bb
000003a0: c143 d33d 1f35 8e3d a3c2 2e3b be55 9bbc
000003b0: 6772 18bc 0bf9 513d 1c61 c83d d547 703d
000003c0: d08a 053d 5c4e 9c3c 0133 2c3d b1c0 c8bd
000003d0: 2d31 d9bd 4c2e 61bd 6508 dabd 15a3 7a3d
000003e0: e0f7 da3d da93 05be 3344 21bd db2f 3f3d
000003f0: 563c a83c 70df 9cbd 9db8 b9bd d06a 113e

base.m0.b2_1.0.res_layer.1.weight f4 [16]
0.27420804 0.23472175 9.0345884e-17 0.36074686 2.6526528e-10 0.35006592 0.37974575 1.1963e-41
-1.1587e-41 -3.1117107e-08 -5.553e-42 2.5671757e-06 0.3020642 0.46102628 0.4766303 6.264e-42
00000000: ff64 8c3e e65a 703e cc52 d024 d0b3 b83e
00000010: c5d4 912f d73b b33e 096e c23e 5921 0000
00000020: 4d20 0080 9fa5 05b3 7b0f 0080 be47 2c36
00000030: 29a8 9a3e a30b ec3e e308 f43e 7611 0000

base.m0.b2_1.0.res_layer.1.bias f4 [16]
-0.18156433 -0.20439523 0.21069346 0.41366488 0.39697406 0.36141878 0.08373474 -0.0013388217
-1.6528697e-13 -5.2097422e-23 -2.3165839e-11 -0.0015678798 0.098400176 -0.06316027 -0.005848422 -7.482709e-07
00000000: 00ec 39be fc4c 51be 07c0 573e e2cb d33e
00000010: 2f40 cb3e e20b b93e 1f7d ab3d 677b afba
00000020: ba18 3aaa 7ced 7b9a d5c4 cbad 5181 cdba
00000030: 0886 c93d 2c5a 81bd 1fa4 bfbb c9dc 48b5

base.m0.b2_1.0.res_layer.1.running_mean f4 [16]
0.53980297 0.35653454 6e-45 -0.28977522 -6e-45 -0.7700283 0.3194846 6e-45
-6e-45 6e-45 -6e-45 6e-45 -0.3833135 -0.58328193 -0.83320165 6e-45
00000000: 8730 0a3f b28b b63e 0400 0000 6b5d 94be
00000010: 0400 0080 9320 45bf 7c93 a33e 0400 0000
00000020: 0400 0080 0400 0000 0400 0080 0400 0000
00000030: ab41 c4be f751 15bf b44c 55bf 0400 0000

base.m0.b2_1.0.res_layer.1.running_var f4 [16]
0.46777913 0.47864637 6e-45 1.0412856 6e-45 0.6394845 0.81981903 6e-45
6e-45 6e-45 6e-45 6e-45 0.51205426 0.55936223 0.69523644 6e-45
00000000: bf80 ef3e 2311 f53e 0400 0000 d948 853f
00000010: 0400 0000 42b5 233f a9df 513f 0400 0000
00000020: 0400 0000 0400 0000 0400 0000 0400 0000
00000030: fd15 033f 5d32 0f3f 04fb 313f 0400 0000
