Pruned Models/ERESFD/FPGM/ERES30_FPGM.pth (torch, 541922 bytes, 400 tensors)

base.conv1.0.weight f4 [8, 3, 5, 5]
00000000: 0000 0000 0000 0000 0000 0000 0000 0000
00000010: 0000 0000 0000 0000 0000 0000 0000 0000
00000020: 0000 0000 0000 0000 0000 0000 0000 0000
00000030: 0000 0000 0000 0000 0000 0000 0000 0000
00000040: 0000 0000 0000 0000 0000 0000 0000 0000
00000050: 0000 0000 0000 0000 0000 0000 0000 0000
00000060: 0000 0000 0000 0000 0000 0000 0000 0000
00000070: 0000 0000 0000 0000 0000 0000 0000 0000
00000080: 0000 0000 0000 0000 0000 0000 0000 0000
00000090: 0000 0000 0000 0000 0000 0000 0000 0000
000000a0: 0000 0080 0000 0080 0000 0000 0000 0000
000000b0: 0000 0000 0000 0000 0000 0000 0000 0000
000000c0: 0000 0000 0000 0000 0000 0000 0000 0000
000000d0: 0000 0000 0000 0000 0000 0000 0000 0000
000000e0: 0000 0000 0000 0000 0000 0000 0000 0000
000000f0: 0000 0000 0000 0000 0000 0000 0000 0000
00000100: 0000 0000 0000 0000 0000 0000 0000 0000
00000110: 0000 0000 0000 0000 0000 0000 0000 0000
00000120: 0000 0000 0000 0000 0000 0000 0000 0080
00000130: 0000 0080 0000 0080 0000 0080 0000 0080
00000140: 0000 0080 0000 0080 0000 0080 0000 0080
00000150: 0000 0080 0000 0000 0000 0080 0000 0000
00000160: 0000 0000 0000 0080 0000 0080 0000 0080
00000170: 0000 0080 0000 0080 0000 0080 0000 0080
00000180: 0000 0080 0000 0080 0000 0080 0000 0080
00000190: 0000 0080 0000 0080 0000 0080 0000 0080
000001a0: 0000 0080 0000 0080 0000 0080 0000 0080
000001b0: 0000 0080 0000 0080 0000 0080 0000 0080
000001c0: 0000 0080 0000 0080 0000 0080 0000 0080
000001d0: 0000 0080 0000 0080 0000 0080 0000 0080
000001e0: 0000 0080 0000 0080 0000 0080 0000 0080
000001f0: 0000 0080 0000 0080 0000 0080 0000 0080
00000200: 0000 0080 0000 0080 0000 0080 0000 0080
00000210: 0000 0000 0000 0080 0000 0080 0000 0080
00000220: 0000 0080 0000 0080 0000 0080 0000 0080
00000230: 0000 0080 0000 0080 0000 0080 0000 0080
00000240: 0000 0080 0000 0080 0000 0080 0000 0080
00000250: 0000 0080 0000 0080 384b d0bd 15ea 57be
00000260: 0733 72be 7aba 72be 014e 15be 9d89 7abe
00000270: 190d b2be 7652 bebe c934 adbe 9fe1 07be
00000280: e40b 5ebe 4d63 b4be 2e3e d3be c7c5 c7be
00000290: d349 87be d388 2ebe afec a1be 1b8e c2be
000002a0: 34bc cebe abf0 b9be 6cd0 6ebe 3e26 8fbe
000002b0: 97ef a3be ffc3 b8be c8c0 86be 9d24 4d3e
000002c0: 393d 623e c40b 793e b6c8 4e3e a222 243e
000002d0: dfaf 1f3e db66 6e3e b671 943e 7319 953e
000002e0: d823 b33e e31d 533e ed03 943e d749 b63e
000002f0: d3f5 bd3e 4732 b73e f885 4f3e d681 8d3e
00000300: bf10 b33e c00f ba3e 6487 9a3e f195 433d
00000310: ad6a 4f3e 853f 9c3e aabc a63e bef6 b53e
00000320: d269 763d 2207 013d 1449 03bc b285 d5bd
00000330: a3a5 66be 0d47 e13c 974f 4b3d 3f28 4e3d
00000340: fb0a 4e3b b207 d8bc 9bf0 4d3d 22c2 b93d
00000350: c917 d83d ef7c 933d 70c6 92bc 936f 583d
00000360: 84aa c93d b451 de3d ed6a 933d f732 5ebd
00000370: 89c2 d6bd 51a9 d23c c903 723d e321 2f3d
00000380: 9b4f 8e3b f5c6 39be 0bc6 66bd 386c 093e
00000390: 57af 2d3e a9a5 e03d 67f2 40be 42d5 853d
000003a0: fe56 8e3e 6d8e 153e 64b9 12be 16b4 80be
000003b0: 276e 1c3d 408a 393e 5e5c 313c 34fb b4be
000003c0: 4fc5 5ebe 9920 603d 4e3b 393e 677b d13b
000003d0: 03cf c2be e015 16be 4c97 173e 6585 963e
000003e0: 89d9 223e d4fe 2ebe 64a5 8ebd 056b 5f3d
000003f0: 52f8 403e c1f5 833e f6dc 4f3e 4e48 16bd
0.0 0.0 0.0 0.0 0.0 0.0 0.0 0.0
0.0 0.0 0.0 0.0 0.0 0.0 0.0 0.0
0.0 0.0 0.0 0.0 0.0 0.0 0.0 0.0
0.0 0.0 0.0 0.0 0.0 0.0 0.0 0.0
0.0 0.0 0.0 0.0 0.0 0.0 0.0 0.0
-0.0 -0.0 0.0 0.0 0.0 0.0 0.0 0.0
0.0 0.0 0.0 0.0 0.0 0.0 0.0 0.0
0.0 0.0 0.0 0.0 0.0 0.0 0.0 0.0
0.0 0.0 0.0 0.0 0.0 0.0 0.0 0.0
0.0 0.0 0.0 -0.0 -0.0 -0.0 -0.0 -0.0
-0.0 -0.0 -0.0 -0.0 -0.0 0.0 -0.0 0.0
0.0 -0.0 -0.0 -0.0 -0.0 -0.0 -0.0 -0.0
-0.0 -0.0 -0.0 -0.0 -0.0 -0.0 -0.0 -0.0
-0.0 -0.0 -0.0 -0.0 -0.0 -0.0 -0.0 -0.0
-0.0 -0.0 -0.0 -0.0 -0.0 -0.0 -0.0 -0.0
-0.0 -0.0 -0.0 -0.0 -0.0 -0.0 -0.0 -0.0
-0.0 -0.0 -0.0 -0.0 0.0 -0.0 -0.0 -0.0
-0.0 -0.0 -0.0 -0.0 -0.0 -0.0 -0.0 -0.0
-0.0 -0.0 -0.0 -0.0 -0.0 -0.0 -0.10170597 -0.21085389
-0.23652278 -0.23703948 -0.14580537 -0.24466558 -0.34775618 -0.37172288 -0.33829334 -0.13269661
-0.21684223 -0.3523201 -0.41258377 -0.3901808 -0.2642351 -0.17044382 -0.31625888 -0.37999043
-0.40377963 -0.36316428 -0.23321694 -0.27958864 -0.3201873 -0.36087033 -0.26318955 0.20033498
0.22093667 0.24320894 0.20193753 0.16028836 0.15594433 0.23281424 0.28993005 0.2912098
0.34988284 0.2061687 0.28909245 0.3560321 0.37101611 0.35780546 0.20265949 0.2763812
0.34973714 0.3634014 0.3018142 0.047750417 0.20255537 0.30517212 0.32565814 0.35539812
0.060159512 0.031500943 -0.008013029 -0.10425891 -0.22524123 0.0274997 0.04963645 0.05033135
0.003143965 -0.026370857 0.050278287 0.09070231 0.10551412 0.072015636 -0.017916888 0.05284078
0.098469764 0.108554274 0.07198129 -0.054247823 -0.104863234 0.025715502 0.05908564 0.042756926
0.004342986 -0.18142302 -0.056341212 0.13420188 0.16961418 0.10969097 -0.18842469 0.06534816
0.27800745 0.14605112 -0.14328533 -0.25137395 0.038190987 0.18119144 0.010825245 -0.35347903
-0.21754955 0.054718588 0.18089029 0.0063928845 -0.38048562 -0.14656782 0.14803809 0.29398647
0.15903296 -0.17089397 -0.069651395 0.05454542 0.18844727 0.25773433 0.20299134 -0.03669005

base.conv1.1.weight f4 [8]
00000000: 7547 0100 3e77 3f03 8fd5 a33e fdaf 813e
00000010: 131e 563e 1fda 993e e891 dc3e c26e d83e
1.1747e-40 5.626674e-37 0.3199887 0.2532958 0.2090991 0.30049226 0.43080068 0.42272002

base.conv1.1.bias f4 [8]
00000000: 9d31 06bf 3a89 a5be 0dfb 6ebd 646b d3be
00000010: 0c64 66bd 153e 4e3e bf44 b0be 4553 5abc
-0.52419454 -0.32331258 -0.05834489 -0.4129287 -0.056247756 0.2014087 -0.3442745 -0.013325517

base.conv1.1.running_mean f4 [8]
00000000: 0400 0080 0400 0000 9631 8341 43ad 7dc0
00000010: 078f 9b40 553f bac0 329a 2841 2227 0bc1
-6e-45 6e-45 16.399212 -3.9637 4.8612094 -5.820231 10.537645 -8.697054

base.conv1.1.running_var f4 [8]
00000000: 0400 0000 0400 0000 905b 5b47 0a23 1045
00000010: f41f 0545 7609 c445 2c3e f145 9863 d445
6e-45 6e-45 56155.562 2306.19 2129.997 6273.1826 7719.7715 6796.449

base.conv2.0.weight f4 [8, 8, 3, 3]
00000000: 83fb c33c b732 cd3c cdae bcbc 66e8 babc
00000010: c344 ad3a f748 66bd 9798 4fbc c5c6 2bbb
00000020: 3df8 2abd 30da 6c3c be51 82bd 9d16 96bb
00000030: f447 263e b228 00bd 25f9 383b b1c7 6abd
00000040: 50a9 c5bc 9fa4 f03c a3db bf3d e225 89bd
00000050: 4fe0 793e 2a32 b83d 95ed fcbf 06e7 4fbd
00000060: 6336 8e3e 8315 07bf c849 0d3e 37b4 83bc
00000070: dd79 2c3d 58f1 f8bc fc25 6c3d 18c2 40bd
00000080: 50ec c5bc ad5a 9cbc 6afc f6bc 37bf f2bb
00000090: 3203 fbbd 42be e83d 2195 6dbd 21ed bd3d
000000a0: 1f6f ab3e dc6d a3be 7ff4 123d 9ad8 65be
000000b0: 1e6f 103d 1a30 30bc e97e 393b bbf1 1a3b
000000c0: f803 6b3c 4d13 37bc 705f d63c 1af0 edbc
000000d0: b13e 9b3b 72ed c53c e9a1 c1bb 9b72 f9bb
000000e0: e779 363c 6944 a83c 6a13 d6bc f651 0bbc
000000f0: d42c 5dbd 63e5 3e3d 7895 c33b 1a52 603c
00000100: 62a9 8ebc e73e 843c 7613 22bd 3bd8 43bd
00000110: 20dc 233d 70a0 c33c 5d05 9e3d 6e3e 0ebd
00000120: 0000 0080 0000 0000 0000 0000 0000 0080
00000130: 0000 0080 0000 0080 0000 0080 0000 0080
00000140: 0000 0080 0000 0080 0000 0000 0000 0080
00000150: 0000 0000 0000 0000 0000 0080 0000 0080
00000160: 0000 0080 0000 0080 0000 0080 0000 0000
00000170: 0000 0000 0000 0000 0000 0000 0000 0000
00000180: 0000 0000 0000 0000 0000 0000 0000 0080
00000190: 0000 0080 0000 0080 0000 0000 0000 0000
000001a0: 0000 0080 0000 0080 0000 0000 0000 0000
000001b0: 0000 0080 0000 0080 0000 0080 0000 0080
000001c0: 0000 0080 0000 0080 0000 0080 0000 0080
000001d0: 0000 0080 0000 0000 0000 0080 0000 0080
000001e0: 0000 0000 0000 0080 0000 0000 0000 0000
000001f0: 0000 0080 0000 0000 0000 0080 0000 0080
00000200: 0000 0000 0000 0080 0000 0080 0000 0000
00000210: 0000 0000 0000 0080 0000 0080 0000 0000
00000220: 0000 0000 0000 0000 0000 0000 0000 0000
00000230: 0000 0000 0000 0080 0000 0000 0000 0000
00000240: 0000 0000 0000 0080 0000 0080 0000 0000
00000250: 0000 0080 0000 0000 0000 0000 0000 0080
00000260: 0000 0080 0000 0000 0000 0000 0000 0000
00000270: 0000 0000 0000 0000 0000 0000 0000 0000
00000280: 0000 0000 0000 0000 0000 0000 0000 0000
00000290: 0000 0000 0000 0000 0000 0080 0000 0080
000002a0: 0000 0000 0000 0080 0000 0080 0000 0080
000002b0: 0000 0000 0000 0000 0000 0080 0000 0080
000002c0: 0000 0000 0000 0000 0000 0080 0000 0000
000002d0: 0000 0080 0000 0000 0000 0080 0000 0000
000002e0: 0000 0080 0000 0080 0000 0000 0000 0080
000002f0: 0000 0000 0000 0080 0000 0000 0000 0080
00000300: 0000 0080 0000 0000 0000 0080 0000 0080
00000310: 0000 0000 0000 0080 0000 0000 0000 0000
00000320: 0000 0080 0000 0000 0000 0000 0000 0080
00000330: 0000 0000 0000 0000 0000 0080 0000 0000
00000340: 0000 0080 0000 0000 0000 0000 0000 0080
00000350: 0000 0000 0000 0080 0000 0080 0000 0000
00000360: 1d72 b23d 0a52 4b3c 0a2b 913d 96ac b03d
00000370: 7dc1 343b da42 983d 3822 873d 3ff0 28bc
00000380: 95cb 303d d15f b2bd bebc 51be 4163 b2be
00000390: ff54 183f fa1e c33e fab6 d6be d557 ae3e
000003a0: 4b3f 073e 1ae6 c3be 42e7 56bd 2113 81bd
000003b0: f4ea cf3d 0268 53bd 0e1c a6bc cf44 093b
000003c0: cc0f 1bbd 490e 84bd 6f4d 873d 9896 90bd
000003d0: bff5 67bd e6e6 cebc b268 9e3e 3312 0fbf
000003e0: 029a 0c3c 321e 843d f6fa 823b b1b1 cc3c
000003f0: f4ad 963d 5ab6 1a3e 3c6f 20be 7443 d6bd
0.023923641 0.025048597 -0.02303257 -0.022815894 0.0013219345 -0.05622193 -0.012670658 -0.0026211005
-0.041740645 0.014456317 -0.06363247 -0.0045803324 0.16238385 -0.03128881 0.0028224674 -0.057319347
-0.024128586 0.029375372 0.09368064 -0.06696679 0.24401973 0.08993943 -1.9760004 -0.05075743
0.2777587 -0.527672 0.13797677 -0.016077144 0.042108405 -0.03038852 0.057653412 -0.047060102
-0.024160534 -0.019086206 -0.030149657 -0.0074080485 -0.12256469 0.11364414 -0.05800355 0.092737444
0.33483216 -0.31919754 0.0358777 -0.22445908 0.03526222 -0.010753656 0.0028304404 0.0023642618
0.014344208 -0.011174035 0.026168555 -0.029045153 0.004737698 0.024161074 -0.005909194 -0.007612539
0.011137462 0.020540433 -0.026132304 -0.008503428 -0.05399783 0.04660548 0.005968746 0.01369145
-0.017414752 0.016143275 -0.03956934 -0.047813635 0.04000485 0.023880213 0.07715867 -0.034727506
-0.0 0.0 0.0 -0.0 -0.0 -0.0 -0.0 -0.0
-0.0 -0.0 0.0 -0.0 0.0 0.0 -0.0 -0.0
-0.0 -0.0 -0.0 0.0 0.0 0.0 0.0 0.0
0.0 0.0 0.0 -0.0 -0.0 -0.0 0.0 0.0
-0.0 -0.0 0.0 0.0 -0.0 -0.0 -0.0 -0.0
-0.0 -0.0 -0.0 -0.0 -0.0 0.0 -0.0 -0.0
0.0 -0.0 0.0 0.0 -0.0 0.0 -0.0 -0.0
0.0 -0.0 -0.0 0.0 0.0 -0.0 -0.0 0.0
0.0 0.0 0.0 0.0 0.0 -0.0 0.0 0.0
0.0 -0.0 -0.0 0.0 -0.0 0.0 0.0 -0.0
-0.0 0.0 0.0 0.0 0.0 0.0 0.0 0.0
0.0 0.0 0.0 0.0 0.0 0.0 -0.0 -0.0
0.0 -0.0 -0.0 -0.0 0.0 0.0 -0.0 -0.0
0.0 0.0 -0.0 0.0 -0.0 0.0 -0.0 0.0
-0.0 -0.0 0.0 -0.0 0.0 -0.0 0.0 -0.0
-0.0 0.0 -0.0 -0.0 0.0 -0.0 0.0 0.0
-0.0 0.0 0.0 -0.0 0.0 0.0 -0.0 0.0
-0.0 0.0 0.0 -0.0 0.0 -0.0 -0.0 0.0
0.08713172 0.012409696 0.07088287 0.08626668 0.0027581148 0.07434626 0.065983236 -0.010311185
0.0431629 -0.08709682 -0.20482156 -0.3484135 0.59504694 0.3810957 -0.41936475 0.34051386
0.13207738 -0.3826149 -0.05246664 -0.06302477 0.101522356 -0.05161286 -0.02027705 0.0020945554
-0.037856862 -0.06448037 0.06606566 -0.070599735 -0.056630846 -0.025256585 0.3093925 -0.55887145
0.00858164 0.06451072 0.003997202 0.024987074 0.07357398 0.15108624 -0.15667433 -0.104620844

base.conv2.1.weight f4 [8]
00000000: b749 a83e f41a 0000 ea04 0080 7645 993e
00000010: 0811 9b3e 397e a53e eef6 be3e aacc a83e
0.3286874 9.669e-42 -1.763e-42 0.29935807 0.3028643 0.32322863 0.37297767 0.32968646

base.conv2.1.bias f4 [8]
00000000: 5f3c 663e 6962 bf3d 0af3 323e 951f 0a3e
00000010: 5621 3a3f db0f 403e bd99 593e 01ca 253e
0.22483967 0.09344942 0.17475525 0.1348861 0.72707117 0.18756048 0.21250053 0.1619034

base.conv2.1.running_mean f4 [8]
00000000: 7d1b 463e 0400 0000 0400 0080 6745 5ebe
00000010: 1d86 00be 42a1 bcbc 4d8e 453e 3968 823e
0.19346423 6e-45 -6e-45 -0.21706162 -0.1255116 -0.023026112 0.19292565 0.2547014

base.conv2.1.running_var f4 [8]
00000000: 4e18 af3e 0400 0000 0400 0000 819d 093e
00000010: 5a9d 133e 4551 173e daff 813e 6c1a 863e
0.3419823 6e-45 6e-45 0.13438989 0.14415494 0.14777096 0.25390512 0.26192033

base.conv3.0.weight f4 [16, 8, 3, 3]
00000000: 0000 0000 0000 0000 0000 0000 0000 0000
00000010: 0000 0000 0000 0000 0000 0000 0000 0000
00000020: 0000 0000 0000 0080 0000 0080 0000 0080
00000030: 0000 0080 0000 0080 0000 0080 0000 0080
00000040: 0000 0000 0000 0080 0000 0080 0000 0080
00000050: 0000 0080 0000 0000 0000 0080 0000 0080
00000060: 0000 0000 0000 0080 0000 0080 0000 0000
00000070: 0000 0000 0000 0000 0000 0000 0000 0000
00000080: 0000 0000 0000 0000 0000 0000 0000 0000
00000090: 0000 0080 0000 0000 0000 0000 0000 0080
000000a0: 0000 0000 0000 0080 0000 0080 0000 0080
000000b0: 0000 0080 0000 0080 0000 0080 0000 0080
000000c0: 0000 0080 0000 0080 0000 0000 0000 0080
000000d0: 0000 0080 0000 0080 0000 0000 0000 0080
000000e0: 0000 0080 0000 0080 0000 0080 0000 0080
000000f0: 0000 0080 0000 0080 0000 0000 0000 0080
00000100: 0000 0000 0000 0000 0000 0080 0000 0080
00000110: 0000 0080 0000 0000 0000 0080 0000 0080
00000120: 5f60 efba 6e50 813e c6ed e6bc bdc9 f53b
00000130: 5157 3f3e a047 13be 7ae3 b2bd a8a0 3d3a
00000140: 6954 673c 2b7d 76bd 0ff6 9ebe 20d4 06be
00000150: 0ee6 0fbe cee6 43be e0cc 95bd 127a fa3d
00000160: aa56 723e 35e4 6a3b 34f6 8f3d 6fff 24bd
00000170: 63af 443d 7b62 883c 30d1 21bd fc5b df3c
00000180: 8ffb 703c 682f 87bb 5bcc 7f3d 444d 073e
00000190: 1c46 f93c f094 84bb 930b b23d 6061 96be
000001a0: 4c7c 2a3e dd61 5bbd d537 00bd 1c15 3c3e
000001b0: 35b5 773d 8b54 71bc de7a bc3c 0e3a 2fbe
000001c0: 9948 a3be dd5a 623b 78aa a0bd 85aa 27bf
000001d0: 065f 9d3c 4ab2 28be fa53 983d f153 8c3d
000001e0: 66d7 c2bb bfe1 5dbe cb30 043e 6124 2a3e
000001f0: aded 41be e751 5a3d 1803 023e 9d55 4fbe
00000200: a426 7a3d 626b 263c 372d 9fbc ee49 1e3d
00000210: 3693 0e3e d568 a03d 20a2 6d3d 5ec6 753d
00000220: c31a 953d ab58 94bd 3b29 25be 4fb2 7bbf
00000230: 5c76 91be 995d 903c 401c 5fbe 081d 943c
00000240: dee6 12bd 7518 2e3e f8f8 7f3d e276 39bc
00000250: 4db2 8bbc 352d b7bc ca83 f0bc 15ff 0cbe
00000260: fc30 86bd 356c ff3c 1fda 83bd b0af 66be
00000270: ee3e 13bd ea3f de3d 003b 04bd 2d24 21bd
00000280: 34d4 12be 1916 af3d 11bf 783c d4e7 9bbc
00000290: 8011 d13b e88b 123c db44 5dbc fea5 013b
000002a0: 2b47 023d b6fe 003d 3b88 d23c f546 943d
000002b0: d994 103c cfcb 45bb ab6a 2d3c d4cd d4ba
000002c0: deda 853d 0c74 4dbc f162 e2bd 456f 123d
000002d0: b9dc 2b3b 1b56 803c c430 5dbc 7025 f23c
000002e0: 3b88 443f c507 05bd 33e5 f13d 4e35 e83e
000002f0: 80ce 6fbd c51d f0bd 1288 cf3c 1a80 b73c
00000300: ffeb 85be 6cf2 87be 7d3b d43b 59eb 173e
00000310: 5493 113e accc 64bd 9df0 bcbc dc45 a6be
00000320: 0900 f3bd 2618 993e 0ff1 543f f330 603d
00000330: d03e 9ebd f2fb 4cbe cda8 cfbd 7ea9 4fbd
00000340: 177f 023e b8d9 5ebd ced6 80be 510b 8abf
00000350: bc20 91be 61e2 2ebd fc09 7c3e 2016 953d
00000360: a7fe 6e3e c1fd b43d d065 283e 5977 e33d
00000370: 759b bebf d2f0 e9be 0071 613e 31a9 dabe
00000380: 34dc a53d 4735 a63c 61ae 763e e7e6 cb3c
00000390: 7278 efbd 7d66 263e 8c73 2bbe d86c 053e
000003a0: a53c fcbc 1870 cdbd 544c 973b d2ee 9a3c
000003b0: 3770 f23b 56f0 17bc 8cd7 ad3b 114d 00bd
000003c0: 5253 ecbb f809 8a3a 659d e1bb 9c22 ecbc
000003d0: 9330 4b3c ea02 13bd 41dc 223d afa4 853d
000003e0: 2c76 8fbc 9659 783d 13a3 ec3d dbf5 6f3d
000003f0: 3a41 edbc 23ef cdbc 3eb6 183a 3052 293d
0.0 0.0 0.0 0.0 0.0 0.0 0.0 0.0
0.0 -0.0 -0.0 -0.0 -0.0 -0.0 -0.0 -0.0
0.0 -0.0 -0.0 -0.0 -0.0 0.0 -0.0 -0.0
0.0 -0.0 -0.0 0.0 0.0 0.0 0.0 0.0
0.0 0.0 0.0 0.0 -0.0 0.0 0.0 -0.0
0.0 -0.0 -0.0 -0.0 -0.0 -0.0 -0.0 -0.0
-0.0 -0.0 0.0 -0.0 -0.0 -0.0 0.0 -0.0
-0.0 -0.0 -0.0 -0.0 -0.0 -0.0 0.0 -0.0
0.0 0.0 -0.0 -0.0 -0.0 0.0 -0.0 -0.0
-0.0018262974 0.25256675 -0.028189551 0.0075008557 0.18685652 -0.14382792 -0.08734794 0.00072337175
0.014119246 -0.060177963 -0.31047103 -0.13166857 -0.14052603 -0.19131014 -0.073144674 0.12230314
0.23665872 0.0035841588 0.070293814 -0.040282663 0.048018824 0.016648522 -0.039506137 0.027265541
0.014708414 -0.0041255243 0.062450748 0.13213068 0.030428939 -0.004046075 0.08693614 -0.29371166
0.16648978 -0.053560127 -0.031303246 0.18367428 0.060475547 -0.014729629 0.023007806 -0.1711199
-0.31891325 0.0034539022 -0.07845014 -0.6549457 0.01921035 -0.16474262 0.07437892 0.06851948
-0.0059460877 -0.21668147 0.12909238 0.1661544 -0.18938322 0.053300764 0.12696493 -0.20247503
0.061072007 0.010157438 -0.01943074 0.038644724 0.13923344 0.07832495 0.058015943 0.06000363
0.07280495 -0.072434746 -0.1612901 -0.9831895 -0.28410614 0.017622756 -0.2178812 0.01808025
-0.035864703 0.17001517 0.062493294 -0.011319848 -0.017052794 -0.022360424 -0.029359717 -0.13769181
-0.06552312 0.031179527 -0.06438088 -0.22527957 -0.035948686 0.108520344 -0.03228283 -0.03934114
-0.14338762 0.08549137 0.0151822725 -0.019031443 0.00638026 0.008944489 -0.013505186 0.0019782777
0.031806152 0.03149291 0.025699725 0.072400965 0.008824551 -0.0030181294 0.010584514 -0.0016235658
0.06535886 -0.012539875 -0.11054028 0.035750646 0.002622409 0.015666058 -0.013500396 0.029558867
0.7677037 -0.032478113 0.118112944 0.45353168 -0.058546543 -0.11724428 0.025333438 0.02239995
-0.26156613 -0.2655214 0.006476818 0.14835872 0.14216357 -0.055859253 -0.023063952 -0.32475173
-0.11865241 0.29901236 0.83180326 0.05473418 -0.07726824 -0.20017985 -0.10139618 -0.05069875
0.12743793 -0.05440685 -0.25163883 -1.0784703 -0.28345287 -0.04269636 0.24613184 0.07279611
0.2333933 0.08837462 0.16445088 0.11106748 -1.4891192 -0.45691544 0.22015762 -0.42707208
0.08098641 0.020289076 0.24089958 0.024890376 -0.11692895 0.16250034 -0.16743296 0.13029802
-0.030790636 -0.10031146 0.0046172533 0.018912707 0.007398631 -0.009273609 0.005305236 -0.031323496
-0.007212081 0.0010531535 -0.006885218 -0.028825097 0.012401718 -0.03589145 0.03976083 0.065255515
-0.017512403 0.06063231 0.115545414 0.058584075 -0.028961767 -0.025138443 0.0005825496 0.041338146

base.conv3.1.weight f4 [16]
00000000: e137 cd8b a94d 1c3f 7967 e93e 04c6 083f
00000010: c990 b53e 1f66 dc3e 0604 0080 71b1 703e
00000020: 0011 0000 c48e bb3e 3dca da3e 18cd a53e
00000030: a2c3 8b3e f627 0000 e5e4 913e 18d7 cd3e
-7.9047205e-32 0.61056 0.45586756 0.5342715 0.35462025 0.43046662 -1.443e-42 0.23505189
6.098e-42 0.3663236 0.4273242 0.32383037 0.27297693 1.4335e-41 0.28494945 0.40203166

base.conv3.1.bias f4 [16]
00000000: a6de dd3d 086c 873e f529 493b 9d40 853e
00000010: fe8e 673c 7a66 df3b 7e17 7ca6 7f90 95bc
00000020: 704d 143e e844 02bb 44e5 063d 4184 f0bb
00000030: cf80 823d 1495 d83c a00d f63d 54e6 3a3d
0.108334824 0.2644961 0.0030695174 0.2602586 0.014133213 0.006817636 -8.74619e-16 -0.018257378
0.14482665 -0.0019877497 0.03293349 -0.0073399846 0.063722245 0.026438273 0.120143175 0.045629814

base.conv3.1.running_mean f4 [16]
00000000: 0400 0080 8f41 82bf ea8d 283f 0b3b 44bd
00000010: 5d32 123e 0686 9dbf 0400 0080 c71b bdbe
00000020: 0400 0080 5faa 27be 5516 2cbe c8ce a0bc
00000030: 319f cdbd 0400 0000 2503 aabd 14df 0a3e
-6e-45 -1.0176257 0.65841544 -0.04790787 0.14277025 -1.2306526 -6e-45 -0.36935255
-6e-45 -0.16373585 -0.16805394 -0.019629851 -0.10040129 6e-45 -0.08301381 0.1356166

base.conv3.1.running_var f4 [16]
00000000: 0400 0000 9272 413e ef7d 983e 67fa 263e
00000010: 710e 183e 0186 923e 0400 0000 ba30 af3d
00000020: 0400 0000 7299 4a3e f4ff 553e 7069 3a3e
00000030: 4bb9 833d 0400 0000 0879 6b3d b9d3 273e
6e-45 0.18891361 0.2978358 0.16306458 0.14849259 0.28617862 6e-45 0.08554216
6e-45 0.19785097 0.2089842 0.18204284 0.06431826 6e-45 0.05748847 0.1638936

base.conv4.res_layer.0.weight f4 [16, 16, 3, 3]
00000000: 0000 0080 0000 0080 0000 0080 0000 0080
00000010: 0000 0000 0000 0000 0000 0080 0000 0000
00000020: 0000 0000 0000 0000 0000 0000 0000 0000
00000030: 0000 0080 0000 0080 0000 0080 0000 0000
00000040: 0000 0000 0000 0080 0000 0080 0000 0080
00000050: 0000 0000 0000 0000 0000 0000 0000 0080
00000060: 0000 0080 0000 0000 0000 0000 0000 0000
00000070: 0000 0000 0000 0080 0000 0000 0000 0000
00000080: 0000 0000 0000 0080 0000 0000 0000 0080
00000090: 0000 0000 0000 0080 0000 0000 0000 0000
000000a0: 0000 0000 0000 0000 0000 0000 0000 0000
000000b0: 0000 0000 0000 0000 0000 0000 0000 0000
000000c0: 0000 0000 0000 0000 0000 0080 0000 0080
000000d0: 0000 0000 0000 0080 0000 0080 0000 0000
000000e0: 0000 0000 0000 0080 0000 0080 0000 0000
000000f0: 0000 0000 0000 0000 0000 0000 0000 0000
00000100: 0000 0080 0000 0080 0000 0080 0000 0080
00000110: 0000 0000 0000 0000 0000 0000 0000 0080
00000120: 0000 0080 0000 0000 0000 0080 0000 0000
00000130: 0000 0080 0000 0000 0000 0000 0000 0080
00000140: 0000 0080 0000 0000 0000 0080 0000 0000
00000150: 0000 0000 0000 0080 0000 0080 0000 0080
00000160: 0000 0080 0000 0080 0000 0000 0000 0000
00000170: 0000 0000 0000 0000 0000 0080 0000 0000
00000180: 0000 0080 0000 0000 0000 0000 0000 0080
00000190: 0000 0000 0000 0080 0000 0080 0000 0000
000001a0: 0000 0000 0000 0080 0000 0000 0000 0080
000001b0: 0000 0080 0000 0000 0000 0080 0000 0000
000001c0: 0000 0080 0000 0000 0000 0000 0000 0000
000001d0: 0000 0000 0000 0000 0000 0080 0000 0000
000001e0: 0000 0080 0000 0080 0000 0000 0000 0000
000001f0: 0000 0000 0000 0000 0000 0000 0000 0000
00000200: 0000 0080 0000 0080 0000 0080 0000 0000
00000210: 0000 0000 0000 0000 0000 0000 0000 0000
00000220: 0000 0080 0000 0000 0000 0000 0000 0080
00000230: 0000 0000 0000 0080 0000 0000 0000 0000
00000240: 2b08 59bd aef6 15be 9373 c6bd a4bf 14be
00000250: 78a0 89bd f88e f63d 0527 36be 6ff9 853d
00000260: 4637 fa3e 0be6 65bc 0b0c 993e 06c7 c33d
00000270: 0dd6 433e 1672 883e 92fa 59be c808 e23c
00000280: 695b f9be 27cf 3ebd f4b5 ed3c ea89 7fbe
00000290: e714 d73d f99f 943d 5d17 f33d 20d3 34be
000002a0: 30ee a33d 2a1d aebe 7ad9 a33d fbcb b73c
000002b0: 02e8 6bb9 e07d 32bd 124d d23c 194a 8abd
000002c0: 2245 ebbd 339c e93d 2917 dcbb 842d 253e
000002d0: 2765 193d d334 89bc 0af3 5c3d c69d 33be
000002e0: e5bb 7fbd c351 f23d 5935 f6bd ef84 993e
000002f0: 1eec 33be 012f 863d bd8e 893b 44be 94bd
00000300: 699a 39be c9f6 31bc cd78 583d c21c 933e
00000310: ccc4 f8be 2be6 dcbd c734 0080 792b 0000
00000320: a818 0080 6032 0000 a505 0080 bf3a 0000
00000330: f945 0080 4a1f 0000 0d07 0080 abba 10be
00000340: 3883 12be ed6e 6cbd 469a 4cbd aa3a 4d3e
00000350: 9fea d73b 1904 1bbd 048c c73d 77ca e93c
00000360: 0fc0 813e 75a7 073d a1a9 adbd c2b8 2e3e
00000370: 2ab7 05bf 3a52 63bd ae1b 7cbe 5590 dd3d
00000380: b4d1 14bb 852f 7f3d e99a 05be 0ffe a73d
00000390: 11ff 33be 6d91 0d3e 1e22 c2be ea10 b93d
000003a0: 591f 57be fca2 36bd 4878 a9bd fa8b 74be
000003b0: f82f b5bb 6782 c2bd 31ed 02bf 42f9 03be
000003c0: efee 74bd c8c2 14be 30d8 d8bd e64f ad3d
000003d0: c387 e2bd 3533 7cbd 57ab b03d b87a e33e
000003e0: 7b5e debc 1f81 d33c f375 143d 5394 cb3c
000003f0: 5f2e 9c3d b15f 3bbd d7ec b2bd d69a a8bd
-0.0 -0.0 -0.0 -0.0 0.0 0.0 -0.0 0.0
0.0 0.0 0.0 0.0 -0.0 -0.0 -0.0 0.0
0.0 -0.0 -0.0 -0.0 0.0 0.0 0.0 -0.0
-0.0 0.0 0.0 0.0 0.0 -0.0 0.0 0.0
0.0 -0.0 0.0 -0.0 0.0 -0.0 0.0 0.0
0.0 0.0 0.0 0.0 0.0 0.0 0.0 0.0
0.0 0.0 -0.0 -0.0 0.0 -0.0 -0.0 0.0
0.0 -0.0 -0.0 0.0 0.0 0.0 0.0 0.0
-0.0 -0.0 -0.0 -0.0 0.0 0.0 0.0 -0.0
-0.0 0.0 -0.0 0.0 -0.0 0.0 0.0 -0.0
-0.0 0.0 -0.0 0.0 0.0 -0.0 -0.0 -0.0
-0.0 -0.0 0.0 0.0 0.0 0.0 -0.0 0.0
-0.0 0.0 0.0 -0.0 0.0 -0.0 -0.0 0.0
0.0 -0.0 0.0 -0.0 -0.0 0.0 -0.0 0.0
-0.0 0.0 0.0 0.0 0.0 0.0 -0.0 0.0
-0.0 -0.0 0.0 0.0 0.0 0.0 0.0 0.0
-0.0 -0.0 -0.0 0.0 0.0 0.0 0.0 0.0
-0.0 0.0 0.0 -0.0 0.0 -0.0 0.0 0.0
-0.052986305 -0.14644882 -0.09690013 -0.1452623 -0.0672006 0.12038988 -0.17788322 0.06541716
0.48870295 -0.014031897 0.29892 0.09559445 0.19124623 0.2664954 -0.21286991 0.027592078
-0.48702553 -0.046584275 0.029017426 -0.24954954 0.10502034 0.07257075 0.118696906 -0.17658663
0.08004415 -0.34006625 0.08000465 0.022436133 -0.00022497776 -0.043577075 0.025671516 -0.06752414
-0.114877954 0.11406746 -0.006716628 0.16130644 0.037449982 -0.016748821 0.053942718 -0.17540655
-0.06243505 0.11832001 -0.12021894 0.29984233 -0.1757054 0.06551934 0.004197924 -0.07262853
-0.18125309 -0.010862061 0.05284958 0.28732878 -0.48587644 -0.107860886 -1.8933e-41 1.5595e-41
-8.845e-42 1.8071e-41 -2.025e-42 2.1074e-41 -2.5101e-41 1.1224e-41 -2.53e-42 -0.14133708
-0.14307868 -0.057722975 -0.049951814 0.2004191 0.0065892483 -0.037845705 0.09743503 0.028538926
0.25341842 0.033118684 -0.0847962 0.17062667 -0.5223261 -0.05549834 -0.24619934 0.10818545
-0.0022708 0.062301178 -0.13047375 0.08202755 -0.17577769 0.13825007 -0.37916654 0.09036429
-0.21008052 -0.044589028 -0.08274895 -0.23881522 -0.0055294 -0.094975285 -0.51143175 -0.12888053
-0.059798177 -0.14527428 -0.105881095 0.08462505 -0.11061051 -0.061572272 0.086264305 0.44429564
-0.027144661 0.025818406 0.036245298 0.024851 0.07626032 -0.045745555 -0.0873658 -0.082326576

base.conv4.res_layer.1.weight f4 [16]
00000000: 6a02 0000 6b2c fa3e fba3 c03e fd7d be3e
00000010: e515 083f a384 c63e 1444 d13e c390 b13e
00000020: 5a0f 043f e40d 0000 9d2f b43e bb2a f73e
00000030: bf05 0000 c795 f13e 07b8 c73e 4e15 0080
8.66e-43 0.48862013 0.37625107 0.37205496 0.5315841 0.3877307 0.40872252 0.34680757
0.51585925 4.983e-42 0.35192576 0.48274788 2.061e-42 0.47184584 0.3900759 -7.643e-42

base.conv4.res_layer.1.bias f4 [16]
00000000: d1cb 21ad 66d0 debd 50c0 303e 14d3 7cbe
00000010: 3cea 18bd 2ca7 42be c64d 973e 2d11 12bd
00000020: e183 edbd 8a56 7e2a 29d3 a1bc 4b57 653e
00000030: 760a a8af b0cc 23be 8e94 6dbd c8c0 cfb9
-9.197047e-12 -0.108795926 0.17260861 -0.24689895 -0.03733276 -0.19009084 0.29551524 -0.03566091
-0.115974195 2.2589756e-13 -0.01975401 0.22396581 -3.0566455e-10 -0.15996051 -0.058003 -0.0003962575

base.conv4.res_layer.1.running_mean f4 [16]
00000000: 0400 0080 eaf4 bebe 07c7 0bbf 1052 c4be
00000010: 1fd3 10bf 4c73 8ebe e13e 86be aa1c 17bf
00000020: afea 0bbf 0400 0000 e532 65be 2d93 adbe
00000030: 0400 0080 9e7e b3be d4e1 2dbf 0400 0080
-6e-45 -0.3729623 -0.54600567 -0.3834386 -0.56572145 -0.2782234 -0.26219848 -0.5902811
-0.54654974 6e-45 -0.22382696 -0.3390135 -6e-45 -0.3505754 -0.6792271 -6e-45

base.conv4.res_layer.1.running_var f4 [16]
00000000: 0400 0000 f0f9 533e 48c8 043e e397 ec3d
00000010: 6adc 263e ba58 d13d 435a 943e e989 023e
00000020: 655f 633e 0400 0000 8b36 103e 6bd0 c13e
00000030: 0400 0000 4fe2 5b3e b0f8 a73e 0400 0000
6e-45 0.20700812 0.12967026 0.115524076 0.16295019 0.102220014 0.28975114 0.12747921
0.22204359 6e-45 0.14083306 0.37854323 6e-45 0.21473049 0.3280692 6e-45

base.conv4.res_layer.3.weight f4 [16, 16, 3, 3]
00000000: a917 0080 b611 0080 1004 0080 4c18 0080
00000010: c301 0080 081a 0000 d70a 0000 9111 0080
00000020: cf06 0000 2e99 ca3c 0a2a 303c c21c 8e3d
00000030: 2734 df3d 89c2 1b3d 7816 553d 01f9 91bb
00000040: 45e5 543c 3949 ef3c db51 0b3d 8fbe 2d3e
00000050: 28bf db3d 0cfc 00be c7a5 0b3d 49a3 9f3d
00000060: cc63 283d 9628 143e 8768 a73d 3be7 0dbc
00000070: ba85 21bc 4c93 b63c c9d2 08be 4eff 2fbe
00000080: a183 783c 5e01 313d 21b8 a53c 65e8 f83d
00000090: 5bcc 363c 5fb3 14bc 4b6f 5b3d df46 13bd
000000a0: e0b1 14be b8c7 dbbd 71cd 40bd 3084 26be
000000b0: 9360 2bbe 578c 423c c371 ac3d be5f 423d
000000c0: a712 74bd 45e2 c1bd dc09 ebbc 4cc4 bebd
000000d0: 7932 d5bd e37f aabd 5695 7f3e 24bc 6d3e
000000e0: 4914 ec3d 3223 a63e 72e3 653e 587e 103e
000000f0: 259b 4d3b 7cdd 083e 961c 5fbd 97c6 86bc
00000100: 7b88 2d3d d328 ba3d c39d 7bbc 248c ab3c
00000110: 712b 25bc 25be 83bd d7d8 ef3c f818 16be
00000120: 0abf 05be 694e 86be 4796 85be 90ea 37be
00000130: 1db4 0abe d1d7 c0bd cb7a 4fbd bdf0 8c3d
00000140: 329b 323d 802b 0080 0705 0000 da27 0000
00000150: c520 0080 8f19 0080 1009 0080 9121 0080
00000160: 030e 0000 5525 0080 e973 ebbd eb3c f1bd
00000170: 04da c6bd 5bf4 5abd ca84 983d 178a 423d
00000180: 80a1 d83d 0f73 8a3e a8c7 943e 4729 07be
00000190: 74c5 66be a5d6 95bd f8c2 72be e5cf e93d
000001a0: ce56 263e 294b 19be f506 953e cd8c 693e
000001b0: 7f3e 0000 1d2f 0000 540e 0080 3007 0000
000001c0: 7214 0080 c83d 0080 5a39 0080 9243 0000
000001d0: 4121 0080 299b bebc a697 863d 38fc 013e
000001e0: 4e81 063e 56f8 6a3e 67ef 203e ea86 173e
000001f0: 4df1 6a3e 696c 253e 87e3 1dbe 1085 703d
00000200: eec3 6f3d c863 1ebe 908b f03d 25a3 c9bd
00000210: 40ba f1bd 02cc 41bd 8bf8 d9bc 2b53 36bc
00000220: c2dc 873a f935 51b9 0c18 eebc e101 6ebc
00000230: 06ba 54bc 9c44 42bd db7b 97bc 068f 7cbc
00000240: 0000 0000 0000 0000 0000 0080 0000 0000
00000250: 0000 0080 0000 0080 0000 0080 0000 0080
00000260: 0000 0080 0000 0080 0000 0000 0000 0080
00000270: 0000 0000 0000 0080 0000 0080 0000 0080
00000280: 0000 0000 0000 0080 0000 0000 0000 0000
00000290: 0000 0000 0000 0000 0000 0000 0000 0000
000002a0: 0000 0000 0000 0000 0000 0000 0000 0080
000002b0: 0000 0080 0000 0080 0000 0080 0000 0080
000002c0: 0000 0080 0000 0000 0000 0000 0000 0080
000002d0: 0000 0080 0000 0080 0000 0080 0000 0000
000002e0: 0000 0000 0000 0000 0000 0080 0000 0080
000002f0: 0000 0080 0000 0000 0000 0000 0000 0000
00000300: 0000 0000 0000 0000 0000 0080 0000 0000
00000310: 0000 0000 0000 0000 0000 0080 0000 0080
00000320: 0000 0080 0000 0080 0000 0080 0000 0080
00000330: 0000 0080 0000 0080 0000 0080 0000 0080
00000340: 0000 0080 0000 0080 0000 0080 0000 0080
00000350: 0000 0080 0000 0080 0000 0080 0000 0000
00000360: 0000 0000 0000 0000 0000 0080 0000 0080
00000370: 0000 0080 0000 0080 0000 0080 0000 0000
00000380: 0000 0000 0000 0080 0000 0000 0000 0000
00000390: 0000 0080 0000 0000 0000 0000 0000 0080
000003a0: 0000 0080 0000 0000 0000 0000 0000 0000
000003b0: 0000 0000 0000 0080 0000 0080 0000 0000
000003c0: 0000 0080 0000 0000 0000 0080 0000 0000
000003d0: 0000 0000 0000 0000 0000 0000 0000 0000
000003e0: 0000 0000 0000 0000 0000 0000 0000 0000
000003f0: 0000 0080 0000 0000 0000 0000 0000 0000
-8.488e-42 -6.353e-42 -1.457e-42 -8.716e-42 -6.32e-43 9.338e-42 3.889e-42 -6.302e-42
2.442e-42 0.024731245 0.01075221 0.06939079 0.10898619 0.03802732 0.05202338 -0.0044547324
0.012994115 0.02920972 0.03401361 0.16967224 0.107298195 -0.12596148 0.034093644 0.07794816
0.0411108 0.14468607 0.08174234 -0.008661087 -0.009858543 0.022287033 -0.13361658 -0.17187235
0.0151681015 0.043214194 0.020229401 0.12153701 0.011157121 -0.0090759685 0.053572934 -0.03595626
-0.14520979 -0.10731453 -0.047070924 -0.16261363 -0.16736059 0.01187428 0.08420136 0.047454588
-0.0595881 -0.094669856 -0.028691225 -0.093147844 -0.104100175 -0.08325174 0.24959311 0.23216301
0.115273066 0.32448727 0.22450045 0.14110696 0.003137299 0.1336574 -0.05447062 -0.016452117
0.042366486 0.09089818 -0.015357438 0.020940848 -0.010081158 -0.064327516 0.029278202 -0.14657962
-0.13061157 -0.26231697 -0.26091215 -0.17960572 -0.1354527 -0.09416164 -0.050654214 0.06881855
0.043605037 -1.5605e-41 1.803e-42 1.4296e-41 -1.1755e-41 -9.169e-42 -3.251e-42 -1.2041e-41
5.026e-42 -1.3392e-41 -0.114967175 -0.11779197 -0.09709552 -0.05345569 0.074472025 0.047494974
0.10577679 0.27040908 0.29058576 -0.1319934 -0.2253626 -0.07316331 -0.23707187 0.11416606
0.16244051 -0.14970078 0.2910687 0.22807617 2.242e-41 1.6901e-41 -5.14e-42 2.578e-42
-7.334e-42 -2.2163e-41 -2.0574e-41 2.424e-41 -1.1929e-41 -0.023267346 0.065718934 0.1269387
0.13135263 0.22946295 0.15716325 0.1479756 0.22943611 0.16154636 -0.15418826 0.05872065
0.058536462 -0.15467751 0.117453694 -0.098455705 -0.118031025 -0.047313698 -0.026607772 -0.011128227
0.0010365474 -0.000199519 -0.0290642 -0.014526815 -0.012983805 -0.047428712 -0.018491676 -0.015414959
0.0 0.0 -0.0 0.0 -0.0 -0.0 -0.0 -0.0
-0.0 -0.0 0.0 -0.0 0.0 -0.0 -0.0 -0.0
0.0 -0.0 0.0 0.0 0.0 0.0 0.0 0.0
0.0 0.0 0.0 -0.0 -0.0 -0.0 -0.0 -0.0
-0.0 0.0 0.0 -0.0 -0.0 -0.0 -0.0 0.0
0.0 0.0 -0.0 -0.0 -0.0 0.0 0.0 0.0
0.0 0.0 -0.0 0.0 0.0 0.0 -0.0 -0.0
-0.0 -0.0 -0.0 -0.0 -0.0 -0.0 -0.0 -0.0
-0.0 -0.0 -0.0 -0.0 -0.0 -0.0 -0.0 0.0
0.0 0.0 -0.0 -0.0 -0.0 -0.0 -0.0 0.0
0.0 -0.0 0.0 0.0 -0.0 0.0 0.0 -0.0
-0.0 0.0 0.0 0.0 0.0 -0.0 -0.0 0.0
-0.0 0.0 -0.0 0.0 0.0 0.0 0.0 0.0
0.0 0.0 0.0 0.0 -0.0 0.0 0.0 0.0

base.conv4.res_layer.4.weight f4 [16]
00000000: 2491 c23e 363b 0080 8714 0200 d523 523e
00000010: b5d2 f83e 3ee5 0a3f e01f ce3e 68ae f13e
00000020: 3dff d33e d24d 0100 d91d 0180 7ca4 c43e
00000030: 599d f93e 8cf6 dc3e 6ad7 c33e 46e0 c03e
0.38001359 -2.1241e-41 1.91035e-40 0.20521481 0.48598257 0.54256046 0.40258694 0.47203374
0.4140567 1.19752e-40 -1.02543e-40 0.38406742 0.4875286 0.4315685 0.38250285 0.37671107

base.conv4.res_layer.4.bias f4 [16]
00000000: a761 313e 7cad a7bc 3e7f 623d c521 353e
00000010: db28 bd3d d336 93bd 7ab5 0dbe 8589 38be
00000020: 8574 fcbc 70ea 013d a97b e3bd 6e6f 223e
00000030: 3cf3 6ebe b990 5c3d f14d c1bd 0973 aabd
0.17322408 -0.020468466 0.05529713 0.17688663 0.09236308 -0.07188191 -0.13838759 -0.1802121
-0.03081728 0.031717718 -0.11107571 0.1586282 -0.23334974 0.053848956 -0.09438694 -0.083227225

base.conv4.res_layer.4.running_mean f4 [16]
00000000: 88f9 0b3f 0400 0000 0400 0000 acf8 773e
00000010: 9dec b63e 8744 acbe 866c 363e f18e a2be
00000020: 6ce5 8f3c 0400 0080 0400 0080 9559 80bd
00000030: d544 e73c df77 913e 5d55 053f 2a75 92bd
0.5467763 6e-45 6e-45 0.24215955 0.35727397 -0.33646032 0.17814836 -0.3174968
0.017565452 -6e-45 -6e-45 -0.062670864 0.028231064 0.28411767 0.5208338 -0.071512535

base.conv4.res_layer.4.running_var f4 [16]
00000000: 3501 a53d 0400 0000 0400 0000 e7cf 7b3d
00000010: 3034 e53d 8e83 083e bab9 8d3d 4dc9 c43d
00000020: ce7d 8c3d 0400 0000 0400 0000 62a9 003e
00000030: 4bc4 243e d97a 833d 57cc 943d 3e4e ac3d
0.08056871 6e-45 6e-45 0.061477568 0.111915946 0.13331434 0.0692019 0.096087076
0.06859933 6e-45 6e-45 0.12564614 0.16090505 0.06419916 0.07265537 0.08413361

base.m0.b2_1.0.shortcut_layer.0.weight f4 [16, 16, 1, 1]
00000000: dfcc 7e3e 1182 663e 34ed adbb 7482 ad3d
00000010: 4183 95be 1374 e7bc f3f9 073e 90ea 70be
00000020: 557a d33c e526 163e 38a2 433e 0d3a 303d
00000030: 8f84 c33e 7485 94bd ed4b d83d dca1 5a3e
00000040: 17a5 fcbc 8d4c 2ebe 7942 be3a 1f5b 56be
00000050: 899d 13be a2c3 22be a401 4b3d 9547 84be
00000060: c16e 16be e739 c23c e63b e5bd 5c98 12be
00000070: 9e5f 12be d3dc 6fbe 76bc 79be 0ae1 21be
00000080: 263b 973d c8c6 4c3e 4337 343d ce4e 0b3f
00000090: 61c5 4abe 4ac4 a23d 0b7b 2b3e 5391 c8bc
000000a0: 7260 92bd bf95 65bd e387 08bc ccb1 0bbe
000000b0: 3c92 cebe 907e 913d fa8b 943d c257 1fbd
000000c0: fec2 0e3e b6aa da3d 8ada 99bd 2cf5 023e
000000d0: 90e6 7b3e d0cc 2e3d c3b6 debc 6140 c7be
000000e0: f1f3 813b 4836 603d 0b4b 1b3e eb5e 613e
000000f0: 8432 073e 51f9 20be af8c 24be bfcd 39be
00000100: 1303 f93d c089 9bbe dea2 39be 4ed9 12be
00000110: 4076 343e 674d 98be 8724 afbd 1f54 ac3d
00000120: 806c aabd 4b84 eebd 0438 86bd 7649 1dbe
00000130: e1fb 9abc b43d 64be 4b05 9c3d 8532 7c3e
00000140: 88e8 143d c520 babc b00a 793d ce0a 3fbe
00000150: 6f1a 80be 5e4c e93c e8eb c8bd 3d15 9bbd
00000160: d0aa 883e 0f10 d5bc 8861 2fbd 13cc d3bc
00000170: 00a6 bdbe 2e52 21be 16f8 2b3d 0a53 a6bd
00000180: 0000 0000 0000 0080 0000 0080 0000 0000
00000190: 0000 0080 0000 0080 0000 0080 0000 0000
000001a0: 0000 0080 0000 0080 0000 0080 0000 0080
000001b0: 0000 0000 0000 0000 0000 0080 0000 0000
000001c0: 0000 0000 0000 0000 0000 0080 0000 0080
000001d0: 0000 0080 0000 0080 0000 0080 0000 0000
000001e0: 0000 0080 0000 0000 0000 0000 0000 0000
000001f0: 0000 0000 0000 0080 0000 0080 0000 0080
00000200: 0000 0000 0000 0000 0000 0000 0000 0000
00000210: 0000 0080 0000 0000 0000 0000 0000 0000
00000220: 0000 0080 0000 0000 0000 0000 0000 0000
00000230: 0000 0000 0000 0080 0000 0000 0000 0080
00000240: 505e fabe b5d6 d7bd d617 a33d cd2a ab3d
00000250: b42b d0bd 36b7 75bd 79df 60be 7e34 81be
00000260: 7c3f 45be 0822 173d c5cf 88bd 2133 9c3d
00000270: 26de 013d b0cf 4e3e d850 f63c f997 253e
00000280: fc68 5ebe 0607 1a3e dad6 95bd 5775 5f3c
00000290: 985d 223e 1058 edbd fc2c c13d cca7 c13d
000002a0: 15e5 773e 972a c43c 854f a93d 9a5f bf3d
000002b0: adeb c83d 82aa 273e dd04 c1bd 9afe a83e
000002c0: 0000 0000 0000 0080 0000 0080 0000 0000
000002d0: 0000 0000 0000 0000 0000 0080 0000 0080
000002e0: 0000 0000 0000 0000 0000 0000 0000 0000
000002f0: 0000 0000 0000 0080 0000 0080 0000 0000
00000300: 4064 1cbc cda1 9ebd 07b7 e63d 479a 7bbe
00000310: bf94 883e 76c5 7e3e 6a94 5e3e 4cd6 0a3e
00000320: 8852 a0bd 96c2 653c 11b6 4a3d 202b 2fbe
00000330: 3e24 4c3a 413b 3f3d 6fa3 6f3e ec00 853d
00000340: ce1e d03d 7434 00be 9e11 d23d a894 56be
00000350: 5575 22be 2223 8a3e bbf4 c73d b3cb 353e
00000360: 261d 53be 4056 b8bc 85dc 253c 0017 873e
00000370: 8acc 50be 0f9b 973d cab6 7b3e f667 253d
00000380: 0a31 90be 0207 7fbe 07e2 323e d0ff 573e
00000390: b673 0c3e 835c 2c3e 5d4f b2bd c932 783e
000003a0: 493b dd3d 255c 673d 41ef 9e3d c2fc f7bd
000003b0: e4f5 e63d b04d 75be ed50 87bd aaa5 393e
000003c0: 1f7d e4bb 2c50 3e3e 6d0b 0e3e 3803 ac3e
000003d0: 1fad e5bb 5367 433d 3c57 50be d451 b03d
000003e0: 14e8 a53b 9b0c 153e 5904 f53d 2809 623e
000003f0: 174a c33d c061 193e c451 6e3d dfa8 7f3d
0.2488284 0.22510554 -0.005307818 0.084721476 -0.292017 -0.02825359 0.13278942 -0.23526978
0.025815168 0.14663275 0.1910485 0.04302411 0.38187072 -0.07252017 0.10561357 0.21350807
-0.03084044 -0.1702139 0.001451566 -0.20933197 -0.14415564 -0.1589494 0.04956211 -0.25835863
-0.14690687 0.02370925 -0.11193065 -0.14315933 -0.14294288 -0.23424082 -0.24388298 -0.15808502
0.073843285 0.19997704 0.043998014 0.5441712 -0.19801857 0.079475954 0.16746156 -0.024483358
-0.07147302 -0.056051012 -0.008333179 -0.13642043 -0.40345943 0.07104218 0.07253261 -0.03890205
0.13941571 0.10677092 -0.07512386 0.12788838 0.24599671 0.042675793 -0.027186757 -0.38916305
0.0039658477 0.054739267 0.15165345 0.22008865 0.13202864 -0.15720107 -0.16069292 -0.18144892
0.121587895 -0.30378532 -0.18128535 -0.14340708 0.17623234 -0.29746553 -0.08551889 0.08414482
-0.08321476 -0.11646327 -0.06553653 -0.15360054 -0.018918933 -0.22289163 0.07618197 0.24628647
0.03635457 -0.022720704 0.060801208 -0.18656465 -0.25020167 0.028478798 -0.098106205 -0.0757241
0.2669282 -0.026008634 -0.042817622 -0.025854146 -0.3704071 -0.15754005 0.04198464 -0.08121307
0.0 -0.0 -0.0 0.0 -0.0 -0.0 -0.0 0.0
-0.0 -0.0 -0.0 -0.0 0.0 0.0 -0.0 0.0
0.0 0.0 -0.0 -0.0 -0.0 -0.0 -0.0 0.0
-0.0 0.0 0.0 0.0 0.0 -0.0 -0.0 -0.0
0.0 0.0 0.0 0.0 -0.0 0.0 0.0 0.0
-0.0 0.0 0.0 0.0 0.0 -0.0 0.0 -0.0
-0.4890008 -0.10538999 0.07963531 0.08357773 -0.10164586 -0.059989177 -0.21960248 -0.2523536
-0.19262499 0.03689769 -0.06680254 0.076269396 0.031705998 0.20196414 0.030067846 0.16171254
-0.21719736 0.15041742 -0.0731637 0.013638816 0.15856016 -0.11589062 0.09432408 0.09455833
0.24208482 0.02394609 0.0826712 0.093444064 0.098105766 0.16373637 -0.09424756 0.33006746
0.0 -0.0 -0.0 0.0 0.0 0.0 -0.0 -0.0
0.0 0.0 0.0 0.0 0.0 -0.0 -0.0 0.0
-0.009545386 -0.07745705 0.112653784 -0.24570571 0.26675984 0.24880013 0.21736303 0.1355831
-0.078282416 0.014023444 0.04949004 -0.17106295 0.0007787383 0.04668737 0.23402189 0.064943165
0.101621255 -0.1252001 0.102572665 -0.20955145 -0.15865071 0.2697993 0.097634755 0.17753486
-0.20616588 -0.022502065 0.010123377 0.26384735 -0.20390525 0.07402622 0.24581447 0.040382348
-0.28162414 -0.24905017 0.17469035 0.21093678 0.13716015 0.16832165 -0.087065436 0.24238123
0.10802323 0.05648436 0.07760478 -0.121087566 0.11277369 -0.23955417 -0.06607232 0.18129602
-0.0069729234 0.1858527 0.13871546 0.33596206 -0.007009163 0.04770596 -0.20345777 0.086093575
0.0050630663 0.1455559 0.1196372 0.22073805 0.09535616 0.14978695 0.058183447 0.062416907

base.m0.b2_1.0.shortcut_layer.1.weight f4 [16]
00000000: 71b4 073f 9535 443e 303f de3e 6997 a53e
00000010: d2cc 8f3e 927b 233e 5048 0180 4510 0080
00000020: c283 0000 80cf a23e e830 173e fa83 0100
00000030: 3826 853e 2c98 643e 9d64 b23e a20f 0c3e
0.53009707 0.19161065 0.43407583 0.3234208 0.28085953 0.15965107 -1.17776e-40 -5.836e-42
4.7266e-41 0.31798935 0.1476475 1.3918e-40 0.2600572 0.22323674 0.34842387 0.13677838

base.m0.b2_1.0.shortcut_layer.1.bias f4 [16]
00000000: 1556 dc3d a35a 07be ff92 33bd 309f 1c3e
00000010: ac27 aabc 09a8 c63d e7e0 e23c 71e1 d7bd
00000020: 2516 0ebc 83db 193e aa29 39be c065 babc
00000030: 62de 4b3d aa44 22be d15e 30bd 2f65 133e
0.10758606 -0.13218169 -0.04384136 0.152951 -0.02077087 0.09700019 0.027695132 -0.105410464
-0.008672272 0.15025143 -0.180823 -0.022753596 0.049772628 -0.15846506 -0.043059174 0.14394067

base.m0.b2_1.0.shortcut_layer.1.running_mean f4 [16]
00000000: c46d 1a3e 7b78 8abe 787c b13e 3bd0 813e
00000010: 2ede 5abe 3d91 8cbd 0400 0080 0400 0080
00000020: 0400 0000 5e8c 5ebd 87fe 7c3d 0400 0000
00000030: 0753 21be 4815 c0bd 33c6 07bd fbe5 be3e
0.15080935 -0.27045044 0.34665275 0.2535418 -0.21373817 -0.068636395 -6e-45 -6e-45
6e-45 -0.054333083 0.061766174 6e-45 -0.15754329 -0.09379059 -0.033148002 0.37284836

base.m0.b2_1.0.shortcut_layer.1.running_var f4 [16]
00000000: bea4 523e 89ad c93d d94b fc3d bcfb c83d
00000010: 9f79 a93d 8483 9f3d 0400 0000 0400 0000
00000020: 0400 0000 f3fb 9b3d dfc8 823d 0400 0000
00000030: 6003 373e 5986 dc3d cb2e 073e e0a6 693d
0.20570657 0.09847552 0.12319154 0.098136395 0.082751505 0.077887565 6e-45 6e-45
6e-45 0.07616415 0.06385969 6e-45 0.17872381 0.10767812 0.13201444 0.05704391

base.m0.b2_1.0.res_layer.0.weight f4 [16, 16, 3, 3]
00000000: a9b3 ad3d c407 a83d e052 063d 90ba 013d
00000010: c039 193e 6c2c c63c 44c2 36bd 2933 19be
00000020: 2dfe 89be 7ce3 93bd cda5 06be dc8f 20be
00000030: 5980 973d 844d 233e 12e0 143e 1020 2d3e
00000040: ffc9 843e 019e 763e 1780 92bc 3343 b2bd
00000050: 770c eabd 674b 4fbd 064e 123d 7e01 c53d
00000060: ba55 123d c382 8e3e 576a 763e c51e c63d
00000070: b239 1e3d 42af c4bb 3093 693c f360 0bbe
00000080: 0e28 b1bd 0a6f 03be bd76 adbe 7994 28be
00000090: 5e3a b63d bc0b ba3c 8509 13bd 439d 1abc
000000a0: 7c98 bebd da19 0bbe 7ebe a83c 8dd5 8bbb
000000b0: fdd7 32bd 15f1 953d d4b9 d2bd e4f3 b5bd
000000c0: 2a66 2bbe baf4 81be ca5d 43be b6fa 8fbc
000000d0: cec3 8d3e 2a4a 9e3e 29e4 b93c e7a0 213d
000000e0: ac25 693d fbbc 8dbc 70c2 ea3c 0f28 293e
000000f0: d016 80bd bbf6 793d 86ae ad3d c430 dd3c
00000100: 3a00 c13c a448 b7bd babc b03d f4ca 2c3e
00000110: aadb e83d a530 29be 0dd6 c3bd 8fb0 20be
00000120: faf3 27bb 3588 753c 2ec8 ee3c 7696 d53d
00000130: f831 073e e2b2 f13d 0c19 21be 3ce4 61be
00000140: c592 b2bd 482c 6bbd e7a5 8f3c b3c3 81ba
00000150: 2a96 a93b 3ea0 81bb ad97 d33c ed6f db3d
00000160: 197c ec37 9bd4 efbd d707 85bc d221 a0bc
00000170: 5bcc de3b f313 9fbd 382b babc d984 733c
00000180: 766c 90bd e4ae b03b c377 7b3c 8239 0f3c
00000190: 8c44 3fbd 6957 a3bd 303d d6bb 9702 b73c
000001a0: d992 3abc bdac 28bd fde4 773d ebd8 633d
000001b0: 576a cb39 c81c bf3d 2f6f f73d 4506 d13c
000001c0: bb86 1dbd a64a 0abe b4c1 1a3e dd60 4bbc
000001d0: 4b71 a7bd 82d9 85bc 6d7c 593d 05e2 f9ba
000001e0: 1e14 9b3d 2f25 023e f924 9b3d 712c 3dbd
000001f0: 055a d0bd 3f99 a53c 2220 6d3d 805b be3d
00000200: ad98 2d3d e94b 11be 59a0 0ebe 497d 40be
00000210: 9fc7 c43c b647 803d b6bf 06bd 0478 21bd
00000220: f446 b3bd 06aa e3bc 52b9 a33d 217c b53d
00000230: 37e0 863c f896 40bd 888b b8bd e265 03be
00000240: 86eb 0f3e 3ccf 1e3e c87a 1dbc 2ae0 a8bc
00000250: 4562 00bd 6c14 00be f9e9 c0bb 29b4 ffbd
00000260: 9f04 04be e87c b63d b3bf 573e 81d6 273e
00000270: d1c0 3d3e 4a05 783e be19 323e c5ca 883d
00000280: 800a 5abc 2934 8a3d cdf1 34ba 77f7 be3b
00000290: 280d 5438 b8c0 873d 3e2d 2e3e f57f 7d3e
000002a0: f050 0ebd 0c0c 3bbd 4987 54ba 1e19 9abc
000002b0: 46d0 6fbe 98c8 04be 02a3 b43c 58d4 32be
000002c0: 24fc a0bd 5b47 363c ac4d 27be 29d4 07be
000002d0: bb53 0abd d7bc c6bd 486d 59be 45cd 23b8
000002e0: f5ab 37bd a714 93bd 2aeb e8bb f19c d43d
000002f0: baa6 a03d 6e3a 5abe ea15 76be 021a 81be
00000300: ef8b a63d 028f 8e3e 7fe6 343e cf50 d6bd
00000310: 1519 973d 54f2 893d 4d68 1a3c 2f78 cd3d
00000320: fedf de3d 1eb6 40bd 0a37 823c ed8c 2ebc
00000330: 40e7 cbbd ae27 2cbd b99f 9abd 0b85 1f3e
00000340: 2125 5d3e 579c 463d d6cd c5bd a864 dfbd
00000350: c9e7 3dbe cc17 e9bd 82b5 cdbd ef06 e9bd
00000360: b67b b53d 1d04 c63d ce8f 213e 0373 4fbe
00000370: 774a 55be 28e8 0abd 796f be3a 628d b0bd
00000380: f2b6 c63c b59a f4bc 3913 89bd 70ca 4cbd
00000390: 76d3 903d 4eae 49bc d7be 0bbd 184d ae3c
000003a0: 82c1 e33b 9053 553d 4b58 4dbd 142e e3bd
000003b0: 12ec a8bc e83d 3fbd 6f59 973c 3721 573d
000003c0: 0c19 eabc 96bf 4d3b c88e 203d 6f4c 89bd
000003d0: feca 12be 40e3 dcbc 2311 65bd 3299 c13d
000003e0: 7a84 673d 978f 87bb 2031 023d 7be4 e93c
000003f0: 9714 213d fc09 86bd 3a4a bbbd f000 cf3c
0.08481533 0.08204606 0.03279388 0.03167206 0.14963436 0.024191104 -0.04461886 -0.14960922
-0.26951733 -0.072211236 -0.13149185 -0.15679878 0.07397527 0.15947539 0.14538601 0.16906762
0.2593536 0.24083711 -0.017883344 -0.087042235 -0.11428159 -0.05060902 0.03571894 0.09619425
0.035726286 0.27834138 0.24064003 0.096738376 0.03862924 -0.0060023377 0.014256284 -0.13611202
-0.08650218 -0.12835327 -0.33879653 -0.16462888 0.088978514 0.022710674 -0.03589775 -0.009436908
-0.09306428 -0.1358408 0.020598646 -0.0042674006 -0.043663014 0.073213734 -0.1028935 -0.08884409
-0.16738191 -0.25382024 -0.19078746 -0.017575603 0.2768845 0.30915958 0.022691803 0.03946009
0.056920692 -0.017302027 0.028657168 0.16519187 -0.06254351 0.061026316 0.08480553 0.027000792
0.023559678 -0.08949402 0.08629747 0.16874295 0.113700226 -0.16522463 -0.09562311 -0.15692352
-0.00256276 0.014986088 0.029148187 0.10429089 0.13202655 0.11801697 -0.15732211 -0.22059721
-0.087194 -0.057415277 0.017535163 -0.0009900242 0.0051753717 -0.00395587 0.02582916 0.107147075
2.819118e-05 -0.11710473 -0.01623909 -0.019547377 0.0067992634 -0.07767477 -0.022725686 0.014863216
-0.07051937 0.0053919423 0.015348378 0.008741738 -0.04669623 -0.079756565 -0.006538056 0.022340102
-0.01138755 -0.04118036 0.060521115 0.05562679 0.00038798407 0.093316615 0.120817535 0.025515685
-0.038458567 -0.13505039 0.15112954 -0.012413231 -0.08175906 -0.016339067 0.053097177 -0.0019064551
0.075721964 0.12709497 0.07575411 -0.04618496 -0.1017342 0.020214675 0.057891972 0.09294796
0.04238193 -0.14189114 -0.13928355 -0.18797792 0.024020968 0.06263678 -0.032897674 -0.039421096
-0.087537676 -0.027791034 0.079943314 0.08861566 0.016464336 -0.047018975 -0.090109885 -0.12831834
0.14054689 0.15508741 -0.009611793 -0.020614702 -0.031343717 -0.1250779 -0.0058872667 -0.12485535
-0.12892388 0.08910543 0.21069221 0.1639042 0.18530585 0.24220768 0.17392632 0.066793
-0.013308167 0.0674823 -0.0006902486 0.00582784 5.055699e-05 0.06628555 0.17009446 0.24755843
-0.034745157 -0.045665786 -0.0008107317 -0.018810805 -0.23419294 -0.12967145 0.022050384 -0.17463815
-0.07860592 0.011125411 -0.16338223 -0.13264526 -0.033771258 -0.09703987 -0.21233094 -3.90534e-05
-0.044841725 -0.071816735 -0.007108112 0.10381497 0.078443006 -0.21311352 -0.24031797 -0.25215155
0.08132159 0.2784348 0.17666052 -0.10464632 0.07377831 0.067356735 0.009424281 0.10032689
0.10882567 -0.04704868 0.015895385 -0.0106537165 -0.09956217 -0.04203003 -0.07549996 0.15578096
0.21596195 0.04848894 -0.09658401 -0.109078705 -0.1854545 -0.11381492 -0.100443855 -0.113782756
0.088614866 0.09668753 0.15777513 -0.20258717 -0.20829187 -0.033912808 0.0014529071 -0.08620717
0.024257157 -0.029858926 -0.066931196 -0.049997747 0.07071583 -0.012309624 -0.034117546 0.021276996
0.006950558 0.052081645 -0.05013303 -0.11092773 -0.02062038 -0.046689898 0.018475262 0.05252191
-0.028576396 0.0031394712 0.039198667 -0.06704032 -0.14335248 -0.02696383 -0.055924546 0.09453048
0.056522824 -0.0041369903 0.03178513 0.02855133 0.039326277 -0.06544873 -0.09145017 0.025269002

base.m0.b2_1.0.res_layer.1.weight f4 [16]
00000000: 7b81 a43e 765c 923e 1864 b03e 8bee bc3e
00000010: 35dd a73e 9db0 a23e 6ab2 ab3e 66ef 0900
00000020: 7920 0080 334a d73e 2463 9d3e e909 0080
00000030: 3167 803e 7f58 b73e f1c7 e03e 0614 0000
0.32130036 0.28586167 0.34451365 0.36900744 0.32785955 0.3177537 0.33534557 9.124e-40
-1.1649e-41 0.42048797 0.307397 -3.555e-42 0.2507873 0.35809705 0.43902543 7.183e-42

base.m0.b2_1.0.res_layer.1.bias f4 [16]
00000000: 58a7 29be 45fa 12be c7a7 c43e 871a cd3e
00000010: ab6c 9b3e 04bc 423b b657 acbd d42c e73d
00000020: de1f fdac d08b f2be 0291 b13d 0790 baad
00000030: 7814 403d a02a b6bd 0ef6 12bf e268 c427
-0.16567743 -0.14353283 0.38409254 0.400593 0.30356345 0.0029714117 -0.08415167 0.11287847
-7.1942305e-12 -0.47372293 0.08670236 -2.1209713e-11 0.04689452 -0.08894849 -0.574067 5.4514642e-15

base.m0.b2_1.0.res_layer.1.running_mean f4 [16]
00000000: ce28 5abe 118c 02be ed01 92bf c4a6 39be
00000010: 270a d6be 70b6 96be c1c4 cbbe 0400 0080
00000020: 0400 0000 06a2 06bf 3c00 4dbf 0400 0000
00000030: 6da1 84bf cc9c cfbe 81a5 0dbf 0400 0000
-0.21304628 -0.12748744 -1.1406838 -0.18130022 -0.4180462 -0.29436064 -0.3979855 -6e-45
6e-45 -0.5259098 -0.8007848 6e-45 -1.0361763 -0.40549314 -0.55330664 6e-45

base.m0.b2_1.0.res_layer.1.running_var f4 [16]
00000000: 7b6f fd3e fe84 0d3f ccb8 d93f 39c8 1240
00000010: d311 903f b4f9 563f fdd9 3d3f 0400 0000
00000020: 0400 0000 b2fc fe3e 0799 223f 0400 0000
00000030: cda5 113f 86d4 5e3f 718e 0f3f 0400 0000
0.49499115 0.55281055 1.700952 2.2934706 1.125544 0.83974767 0.7416075 6e-45
6e-45 0.49802166 0.6351475 6e-45 0.56893617 0.87043035 0.56076723 6e-45
